networks/ppo_actor_critic.onnx (onnx, 826172 bytes, 8 tensors)

shared_fc1.weight f4 [256, 23]
0	0x3d20a339	0.03921816
1	0xbd0b1bad	-0.03396194
2	0xbc4f84f8	-0.01266598
3	0xbdabc945	-0.083879985
4	0xbdd3a3c6	-0.10333972
5	0xbd639a82	-0.055567272
6	0x3d8b5bcc	0.06804618
7	0xbcb804c5	-0.022463212
8	0x3da0ab1b	0.07845136
9	0x3dc2b672	0.09507455
10	0xbdaf8dde	-0.08571981
11	0xbdcd6da9	-0.10030682
12	0x3dcddbd7	0.10051697
13	0x3e0236ed	0.12716265
14	0x3e006f5d	0.12542482
15	0xbd57f730	-0.05272597
16	0xbdf40327	-0.11914664
17	0xbdbe575f	-0.092940085
18	0x3bd237ad	0.0064153285
19	0x3e12f05f	0.14349507
20	0xbd9a3edc	-0.07531521
21	0xbdae1ebf	-0.08501958
22	0x3dd6f9fe	0.10496901
23	0xbdbdbb7c	-0.092642754
24	0x3dfdc32b	0.12390741
25	0xbc23aedf	-0.009990423
26	0xbdf76adc	-0.12080929
27	0x3c5e96be	0.013585744
28	0xbd6c438e	-0.057681613
29	0xbe1508ad	-0.14554091
30	0xbbb229e4	-0.0054371227
31	0xbe0c41df	-0.13697003
32	0xbe02a735	-0.12759097
33	0x3c98ceb4	0.018653251
34	0x3ddf1aa9	0.10893757
35	0xbdd0787c	-0.101792306
36	0x3dd4efd9	0.1039731
37	0xbd5143ee	-0.051090173
38	0xbde2dbfc	-0.11077115
39	0x3e0aa25d	0.13538499
40	0xbdbfa5f9	-0.09357829
41	0xbdfad644	-0.12247899
42	0x3dbc01f5	0.09180061
43	0xbd9cfd4d	-0.07665501
44	0xbde0bef1	-0.10973919
45	0xbd61520c	-0.055009887
46	0xbdc7d94d	-0.09758244
47	0x3c942716	0.018085044
48	0xbd91b645	-0.07114843
49	0x3b7be989	0.0038438758
50	0xbdfcfdfe	-0.12353133
51	0x3d465c81	0.048428062
52	0x3da6c6ec	0.0814341
53	0xbe01f99c	-0.12692875
54	0x3deb5140	0.114901066
55	0xbddf5519	-0.10904903
56	0x3df424c3	0.11921074
57	0x3d6efb53	0.05834515
58	0x3e07939e	0.13239905
59	0xbd49709f	-0.04917967
60	0x3d8186bf	0.06324529
61	0xbd6d202b	-0.057892006
62	0x3dbcd5e4	0.09220484
63	0x3d44607b	0.047943573
64	0x3b62a8be	0.0034585441
65	0xbe068575	-0.13136847
66	0xbc2ef6b8	-0.0106789395
67	0xbda0e5b1	-0.0785631
68	0xbdc06cfc	-0.09395787
69	0x3e049ae3	0.1294971
70	0xbc1e05c7	-0.009644932
71	0xbdadcc7a	-0.084862664
72	0x3c8f2894	0.017475404
73	0x3db11ac7	0.086476855
74	0xbd686a3c	-0.056741938
75	0x3d88a20a	0.066715315
76	0xbdc93176	-0.09823887
77	0x3c828715	0.015933553
78	0xbe04d4a7	-0.12971745
79	0x3e0f8e05	0.1401902
80	0x3c55802f	0.01303105
81	0x3c9f24ea	0.019426782
82	0xbde77655	-0.11301867
83	0x3bbd54ec	0.0057779457
84	0xbe0049fd	-0.12528224
85	0x3d82f181	0.063937195
86	0x3cc16c89	0.023611324
87	0xbdd55f79	-0.104186006
88	0xbdd2a555	-0.10285441
89	0x3d098070	0.033569753
90	0x3de8e050	0.11370909
91	0x3db00f50	0.08596671
92	0x3caa206f	0.020767419
93	0x3dfd067f	0.12354755
94	0x3dfb5e4b	0.12273844
95	0x3d67a7be	0.056556456
96	0x3e01c38f	0.12672256
97	0xbdb8cef1	-0.09023846
98	0x3d66cc49	0.056347165
99	0xbb0575d8	-0.002036443
100	0x3db7d802	0.08976747
101	0x3d10f8d9	0.03539357
102	0x3d03e01c	0.03219615
103	0xbe0feb7a	-0.14054671
104	0x3dfd0dcf	0.123561494
105	0x3d64d6f0	0.055869043
106	0x3d767a2f	0.060175117
107	0x3de73c72	0.11290826
108	0xbd8370d7	-0.06418007
109	0x3ccac6fd	0.024753088
110	0x3e0e2b00	0.1388359
111	0xbc7f2ac8	-0.015574165
112	0x3cfe16a5	0.031016657
113	0xbcbe9e70	-0.023268908
114	0x3d271ae3	0.040797126
115	0xbd36816c	-0.04455702
116	0xbd367f1d	-0.04455482
117	0xbda1c7a8	-0.078994095
118	0xbe0692d9	-0.13141955
119	0xbaf847ca	-0.0018942293
120	0xbaf6a461	-0.0018817299
121	0x3c8321b0	0.016007274
122	0x3e11e672	0.14248064
123	0xbc18c739	-0.009324842
124	0x3d32fe2e	0.043699436
125	0xbe0cd1b1	-0.13751866
126	0xbdf99a1b	-0.121875964
127	0x3ceac006	0.028656017
128	0xbdf81f03	-0.1211529
129	0x3df004aa	0.117196396
130	0x3dd78262	0.105229154
131	0xbe02a8ce	-0.12759706
132	0x3d5302ba	0.051516272
133	0x3e01aef8	0.12664402
134	0xbdadaac4	-0.084798366
135	0xbd19c350	-0.03753978
136	0xbda6afe8	-0.0813902
137	0xbcac61db	-0.021042755
138	0xbd9350c7	-0.071931414
139	0xbd955a5b	-0.072926246
140	0xbd3265b0	-0.043554008
141	0xbd2e801f	-0.042602655
142	0x3da6ed14	0.08150688
143	0xbe06f5ca	-0.13179699
144	0xbd232ccc	-0.039837644
145	0x3ddd90ac	0.108186096
146	0xbe07e064	-0.13269192
147	0x3c365404	0.011128429
148	0x3da8453b	0.0821633
149	0x3a400eac	0.0007326405
150	0x3d84560d	0.064617254
151	0xbc445519	-0.0119831795
152	0xbdbb663f	-0.09150361
153	0x3adce1f4	0.0016852007
154	0xbddaca1b	-0.1068308
155	0x3cf7670e	0.030200507
156	0x3c400e4e	0.0117221605
157	0xbd78d28a	-0.06074766
158	0xbd4dac20	-0.05021298
159	0x3dd3bfd9	0.103393264
160	0xbe035c94	-0.12828285
161	0xbd61d148	-0.055131227
162	0x3c028c5d	0.0079680355
163	0x3dfe6e97	0.12423437
164	0x3d63c7c9	0.05561045
165	0xbd777705	-0.06041624
166	0xbcf1ebef	-0.029531447
167	0xbe06553e	-0.13118455
168	0x3da99d96	0.0828201
169	0x3cbc26d4	0.022967733
170	0x3da85813	0.08219924
171	0x3d3fbe33	0.046812247
172	0x3db20e5e	0.086941466
173	0x3de3c623	0.11121776
174	0xbd1701dd	-0.03686701
175	0x3db349dc	0.08754322
176	0x3d643c5f	0.055721637
177	0xbc33e823	-0.010980639
178	0x3cbfb6af	0.02340254
179	0xbdce7f7d	-0.1008291
180	0x3d121a5d	0.035669673
181	0x3dc15dad	0.09441695
182	0x3c7bf9aa	0.015379349
183	0xbd93731f	-0.07199692
184	0xbdde5ef3	-0.10857954
185	0xbddf7e0d	-0.10912714
186	0xbdc51f5c	-0.09625122
187	0x3d55c67c	0.052191243
188	0x3d878424	0.06617001
189	0xba80ff2b	-0.0009841671
190	0x3d6c1d85	0.05764534
191	0xbe0a8c52	-0.1353009
192	0xbbb5ce46	-0.0055482714
193	0x3d565348	0.052325517
194	0xbdd4d673	-0.103924654
195	0x3de241da	0.110477164
196	0x3d091cf0	0.033474863
197	0x3ba80ac9	0.005128239
198	0x3e0d4979	0.13797559
199	0xbce86df5	-0.028372744
200	0xbd32256b	-0.043492716
201	0xbd5cffb9	-0.053954814
202	0xbda58466	-0.080818936
203	0x3e0819ac	0.13291043
204	0xbdbaa6e6	-0.091138646
205	0x3d372b2f	0.044718917
206	0xbd001993	-0.03127439
207	0xbdd9f569	-0.106425114
208	0x3ddadcd4	0.10686651
209	0x3cdbe90e	0.026844528
210	0x3e0a0013	0.13476591
211	0xbdfef5b2	-0.124492064
212	0x3cb850f4	0.022499539
213	0x3d4c29fc	0.049844727
214	0x3d60d7a2	0.054893143
215	0xbd842036	-0.06451456
216	0x3d97dceb	0.07415184
217	0x3cf280d1	0.02960244
218	0x3cb6aa06	0.02229787
219	0xbd80b826	-0.062851235
220	0xbc6c9208	-0.014439113
221	0xbd0a6523	-0.033787858
222	0xbb55b477	-0.0032608786
223	0x3c935daa	0.017988998
224	0x390bfe35	0.00013350772
225	0x3d7d1900	0.06179142
226	0xbdd0b9fe	-0.10191725
227	0x3d56087e	0.052254193
228	0xbc7083fd	-0.014679906
229	0xbe0e61f0	-0.13904548
230	0x3d8d5506	0.069009826
231	0x3d364479	0.044498894
232	0x3ced17c6	0.028942
233	0xbca3ef78	-0.020011649
234	0x3df0b9a5	0.11754159
235	0x3da8ca99	0.082417674
236	0xbc398327	-0.011322773
237	0xbdbc3001	-0.091888435
238	0xbcc4ac47	-0.02400793
239	0xbd8b0872	-0.0678872
240	0x3cc6fa89	0.024289386
241	0xbe077f0d	-0.1323206
242	0x3db123cc	0.08649406
243	0xbda8802f	-0.08227574
244	0xbcdce0e4	-0.026962705
245	0xbd14578d	-0.036216307
246	0x3df3aa81	0.118977554
247	0xbdd9eb57	-0.10640591
248	0xbe01492a	-0.12625566
249	0x3e0b94f1	0.13631035
250	0xbd72a3af	-0.059238132
251	0xbe04150c	-0.12898654
252	0x3d8b5a8f	0.06804382
253	0xbd9cdd6c	-0.0765942
254	0xbd33cfa1	-0.043899182
255	0xbd21dbb1	-0.039516155

shared_fc1.bias f4 [256]
0	0x00000000	0.0
1	0x00000000	0.0
2	0x00000000	0.0
3	0x00000000	0.0
4	0x00000000	0.0
5	0x00000000	0.0
6	0x00000000	0.0
7	0x00000000	0.0
8	0x00000000	0.0
9	0x00000000	0.0
10	0x00000000	0.0
11	0x00000000	0.0
12	0x00000000	0.0
13	0x00000000	0.0
14	0x00000000	0.0
15	0x00000000	0.0
16	0x00000000	0.0
17	0x00000000	0.0
18	0x00000000	0.0
19	0x00000000	0.0
20	0x00000000	0.0
21	0x00000000	0.0
22	0x00000000	0.0
23	0x00000000	0.0
24	0x00000000	0.0
25	0x00000000	0.0
26	0x00000000	0.0
27	0x00000000	0.0
28	0x00000000	0.0
29	0x00000000	0.0
30	0x00000000	0.0
31	0x00000000	0.0
32	0x00000000	0.0
33	0x00000000	0.0
34	0x00000000	0.0
35	0x00000000	0.0
36	0x00000000	0.0
37	0x00000000	0.0
38	0x00000000	0.0
39	0x00000000	0.0
40	0x00000000	0.0
41	0x00000000	0.0
42	0x00000000	0.0
43	0x00000000	0.0
44	0x00000000	0.0
45	0x00000000	0.0
46	0x00000000	0.0
47	0x00000000	0.0
48	0x00000000	0.0
49	0x00000000	0.0
50	0x00000000	0.0
51	0x00000000	0.0
52	0x00000000	0.0
53	0x00000000	0.0
54	0x00000000	0.0
55	0x00000000	0.0
56	0x00000000	0.0
57	0x00000000	0.0
58	0x00000000	0.0
59	0x00000000	0.0
60	0x00000000	0.0
61	0x00000000	0.0
62	0x00000000	0.0
63	0x00000000	0.0
64	0x00000000	0.0
65	0x00000000	0.0
66	0x00000000	0.0
67	0x00000000	0.0
68	0x00000000	0.0
69	0x00000000	0.0
70	0x00000000	0.0
71	0x00000000	0.0
72	0x00000000	0.0
73	0x00000000	0.0
74	0x00000000	0.0
75	0x00000000	0.0
76	0x00000000	0.0
77	0x00000000	0.0
78	0x00000000	0.0
79	0x00000000	0.0
80	0x00000000	0.0
81	0x00000000	0.0
82	0x00000000	0.0
83	0x00000000	0.0
84	0x00000000	0.0
85	0x00000000	0.0
86	0x00000000	0.0
87	0x00000000	0.0
88	0x00000000	0.0
89	0x00000000	0.0
90	0x00000000	0.0
91	0x00000000	0.0
92	0x00000000	0.0
93	0x00000000	0.0
94	0x00000000	0.0
95	0x00000000	0.0
96	0x00000000	0.0
97	0x00000000	0.0
98	0x00000000	0.0
99	0x00000000	0.0
100	0x00000000	0.0
101	0x00000000	0.0
102	0x00000000	0.0
103	0x00000000	0.0
104	0x00000000	0.0
105	0x00000000	0.0
106	0x00000000	0.0
107	0x00000000	0.0
108	0x00000000	0.0
109	0x00000000	0.0
110	0x00000000	0.0
111	0x00000000	0.0
112	0x00000000	0.0
113	0x00000000	0.0
114	0x00000000	0.0
115	0x00000000	0.0
116	0x00000000	0.0
117	0x00000000	0.0
118	0x00000000	0.0
119	0x00000000	0.0
120	0x00000000	0.0
121	0x00000000	0.0
122	0x00000000	0.0
123	0x00000000	0.0
124	0x00000000	0.0
125	0x00000000	0.0
126	0x00000000	0.0
127	0x00000000	0.0
128	0x00000000	0.0
129	0x00000000	0.0
130	0x00000000	0.0
131	0x00000000	0.0
132	0x00000000	0.0
133	0x00000000	0.0
134	0x00000000	0.0
135	0x00000000	0.0
136	0x00000000	0.0
137	0x00000000	0.0
138	0x00000000	0.0
139	0x00000000	0.0
140	0x00000000	0.0
141	0x00000000	0.0
142	0x00000000	0.0
143	0x00000000	0.0
144	0x00000000	0.0
145	0x00000000	0.0
146	0x00000000	0.0
147	0x00000000	0.0
148	0x00000000	0.0
149	0x00000000	0.0
150	0x00000000	0.0
151	0x00000000	0.0
152	0x00000000	0.0
153	0x00000000	0.0
154	0x00000000	0.0
155	0x00000000	0.0
156	0x00000000	0.0
157	0x00000000	0.0
158	0x00000000	0.0
159	0x00000000	0.0
160	0x00000000	0.0
161	0x00000000	0.0
162	0x00000000	0.0
163	0x00000000	0.0
164	0x00000000	0.0
165	0x00000000	0.0
166	0x00000000	0.0
167	0x00000000	0.0
168	0x00000000	0.0
169	0x00000000	0.0
170	0x00000000	0.0
171	0x00000000	0.0
172	0x00000000	0.0
173	0x00000000	0.0
174	0x00000000	0.0
175	0x00000000	0.0
176	0x00000000	0.0
177	0x00000000	0.0
178	0x00000000	0.0
179	0x00000000	0.0
180	0x00000000	0.0
181	0x00000000	0.0
182	0x00000000	0.0
183	0x00000000	0.0
184	0x00000000	0.0
185	0x00000000	0.0
186	0x00000000	0.0
187	0x00000000	0.0
188	0x00000000	0.0
189	0x00000000	0.0
190	0x00000000	0.0
191	0x00000000	0.0
192	0x00000000	0.0
193	0x00000000	0.0
194	0x00000000	0.0
195	0x00000000	0.0
196	0x00000000	0.0
197	0x00000000	0.0
198	0x00000000	0.0
199	0x00000000	0.0
200	0x00000000	0.0
201	0x00000000	0.0
202	0x00000000	0.0
203	0x00000000	0.0
204	0x00000000	0.0
205	0x00000000	0.0
206	0x00000000	0.0
207	0x00000000	0.0
208	0x00000000	0.0
209	0x00000000	0.0
210	0x00000000	0.0
211	0x00000000	0.0
212	0x00000000	0.0
213	0x00000000	0.0
214	0x00000000	0.0
215	0x00000000	0.0
216	0x00000000	0.0
217	0x00000000	0.0
218	0x00000000	0.0
219	0x00000000	0.0
220	0x00000000	0.0
221	0x00000000	0.0
222	0x00000000	0.0
223	0x00000000	0.0
224	0x00000000	0.0
225	0x00000000	0.0
226	0x00000000	0.0
227	0x00000000	0.0
228	0x00000000	0.0
229	0x00000000	0.0
230	0x00000000	0.0
231	0x00000000	0.0
232	0x00000000	0.0
233	0x00000000	0.0
234	0x00000000	0.0
235	0x00000000	0.0
236	0x00000000	0.0
237	0x00000000	0.0
238	0x00000000	0.0
239	0x00000000	0.0
240	0x00000000	0.0
241	0x00000000	0.0
242	0x00000000	0.0
243	0x00000000	0.0
244	0x00000000	0.0
245	0x00000000	0.0
246	0x00000000	0.0
247	0x00000000	0.0
248	0x00000000	0.0
249	0x00000000	0.0
250	0x00000000	0.0
251	0x00000000	0.0
252	0x00000000	0.0
253	0x00000000	0.0
254	0x00000000	0.0
255	0x00000000	0.0

shared_fc2.weight f4 [256, 256]
0	0x3cdb80b5	0.02679477
1	0xbd3e44d4	-0.04645236
2	0x3cdccf4a	0.026954312
3	0x3d2dd9f7	0.042444196
4	0xbb412cdd	-0.0029476203
5	0xbca2a6c5	-0.019854913
6	0x3d13cd34	0.03608437
7	0x3d1c8a75	0.03821798
8	0x3dac4874	0.08412257
9	0x3dc4244b	0.09577235
10	0xbd95d652	-0.07316269
11	0xbbcb6de5	-0.006208169
12	0x3d89f839	0.06736798
13	0xbd8ffa05	-0.07030109
14	0xbdd9fdfc	-0.10644147
15	0xbd09a5ca	-0.033605374
16	0xbd7b7bb8	-0.061397284
17	0x3dacdd58	0.084406555
18	0xbdae8e62	-0.08523251
19	0xb9d0e511	-0.0003984352
20	0x3db1b63c	0.086773366
21	0x3d5af728	0.053458363
22	0x3bdaba63	0.006675051
23	0x3d819e02	0.06328966
24	0xbd24b77b	-0.040214043
25	0x3c2b446e	0.010453327
26	0xbda86024	-0.08221462
27	0xbd6e6fb7	-0.05821201
28	0xbd83a682	-0.06428243
29	0x3d9cf8fe	0.07664679
30	0xbdd2fa72	-0.10301675
31	0x3d52a9ee	0.05143159
32	0x3b4e0ffd	0.0031442635
33	0x3d4aef09	0.049544368
34	0xbdd6299d	-0.10457156
35	0x3acd8613	0.0015680216
36	0xbd9dcfc8	-0.07705647
37	0xbddadb8c	-0.106864065
38	0x3cd1a4d0	0.025591284
39	0x3bfe78d0	0.007765867
40	0xbd85a80c	-0.06526193
41	0x3d65a25f	0.056063052
42	0xbd27dba0	-0.040980935
43	0xbd829e7c	-0.06377885
44	0x3d319866	0.04335823
45	0xbdb89e36	-0.09014551
46	0x3c9051ff	0.017617224
47	0x3caaa969	0.020832734
48	0x3d94b485	0.07260994
49	0x3dd1966a	0.10233767
50	0xbd959a75	-0.07304851
51	0xbb0b59f8	-0.0021263342
52	0xbd8caad8	-0.06868523
53	0x3d9acf3d	0.07559059
54	0xbc926c50	-0.017873913
55	0xbbdd2738	-0.00674906
56	0x3c965c95	0.018354693
57	0x3dd827df	0.1055448
58	0x3d307f25	0.043090004
59	0xbdd63553	-0.104593895
60	0xbd20458d	-0.03912883
61	0x3dac6320	0.08417344
62	0x3db6e56a	0.08930476
63	0xbd925d71	-0.07146729
64	0x3dbcd664	0.09220579
65	0xbddad01b	-0.10684224
66	0x3dd30da7	0.10305338
67	0xbd3f14b0	-0.04665059
68	0xbdbdb54c	-0.09263095
69	0x3d4b2009	0.049591098
70	0x3db1dd3d	0.08684776
71	0xbd16d7fe	-0.03682708
72	0xbc3692d9	-0.01114341
73	0x3db625dd	0.088939406
74	0x3d9a5126	0.07535009
75	0xbd94eeb1	-0.07272089
76	0xbd8a92ff	-0.067663185
77	0x3ca895c1	0.02057922
78	0x3dda725f	0.10666346
79	0x3c397c48	0.011321135
80	0x3da79739	0.0818314
81	0x3db37878	0.08763212
82	0x3da1a0d2	0.07892002
83	0xbd858cde	-0.06521009
84	0xbbb477a4	-0.0055074263
85	0x3d981ff9	0.07427973
86	0xbcc81d3f	-0.024428008
87	0xbc08ef5b	-0.008357848
88	0x3da459e0	0.08024955
89	0x3bbf0c07	0.005830291
90	0xbd81a1f0	-0.06329715
91	0x3c479625	0.012181793
92	0x3c7961ee	0.015221102
93	0xbdc27671	-0.09495247
94	0x3d86e414	0.06586471
95	0x3d70eb42	0.05881811
96	0xbdc9c7fe	-0.098525986
97	0xbdc98ff2	-0.098419085
98	0xbdaff608	-0.085918486
99	0x3cc550a3	0.024086302
100	0x3db6a25d	0.08917687
101	0x3b0f5208	0.0021868963
102	0xbd8dac02	-0.069175735
103	0xbdd229f5	-0.10261909
104	0xbd5869c8	-0.052835256
105	0x3c142c4a	0.009043762
106	0xbcd3f603	-0.025874143
107	0xbd45b1f1	-0.0482654
108	0xbdd1e350	-0.102484345
109	0x3c6889fd	0.014193055
110	0x3d67c950	0.05658847
111	0xbd9692fb	-0.07352253
112	0x3d4d5c5e	0.050136916
113	0xbd9983bf	-0.07495832
114	0x3d469554	0.048482254
115	0xbcfc9b6a	-0.030835826
116	0xbc215443	-0.00984675
117	0x3c683f30	0.014175221
118	0xbc23dc0d	-0.010001195
119	0x3d9d9bef	0.076957576
120	0xbd0d7241	-0.03453279
121	0xbb8cf8cb	-0.0043021194
122	0xbdd80f29	-0.105497666
123	0x3d890b03	0.066915534
124	0xbdd42d22	-0.10360171
125	0x3dc442fa	0.09583087
126	0xbd4fb92a	-0.050713696
127	0xbdbe8d59	-0.09304304
128	0x3cff9fbf	0.031204103
129	0xbd2a5615	-0.041586
130	0x3cd7e00f	0.026351957
131	0xbc8624db	-0.016374996
132	0xbc10bf1e	-0.008834628
133	0xbdbce6f0	-0.09223735
134	0x3d9f5f52	0.07781853
135	0xbdaed17e	-0.08536051
136	0xbda2796c	-0.07933316
137	0xbd287a79	-0.041132424
138	0x3d9ffebd	0.07812259
139	0x3d3e6cc9	0.046490464
140	0x3da215d5	0.079143204
141	0xbd5966f9	-0.053076718
142	0x3d312a28	0.043253094
143	0x3d00ea6e	0.03147357
144	0xbced5001	-0.028968813
145	0x3c1f78d1	0.009733395
146	0xbd8b8e57	-0.068142585
147	0xbd61917a	-0.055070378
148	0xbcd3dddf	-0.025862632
149	0x3cba3649	0.022730963
150	0xbdd135c4	-0.10215333
151	0xbd2c28bc	-0.042031035
152	0xbd8bdb1a	-0.068289
153	0xba16f130	-0.00057579856
154	0xbd8c87cc	-0.06861839
155	0xbd821b3a	-0.06352849
156	0x3cb08047	0.021545542
157	0x3c6b5cbe	0.014365373
158	0x3dc22036	0.094788
159	0xbd8e66d5	-0.069532074
160	0x3cebd278	0.028786883
161	0xbdb7d2d3	-0.089757584
162	0x3da762a5	0.08173112
163	0xbd3ad0b2	-0.045609184
164	0xbd8e627f	-0.069523804
165	0xbc7f1f6a	-0.015571455
166	0x3db67b6f	0.08910262
167	0xbd583474	-0.0527844
168	0xbdd8ea34	-0.10591546
169	0x3d01d448	0.031696588
170	0x3d50193a	0.050805308
171	0xbdb0ba9d	-0.08629344
172	0xbc87ee71	-0.01659319
173	0xbd414d34	-0.047192767
174	0x3d4a0003	0.049316417
175	0xbdae3973	-0.08507051
176	0x3da47e45	0.080318965
177	0x3d728636	0.059210025
178	0x3cc1ff7f	0.0236814
179	0xbdda99f4	-0.106738955
180	0xbcc26642	-0.023730401
181	0x3c52a6ce	0.012857152
182	0x3d0e17e5	0.034690756
183	0xbdc53d19	-0.09630794
184	0xbcb69f3e	-0.02229273
185	0x3afc0a5b	0.001922916
186	0xbcfe5454	-0.03104607
187	0x3d95b1fa	0.07309337
188	0x3d02e96c	0.03196089
189	0x3c8e7ec0	0.017394423
190	0xbcfd2bf6	-0.030904751
191	0xbdb745d0	-0.089488626
192	0x3c8e4931	0.017368885
193	0x3da8c5c5	0.082408465
194	0xbd6a1eae	-0.057158165
195	0x3c40e7f6	0.011774054
196	0x3d60af48	0.05485466
197	0x3cd69ef3	0.02619884
198	0xbc604882	-0.013689162
199	0xbdaddf96	-0.08489911
200	0x3db07e91	0.086178906
201	0xbca7f35f	-0.02050179
202	0xbdb01416	-0.08597581
203	0x3d48b727	0.049002793
204	0xb9818f0a	-0.0002471137
205	0xbd025e4e	-0.031828217
206	0xbd45ca0e	-0.048288397
207	0x3db3a731	0.087721236
208	0xbd5c1b02	-0.053736694
209	0x3c88b153	0.016686117
210	0xbc606d43	-0.013697925
211	0x3dcbb342	0.099463
212	0x3d841a23	0.06450298
213	0xbd807ab2	-0.06273402
214	0x3cf3f55e	0.029780086
215	0xbd92012b	-0.07129129
216	0x3d88afc8	0.066741526
217	0xbd5584b9	-0.052128527
218	0xbdca39e7	-0.09874325
219	0xbcb01916	-0.021496337
220	0xbd999a5f	-0.07500147
221	0xbcde2a00	-0.027119637
222	0x3d4b38d6	0.04961475
223	0xbcbb25ef	-0.022845237
224	0xbdcafe0e	-0.09911738
225	0x3daafdae	0.08349167
226	0xbda18aae	-0.07887779
227	0x3dd1d253	0.10245194
228	0xbc7c5a84	-0.01540244
229	0xbc25ca03	-0.010118964
230	0xbd77d3bf	-0.06050467
231	0x3dbb7b3c	0.091543645
232	0xbd1b0c5a	-0.037853576
233	0x3be333c8	0.006933663
234	0xbb5331c0	-0.0032225698
235	0xbcbde9c6	-0.02318276
236	0x3dba8d1e	0.09108947
237	0xbcdc488b	-0.02689006
238	0x3d66acbb	0.056317072
239	0x3cfb913f	0.030708907
240	0x3dbcd6bc	0.09220645
241	0x3dda3574	0.106547266
242	0xbdc9db11	-0.09856237
243	0x3d9e2bc5	0.07723192
244	0xbd3cc5fa	-0.046087243
245	0x3dac0e1b	0.08401128
246	0xbd58c00f	-0.052917536
247	0xbd28176f	-0.041037973
248	0xbcda0447	-0.026613368
249	0x3c258e6b	0.010104756
250	0x3d09519f	0.033525106
251	0xbda63b69	-0.081168
252	0xbdd97609	-0.106182165
253	0xbd73c914	-0.059517935
254	0xbdacc70e	-0.08436404
255	0xbac1123c	-0.0014730166

actor_fc.weight f4 [256, 256]
0	0xbd82a41a	-0.06378956
1	0x3d4d2471	0.05008358
2	0xbdcf233e	-0.10114144
3	0x3d66c696	0.05634173
4	0x3d4eae37	0.050459113
5	0x3b268c29	0.0025413132
6	0xbc5dd9d6	-0.013540706
7	0x3cb79d5e	0.022413906
8	0xbdce17a9	-0.100631066
9	0x3d272ad9	0.040812347
10	0xbd4b302a	-0.04960648
11	0xbd544795	-0.05182608
12	0x3d6974af	0.056996044
13	0xbd69ca2d	-0.057077575
14	0xbc0e3762	-0.0086801965
15	0xbdb6284b	-0.08894404
16	0x3d8b32de	0.067968115
17	0xbd9bf92f	-0.076158874
18	0xbddc50c7	-0.107575946
19	0x3d9811b2	0.0742525
20	0x3da6c405	0.081428565
21	0xbbff67d6	-0.0077943606
22	0x3cbe04b3	0.0231956
23	0xbce796aa	-0.028270084
24	0xbd6b9c1c	-0.057521924
25	0x3d99aff4	0.075042635
26	0xbdac12fc	-0.084020585
27	0x3b0c6445	0.002142207
28	0xbd2cd201	-0.042192463
29	0xbd32edbc	-0.043683752
30	0xbccb4fdb	-0.024818351
31	0x3cc27c9d	0.02374106
32	0x3c1b5643	0.009481016
33	0x3ba49d1f	0.005023613
34	0xbd9927c9	-0.074782915
35	0xbd6cfe93	-0.05785997
36	0x3cf525d4	0.029925264
37	0xbd97a805	-0.07405094
38	0xbd862184	-0.06549361
39	0x3d61d009	0.05513004
40	0xbd635a7f	-0.055506226
41	0xbdbefebd	-0.09325931
42	0xbd1a88f6	-0.037728272
43	0x3acccd2d	0.0015625112
44	0x3cc73ee5	0.024321983
45	0x3da4e81b	0.08052083
46	0xbdb77ebd	-0.0895972
47	0xbcda37d5	-0.02663795
48	0x3d7c1226	0.061540745
49	0xbddc2998	-0.10750121
50	0x3c2e08bb	0.010622199
51	0xbdd8125c	-0.10550377
52	0xbd211a83	-0.039331924
53	0x3c605e8a	0.013694415
54	0x3d06430c	0.032778785
55	0xbda7267c	-0.08161637
56	0xbd94f93a	-0.07274099
57	0xbdd2adc8	-0.102870524
58	0xbdd29e06	-0.10284047
59	0x3b93fb33	0.0045160293
60	0x3dad2f05	0.08456234
61	0xbce93b1e	-0.028470572
62	0xbd884336	-0.066534445
63	0x3dc78dc0	0.097438335
64	0xbdc18339	-0.09448857
65	0x3adaf276	0.0016704339
66	0x3d8cef8a	0.06881626
67	0xbc257b79	-0.010100239
68	0xbdb2d615	-0.08732239
69	0x3da53257	0.08066242
70	0x3dd0564a	0.10172708
71	0x3d993fd3	0.07482877
72	0x3d4a4b0f	0.049387988
73	0x3dbb9dd8	0.09160966
74	0xbdb3ec72	-0.08785333
75	0xbd38eafe	-0.04514598
76	0xbd0b05d0	-0.03394109
77	0xbd73b6e1	-0.05950058
78	0x3b843097	0.0040341127
79	0xbd7800ba	-0.060547568
80	0xbcc6b9fc	-0.024258606
81	0x3bb6f5e7	0.005583513
82	0x3d44755e	0.047963493
83	0x3cabb564	0.020960517
84	0x3d9969b4	0.074908644
85	0xbdb8a6b9	-0.09016175
86	0x3ce3cd87	0.027807964
87	0xbd9a7a95	-0.07542912
88	0x3d85bfd1	0.06530727
89	0x3dade301	0.08490563
90	0xbcd6b7f5	-0.026210764
91	0x3dcc11da	0.099643424
92	0x3d1eb9d1	0.038751427
93	0xbd4ba062	-0.0497135
94	0xbdbe4b0b	-0.09291657
95	0x3c3f91d4	0.011692483
96	0x3d89fcd8	0.06737679
97	0x3d63466d	0.055487085
98	0xbc9ba504	-0.018999584
99	0x3d7bf279	0.061510537
100	0x3d20599e	0.039147966
101	0x3d1a53b3	0.037677478
102	0x3d3aa78c	0.04556994
103	0x3d2f1374	0.04274316
104	0x3d184381	0.03717375
105	0x3d497c26	0.049190663
106	0x3dbf4549	0.09339387
107	0x3d8754ea	0.06607993
108	0xbd3e6b91	-0.046489302
109	0xbd0798de	-0.03310477
110	0x3dabfb3b	0.08397528
111	0xbdd1eadc	-0.10249874
112	0x3dbb5d28	0.091486275
113	0xbd74b531	-0.05974311
114	0x3d9657e3	0.07340982
115	0xbd02e59c	-0.031957254
116	0x3d516a2a	0.051126637
117	0xbdb388c6	-0.08766322
118	0xbdcc4b20	-0.099752665
119	0xbdbf9a18	-0.09355563
120	0x3d82f117	0.063936405
121	0xbd824c19	-0.06362171
122	0xbc40e996	-0.011774441
123	0x3d2aa3b3	0.041660022
124	0x3d860d31	0.06545485
125	0x3db24507	0.08704572
126	0xbdb19ba9	-0.08672268
127	0x3dd81a1d	0.10551856
128	0xbd83032e	-0.06397091
129	0xbd5a203f	-0.05325341
130	0xbcaaed0b	-0.020864984
131	0xbc31ab0f	-0.010844006
132	0xbd044703	-0.032294285
133	0x3dae2757	0.08503597
134	0xb9ccb4ee	-0.00039044715
135	0x3c5ac482	0.013352515
136	0x3cc2cb11	0.02377847
137	0x3ba155ba	0.0049235495
138	0x3d1af95e	0.03783547
139	0xbbad088d	-0.0052805603
140	0xbd04e4d5	-0.032444794
141	0x3da8321f	0.08212685
142	0x3ddd27e2	0.10798623
143	0xbd47c58f	-0.04877239
144	0xbd72b49d	-0.059254277
145	0xbc2de4a1	-0.010613591
146	0x3d23c77f	0.039985176
147	0x3d9f2582	0.07770826
148	0xbd75bc20	-0.059993863
149	0xbd348da1	-0.04408038
150	0xbd80044f	-0.06250822
151	0xbdc40b9b	-0.09572526
152	0xbd8a469d	-0.0675175
153	0x3cf20260	0.029542148
154	0xbd4f4533	-0.050603103
155	0xbd9c3dd9	-0.07628984
156	0x3ce39204	0.027779587
157	0xbd482ac3	-0.048868906
158	0x3d748822	0.05970014
159	0xbdb73924	-0.089464456
160	0xbd9a815b	-0.07544204
161	0xbdaf7ad6	-0.08568351
162	0x3d2b9dff	0.041898724
163	0x3dc861b0	0.097842574
164	0x3d5f564e	0.054525666
165	0xbd65252a	-0.055943646
166	0xbd3c898b	-0.04602961
167	0x3cd1557d	0.02555346
168	0x3db6f002	0.089324966
169	0xbd47752b	-0.048695724
170	0x3b07fff4	0.0020751925
171	0xbbcba69f	-0.006214931
172	0x3db5cc55	0.08876864
173	0xbd6436f0	-0.055716455
174	0x3dcc62d0	0.099797845
175	0xbdb8493c	-0.08998343
176	0x3b11da09	0.0022255203
177	0xbccdb144	-0.02510894
178	0xbd168a9a	-0.036753275
179	0xbc00f36d	-0.007870537
180	0xbda74118	-0.081667125
181	0xbdb1b726	-0.08677511
182	0xbd18114a	-0.037125863
183	0xbd032156	-0.032014214
184	0xbd237b20	-0.039912343
185	0x3dce826f	0.10083472
186	0x3ca22bbe	0.019796249
187	0x3db5759f	0.08860325
188	0x3c9c569b	0.019084265
189	0xbd7670bf	-0.060166117
190	0xbcf9db72	-0.030500147
191	0xba565e4c	-0.00081775035
192	0x3d9dd9a8	0.0770753
193	0xbc2210bb	-0.009891684
194	0xbd81febe	-0.06347416
195	0xbd4c0a83	-0.049814712
196	0x3d9a2b0d	0.075277425
197	0x3d9825ee	0.074291095
198	0x3dbd653e	0.09247826
199	0x3db9ac0f	0.09066021
200	0x3c8a33b5	0.016870359
201	0x3c694aa0	0.014238983
202	0x3ba27c2c	0.00495865
203	0xbcaa1d09	-0.020765798
204	0x3dc789dd	0.09743092
205	0xbd17bf2e	-0.037047558
206	0x3d86dad3	0.06584706
207	0x3dca52ea	0.09879096
208	0xbd1246b5	-0.035711963
209	0x3d4d2a5b	0.05008922
210	0x3cc33bd7	0.023832245
211	0x3cbcc136	0.023041349
212	0xbdc8953e	-0.09794091
213	0x3bde3feb	0.006782522
214	0xbdbac02c	-0.09118685
215	0x3d76fe88	0.060301334
216	0x3d0402d7	0.03222927
217	0xbd0c8114	-0.034302786
218	0x3ca6d426	0.020364832
219	0xbd24a004	-0.040191665
220	0x3c12121c	0.00891545
221	0xbd8d8b65	-0.06911353
222	0xbd126446	-0.03574016
223	0xbdb2e5a6	-0.08735208
224	0xbc5560a9	-0.013023534
225	0x3d4426f7	0.047888722
226	0xbd96bc0b	-0.07360085
227	0x3d9349cb	0.07191809
228	0xbd1983e8	-0.03747931
229	0x3b30458d	0.0026896924
230	0x3ddb1538	0.106974065
231	0xbda9ded2	-0.08294453
232	0xbcd5d77f	-0.026103733
233	0x3d5929e8	0.05301848
234	0xbca47587	-0.020075573
235	0x3db5054f	0.08838903
236	0x3c811bf8	0.015760407
237	0x3da41780	0.08012295
238	0xbddb8309	-0.10718352
239	0xbda79d38	-0.08184284
240	0x3d92201a	0.07135029
241	0xbc1d0553	-0.009583789
242	0xbc8ee837	-0.017444713
243	0xba40386e	-0.00073326274
244	0x3ca439be	0.020047065
245	0x3d7d88c3	0.061898004
246	0x3c5799cd	0.013159228
247	0x3cf6976f	0.030101506
248	0x3d3faebb	0.046797495
249	0xbd8f6b22	-0.07002856
250	0xbcb94721	-0.022616925
251	0x3da4ecb8	0.08052963
252	0xbd993b62	-0.074820295
253	0x3d217a35	0.039423186
254	0x3ceff8b4	0.029293396
255	0x3d9869c7	0.074420504

actor_out.weight f4 [12, 256]
0	0x3dd302f0	0.10303295
1	0x3d18ef65	0.03733768
2	0xbd8c0f80	-0.06838894
3	0xbc370782	-0.011171224
4	0xbd2a5a56	-0.041590057
5	0xbe100fda	-0.14068547
6	0xbd7f2c15	-0.0622979
7	0x3d93225d	0.07184289
8	0xbe047bdd	-0.12937875
9	0x3d41bd7d	0.04729985
10	0xbd84b955	-0.06480662
11	0x3dafefcd	0.0859066
12	0x3e0fe021	0.14050342
13	0xbde0c75c	-0.10975525
14	0x3d1fa619	0.038976762
15	0x3ceb8af4	0.028752781
16	0xbd742323	-0.05960382
17	0x3db179b6	0.08665793
18	0x3d5f3585	0.0544944
19	0xbc0e260a	-0.008676061
20	0xbe04f0c5	-0.12982471
21	0x3d9440e8	0.072389424
22	0xbddcaa45	-0.10774664
23	0x3d48a190	0.048982203
24	0x3caa1b0b	0.020764848
25	0xbe0b42a3	-0.13599639
26	0xbd9b7cbb	-0.0759215
27	0x3db7babe	0.08971165
28	0x3df64e2f	0.12026631
29	0x3dfda918	0.12385768
30	0x3c972653	0.018450892
31	0xbdabd1f4	-0.08389655
32	0xbd15caa6	-0.036570214
33	0x3da6f14e	0.08151494
34	0xbd4ba1dc	-0.049714908
35	0x3dc8ca24	0.0980418
36	0x3dcb19ab	0.09917005
37	0xbde13d44	-0.109980136
38	0x3d5e2a0b	0.054239314
39	0xbd82d933	-0.06389084
40	0x3c9bc96c	0.019016944
41	0xbd14fb01	-0.03637219
42	0x3e147991	0.14499499
43	0xbd902738	-0.070387304
44	0x3d17217f	0.03689718
45	0xbe09ce85	-0.13457687
46	0x3deef00f	0.11666881
47	0x3d1e005b	0.038574558
48	0xbe0011fc	-0.1250686
49	0xbd39328c	-0.04521422
50	0x3e1361b3	0.14392738
51	0xbe0bc264	-0.13648373
52	0x3dfe9de9	0.12432463
53	0xbc1bcb71	-0.009508953
54	0x3cec8760	0.028873146
55	0xbd202b05	-0.039103527
56	0x3d03320f	0.03203016
57	0x3e11ee4e	0.14251062
58	0xbe0aa96d	-0.13541193
59	0x3deaa739	0.114576764
60	0x3d38758d	0.04503398
61	0xbdee1ec0	-0.11626959
62	0x3da1c2ba	0.07898469
63	0x3ce9f24a	0.028557915
64	0x3d83921a	0.06424351
65	0x3e0e9b04	0.13926321
66	0x3e07ec5c	0.13273758
67	0x3e12cbfd	0.14335628
68	0xbd7d76ee	-0.061881
69	0x3a8ce888	0.0010750452
70	0xbda1ce2c	-0.07900652
71	0xbe152148	-0.14563477
72	0x3d61587b	0.055016022
73	0x3e04cc56	0.12968573
74	0x3d1e7da6	0.038694046
75	0xbddff536	-0.10935442
76	0xbd4ee6d5	-0.050513107
77	0xbd388d91	-0.045056883
78	0xbcaf895f	-0.021427808
79	0x3e15a86f	0.14615034
80	0x3dffde69	0.12493593
81	0xbc84a259	-0.016190695
82	0xbd15fd6d	-0.03661864
83	0xbd8341e7	-0.06409054
84	0xbd896c76	-0.067101404
85	0x3d980c54	0.074242264
86	0x3da0d357	0.0785281
87	0xbdb86e52	-0.09005417
88	0xbd303fe1	-0.04302967
89	0xbd66b9a9	-0.056329403
90	0xbcb145e0	-0.021639764
91	0x3dd7bb0a	0.10533722
92	0x3c1117a2	0.008855732
93	0xbb0ccb81	-0.0021483602
94	0x3e0beadb	0.13663809
95	0xbd3bcf01	-0.04585171
96	0x3db0c9e7	0.0863226
97	0xbce103e2	-0.027467672
98	0x3d124543	0.035710584
99	0xbdaed73e	-0.08537148
100	0x3df5f1d4	0.12009016
101	0x3de24995	0.11049191
102	0x3c4cd685	0.012502317
103	0xbd63e624	-0.0556394
104	0xbd9608fa	-0.07325931
105	0x3dfb61de	0.12274526
106	0x3e190d8e	0.14946577
107	0x3d2773b9	0.040881846
108	0xbdea340f	-0.11435711
109	0x3e16b994	0.1471923
110	0x3db32da1	0.087489374
111	0x3c8feed0	0.01756993
112	0xbd60de97	-0.05489978
113	0xbb35895d	-0.0027700283
114	0xbdae492c	-0.0851005
115	0x3dbe4436	0.09290354
116	0x3da65660	0.081219435
117	0xbd8bc071	-0.06823815
118	0xbe1679d9	-0.14694919
119	0xbe090093	-0.13379125
120	0xbe123a35	-0.14280017
121	0xbce611b4	-0.028084613
122	0xbda98b46	-0.082785174
123	0xbc56f3a7	-0.013119615
124	0xbdc554d4	-0.0963532
125	0xbe0a6cf6	-0.13518128
126	0x3ca09836	0.01960383
127	0xbd78f7b9	-0.06078312
128	0x3cb6f27c	0.022332422
129	0x3e02a008	0.1275636
130	0x3dc69e69	0.09698183
131	0x3d83492d	0.064104415
132	0xbd6fd805	-0.05855562
133	0x3d957c4d	0.07299099
134	0xbd936a9d	-0.07198069
135	0x3e0dcd4c	0.13847846
136	0x3d0f8843	0.03504206
137	0x3c879e00	0.016554832
138	0xbe16e216	-0.14734682
139	0xbc7f65a7	-0.015588201
140	0xbd62888a	-0.055305995
141	0xbd38a88e	-0.04508262
142	0xbe03082a	-0.12796083
143	0x3d68935b	0.056781154
144	0x3d85d2d6	0.065343544
145	0xbdfe7555	-0.12424723
146	0x3d87ca90	0.066304326
147	0xbc850059	-0.016235517
148	0xbddc4548	-0.10755402
149	0x3df4d872	0.11955346
150	0x3ddc2bd1	0.10750545
151	0x3d43d010	0.047805846
152	0xbdbc238d	-0.09186468
153	0x3d8162da	0.063176826
154	0x3dd47fa5	0.10375909
155	0xbe09a3e3	-0.13441424
156	0xbd4a2e4c	-0.04936056
157	0x3d8bd013	0.068267964
158	0xbe18fac4	-0.1493941
159	0xbd8409ea	-0.064472035
160	0xbb42ad90	-0.0029705502
161	0xbd91e604	-0.0712395
162	0x3dc429d4	0.095782906
163	0x3ddcd61a	0.10783024
164	0x3d8be9cd	0.06831703
165	0xbe01431b	-0.12623255
166	0x3cf6b99b	0.0301178
167	0xbe1312de	-0.14362666
168	0xbde5248c	-0.111886114
169	0x3d84c9e7	0.06483822
170	0xbcb964ef	-0.022631137
171	0xbcf983bc	-0.030458324
172	0x3d7669f8	0.060159653
173	0xbcd7cec8	-0.026343718
174	0xbdd85934	-0.10563889
175	0x3baf6398	0.0053524487
176	0xbe08e146	-0.13367185
177	0xbdaa6a7a	-0.0832109
178	0xbc0ec3d2	-0.008713679
179	0x3da05bb7	0.07829993
180	0xbd9d7f8e	-0.07690345
181	0xbe1112aa	-0.14167276
182	0x3da6513b	0.08120962
183	0xbdb999cf	-0.0906254
184	0x3db6506c	0.08902058
185	0xbdf28466	-0.11841659
186	0x3d98e5d4	0.07465711
187	0x3d403a6c	0.046930715
188	0xbd923e9f	-0.0714085
189	0xbdc73d46	-0.09728484
190	0x3dc24803	0.094863914
191	0xbc2ca6ab	-0.010537784
192	0xbdb9cb6b	-0.09072002
193	0xbc8d47d8	-0.017246172
194	0x3dfc1df5	0.12310401
195	0x3d2611f8	0.04054448
196	0x3d3b7e94	0.04577501
197	0xbdcb07fa	-0.09913631
198	0xbde42df1	-0.11141575
199	0xbc86b781	-0.016444923
200	0xbdf56305	-0.11981777
201	0x3cd9f08b	0.026603958
202	0x3e180dc2	0.14848998
203	0xbdec4fad	-0.115386344
204	0xbd855564	-0.065104276
205	0x3c48b95f	0.012251227
206	0x3cdafa65	0.026730726
207	0xbdb329e4	-0.087482244
208	0xbd6b9377	-0.05751368
209	0xbd81b2ab	-0.06332906
210	0xbc4c3e93	-0.012466091
211	0x3dc2e43e	0.0951619
212	0xbcf2fbbc	-0.029661052
213	0x3a7b4afa	0.00095860625
214	0xbd49a9eb	-0.049234312
215	0x3c9f5088	0.01944758
216	0xbe07e4c5	-0.13270862
217	0x3dc58b3d	0.09645698
218	0x3e17d862	0.14828637
219	0xbc89dcae	-0.016828861
220	0x3d6fa82d	0.058509994
221	0x3d38a527	0.045079377
222	0xbe0b5edf	-0.13610409
223	0x3d053440	0.032520533
224	0xbe0601ba	-0.13086596
225	0x3d72a4c9	0.059239183
226	0x3c164f7f	0.009174227
227	0x3cfe17cc	0.031017207
228	0x3e01be4e	0.12670252
229	0xbdfe52cc	-0.12418136
230	0xbc6aa4cb	-0.014321516
231	0xbbfff525	-0.007811206
232	0x3dfa6f08	0.12228209
233	0xbd073e64	-0.033018485
234	0x3ce7acfd	0.02828073
235	0xbe0ecef5	-0.13946135
236	0xbc430adb	-0.011904444
237	0x3d5655a6	0.052327774
238	0x3a87862c	0.0010339669
239	0x3ca0e9df	0.019642768
240	0x3cd6afb0	0.026206821
241	0xbe01d19c	-0.12677616
242	0xbe0113e1	-0.1260524
243	0x3d4b1761	0.049582843
244	0x3e1691b6	0.14704022
245	0xbd9ba864	-0.07600477
246	0xbe131539	-0.14363565
247	0x3de4dd8f	0.111750714
248	0xbd542a92	-0.05179841
249	0x3dedfc07	0.11620336
250	0xbd5e2f51	-0.054244343
251	0xbdc73878	-0.097275674
252	0x3e01c9d7	0.12674652
253	0xbd541dbe	-0.051786177
254	0x3da00b97	0.078147106
255	0xbd6d5e8e	-0.057951503

actor_out.bias f4 [12]
0	0x00000000	0.0
1	0x00000000	0.0
2	0x00000000	0.0
3	0x00000000	0.0
4	0x00000000	0.0
5	0x00000000	0.0
6	0x00000000	0.0
7	0x00000000	0.0
8	0x00000000	0.0
9	0x00000000	0.0
10	0x00000000	0.0
11	0x00000000	0.0

critic_fc.weight f4 [256, 256]
0	0xbc5594c9	-0.013035961
1	0x3d909b56	0.07060878
2	0xbc738cb0	-0.0148650855
3	0x3d5e49a3	0.054269444
4	0xbbd11976	-0.006381209
5	0xbd269093	-0.04066522
6	0x3d972335	0.07379762
7	0xbddd273a	-0.107984975
8	0xbd3fd676	-0.046835385
9	0xbdcbeffb	-0.09957882
10	0x3d7a0aff	0.061045643
11	0x3cfe31e1	0.031029643
12	0x3d1e9ea5	0.038725514
13	0x3da71407	0.08158117
14	0x3ccab46e	0.024744239
15	0xbd98a62c	-0.0745357
16	0x3cbe0683	0.023196464
17	0xbd4d6c14	-0.0501519
18	0xbd0bf940	-0.03417325
19	0x3dc6486c	0.09681782
20	0xbd8e2604	-0.06940845
21	0x3dbdc381	0.09265805
22	0x3d249d6b	0.040189188
23	0x3d5c0863	0.053718936
24	0xbd8c9a2c	-0.068653435
25	0xbd12b588	-0.035817653
26	0xbd4c5086	-0.04988148
27	0xbc8dae48	-0.017295018
28	0xbd1ff761	-0.03905428
29	0xbd7bd657	-0.061483707
30	0x3cf91180	0.030403852
31	0xbd9f2d87	-0.077723555
32	0x3ba0fb8d	0.0049127997
33	0x3dc6f97d	0.09715555
34	0xbd9e4a85	-0.07729057
35	0xbc998a91	-0.018742831
36	0x3d790633	0.060796928
37	0x3c2fcacb	0.010729502
38	0xbd1545a8	-0.036443383
39	0x3dc16673	0.09443369
40	0xbd1e48c6	-0.03864362
41	0xbcf042e2	-0.029328767
42	0xb8a10dbd	-7.679637e-05
43	0xbda8ce98	-0.0824253
44	0xbdd7be1b	-0.105343066
45	0xbda34f7f	-0.07974147
46	0xbbd03a92	-0.0063546384
47	0x3aeb84b0	0.0017968621
48	0xbdc3374f	-0.09532034
49	0x3d986989	0.07442004
50	0xbdc5d20c	-0.09659204
51	0x3dc6b14a	0.09701784
52	0x3d8075d2	0.062724724
53	0x3cdd493d	0.027012462
54	0xbd77ab4a	-0.06046609
55	0x3bfe5d88	0.0077626146
56	0x3c348d2f	0.011019989
57	0x3dcbc128	0.09948951
58	0x3da47991	0.080309995
59	0x3cbe87cb	0.02325811
60	0xbd6f82aa	-0.05847422
61	0x3ce602be	0.02807748
62	0x3d870b38	0.06593937
63	0xbda86435	-0.08222238
64	0xbb4e159e	-0.003144599
65	0x3dbce4e4	0.09223345
66	0xbda5e151	-0.08099616
67	0x3d607480	0.054798603
68	0xbd2e29ca	-0.042520322
69	0x3dc69323	0.09696033
70	0xbc0c2876	-0.0085545685
71	0xbd035f5e	-0.03207337
72	0xbd38c369	-0.045108233
73	0xbd0ade3f	-0.033903357
74	0x3d9e5f0e	0.07732974
75	0xba4dae58	-0.00078461086
76	0xbd51babc	-0.051203474
77	0xbd0b4f8c	-0.03401141
78	0x3dccbed0	0.09997332
79	0xbd97e0f1	-0.07415951
80	0x3dc0a41a	0.094063
81	0x3d6d7553	0.057973217
82	0x3dd0d460	0.10196757
83	0x3da33035	0.07968179
84	0x3ddafa03	0.10692217
85	0xbbbae94f	-0.005704082
86	0x3d108e67	0.035292055
87	0xbd0f1c30	-0.03493899
88	0x3cec9e5d	0.028884107
89	0x3da763ee	0.08173357
90	0xbdcb8e39	-0.09939236
91	0x3dd5a047	0.10430961
92	0x3c8a0c1d	0.01685148
93	0x3da03dd8	0.07824296
94	0xbd37b31a	-0.04484854
95	0xbccf6a8f	-0.025319366
96	0xbb78a584	-0.0037940452
97	0x3a8a882c	0.0010569147
98	0x3d91e82a	0.0712436
99	0xbcf0da0f	-0.029400853
100	0xbd7ba971	-0.06144089
101	0x3d46a494	0.048496798
102	0x3db5469a	0.08851357
103	0x3ccbf745	0.02489818
104	0x3d95a3e5	0.07306651
105	0xbc4aca1c	-0.012377288
106	0xbba79f73	-0.0051154434
107	0x3d62e5d3	0.05539496
108	0x3d91f1d1	0.07126201
109	0xbcd1cf38	-0.025611505
110	0x3d0e9853	0.034813236
111	0xbc2289fa	-0.0099205915
112	0x3c42a133	0.011879253
113	0xbd7dac97	-0.061932173
114	0xbdb23173	-0.08700838
115	0x3d3b7a5b	0.045770984
116	0xbd2c98c7	-0.042137887
117	0x3d6460a8	0.05575624
118	0x3db2bf97	0.08727949
119	0x3dc11aee	0.094289646
120	0xbd785e15	-0.0606366
121	0xbc8e69cd	-0.017384434
122	0xbdb64476	-0.08899777
123	0x3db191f5	0.08670417
124	0xbd39d27e	-0.045366757
125	0xbd5321eb	-0.05154602
126	0x3a62bc7c	0.0008649302
127	0xbd8bcf90	-0.06826699
128	0xbd0b6d63	-0.034039866
129	0x3dbfedc3	0.09371521
130	0x3c3146a7	0.0108200675
131	0xbd800f51	-0.062529214
132	0x3dc907eb	0.09815963
133	0xbdc2bd7b	-0.09508797
134	0xbcd80352	-0.02636877
135	0xbcd04e4c	-0.02542796
136	0x3c23da0c	0.010000717
137	0x3dc9fd0d	0.09862719
138	0x3dd0f5e0	0.10203147
139	0xbdc92fe6	-0.09823589
140	0xbc99f48b	-0.018793365
141	0x3cd52fd6	0.026023787
142	0x3cd99e9a	0.026564885
143	0xbd1ab535	-0.03777047
144	0x3d6e9251	0.058245007
145	0x3d74d86a	0.0597767
146	0xbd62a811	-0.055336062
147	0xbce5a65a	-0.028033424
148	0xbc366db8	-0.011134557
149	0xbd95e9b3	-0.07319965
150	0x3cb97fa3	0.02264387
151	0x3d02cff1	0.03193659
152	0x3dc37ee0	0.09545684
153	0x3daab601	0.08335496
154	0x3dc24459	0.094856925
155	0x3d510329	0.051028404
156	0xbc2ae18a	-0.010429749
157	0xbc7064a1	-0.014672429
158	0x3d889b2b	0.06670221
159	0xbc7166de	-0.014733998
160	0xbcfe08f5	-0.03101013
161	0xbd6cde2a	-0.05782906
162	0xbdb81369	-0.08988077
163	0x3dd06070	0.10174644
164	0x3dbd5f5f	0.09246706
165	0x3d9419f3	0.07231512
166	0x3d9dc9ed	0.0770453
167	0xbd6b89bc	-0.0575044
168	0x3dd7cae1	0.10536743
169	0x3d45099c	0.048104867
170	0xbdaa7d18	-0.08324641
171	0x3d2df8fe	0.042473786
172	0xbd85c268	-0.06531221
173	0x3cb444df	0.022005497
174	0x3d6b2a3e	0.057413332
175	0xbd1c63e5	-0.038181204
176	0xbdaa5da2	-0.0831864
177	0xbca154e3	-0.019693797
178	0xbd27bc34	-0.04095097
179	0xbd7e4668	-0.062078863
180	0xbd8939e8	-0.06700498
181	0x3d147fd9	0.036254738
182	0x3b0f175c	0.0021833992
183	0x3dced086	0.100983664
184	0x3c3886c3	0.011262598
185	0xbc757025	-0.014980351
186	0x3d5777be	0.05260443
187	0xbd6e5bf9	-0.05819318
188	0x3dc6d065	0.09707717
189	0x3d8dfede	0.06933378
190	0x3dc2006d	0.094727375
191	0xbcd0632a	-0.02543791
192	0xbdac43bb	-0.08411356
193	0x3dc8f333	0.098120116
194	0xba9dabb6	-0.0012029323
195	0xbd30cbf6	-0.043163262
196	0xbdb3c4a1	-0.08777738
197	0xbce2e252	-0.027695809
198	0xbdb3c81d	-0.08778403
199	0x3b44dfa6	0.0030040531
200	0xbdcc625f	-0.099797
201	0xbccc094b	-0.024906775
202	0xbd3e1cae	-0.04641407
203	0x3d589291	0.05287415
204	0xbdd08628	-0.10181838
205	0x3c9dbf7f	0.019256352
206	0x3db24f3f	0.08706521
207	0xbd332cea	-0.043744005
208	0xbd89687a	-0.067093804
209	0x3d6fa78a	0.058509387
210	0xbc9c52e6	-0.019082498
211	0xbd61c424	-0.055118695
212	0x3d2d5d2d	0.042325187
213	0xbd9f8f5c	-0.077910155
214	0xbd0bc688	-0.03412488
215	0x3d432679	0.047644112
216	0x3d421cff	0.047390934
217	0xbd87cac4	-0.06630471
218	0x3ce8fb63	0.028440183
219	0xbd1c2ea9	-0.038130436
220	0x3dc2d94f	0.095141046
221	0x3d011032	0.031509586
222	0xbd90cc2e	-0.07070194
223	0xbdc5baec	-0.09654793
224	0x3d5fbe03	0.05462457
225	0x3dd5ea15	0.10445038
226	0xbbba7674	-0.0056903902
227	0x3d95ec22	0.073204294
228	0xbdb66410	-0.08905804
229	0xbd18b06c	-0.037277624
230	0xbcd96108	-0.026535526
231	0x3db3269d	0.08747599
232	0xbd6ca878	-0.05777785
233	0x3d2c9acb	0.04213981
234	0x3d9b2cb8	0.07576889
235	0x3d55e5aa	0.052220978
236	0x3da8e586	0.08246903
237	0xbda0b48d	-0.07846937
238	0x3dcf34af	0.101174705
239	0x3da25d37	0.079279356
240	0x3dac7ead	0.08422599
241	0x3d0e2d20	0.034711003
242	0xbd9dca49	-0.077045985
243	0xbdbecb5c	-0.093161315
244	0xbdc61987	-0.09672838
245	0x3dabb179	0.083834596
246	0x3d9a368d	0.07529936
247	0x3dcea286	0.10089593
248	0x3dca16a7	0.09867602
249	0x3c882137	0.0166174
250	0x3d0dfef5	0.034666974
251	0xbd054a28	-0.032541424
252	0xbdb9d0bb	-0.09073015
253	0xbdcd38b8	-0.10020584
254	0x3dac7461	0.08420635
255	0x3d01a584	0.03165199

critic_out.weight f4 [1, 256]
0	0xbdb68d73	-0.08913698
1	0xbd040148	-0.032227784
2	0xbd8d118a	-0.06888111
3	0x3dbaf326	0.09128408
4	0x3c2c98f2	0.010534512
5	0xbdcf7777	-0.10130208
6	0xbd2eb826	-0.042656086
7	0x3c2d087c	0.010561105
8	0x3d8e304f	0.06942808
9	0xbc738818	-0.01486399
10	0xbd2211fc	-0.039567932
11	0xbd6ce915	-0.05783947
12	0xbcf2a088	-0.029617563
13	0xbd12913b	-0.035783034
14	0x3d9b0141	0.075685985
15	0x3dd7343c	0.1050801
16	0x3dd3ac62	0.10335614
17	0x3da1491b	0.07875272
18	0xbe04c2b2	-0.12964895
19	0x3cefdb07	0.029279245
20	0xbe16f859	-0.14743175
21	0xbd2082b6	-0.039187156
22	0x3d49e9ae	0.04929512
23	0x3dc3ebec	0.09566483
24	0xbda0ccf4	-0.07851592
25	0xbd898bb2	-0.06716098
26	0xbd8edd1c	-0.06975767
27	0xbd900d0c	-0.070337385
28	0xbe12f18f	-0.1434996
29	0xbdec811d	-0.11548064
30	0x3ca31484	0.019907244
31	0xbc8e06a2	-0.017337147
32	0x3d5a80d8	0.05334553
33	0x3d92b5e7	0.07163601
34	0xbdcf6592	-0.10126795
35	0xbd8d999d	-0.06914065
36	0xbcb6630d	-0.022264028
37	0xbe1aec39	-0.15129174
38	0xbd9eef6b	-0.07760509
39	0x3d509954	0.050927475
40	0x3c8f96c4	0.017527945
41	0x3df5a6fb	0.119947396
42	0x3b36725e	0.0027839164
43	0xbd8ff72b	-0.070295654
44	0xbde53532	-0.11191787
45	0x3d8f475c	0.069960326
46	0x3c956009	0.01823427
47	0x3d9af16a	0.07565577
48	0xbd69b11d	-0.057053674
49	0xbd384ba1	-0.044994
50	0x3e16111f	0.14654969
51	0x3d634ba1	0.055492047
52	0x3e03d49b	0.12874071
53	0xbdc30aef	-0.0952357
54	0x3d942a43	0.07234623
55	0x3df848a0	0.12123227
56	0x3dfe3dd1	0.12414134
57	0xbe12c5eb	-0.14333312
58	0x3e081b66	0.13291702
59	0xbe05345b	-0.13008253
60	0x3e040fd5	0.12896664
61	0xbe179b6c	-0.14805382
62	0xbe0bcbc4	-0.13651949
63	0xbdb22304	-0.08698085
64	0x3c836f7a	0.016044367
65	0xbc695d27	-0.014243401
66	0xbdd1353f	-0.10215234
67	0xbe09830b	-0.13428895
68	0xbe17c56b	-0.14821403
69	0xbdd331a4	-0.103122026
70	0xbc62ca93	-0.013842243
71	0xbe13b9f2	-0.14426401
72	0xbdc8d72a	-0.09806664
73	0xbe073925	-0.13205393
74	0xbd556c46	-0.05210521
75	0x3e08134d	0.13288613
76	0x3d1fc9da	0.03901086
77	0xbdcd1efb	-0.10015675
78	0xbd7cc784	-0.06171371
79	0xbdc4ad07	-0.09603315
80	0x3c9121e5	0.017716357
81	0x3d5fcc36	0.05463811
82	0x3d640e15	0.055677492
83	0x3da9bb06	0.08287625
84	0x3e16e640	0.14736271
85	0xbe1057f7	-0.14096056
86	0x3c4090c7	0.011753268
87	0x3d97a3b4	0.07404271
88	0xbe01b04f	-0.12664913
89	0xbd16b809	-0.036796603
90	0x3d5401ce	0.051759534
91	0x3e061471	0.13093735
92	0xbdcf90fb	-0.10135075
93	0x3e00e603	0.12587743
94	0x3d449c00	0.048000336
95	0x3d93bf4a	0.0721422
96	0xbd12c91e	-0.03583633
97	0xbd1729e3	-0.03690518
98	0xbdddccd9	-0.10830087
99	0x3d04050b	0.03223137
100	0xbd81df42	-0.06341411
101	0xbcfbdcf5	-0.030745009
102	0xbe08fb21	-0.13377048
103	0xbc8158ed	-0.015789473
104	0xbe1b5ae1	-0.15171386
105	0x3e1a3ba4	0.15061814
106	0x3df3c3c5	0.119025744
107	0x3ccd1b62	0.025037471
108	0xbdc34944	-0.09535459
109	0xbe194899	-0.149691
110	0x3d104a21	0.035226945
111	0x3e1928f7	0.14957033
112	0x3c854566	0.016268443
113	0xbdfc0920	-0.12306428
114	0xbddd2971	-0.1079892
115	0x3e0a559b	0.13509218
116	0x3d804493	0.062630795
117	0x3cb14a5f	0.021641908
118	0x3db019df	0.085986845
119	0x3df9f68b	0.122052275
120	0x3dad2d60	0.0845592
121	0xbe0152c6	-0.12629232
122	0xbdb64d2e	-0.089014396
123	0xbdce8f22	-0.10085894
124	0x3df17b2a	0.1179107
125	0xbdb1d0d5	-0.0868241
126	0x3de52b35	0.11189882
127	0xbdceae1c	-0.100918025
128	0xbc0e94e3	-0.00870249
129	0xbe0cf724	-0.13766152
130	0x3da9466e	0.082653865
131	0x3dfd00e2	0.12353684
132	0xbd206901	-0.03916264
133	0x3e1799a5	0.14804704
134	0xbe0ca5aa	-0.13735071
135	0xbe00a5ed	-0.12563296
136	0xbcad6769	-0.021167474
137	0x3df222af	0.118230216
138	0x3d833297	0.064061336
139	0xbdc9fb3e	-0.09862374
140	0x3d9706f4	0.07374373
141	0xbd3d36ae	-0.046194725
142	0x3dbd6428	0.09247619
143	0xbe1a29a9	-0.15054955
144	0x3dbbfd1e	0.09179138
145	0x3d7e05dd	0.06201731
146	0x3d6624a2	0.05618728
147	0x3e0012b6	0.12507138
148	0xbdd66d7a	-0.104701
149	0x3db15b90	0.08660042
150	0xbce5112f	-0.027962295
151	0x3e0ddc9d	0.13853689
152	0x3e0aaa48	0.1354152
153	0x3affd25f	0.0019517652
154	0xbd9197c4	-0.07109025
155	0x3d47e720	0.048804402
156	0x3d960cf1	0.07326687
157	0x3d841ecd	0.06451187
158	0xbe125af5	-0.1429251
159	0xbd7d5675	-0.06185003
160	0x3dda3c23	0.106560014
161	0x3dfc02a4	0.12305191
162	0x3dcabd35	0.098993696
163	0xbc00dd5a	-0.007865274
164	0xbca10dee	-0.019659963
165	0x3d8e6747	0.06953292
166	0x3d40e3ef	0.047092374
167	0xbe163c5e	-0.14671466
168	0xbddcd862	-0.10783459
169	0xbdce597b	-0.10075661
170	0x3e0e858c	0.13918132
171	0x3cb4ee45	0.022086272
172	0xbe098bec	-0.13432282
173	0x3df43bf6	0.11925499
174	0xbd962a1e	-0.07332252
175	0xbb86e138	-0.0041162036
176	0xbd190d68	-0.0373663
177	0x3d832dc4	0.064052135
178	0xbd2b44bf	-0.04181361
179	0xbe0e23ae	-0.13880798
180	0x3dfb64ba	0.122750714
181	0x3cded127	0.027199341
182	0xbdee77c0	-0.11643934
183	0xbe12c636	-0.14333424
184	0xbd0a7714	-0.033804968
185	0x3d3a439b	0.04547463
186	0xbd458c1e	-0.04822933
187	0xbdd2b380	-0.10288143
188	0x3debaa9c	0.115071505
189	0x3c2c45fa	0.010514731
190	0xbe1a443b	-0.1506509
191	0x3d67be1b	0.056577783
192	0x3dc9d30c	0.09854707
193	0x3e106661	0.14101554
194	0xbd061815	-0.03273781
195	0x3d2b7113	0.041855883
196	0x38ac3cf6	8.212954e-05
197	0xbdd27a4a	-0.10277231
198	0x3c5bfc68	0.013426878
199	0x3da3f706	0.080061
200	0x3c82ee2d	0.015982712
201	0xbd796c37	-0.060894217
202	0x3c520137	0.012817672
203	0xbcaaee4d	-0.020865584
204	0x3dbcf166	0.092257306
205	0x3d93adae	0.07210861
206	0x3dcbff71	0.09960831
207	0x3cc0fc31	0.023557754
208	0xbd647af7	-0.05578133
209	0x3d8ef204	0.069797546
210	0x3e05c2ac	0.13062543
211	0x3ab85841	0.0014064388
212	0xbcf244e4	-0.029573865
213	0x3e1c3fcb	0.1525871
214	0x3ddc59b3	0.10759296
215	0x3d8ee44d	0.06977139
216	0x3d0e8cd3	0.03480227
217	0x3e08b089	0.13348593
218	0x3e0d1834	0.13778764
219	0x3df2ea3f	0.11861085
220	0xbd3bca5c	-0.04584728
221	0xbdd3032a	-0.10303338
222	0x3de59a25	0.11211041
223	0xbd37aaee	-0.044840746
224	0x3d8500ab	0.06494268
225	0xbd2c6fba	-0.04209874
226	0x3c99aad3	0.018758213
227	0x3aad02fc	0.0013199742
228	0x3de43c48	0.1114431
229	0x3dde69f0	0.1086005
230	0xbe0bb768	-0.13644183
231	0x3d57ed22	0.05271638
232	0x3d1fbd6b	0.038999002
233	0xbdad3e0d	-0.08459101
234	0xbdf991a2	-0.121859804
235	0x3d42197b	0.04738758
236	0x3c8631bc	0.016381137
237	0x3c40c4e1	0.01176569
238	0xbdf5fcb8	-0.12011093
239	0xbca8627b	-0.020554772
240	0xbdd2793a	-0.102770284
241	0xbd511883	-0.051048767
242	0xbe18e1d8	-0.14929903
243	0x3df33511	0.11875356
244	0x3cb5e15d	0.022202188
245	0x3e145001	0.14483644
246	0x3d22e2c3	0.039767038
247	0x3d6e996f	0.058251794
248	0xbde0052b	-0.10938486
249	0x3b35b051	0.00277235
250	0xbd024825	-0.031807084
251	0xbd96b1ad	-0.07358108
252	0x3d783ef1	0.0606069
253	0x3dfeb9b9	0.124377675
254	0x3d8543d0	0.06507075
255	0xbc3facce	-0.011698915
