networks/saved_model/ppo_model_ep100.pth (torch, 840050 bytes, 11 tensors)

shared_fc1.weight f4 [256, 31]
0	0xbe092d50	-0.13396192
1	0x3e283ec5	0.16430195
2	0x3d689c9f	0.05678999
3	0x3d151e66	0.036405943
4	0x3da13bf3	0.078727625
5	0x3d9e8cb9	0.077416845
6	0xbd4cb8d9	-0.049980972
7	0xbda845ae	-0.08216415
8	0x3e2b5fc3	0.16735749
9	0x3dcc5230	0.099766135
10	0x3e2b978d	0.16757031
11	0xbd2c4e3e	-0.042066805
12	0xbd638bca	-0.055553235
13	0xbc8c2626	-0.017108034
14	0xbe0e882a	-0.1391913
15	0xbcb6fdaf	-0.022337763
16	0xbc977c5f	-0.018491922
17	0xbe93d202	-0.2887116
18	0x3e097933	0.1342514
19	0x3f4ab933	0.7918884
20	0xbe933271	-0.2874942
21	0x3ca44d58	0.020056412
22	0xbdaae27b	-0.08343979
23	0xbd2da760	-0.04239595
24	0xbda0e038	-0.07855266
25	0x3de903e4	0.11377695
26	0x3dfc70ae	0.123261794
27	0x3d2e86e2	0.042609103
28	0xbdc2e739	-0.095167585
29	0xbbddfef9	-0.00677478
30	0x3d04dc14	0.032436445
31	0x3da0cd88	0.07851702
32	0x3e00b5ef	0.12569402
33	0xbc3fdbf9	-0.01171016
34	0x3da688b5	0.081315435
35	0x3c4519d7	0.0120300865
36	0xbdc7bb1f	-0.097524874
37	0x3db27e53	0.08715501
38	0xbdbb84c9	-0.09156186
39	0x3e19ed66	0.15031967
40	0xbde6e971	-0.11274994
41	0x3caa8bc9	0.020818608
42	0x3ddb7af9	0.107168145
43	0xbd0388f6	-0.032113038
44	0xbd1ac984	-0.037789837
45	0x3dbb2898	0.09138602
46	0x3d297d1b	0.041379075
47	0xbd73a987	-0.059487846
48	0x3d20b019	0.03923044
49	0x3e3a86d2	0.18215492
50	0xbe85decf	-0.26146552
51	0xbf0b4eab	-0.5441691
52	0x3e390cda	0.18071309
53	0x3dcd1a04	0.10014728
54	0x3e1bea7e	0.1522617
55	0xbda8cd59	-0.08242292
56	0x3d83c699	0.06434364
57	0xbda64f0c	-0.08120546
58	0x3c28936b	0.010289053
59	0x3c6defc2	0.014522495
60	0x3b562e8b	0.003268155
61	0x3deef565	0.11667899
62	0x3e18120b	0.14850633
63	0x3c4e1522	0.012578281
64	0x3c4c6c11	0.012476937
65	0xbce88e65	-0.028388212
66	0xbe35ce89	-0.17754568
67	0x3d5994ab	0.053120296
68	0x3d00af7c	0.031417355
69	0xbca58c38	-0.020208463
70	0x3d90c272	0.070683375
71	0xbd95c9be	-0.0731387
72	0xbdbdc735	-0.09266511
73	0xbd81752c	-0.06321177
74	0xbd9e0017	-0.07714861
75	0xbd05b197	-0.032640066
76	0xbbc09406	-0.005877021
77	0x3df51b42	0.1196809
78	0xbc335bb1	-0.010947154
79	0x3e073ce8	0.13206828
80	0xbc67f876	-0.014158359
81	0x3e3df3cf	0.18550037
82	0x3e9cbb85	0.30611816
83	0xbe5566cc	-0.20839995
84	0x3ddef5f4	0.108867556
85	0x371092ee	8.617279e-06
86	0xbdb61998	-0.088916
87	0xbdbebd35	-0.09313432
88	0x3e007a52	0.12546661
89	0xbd2808b5	-0.04102393
90	0x3d625ff3	0.055267286
91	0xbd2e69ff	-0.042581555
92	0x3a0b7e43	0.00053212437
93	0x3e13060b	0.14357774
94	0xbdea58e3	-0.11442735
95	0x3cdbae5c	0.02681654
96	0xbca2c693	-0.019870078
97	0xbe06a4e7	-0.13148843
98	0xbe1c55df	-0.15267132
99	0xbd9aba97	-0.075551204
100	0xbcfc8ae8	-0.030827954
101	0xbe172b48	-0.14762604
102	0x3dcbf313	0.09958472
103	0xbe9c7a48	-0.30562043
104	0x3ea06c28	0.31332517
105	0x3c3e8f01	0.0116307745
106	0xb9eb91fc	-0.0004493146
107	0x3e01c8ce	0.12674257
108	0x3d897e0b	0.06713494
109	0xbce128b5	-0.027485231
110	0x3dccd06e	0.10000692
111	0xbdd24521	-0.102670915
112	0x3db3c766	0.087782666
113	0xbd3f9781	-0.046775345
114	0x3e3e1fb2	0.18566778
115	0xbe003887	-0.12521563
116	0x3cd9596c	0.026531897
117	0xbdb12eb4	-0.08651486
118	0xbe036f40	-0.12835407
119	0x3ce8eeb5	0.028434137
120	0x3e032313	0.12806349
121	0x3e16987b	0.14706604
122	0xbbe80202	-0.0070803175
123	0xbca3e721	-0.020007672
124	0xbe84aaf2	-0.2591167
125	0x3e32d536	0.17464146
126	0x3d35e8e1	0.044411544
127	0xbd5c5069	-0.053787623
128	0xbdb1dd7e	-0.086848244
129	0x3e141e69	0.14464726
130	0xbd82e0f4	-0.06390563
131	0x3d368ce6	0.044567965
132	0x3e29a7f7	0.1656798
133	0x3cb62525	0.022234509
134	0x3e155cd6	0.14586195
135	0x3dec29ae	0.11531387
136	0xbc7dde34	-0.015494872
137	0xbbcef443	-0.0063157394
138	0x3d977f29	0.07397301
139	0xbdef6054	-0.11688295
140	0xbe153b1f	-0.14573334
141	0x3d5f4adf	0.054514762
142	0xbd8fc9c0	-0.07020903
143	0x3e06267a	0.13100615
144	0xbf3117b5	-0.691768
145	0xbe53620b	-0.20642869
146	0xbd9261d8	-0.071475685
147	0x3dd097c8	0.101852
148	0xbcd987f9	-0.026554095
149	0xbc84009e	-0.016113576
150	0x3d5c6962	0.05381144
151	0x3c511a39	0.0127626
152	0xbd5e7b45	-0.054316778
153	0x3c9a1656	0.018809479
154	0x3d9ccc80	0.07656193
155	0x3cc1a19a	0.023636628
156	0xbd635cfe	-0.055508606
157	0xbcb17e24	-0.021666594
158	0xbe1b622a	-0.15174165
159	0x3d68a4e6	0.056797884
160	0xbdbc44e4	-0.09192827
161	0xbe61c968	-0.22049487
162	0xbe32663e	-0.17421815
163	0xbe44d60b	-0.19222276
164	0xbcf0d962	-0.029400531
165	0xbd963e91	-0.07336152
166	0x3dc31fa9	0.09527523
167	0xbe19d3ea	-0.15022245
168	0x3d0555d5	0.03255256
169	0x3d5d562b	0.054037254
170	0x3e044177	0.12915598
171	0x3d4b3c30	0.049617946
172	0x3e4be2aa	0.19910684
173	0xbdba0f85	-0.09084991
174	0xbf03e9fe	-0.5152892
175	0xbdc51322	-0.0962279
176	0xbecf2ad5	-0.40462366
177	0xbd2ebdd4	-0.042661503
178	0x3c92f139	0.01793729
179	0xbe206427	-0.15663205
180	0xbe8cea92	-0.27522713
181	0xbdb7d3a6	-0.089759156
182	0xbd0771b7	-0.03306743
183	0x3d84bb43	0.0648103
184	0x3c258701	0.010102988
185	0x3c33dedc	0.010978427
186	0xbe3e1e6b	-0.18566291
187	0xbb2bddca	-0.0026224726
188	0x3e171006	0.14752206
189	0x3c5e334e	0.013562037
190	0xbc663828	-0.014051475
191	0x3e4308f3	0.19046383
192	0xbd9a66e8	-0.07539159
193	0x3e2eafc1	0.17059232
194	0x3e26b099	0.16278304
195	0x3dadd395	0.08487622
196	0xbe0fb1f1	-0.14032723
197	0xbd409a42	-0.04702211
198	0x3e01f5ee	0.12691471
199	0x3e0fa32a	0.14027086
200	0x3e66741b	0.22505228
201	0x3daa9996	0.083300754
202	0xbdcc898c	-0.099871725
203	0x3e83b2bb	0.25722298
204	0xbd84170c	-0.06449708
205	0xbeecaa83	-0.4622384
206	0xbeae7444	-0.3407308
207	0xbd38ca97	-0.04511508
208	0xbc93ee07	-0.018057836
209	0xbddc9236	-0.10770075
210	0x3e7b0483	0.2451344
211	0xbe73ad28	-0.23796523
212	0xbd1948e2	-0.037423022
213	0x3d54e688	0.051977664
214	0x3e361d8d	0.1778471
215	0x3bb20ae9	0.0054334295
216	0x3d862627	0.06550246
217	0x3cab4928	0.020908907
218	0xbdfe86e8	-0.12428075
219	0xbd4e1ed5	-0.050322372
220	0xbda55501	-0.08072854
221	0xbe0a08fe	-0.13479993
222	0xbde53dd3	-0.11193433
223	0xbe5112ec	-0.20417374
224	0xbde283b2	-0.11060275
225	0xbdbfb69f	-0.09361004
226	0x3cd1a5a7	0.025591685
227	0xbd45d2c2	-0.048296697
228	0x3d85aa6c	0.06526646
229	0xbcf4a830	-0.029865354
230	0x3ceb3316	0.028710883
231	0xbd773d20	-0.060361028
232	0xbcca6dd0	-0.024710566
233	0x3dec7a30	0.11546743
234	0xbd84527a	-0.06461044
235	0xbdead9b6	-0.11467306
236	0x3eafac83	0.34311303
237	0xbd20ad2b	-0.039227646
238	0xbf00a504	-0.50251794
239	0x3c9ffbbd	0.019529218
240	0x3e59f432	0.2128456
241	0x3e3b4ef4	0.18291837
242	0xbeadc3e9	-0.3393853
243	0xbe1e0c46	-0.1543437
244	0x3e2afef4	0.1669882
245	0xbc7550bc	-0.014972862
246	0x3d13dffa	0.036102273
247	0x3df2a28f	0.11847412
248	0xbe5f3913	-0.21799116
249	0x3d522140	0.05130124
250	0x3dd269ba	0.10274072
251	0x3e057c1c	0.13035625
252	0xbe2dbba3	-0.16966109
253	0xbc974e14	-0.018469848
254	0xbca07129	-0.019585209
255	0xbd78c018	-0.06073007

shared_fc1.bias f4 [256]
0	0xbcf23ea4	-0.029570885
1	0x3c70da18	0.014700435
2	0xbcbe6759	-0.02324264
3	0xbba417d0	-0.0050077215
4	0xbcb062aa	-0.021531422
5	0xbd73233c	-0.059359774
6	0x3d1b52c1	0.037920717
7	0xbcbe22a2	-0.023209874
8	0xbb4d4e0b	-0.0031327035
9	0x3cc7416e	0.024323191
10	0xbca1c412	-0.019746814
11	0xbc9528d8	-0.018207952
12	0xba1841e5	-0.0005808159
13	0xbce8ce7a	-0.028418768
14	0x3d37aa70	0.044840276
15	0x3c821daf	0.015883295
16	0x3ce7a6f8	0.02827786
17	0x3cbdaaf9	0.023152815
18	0x3caf5ec3	0.02140749
19	0xbc774bf4	-0.015093792
20	0x3ca4a8b0	0.020099968
21	0x3b0c63f2	0.0021421877
22	0xbdb6fc88	-0.08934885
23	0xbda2366b	-0.07920536
24	0x3b67e381	0.0035383406
25	0x3c004789	0.007829555
26	0xbcb2a3b4	-0.021806575
27	0xbc96ce36	-0.018408876
28	0xbbf85d3e	-0.0075794747
29	0x3cb44c4e	0.022009041
30	0xbc81dccc	-0.015852354
31	0x3cdc313a	0.026878942
32	0x3c8a6421	0.016893448
33	0x3adbfdd2	0.0016784018
34	0x3a51f68b	0.0008009455
35	0xbc17b70b	-0.009259949
36	0x3d3bca33	0.04584713
37	0xbb71a083	-0.0036869354
38	0xbd0c074d	-0.03418665
39	0x3ca41552	0.020029698
40	0xbb01c024	-0.0019798363
41	0x3c1f4e57	0.0097232675
42	0xbbd6ffdf	-0.006561264
43	0xbbe998dd	-0.0071288184
44	0xbc22f4cb	-0.0099460585
45	0x3c34a277	0.011025063
46	0x3cd669a8	0.026173428
47	0x3d1093b9	0.03529713
48	0x3d120262	0.035646804
49	0x3c00cb57	0.00786098
50	0x3ca7e1e8	0.020493463
51	0x3d128872	0.035774656
52	0x3caf721f	0.021416722
53	0xbc302d73	-0.010753023
54	0x3d7981d6	0.060914837
55	0xbd3a2c20	-0.045452237
56	0x3c86f6e8	0.016475156
57	0x3c59817e	0.013275502
58	0x3c8c53a3	0.017129725
59	0x3c509492	0.012730734
60	0xbc2446d6	-0.010026654
61	0x3cd05174	0.025429465
62	0x3be0fd0d	0.0068661035
63	0xbc83b202	-0.016076092
64	0xbab4974a	-0.0013777998
65	0x3b5d335f	0.0033752543
66	0x3c113613	0.00886299
67	0xbd3784bf	-0.04480433
68	0xbc47586b	-0.012167077
69	0x3c8f2a1a	0.01747613
70	0x3c1a7c27	0.009429014
71	0xbca7b9fa	-0.020474423
72	0x3cec01bd	0.028809423
73	0xbc37f1ee	-0.011227114
74	0x3c12a4e6	0.008950448
75	0x3b750314	0.0037385868
76	0x3c6510d6	0.013981065
77	0xbb5d2071	-0.003374126
78	0xbc94bae0	-0.018155515
79	0xbbde354a	-0.006781255
80	0xbd006ad9	-0.031351898
81	0xbc017231	-0.0079007605
82	0x3c146910	0.009058252
83	0x3d8cd151	0.068758614
84	0xbc7ad135	-0.015308668
85	0x3b841001	0.004030228
86	0xbc9eefc6	-0.019401442
87	0x3c683c1f	0.01417449
88	0x3c22a4ee	0.009927018
89	0x3c596bcc	0.01327033
90	0xbcc1a898	-0.023639962
91	0x3d93868f	0.072033994
92	0x3d364372	0.044497915
93	0xbca96b83	-0.020681148
94	0xbcfe4b1e	-0.031041678
95	0xbd644158	-0.05572638
96	0xbc2f1309	-0.010685691
97	0xbceb8718	-0.028750941
98	0xbc9bc585	-0.019015083
99	0x3d2aeb7f	0.041728493
100	0xbac20aae	-0.0014804208
101	0xbb907517	-0.0044084894
102	0x3cfba554	0.030718483
103	0x3bde7a66	0.0067894934
104	0x3bdef8a1	0.006804541
105	0x3ca7a938	0.020466432
106	0xbcea456c	-0.028597556
107	0xbb0e7780	-0.0021738708
108	0x3c6e848f	0.014557972
109	0x3c971387	0.018441929
110	0x3c2ce3b4	0.0105523355
111	0x3cc80110	0.02441457
112	0xbc24ef20	-0.0100667775
113	0x3bbf3b5f	0.005835935
114	0xbcd763cb	-0.026292702
115	0x3c1a4e58	0.009418093
116	0xbcaaa4b1	-0.020830484
117	0xbc761466	-0.015019512
118	0x3c64529f	0.013935714
119	0x3cfd2458	0.03090112
120	0x3d09c131	0.033631507
121	0x3d12f3d4	0.035877064
122	0xbd043cde	-0.03228461
123	0x3c67c894	0.014146943
124	0xbbabcd70	-0.005242996
125	0xbc8c6a34	-0.017140485
126	0xbc366e61	-0.011134715
127	0xbab6a77d	-0.0013935413
128	0xbc86c9d9	-0.01645367
129	0xbd022347	-0.031771924
130	0xbb663626	-0.003512749
131	0x3cac10c7	0.021004094
132	0x3d282825	0.04105391
133	0xbc5bf5cf	-0.013425305
134	0x3d14d769	0.036338244
135	0xbacfa00c	-0.0015840544
136	0xbd0d6f38	-0.034529895
137	0xbb987de6	-0.00465368
138	0x3a9dc41c	0.0012036595
139	0x3c4cfff9	0.0125122005
140	0x3d418953	0.047250103
141	0xbb346bfb	-0.0027530182
142	0xbc4e57c8	-0.012594171
143	0x3d6b99ce	0.057519726
144	0x3c09a8ff	0.008402108
145	0x3c8997a3	0.016795939
146	0xbce58438	-0.028017148
147	0xbd6747c1	-0.056464914
148	0x3c6e0273	0.014526951
149	0x3d2bd058	0.04194674
150	0x3ca0baac	0.019620262
151	0x3b4129d6	0.00294744
152	0x3d77dbff	0.06051254
153	0xbbf2b446	-0.007406744
154	0x3be12b5f	0.0068716253
155	0x3cf267fa	0.029590596
156	0xbbc8a863	-0.006123589
157	0x3c463966	0.012098646
158	0x3cf675a4	0.030085392
159	0x3da0616e	0.07831083
160	0xbcc78c64	-0.024358936
161	0x3c92fed3	0.017943775
162	0x3d6515fc	0.05592917
163	0xbda602d9	-0.08106012
164	0x3b170666	0.0023044585
165	0x3d0fbec4	0.035094038
166	0xbcc74d5c	-0.02432888
167	0x38a72c94	7.971484e-05
168	0xbb5aaa8f	-0.003336582
169	0xbd223903	-0.03960515
170	0xbca8302f	-0.020530788
171	0xb9dc82b3	-0.00042059048
172	0x3acfeb7a	0.0015863024
173	0x3bddd169	0.0067693484
174	0x3a443b49	0.0007485641
175	0xbbbedd3c	-0.005824713
176	0xbd30609a	-0.043060876
177	0x3cbe3e15	0.023222962
178	0xbc6089aa	-0.013704697
179	0x3c227ab4	0.00991695
180	0x3ac172d9	0.0014758959
181	0x3d0641b4	0.032777503
182	0x3b836f58	0.004011076
183	0xbb84fe89	-0.0040586633
184	0x3d483f24	0.04888834
185	0x3c9c0990	0.019047529
186	0x3b7a741c	0.003821618
187	0x3cfcaaab	0.0308431
188	0x3ccbe1e9	0.024887996
189	0x3d3843c0	0.044986486
190	0xbc84cc88	-0.01621081
191	0x3c280d71	0.010257111
192	0x3ca26060	0.019821346
193	0xbcbf966a	-0.023387153
194	0xbd032918	-0.032021612
195	0xbc9ad716	-0.01890139
196	0xbca6500d	-0.020301843
197	0x3d19c862	0.037544616
198	0x3ca64aa2	0.02029926
199	0xbc918aeb	-0.017766437
200	0x3b0ed915	0.0021796871
201	0x3c913e7e	0.017729994
202	0xbc8d77a7	-0.017268969
203	0xbba4d906	-0.005030754
204	0xbd674618	-0.05646333
205	0xbca61560	-0.020273864
206	0x3d2193f8	0.039447755
207	0xbbbd20ad	-0.0057717175
208	0x3d1dcaef	0.03852361
209	0xbbb23d8b	-0.0054394654
210	0x3c9ea765	0.01936693
211	0x3c107d03	0.008818868
212	0x3b256fb3	0.002524358
213	0x3bd881fc	0.006607292
214	0x3b6762d7	0.0035306716
215	0x3b8b224d	0.0042460323
216	0x3c18f0b5	0.009334733
217	0x3c6c7647	0.014432496
218	0xbce0e2cc	-0.027451895
219	0x3c0e37fa	0.008680338
220	0xbc41a58c	-0.011819255
221	0xbccb8d5b	-0.024847677
222	0x3c98e54f	0.01866403
223	0x3ca8a96d	0.020588601
224	0x3c9dc75a	0.019260097
225	0x3c8abdcc	0.016936205
226	0x3ca21971	0.019787522
227	0x3ad4700e	0.0016207711
228	0x3baea80d	0.005330092
229	0x3ba1f478	0.004942473
230	0xbca678f9	-0.020321356
231	0x3b98fb91	0.004668661
232	0x3b477f35	0.0030440812
233	0x3a01cb1a	0.0004951224
234	0xbb909d18	-0.0044132583
235	0x3cb31495	0.0218604
236	0xbb86719f	-0.0041029
237	0x3cba95c5	0.022776494
238	0x3d1208f9	0.03565309
239	0xbcb63c92	-0.022245679
240	0x3c27c506	0.010239845
241	0xbcd4d9db	-0.025982788
242	0xbb61d6a0	-0.0034460202
243	0xbcb90971	-0.02258751
244	0x3c530446	0.012879437
245	0xbc900b27	-0.017583443
246	0x3bf6ee58	0.007535737
247	0xbc077687	-0.008268005
248	0xbce28923	-0.027653283
249	0xbb5f3824	-0.0034060562
250	0x3b8d5595	0.0043131807
251	0x3c112f07	0.00886131
252	0x3cc021a4	0.023453541
253	0xbcbea60a	-0.023272533
254	0x3d693e0d	0.05694394
255	0x3ce944a1	0.028475108

shared_fc2.weight f4 [256, 256]
0	0x3c8e3e58	0.017363712
1	0xbca8b16d	-0.020592416
2	0xbdb0464a	-0.086071566
3	0x3d3b448e	0.045719676
4	0xbdb80730	-0.08985746
5	0x3d4bab39	0.049723838
6	0xbdd71775	-0.10502521
7	0xbdf14083	-0.11779883
8	0xbde2f2a9	-0.1108144
9	0xbd17e9d7	-0.03708824
10	0x3d8a4b81	0.067526825
11	0xbdae5994	-0.085131794
12	0xbde426eb	-0.111402355
13	0x3d245513	0.040120196
14	0x3d5fe047	0.054657247
15	0xbd4d5bc4	-0.050136343
16	0x3dc2a189	0.09503467
17	0x3dbb2854	0.09138551
18	0xbde242bd	-0.110478856
19	0xbdca7971	-0.09886444
20	0xbcef3c44	-0.029203542
21	0x3dbae5bd	0.0912585
22	0xbd41a526	-0.04727664
23	0x3db99bfa	0.09062953
24	0xbbb340c7	-0.0054703685
25	0xbd1531a0	-0.03642428
26	0x3d2b070c	0.041754767
27	0x3c8af673	0.01696322
28	0xbbdddf2d	-0.0067709894
29	0x3d967567	0.073466115
30	0x3d9c4fd9	0.07632417
31	0xbdb4421e	-0.08801673
32	0x3cb20bd4	0.021734156
33	0xbd082742	-0.033240564
34	0xbdec958a	-0.1155196
35	0xbb01e875	-0.0019822393
36	0x3da45995	0.08024899
37	0x3bf37b44	0.007430466
38	0xbd2fb682	-0.042898662
39	0xbdc70754	-0.097181946
40	0xbda2a43d	-0.07941482
41	0xbdd6653e	-0.10468529
42	0x3d0fe9d3	0.0351351
43	0x3cd5f317	0.02611689
44	0x3d4dc71d	0.050238717
45	0x3d904832	0.0704502
46	0x3da1f5e4	0.07908228
47	0x3d91541e	0.07096122
48	0xbd9914fe	-0.07474707
49	0xbdda143d	-0.106483914
50	0xbd8ae150	-0.06781256
51	0xbd9f94a8	-0.07792026
52	0x3d626b1f	0.05527794
53	0xbc83a308	-0.01606895
54	0xbdf4d5ef	-0.11954867
55	0xbd070cde	-0.032971255
56	0x3b06bbce	0.0020558718
57	0xbd4ed798	-0.050498575
58	0x3bef7d06	0.007308605
59	0xbdc93592	-0.09824671
60	0xbdcb257e	-0.099192604
61	0xbdd05cc8	-0.101739466
62	0xbda64d3e	-0.081202015
63	0x3d652bec	0.05595009
64	0xbd073627	-0.033010628
65	0xbd87d30f	-0.06632053
66	0x3dc3a2e1	0.09552551
67	0xbdcd24f1	-0.10016812
68	0xbdb937a5	-0.090438165
69	0x3c28f473	0.0103121875
70	0xbd15679f	-0.036475774
71	0xbdbad0b5	-0.09121839
72	0xbccf71a2	-0.025322739
73	0xbdd460a8	-0.10369998
74	0xbc779c62	-0.015112968
75	0xbcbcbf4e	-0.02304044
76	0xbdbcf516	-0.09226434
77	0x3d24cb0b	0.0402327
78	0xbdf14d7a	-0.117823556
79	0xbdbba254	-0.09161821
80	0xbd0f95a3	-0.035054814
81	0xbdf27696	-0.11839025
82	0xbd764a0f	-0.06012922
83	0xbd8e24dc	-0.06940624
84	0xbdd97a50	-0.106190324
85	0xbd75f6fb	-0.060049992
86	0x3cf83f18	0.030303523
87	0xbcf7e59b	-0.030260852
88	0xbcb6a670	-0.02229616
89	0xbd81d21e	-0.06338905
90	0xbd99d377	-0.07511037
91	0xbde5f5cf	-0.11228525
92	0xbbd4cf05	-0.006494405
93	0xbd80132b	-0.06253656
94	0xbd466600	-0.04843712
95	0xbdcc9070	-0.09988487
96	0xbd673d8b	-0.056455176
97	0xbd84c975	-0.064837374
98	0xbd6e5050	-0.05818206
99	0xbdabd41e	-0.083900675
100	0x3d200d25	0.039075036
101	0xbcf67b4f	-0.030088095
102	0xbd84de0e	-0.06487666
103	0xbe015ab2	-0.12632254
104	0x3cb11b66	0.02161951
105	0x3dbded2c	0.092737526
106	0xbc999030	-0.018745512
107	0xbd5c7eab	-0.053831737
108	0xbd71ea25	-0.05906119
109	0xbc1bf8ec	-0.009519797
110	0x3d40cd3e	0.047070734
111	0x3dc272cf	0.09494554
112	0xbd079f67	-0.033111002
113	0xbc027146	-0.007961577
114	0xbd78b95f	-0.06072366
115	0x3d3f2b4e	0.046672158
116	0x3c477ccf	0.012175753
117	0xbd0cd949	-0.034386907
118	0xbdda7ac4	-0.10667947
119	0xbd8fd44a	-0.07022913
120	0x3ca6e636	0.020373445
121	0xbd8e7884	-0.0695658
122	0x3cb209bf	0.021733163
123	0x3dcdad7f	0.100428574
124	0x3c29bbc9	0.010359713
125	0x3d4326a2	0.047644265
126	0x3d51434d	0.051089574
127	0xbc35d560	-0.011098236
128	0xbdacc72d	-0.08436427
129	0xbdafacb5	-0.08577863
130	0x3c7816cd	0.015142155
131	0xbd10b5b1	-0.035329524
132	0x3d25af1e	0.040450208
133	0xbd9f3439	-0.077736326
134	0x3db39bef	0.08769976
135	0xbc94562b	-0.018107494
136	0xbcadab41	-0.021199824
137	0xbd8634cf	-0.06553041
138	0xbde6c6ea	-0.112684086
139	0xbd9e3867	-0.07725602
140	0xbdea635f	-0.11444735
141	0xbdb56580	-0.0885725
142	0x3d95968c	0.07304105
143	0x3c37f09c	0.011226799
144	0xbd7f13b3	-0.062274646
145	0x3c816de5	0.015799472
146	0xbdf4ac17	-0.11946886
147	0x3d8b130f	0.067907445
148	0x3bc1efe0	0.005918488
149	0xbda51209	-0.080600806
150	0xbd8cab12	-0.068685666
151	0x3d379975	0.044824082
152	0xbdb978fc	-0.09056279
153	0x3d7ea85c	0.06217228
154	0x3d974180	0.0738554
155	0xbdd8c815	-0.105850376
156	0xbd35c9c3	-0.044381868
157	0x3d0b2906	0.03397467
158	0xbdde603d	-0.108582
159	0xbc3ff1bd	-0.01171535
160	0xbd8356ab	-0.06413015
161	0xbdc16014	-0.094421536
162	0xbd6d903a	-0.057998873
163	0xbdb32bf3	-0.08748617
164	0xbcc90505	-0.024538526
165	0x3d1ff2a8	0.039049774
166	0xbdbf649a	-0.0934536
167	0x3de2c60f	0.11072933
168	0xbd9b8ee5	-0.07595614
169	0x3d7de98a	0.0619903
170	0xbdbe51a5	-0.09292916
171	0xbd9365de	-0.07197164
172	0x3d59728a	0.05308775
173	0x3d8d00e5	0.06884936
174	0x3cd48bc0	0.025945544
175	0x3d9f38aa	0.0777448
176	0xbd9ff161	-0.07809711
177	0xbbae0e06	-0.0053117303
178	0x3cc1f3ec	0.023675881
179	0x3d60251b	0.054722887
180	0x3d9aef97	0.075652294
181	0x3db5293d	0.08845756
182	0xbd2a5274	-0.04158254
183	0xbd5d502a	-0.05403153
184	0x39bdd36c	0.0003620641
185	0xbcc6ce41	-0.024268271
186	0xbd285635	-0.04109784
187	0xbdc5e221	-0.09662271
188	0xbdbb2194	-0.09137264
189	0xbdad31c6	-0.08456759
190	0x3db25920	0.087084055
191	0xbda77f45	-0.081785716
192	0x3d7e9e65	0.062162776
193	0xbd8b7de2	-0.068111196
194	0x3ca38528	0.019960955
195	0x3d80ca61	0.06288601
196	0x3c9c1514	0.01905302
197	0x3dac0a79	0.08400435
198	0xbd33a553	-0.043858837
199	0xbc02dec1	-0.007987679
200	0xbc862083	-0.016372925
201	0x3ccc38d4	0.024929442
202	0xbd9afc1d	-0.07567618
203	0xbd997ae7	-0.07494145
204	0x3d4182b6	0.047243796
205	0x3d8571ef	0.06515872
206	0x3d402e69	0.04691926
207	0xbcc1ff16	-0.023681205
208	0xbd8ce781	-0.06880093
209	0xbdc2a6e0	-0.09504485
210	0x3d67c20d	0.056581546
211	0xbdab350b	-0.083597265
212	0x3d045680	0.032309055
213	0xbb8a9cf9	-0.0042301384
214	0xbd2285b6	-0.039678298
215	0xba3cc5f3	-0.00072011276
216	0x3cea96e7	0.028636409
217	0x3d8a2147	0.067446284
218	0x3d95d3dd	0.073158
219	0x3da0d618	0.07853335
220	0xbdc49322	-0.09598376
221	0x3bd7ef33	0.006589794
222	0x3da2ef26	0.0795577
223	0xbdcb7d28	-0.09935981
224	0xbd6f241a	-0.05838404
225	0xbd4bb2d7	-0.0497311
226	0x3ba3da8b	0.0050004176
227	0xbd2e3441	-0.042530302
228	0x3dab0b17	0.083517246
229	0x3da0b066	0.07846145
230	0x3ce92832	0.02846155
231	0x3c36cdbd	0.01115745
232	0xbd78d46f	-0.060749467
233	0xbccae4eb	-0.02476736
234	0x3a9f43f7	0.0012150992
235	0xbda09ede	-0.078428015
236	0xbd3e00c9	-0.046387468
237	0xbdc6b7c1	-0.09703017
238	0xbd169836	-0.036766253
239	0x3c85f807	0.01635362
240	0xbd10f2e0	-0.035387874
241	0xbdb11333	-0.0864624
242	0xbde24c37	-0.11049693
243	0xbdb75cd7	-0.08953255
244	0xbdc6e4cb	-0.097116075
245	0x3dc49298	0.09598273
246	0xbd9bcb5c	-0.07607147
247	0xbd5a6c8d	-0.05332618
248	0xbd907945	-0.0705438
249	0x3dc5bac7	0.096547656
250	0xbca45faf	-0.020065157
251	0x3d8f3689	0.06992824
252	0x3da150a3	0.07876708
253	0xbd8a4879	-0.06752104
254	0x3d5a046d	0.053226877
255	0x3d726f66	0.05918827

shared_fc2.bias f4 [256]
0	0xbc121ff5	-0.008918752
1	0x3c216562	0.009850832
2	0xbc2356ec	-0.009969454
3	0xbd17047f	-0.036869522
4	0x3d5248d6	0.051338993
5	0xbb9b1aab	-0.0047334037
6	0x3d47ae98	0.04875049
7	0x3c6b29eb	0.014353256
8	0x3cbb8b25	0.022893498
9	0xbc1b2191	-0.009468452
10	0xbbfa45c8	-0.007637713
11	0xbcb19671	-0.021678181
12	0x3c69fc1a	0.014281297
13	0x3bfe9926	0.0077697216
14	0x3cd4a8dc	0.025959425
15	0xbc684fac	-0.0141791515
16	0xbb0d62d8	-0.0021573808
17	0x3c560dab	0.013064782
18	0xbc526611	-0.012841717
19	0xbc08de44	-0.0083537735
20	0xbcb0f877	-0.021602852
21	0xbc8146d4	-0.015780844
22	0x3d37bca2	0.04485763
23	0xba513b18	-0.0007981523
24	0x3ae8845a	0.0017739639
25	0x3bcd1141	0.0062581603
26	0x3c3ad13e	0.011402426
27	0xbc7c575d	-0.015401688
28	0xbc264493	-0.010148185
29	0x3d189113	0.03724773
30	0x3ccb8534	0.02484379
31	0x3c8ac78a	0.01694085
32	0x3cb1852a	0.021669943
33	0x3d1da8b1	0.038490955
34	0xbb41fac3	-0.0029598929
35	0xbc6b8cd2	-0.014376836
36	0xbca226de	-0.019793924
37	0x3d11b343	0.035571348
38	0xbccf7ecd	-0.025329018
39	0x3d5b45dd	0.053533424
40	0x3b30f9c3	0.0027004338
41	0xba824276	-0.000993802
42	0x3c23563d	0.009969291
43	0xbbfd7272	-0.00773459
44	0xbb85d03e	-0.0040836623
45	0x3cfc0a49	0.030766623
46	0x3c0e6d4c	0.008693051
47	0xb99e95a4	-0.000302476
48	0xbc822643	-0.015887385
49	0x3c140457	0.009034238
50	0xbc19e6d2	-0.009393411
51	0xbc85ed49	-0.016348498
52	0xbc76b7ad	-0.01505844
53	0xbc81518e	-0.015785959
54	0x3d230c57	0.03980669
55	0x3bd6e2bd	0.006557791
56	0xbb9fb08f	-0.0048733423
57	0x3ba99268	0.0051749237
58	0x3c95cc6a	0.018285949
59	0x3d025bc9	0.031825814
60	0xbd05d5f1	-0.032674734
61	0x3ca945c2	0.020663146
62	0x3c496bb8	0.012293749
63	0x3c195649	0.009358951
64	0x3d807956	0.06273143
65	0xbd0fe771	-0.03513283
66	0x3ca02258	0.019547626
67	0x3cab39e2	0.020901624
68	0x3c9c3748	0.019069329
69	0x3cb5e4a5	0.022203753
70	0x3c32977e	0.010900376
71	0xbd9e415f	-0.07727312
72	0x3d043148	0.03227356
73	0xbbe8d4b9	-0.0071054366
74	0x3d036bf5	0.032085378
75	0x3c943fd0	0.018096834
76	0x3d1575e5	0.036489386
77	0x3d0d92b1	0.034563724
78	0xbd66c895	-0.056343634
79	0xbbe86a69	-0.007092763
80	0xba287044	-0.000642542
81	0x3cd71bcf	0.026258377
82	0x3ce6619e	0.02812272
83	0x3da71393	0.0815803
84	0x3cb637f9	0.022243487
85	0xb94ff13f	-0.0001983093
86	0xbc0d1099	-0.008609914
87	0x3cb9fa32	0.02270231
88	0x3d2205d5	0.039556343
89	0xbccbf286	-0.024895918
90	0xbcaec758	-0.021335289
91	0x3d95ba70	0.07310951
92	0xbc50fe49	-0.012755939
93	0xbc2908ad	-0.01031701
94	0x3c9fde37	0.01951514
95	0x394b29cc	0.00019375159
96	0xbc098318	-0.008393072
97	0x3d28f5ee	0.04125016
98	0x3c113543	0.008862796
99	0x3d09ad4c	0.033612534
100	0xbcbd4bcf	-0.023107437
101	0x3bbc64ea	0.0057493346
102	0x3c82e869	0.015979962
103	0x3d762773	0.060096215
104	0x3be1c6cb	0.006890153
105	0xbcdd960c	-0.027049087
106	0xbc988a03	-0.018620497
107	0x3db3fc9d	0.087884165
108	0x3cc73750	0.024318367
109	0x3cd4dc7e	0.025984045
110	0x3c1a446b	0.009415726
111	0x3c28c3bc	0.010300573
112	0x3cf29297	0.029610915
113	0x3d2c4cc2	0.04206539
114	0x3cc3a70a	0.023883361
115	0x3cf74613	0.030184781
116	0x3c1e4e7a	0.009662265
117	0x3cc4cdcd	0.024023915
118	0x3c5d27f6	0.013498297
119	0x3b34ace7	0.0027568878
120	0x3b8b78ff	0.004256367
121	0xb84dbbbe	-4.9050657e-05
122	0x3d35da01	0.044397358
123	0x3cc85cf3	0.024458384
124	0x3c8e8405	0.017396936
125	0x3c6451de	0.013935534
126	0x3c838d99	0.01605873
127	0xbc1c00ee	-0.009521706
128	0x3ceb21c4	0.028702624
129	0xbbf2bd8c	-0.0074078497
130	0x3d1b6483	0.037937652
131	0xbcd815e7	-0.026377631
132	0xbcab62c2	-0.020921115
133	0x3c4acfa5	0.012378608
134	0x3ceba2b8	0.028764114
135	0xbc7737f5	-0.015089025
136	0x3c1f881b	0.00973704
137	0x3d02d4aa	0.031941094
138	0xbd4d8c32	-0.05018253
139	0xbca3b2c6	-0.019982707
140	0x3ced59ac	0.028973423
141	0x3c8848d5	0.016636292
142	0xbce75eb7	-0.028243406
143	0x3ad3de87	0.0016164341
144	0xbcdaaf2b	-0.026694855
145	0xbd20fa1f	-0.039301034
146	0x3cb44b38	0.022008523
147	0xbd67b969	-0.056573305
148	0x3c5cb921	0.013471873
149	0xbd1c204c	-0.03811674
150	0xbbe5d6bd	-0.007014124
151	0x3bc0a6c5	0.0058792555
152	0x3bf9635f	0.007610723
153	0xbc5f6744	-0.01363546
154	0x3c73b5d3	0.014874893
155	0x3ca41fc6	0.020034682
156	0x3baffc94	0.005370686
157	0x3ac23a9e	0.0014818495
158	0x3cedf0b5	0.029045442
159	0x3d18b475	0.037281472
160	0x3ccbca50	0.024876744
161	0x3d070419	0.032962892
162	0xbcb0f692	-0.021601949
163	0x3c31c838	0.0108509585
164	0x3c3e8f1d	0.011630801
165	0x3affb75b	0.00195096
166	0x3c587664	0.01321182
167	0xbb85d2a8	-0.00408395
168	0xbbe1735e	-0.006880208
169	0x3ce262ff	0.027635096
170	0xb8248b6f	-3.9230505e-05
171	0xbca05aec	-0.019574605
172	0x3d4fbd21	0.050717477
173	0xbc49a831	-0.012308166
174	0x3aec8675	0.0018045442
175	0xbc480728	-0.012208737
176	0xbadf9ed5	-0.0017060885
177	0x3c99a549	0.018755572
178	0x3b545f63	0.0032405488
179	0x3c7d0ef2	0.015445458
180	0x3d035a14	0.032068327
181	0xbbb4a937	-0.005513336
182	0x3cfdde5e	0.030989822
183	0x3c8d5931	0.017254444
184	0x3cb37616	0.021906894
185	0x3cae98d6	0.021313112
186	0x3cd9229c	0.02650576
187	0xbbdefcdc	-0.0068050455
188	0x3cf1aeba	0.029502261
189	0x3c81e463	0.015855974
190	0x3b84e432	0.0040555233
191	0x3da3c4c6	0.07996516
192	0xbc72ca04	-0.014818672
193	0x3c91778e	0.017757203
194	0xbb1100bd	-0.0022125684
195	0x3c79370d	0.015210879
196	0xbd937c69	-0.07201464
197	0xbcb45a58	-0.022015736
198	0xbbc02219	-0.0058634398
199	0x3c429dd7	0.011878452
200	0xbbd9ca91	-0.0066464623
201	0x3ac6a652	0.0015155768
202	0xbc1fd8c2	-0.009756269
203	0xbc758b9e	-0.014986901
204	0xbcafebb6	-0.0214747
205	0x3cc573d4	0.024103083
206	0xbc465e0b	-0.0121073825
207	0x3b7ad4b6	0.0038273758
208	0x3c22a54a	0.009927103
209	0x3bfc06a2	0.0076912204
210	0x3c5c95dc	0.013463464
211	0x3d1f71e7	0.038926985
212	0xbd473a89	-0.048639808
213	0x3c8845a8	0.016634777
214	0xbc9f7eaa	-0.019469578
215	0x3c26218b	0.010139833
216	0xbbe729a5	-0.007054525
217	0x3d2717fa	0.04079435
218	0xbc2f2ed1	-0.010692314
219	0xbbb95a31	-0.0056565036
220	0x3d20d977	0.03926989
221	0xbc6b6283	-0.014366749
222	0x3cc81e58	0.024428532
223	0xbc1b994b	-0.009496997
224	0xbc6da18f	-0.014503851
225	0xbcb38500	-0.021914005
226	0x3cd6ca15	0.026219407
227	0xbcd1027c	-0.02551388
228	0x3c866295	0.01640443
229	0xbccb3e10	-0.024809867
230	0x3b61faef	0.0034481843
231	0x3b524319	0.003208345
232	0x3d67e6ec	0.05661671
233	0xbcbc3771	-0.022975655
234	0x3d0929b5	0.03348704
235	0x3d32b707	0.04363158
236	0x3b6925c7	0.0035575496
237	0x3c81a5fe	0.015826222
238	0x3b4cc156	0.0031243167
239	0x3b07b81c	0.0020709103
240	0xbba3ffd4	-0.0050048623
241	0xbc95d2e3	-0.018289035
242	0xbbc2428c	-0.005928343
243	0x3cb457bf	0.022014497
244	0x3c2bd0ce	0.010486795
245	0x3b4e4619	0.0031474887
246	0x3c817dd5	0.015807072
247	0x3c7731f2	0.0150875915
248	0x3b5bc60a	0.0033534789
249	0xbd644e2a	-0.055738606
250	0xbd42220a	-0.047395743
251	0x3d819087	0.063263945
252	0x3c4b0d38	0.012393288
253	0x3d03ec20	0.03220761
254	0x3d7dfe2d	0.06200998
255	0x3cf96871	0.03044531

actor_fc.weight f4 [256, 256]
0	0x3dfc58b4	0.12321606
1	0x3e407460	0.18794394
2	0xbde8f5d0	-0.1137501
3	0x3b6731bd	0.003527745
4	0xbd897a18	-0.06712741
5	0xbda92fcb	-0.08261069
6	0x3d55b47b	0.052174073
7	0x39846f7a	0.00025260058
8	0xbe1fe3a7	-0.15614186
9	0xbdb60bf8	-0.088890016
10	0xbcf90eb6	-0.030402523
11	0xbbc3c207	-0.0059740576
12	0xbe524574	-0.20534307
13	0xbd6bce24	-0.057569638
14	0xbcab8b7a	-0.020940531
15	0x3db49e39	0.08819241
16	0xbd7eaf25	-0.06217875
17	0x3dd12e30	0.10213888
18	0xbb6ed6c7	-0.0036443935
19	0x3d99b0f8	0.07504457
20	0xbdb3c2d3	-0.08777394
21	0xbda50b48	-0.08058792
22	0xbe0fac30	-0.14030528
23	0xbbab67b4	-0.0052308682
24	0xbdf860af	-0.12127816
25	0xbdb03b34	-0.08605042
26	0x3e078652	0.13234833
27	0x3de0acab	0.10970434
28	0xbdbb2caf	-0.09139382
29	0x3e6cdb27	0.23130475
30	0x3dee373d	0.116316296
31	0xbe34a8fd	-0.17642589
32	0x3c82dee3	0.015975421
33	0xbca92f1d	-0.020652348
34	0x3cb04eea	0.021522004
35	0x3e28cfc6	0.1648551
36	0xbc26471c	-0.01014879
37	0xbe0a64d0	-0.1351502
38	0xbe687137	-0.22699438
39	0xbdaf7638	-0.0856747
40	0xbcd9ada4	-0.026572056
41	0x3e059e36	0.13048634
42	0x3abe3363	0.0014511164
43	0x3cb56870	0.022144526
44	0xbbd0ebd7	-0.0063757706
45	0xbdd52434	-0.10407296
46	0xbc85db41	-0.0163399
47	0xbdfd8f17	-0.12380808
48	0xbe6f7674	-0.2338503
49	0xbd4507e4	-0.04810323
50	0xbe01d15e	-0.12677523
51	0xbc894180	-0.016754866
52	0xbd96218d	-0.07330618
53	0x3a287bfc	0.00064271665
54	0xbdfda93f	-0.12385797
55	0xbe466c08	-0.19377148
56	0x3bba9441	0.005693943
57	0xbdf9ffad	-0.122069694
58	0xbd250fa2	-0.04029811
59	0x3e1619d5	0.14658292
60	0x3cc997da	0.024608541
61	0x3c3c90d6	0.011509141
62	0xbcac140b	-0.021005651
63	0xbe11ff75	-0.14257605
64	0xbdc6912d	-0.09695659
65	0x3c9a8958	0.018864319
66	0x3d77d299	0.060503576
67	0xbd2f734f	-0.042834576
68	0x3db2fa45	0.087391414
69	0x3dd86172	0.10565461
70	0xbc9ae6ab	-0.01890882
71	0x3dd22e77	0.10262769
72	0x3c9f0284	0.01941038
73	0xbd412437	-0.047153678
74	0xbceb778e	-0.028743532
75	0x3c783adb	0.015150751
76	0x3c3eead6	0.011652669
77	0xbe0ca61f	-0.13735245
78	0x3a87f5dd	0.0010372956
79	0xbdc06642	-0.09394504
80	0xbd3382e1	-0.043825988
81	0x3d161f4f	0.036650952
82	0x3d2cded6	0.0422047
83	0xbd204aa0	-0.039133668
84	0xbd551f0e	-0.05203157
85	0x3da2dbdd	0.07952092
86	0xbdb56a53	-0.0885817
87	0xbde4d7ab	-0.11173948
88	0x3c1f064f	0.009706094
89	0x3cada1f2	0.021195386
90	0xbd0c06a0	-0.034186006
91	0xbdc58523	-0.096445344
92	0xbd3ba4e3	-0.045811545
93	0xbdcb8d66	-0.09939079
94	0xbe1a4022	-0.15063527
95	0xbe15cf9a	-0.14629975
96	0x3d4b15a2	0.049581178
97	0xbde4a2c5	-0.11163858
98	0xbd99a85b	-0.075028144
99	0xbda8eb75	-0.08248035
100	0x3cb9163e	0.022593614
101	0xbe00e02a	-0.12585512
102	0xbd2a8d72	-0.0416388
103	0xbdd819fa	-0.1055183
104	0xbdf9bbdf	-0.12194037
105	0xbe84e2fd	-0.25954428
106	0xbc4a7c33	-0.012358713
107	0xbdf79b48	-0.120901644
108	0xbe4672af	-0.19379686
109	0x3db95933	0.090502165
110	0xbe047a36	-0.12937245
111	0xbcb22764	-0.021747299
112	0x3ec08924	0.3760463
113	0x3db331ba	0.08749719
114	0xbe269616	-0.1626819
115	0xbd9530d7	-0.07284706
116	0xbe871819	-0.26385573
117	0xbd6d1722	-0.05788339
118	0xbe0b5e23	-0.13610129
119	0x3e4a0ca6	0.19731387
120	0xbdccf5b3	-0.10007801
121	0xbdbc1cd6	-0.091851875
122	0xbab7a566	-0.0014011085
123	0x3de58e39	0.112087674
124	0xbddea82d	-0.10871921
125	0xbdbff28c	-0.09372434
126	0x3b243190	0.0025053956
127	0x3d6395c9	0.055562768
128	0x3dc6c2da	0.09705134
129	0xbc29d026	-0.010364568
130	0xbd59a9e6	-0.053140543
131	0xbe19e4fe	-0.1502876
132	0x3c0ad9f8	0.008474819
133	0x3c94f253	0.018181955
134	0x3d715c63	0.058925997
135	0x3df58123	0.119875215
136	0xbd16b427	-0.0367929
137	0x3dde9d15	0.10869805
138	0x3da00546	0.07813506
139	0x3d89a448	0.06720787
140	0x3dc79218	0.09744662
141	0x3d0359ad	0.032067943
142	0x3c078a39	0.008272701
143	0xbc578307	-0.013153798
144	0xbdb3ad11	-0.08773244
145	0xbd45d083	-0.048294555
146	0x3d0e4177	0.0347304
147	0xbd13eb25	-0.036112923
148	0x3c194bf1	0.009356485
149	0xbe2a9e94	-0.16662055
150	0xbdae04fc	-0.084970444
151	0x3d6a3caa	0.05718676
152	0x3d7f105c	0.06227146
153	0xbcd10086	-0.025512945
154	0x3dbf4882	0.09340002
155	0x3cccd069	0.025001721
156	0x3cba48c6	0.02273978
157	0xbd705bb9	-0.058681224
158	0xbe01dc7b	-0.12681763
159	0x3dad1654	0.084515244
160	0xbd34b936	-0.044121943
161	0xbbca696e	-0.006177119
162	0x3d773f96	0.060363375
163	0xbc934d4b	-0.017981192
164	0x3d51baee	0.05120366
165	0x3ca0b094	0.019615449
166	0xbe8a9585	-0.270672
167	0xbdec05b3	-0.115245245
168	0xbd05a608	-0.032629043
169	0x3db1994e	0.08671819
170	0xbbe13dcc	-0.006873822
171	0x3e07d880	0.13266182
172	0xbd4bb422	-0.049732335
173	0xbdb91570	-0.09037292
174	0x3c3977aa	0.011320034
175	0xbd260b3a	-0.04053805
176	0xbd10973a	-0.03530047
177	0xbe18db41	-0.14927389
178	0x3e0b873f	0.13625811
179	0xbd94adc7	-0.07259708
180	0x3dae229c	0.08502695
181	0x3db21f5d	0.08697388
182	0xbe01cf9e	-0.12676856
183	0x3cfe1ff9	0.031021105
184	0xbc42281d	-0.011850384
185	0xbd05c5cc	-0.032659337
186	0xbd31209f	-0.043244
187	0xbcd35a94	-0.025800027
188	0x3dad9735	0.08476106
189	0xbe0c1fe8	-0.13684046
190	0x3d2a2aae	0.04154461
191	0x3d56da6b	0.052454393
192	0xbdb868fd	-0.090044
193	0xbcae4483	-0.021272903
194	0xbda45082	-0.08023168
195	0x3cb112d3	0.021615421
196	0x3d5928f4	0.05301757
197	0xbc88d597	-0.01670341
198	0x3decd21c	0.11563513
199	0xbb27aa7d	-0.0025583797
200	0xbd9bc5e8	-0.07606107
201	0xbe4d49e9	-0.20047726
202	0xbcab8cd2	-0.020941172
203	0x3d41e6de	0.047339313
204	0xbdaabf0f	-0.08337223
205	0xbcf597d8	-0.029979631
206	0x3d6bef3d	0.057601202
207	0xbddf77aa	-0.10911496
208	0xbc1a33f5	-0.009411802
209	0x3db3478f	0.08753883
210	0x3d65ec25	0.056133408
211	0x3aa25ae2	0.0012386704
212	0x3e8041b3	0.25050125
213	0x3dcd7e95	0.10033909
214	0xbcbedefa	-0.023299683
215	0x3dccc42e	0.09998356
216	0xbc06d38b	-0.008229147
217	0x3ce90248	0.02844347
218	0xbe49c216	-0.19702944
219	0xbd7b0e14	-0.061292723
220	0x3b90bfc5	0.004417392
221	0xbc7ec1cf	-0.015549137
222	0x3dc6f004	0.09713748
223	0x3dcad5b1	0.0990404
224	0xbd957c93	-0.07299151
225	0xbe159249	-0.14606585
226	0x3dbaa252	0.091129914
227	0xbd699b93	-0.057033133
228	0xbd53acb6	-0.05167838
229	0xbd36ae27	-0.04459968
230	0x3d4e4dfa	0.050367333
231	0x3da6a948	0.081377566
232	0x3cfabce4	0.030607648
233	0x3cd871df	0.026421485
234	0xbe0e235b	-0.13880675
235	0xb70cc328	-8.390089e-06
236	0xbd160890	-0.03662926
237	0x3ccd7217	0.025078816
238	0xbe5e74f3	-0.217243
239	0xbe7cafcd	-0.24676438
240	0xbd722dee	-0.059125833
241	0xbd30d81c	-0.043174848
242	0x3dab88b6	0.08375685
243	0xbe1f0eb3	-0.15532951
244	0xbdadd68d	-0.08488188
245	0x3e00fea9	0.12597145
246	0x3e22806c	0.15869302
247	0xbdaed986	-0.08537583
248	0xbd406fac	-0.0469815
249	0x3db290e5	0.08719043
250	0xbd216d19	-0.039410684
251	0xbcaaea44	-0.02086366
252	0x3e3e5757	0.18588005
253	0xbe03e666	-0.12880859
254	0xbdbcb167	-0.09213524
255	0x3d032985	0.032022018

actor_fc.bias f4 [256]
0	0x3c411f2c	0.011787217
1	0xbcd6ebd6	-0.026235502
2	0xbccb6f8a	-0.02483346
3	0xbd69da57	-0.05709299
4	0xbcb66684	-0.02226568
5	0x3d1223d0	0.035678685
6	0xbc9e4f34	-0.019324876
7	0x3da55af4	0.080739886
8	0xbb9b36ad	-0.0047367425
9	0xbcb6d414	-0.022317924
10	0x3ca9af56	0.02071349
11	0x3d05b41e	0.032642476
12	0xbbf62a82	-0.0075123915
13	0xbc68bbbf	-0.014204918
14	0xbd09b5cd	-0.033620644
15	0xbc1f5665	-0.009725188
16	0xbd0a9ee8	-0.03384295
17	0xbc89ed67	-0.016836835
18	0xbc94d271	-0.018166753
19	0xbd344053	-0.044006657
20	0x3c21c648	0.009873934
21	0x3c219b37	0.009863666
22	0xbd1bc491	-0.038029257
23	0xbcf05334	-0.02933655
24	0xbb78d257	-0.003796717
25	0x3d352d0d	0.044232417
26	0xbcc83514	-0.024439372
27	0x3d246398	0.040134043
28	0xbc155785	-0.009115105
29	0xbc083687	-0.008313782
30	0xbcadd638	-0.021220312
31	0xbd7a83f5	-0.061161
32	0xbc537de1	-0.01290843
33	0x3d1c6c4f	0.03818923
34	0xbcd3a143	-0.025833732
35	0xbc5b2817	-0.013376257
36	0xbccadb47	-0.024762763
37	0xbc31702b	-0.010829966
38	0xbd378ac6	-0.04481008
39	0x3cc4f56b	0.024042806
40	0xbb613110	-0.003436152
41	0x3ceb9522	0.028757636
42	0x3cb5a112	0.02217153
43	0xbd0637ee	-0.032768182
44	0xbcd8b8c8	-0.026455298
45	0xbc148f2d	-0.009067339
46	0x3cf441ce	0.029816534
47	0x3cf7ef5c	0.030265503
48	0xbc0895a1	-0.008336456
49	0x39549e62	0.00020276898
50	0xba88dc7a	-0.0010441684
51	0xbd5d7689	-0.054068122
52	0xbc97cd2f	-0.018530456
53	0x3bbfae22	0.0058496157
54	0x3cf454e2	0.029825632
55	0x3d0befa5	0.03416409
56	0x3c9886bc	0.018618934
57	0x3c8ed231	0.017434211
58	0xbc1d2d1f	-0.009593277
59	0x3cdd45df	0.027010856
60	0x3bc4939a	0.005999041
61	0xbd85d377	-0.06534474
62	0xbca4ce7c	-0.02011799
63	0xbd076919	-0.033059213
64	0xbd48a384	-0.048984066
65	0x3cda1f15	0.02662615
66	0x3cf3523f	0.029702304
67	0x3d10000e	0.035156302
68	0x3d553f20	0.052062154
69	0x3ce4880f	0.027896909
70	0x3d495d40	0.049161196
71	0x3baeff46	0.0053404896
72	0xbc419284	-0.011814717
73	0xbcc973ce	-0.024591353
74	0xbcc35705	-0.023845205
75	0x3a8cc9ec	0.001074133
76	0xbda1e447	-0.079048686
77	0xbc982591	-0.0185726
78	0x3ca6ba09	0.02035238
79	0x3cd151db	0.025551727
80	0x3b7ee34b	0.0038892801
81	0xbc0d895c	-0.008638706
82	0x3cb39223	0.02192027
83	0xbc719c96	-0.014746806
84	0xbe0d85b8	-0.13820541
85	0xbb088146	-0.0020829006
86	0xbcf662bb	-0.030076375
87	0xbbc4574c	-0.005991852
88	0xbcb4c673	-0.022067284
89	0x3c4f2729	0.012643614
90	0x3cfdef6b	0.030997952
91	0x3d141aff	0.036158558
92	0x3d024298	0.03180179
93	0xbd4968cc	-0.049172208
94	0xbd340acb	-0.043955605
95	0x3ccd9322	0.025094572
96	0xbb2ac451	-0.0026056955
97	0xbc27f8b2	-0.010252165
98	0x3d26f6cc	0.040762708
99	0xbcd2cc42	-0.025732163
100	0x3cb72291	0.02235535
101	0xbd2465f1	-0.04013628
102	0x3cac4289	0.02102782
103	0x3c8e2a4f	0.017354159
104	0xbcd2591a	-0.025677253
105	0x3c5a8744	0.013337914
106	0xbce686a4	-0.028140374
107	0xba1748fd	-0.0005771069
108	0xbbaf4837	-0.005349185
109	0xbcb11572	-0.021616671
110	0x3cfa9f9f	0.030593691
111	0xbcc2a8b3	-0.023762083
112	0x3caa5f2a	0.02079733
113	0x3c1a637b	0.009423132
114	0x3ce9a322	0.02852017
115	0xbc3937f0	-0.01130484
116	0xbd2fa1fe	-0.042879097
117	0x3ca28aa5	0.019841501
118	0xbc702f3c	-0.014659699
119	0x3cb28e33	0.021796321
120	0xbda75eec	-0.08172402
121	0x3c4db839	0.012556129
122	0xbcca069a	-0.024661351
123	0x3ca07909	0.019588964
124	0x3c1a7d44	0.00942928
125	0x3ca48a38	0.02008544
126	0xbc2fd4c3	-0.010731879
127	0xbd23b8b7	-0.03997108
128	0xbd1ab774	-0.03777261
129	0xbc476670	-0.012170419
130	0xbc6bf7c3	-0.014402333
131	0xbce609f1	-0.028080912
132	0x3c01fd24	0.007933889
133	0x3c825da9	0.015913801
134	0xbca0758c	-0.0195873
135	0x3c98f95d	0.018673593
136	0xbcc59d2a	-0.024122793
137	0x3c9de230	0.019272894
138	0xbca93af4	-0.020657994
139	0x3bed1e7a	0.007236299
140	0xbcbf8036	-0.023376565
141	0xbc4989f9	-0.012300962
142	0xbcaa6291	-0.020798953
143	0xbd01df88	-0.031707317
144	0x3d285c8f	0.041103896
145	0xbd06f9cf	-0.03295308
146	0x3d2363e6	0.039890192
147	0xbcd25c79	-0.02567886
148	0x3c0acc3c	0.008471545
149	0x3ab541cf	0.0013828817
150	0xbd17f46c	-0.037098333
151	0xbd111c33	-0.035427283
152	0xbbff5dfb	-0.0077931858
153	0xbcbb078c	-0.022830747
154	0xbd142b7a	-0.036174275
155	0xbd5e4c17	-0.054271784
156	0xbcb8ef34	-0.022574998
157	0x3bad041b	0.0052800304
158	0xb9a610b7	-0.0003167444
159	0x3cc2d288	0.02378203
160	0xbcec6f8d	-0.028861785
161	0xbcea2303	-0.028581148
162	0xbc4d4ec3	-0.012530985
163	0xbcea3488	-0.028589502
164	0x3b41b74e	0.002955872
165	0xbccdc33d	-0.02511751
166	0xbcd4cdf9	-0.025977122
167	0xbd297c46	-0.041378282
168	0xbc8eb094	-0.017418183
169	0xbd288027	-0.04113784
170	0xba958bb7	-0.0011409436
171	0x3c650e3e	0.013980446
172	0xbc219640	-0.009862483
173	0x3d603bff	0.054744717
174	0xbd20e70e	-0.03928285
175	0x3cc608c6	0.024174105
176	0xbd26a42d	-0.040683914
177	0x3db334b1	0.087502845
178	0xbc5502b4	-0.013001133
179	0xbca1a339	-0.019731151
180	0x3ce1ac4b	0.027547976
181	0xbc90b16d	-0.017662728
182	0xb9e1e373	-0.00043084807
183	0x3c07c9e7	0.008287883
184	0xb9aae0ef	-0.00032592515
185	0xbd2c7657	-0.042105045
186	0xbc219256	-0.009861549
187	0x3d026caa	0.03184191
188	0xbcf6e053	-0.030136263
189	0x3c55efea	0.013057688
190	0xbcbba9a9	-0.022908049
191	0x3c964f5d	0.01834839
192	0xbd4a3af5	-0.049372632
193	0xbc8720b7	-0.016495092
194	0x3cfdb2c4	0.030969031
195	0xbc9a497f	-0.018833874
196	0x3b0b2bf5	0.0021235917
197	0x3c8b3a78	0.016995654
198	0x3d4e3a24	0.050348416
199	0x3bdb7527	0.0066973153
200	0xbc7fea95	-0.015619894
201	0x3c691121	0.014225275
202	0x3ca2a2ad	0.01985296
203	0x3c4a069c	0.012330677
204	0xbc5d6f19	-0.013515257
205	0xbd1f470c	-0.038886115
206	0xbd027054	-0.031845406
207	0x3c9730de	0.018455919
208	0xbb54c863	-0.0032468073
209	0xbc76aced	-0.015055877
210	0xbcdad5fe	-0.026713368
211	0xbc7c067e	-0.015382407
212	0xbcf67c23	-0.03008849
213	0xbd72e2c7	-0.059298303
214	0x3c392aa3	0.011301669
215	0xbd2bc1f1	-0.041933004
216	0x3cb1581f	0.021648465
217	0x3c838928	0.016056612
218	0x3c82447d	0.015901798
219	0x3c3d9aea	0.011572579
220	0x3c764c47	0.015032834
221	0xbcab5688	-0.020915285
222	0xbc6130be	-0.013744531
223	0x3c3abca0	0.011397511
224	0x3d62416d	0.055238176
225	0xbd087182	-0.033311374
226	0x3c96ce2d	0.01840886
227	0x3d0fdbb3	0.03512163
228	0x3c73c929	0.014879503
229	0xbde8daac	-0.11369833
230	0xbcb2b759	-0.021815943
231	0x3d0a3361	0.033740405
232	0x3d099c02	0.033596046
233	0xbc039393	-0.00803079
234	0x3cbbc3cf	0.022920517
235	0xbb2e501b	-0.002659804
236	0xbc1a40c2	-0.0094148535
237	0x3ca7842d	0.020448769
238	0x3caa775b	0.020808866
239	0x3c9b7468	0.018976405
240	0xbc99c1f7	-0.018769247
241	0x3c2daa40	0.010599673
242	0xbd208e13	-0.039197993
243	0xbcf27952	-0.029598866
244	0x3b929c5e	0.004474207
245	0xbcda3236	-0.02663527
246	0x3cab865d	0.020938093
247	0xbc9de791	-0.019275459
248	0xbcbca4a3	-0.023027724
249	0x3c9c23d0	0.019060045
250	0xbcec4a18	-0.028843924
251	0xbd03c454	-0.032169655
252	0x3cebaa07	0.028767599
253	0x3c580f35	0.013187219
254	0x3ce998fc	0.028515331
255	0x3c99d720	0.018779337

actor_out.weight f4 [12, 256]
0	0xbdb786ac	-0.089612335
1	0x3dbeb0eb	0.09311088
2	0x3d7997e1	0.06093586
3	0xbe772662	-0.24135736
4	0xbddcecac	-0.10787329
5	0x3e3833dd	0.17988534
6	0x3c3af3f5	0.011410703
7	0xbe4b41b7	-0.19849287
8	0xbe378fb3	-0.1792591
9	0x3d2d9642	0.042379625
10	0x3bc0f087	0.005888048
11	0xbdbcefb4	-0.09225407
12	0xbdf3ba53	-0.11900773
13	0x3b21c265	0.0024682519
14	0xbe19cca1	-0.15019466
15	0xbe103292	-0.14081791
16	0xbd0c713d	-0.03428768
17	0xbba1cbc0	-0.004937619
18	0xbdd88a82	-0.10573293
19	0x3b6bb851	0.0035968015
20	0x3cb88e04	0.022528656
21	0x3e4f0beb	0.2021939
22	0x3db044b0	0.08606851
23	0x3e770056	0.24121222
24	0x3e306f23	0.17229895
25	0x3e111024	0.14166313
26	0xbdc16101	-0.0944233
27	0x3c57809e	0.013153223
28	0x3e685ab3	0.22690849
29	0x3d98713a	0.07443471
30	0x3e01786e	0.12643597
31	0xbe055de5	-0.13024099
32	0xbe914ae9	-0.28377464
33	0x3d3ec007	0.04656985
34	0xbe07cac0	-0.13260937
35	0xbd08efd6	-0.03343185
36	0x3db9d640	0.09074068
37	0xbe228b19	-0.15873374
38	0xbe3644cc	-0.17799681
39	0xbdc09104	-0.094026595
40	0x3d969347	0.0735231
41	0xbe9ef27e	-0.31044382
42	0x3e5efc65	0.21775968
43	0x3e1c7657	0.15279518
44	0x3cae1c2b	0.021253666
45	0x3d98177d	0.07426355
46	0xbd8f6c53	-0.07003083
47	0x3d990a6f	0.07472693
48	0xbe03e5aa	-0.12880579
49	0xbd972dd3	-0.07381787
50	0x3e69cf17	0.22832905
51	0xbce85232	-0.028359506
52	0x3db1655d	0.08661912
53	0x3dd45105	0.10367016
54	0xbe2000d3	-0.15625314
55	0x3e221cdf	0.15831326
56	0xbde76260	-0.112980604
57	0x3e5a12ae	0.21296188
58	0xbe5963c3	-0.21229462
59	0xbdf8b96f	-0.12144744
60	0x3e073c62	0.13206628
61	0x3e6206f8	0.22072971
62	0xbdd9a057	-0.106262855
63	0xbc843239	-0.01613723
64	0x3e1d27e4	0.15347248
65	0xbd391f22	-0.045195706
66	0xbe4300ac	-0.19043225
67	0x3e89fdd9	0.26951483
68	0x3db59ffd	0.08868406
69	0x3db34fb4	0.087554365
70	0x3dafb82f	0.08580052
71	0x3bb2a3c0	0.0054516494
72	0x3d4ac69e	0.049505822
73	0x3e0e45cd	0.13893814
74	0xbd8e27e9	-0.06941206
75	0xbddde40c	-0.10834512
76	0xbe2574f8	-0.16157901
77	0xbc8f5156	-0.017494839
78	0xbdf17b87	-0.11791139
79	0x3ddd4584	0.10804275
80	0xbdb6fcea	-0.08934958
81	0x3def4077	0.116822176
82	0x3e0f9821	0.14022876
83	0xbd04f780	-0.032462597
84	0xbe15834e	-0.1460087
85	0xbdc26040	-0.094910145
86	0x3de9818c	0.11401662
87	0xbdd345a6	-0.10316019
88	0x3d37766d	0.044790674
89	0xbc803948	-0.015652314
90	0xbd3fad7b	-0.046796303
91	0x3d19edf1	0.037580434
92	0xbe55dda8	-0.20885336
93	0x3e43d67e	0.19124791
94	0xbd15ddc7	-0.036588456
95	0x3d5ff7b9	0.054679606
96	0xbd2f47bb	-0.042793017
97	0x3be7e614	0.007076988
98	0x3de682c1	0.11255408
99	0xbe25c8a5	-0.16189821
100	0x3da15dcc	0.078792185
101	0xbcc0dba2	-0.02354223
102	0x3dba6de0	0.09102988
103	0x3e1d08fb	0.15335457
104	0x3da0aa67	0.07845002
105	0xbced858e	-0.028994348
106	0x3dad7b8e	0.08470832
107	0x3e69536a	0.22785726
108	0x3e410108	0.1884805
109	0x3dd066f4	0.10175887
110	0xbd9dab0b	-0.076986395
111	0x3d4ce392	0.050021715
112	0x3d4a5432	0.0493967
113	0xbda3e444	-0.080025226
114	0xbe16056e	-0.14650509
115	0x3e07c4db	0.13258688
116	0x3decc654	0.115612656
117	0x3de53430	0.111915946
118	0xbdb80f5c	-0.089873046
119	0x3d9f9616	0.077922985
120	0xbb998031	-0.004684471
121	0x3dc18f6a	0.09451182
122	0xbdf633d2	-0.12021603
123	0xbe46476e	-0.19363186
124	0x3d94a3c4	0.07257798
125	0x3ca25107	0.019814027
126	0xbe4e75f7	-0.20162188
127	0x3ce0e731	0.02745399
128	0xbe5c92d6	-0.21540388
129	0xbe15d80d	-0.14633198
130	0xbcc6e8a3	-0.024280852
131	0xbd0384ed	-0.03210919
132	0xbe05b758	-0.13058221
133	0x3e1a9976	0.15097603
134	0xbd8e2ff2	-0.069427386
135	0xbd2d16ef	-0.0422582
136	0x3d0c30f3	0.03422637
137	0xbc29df5e	-0.010368196
138	0xbd96894e	-0.073504075
139	0x3d39cbb6	0.04536029
140	0xbe0b447c	-0.13600343
141	0x3db9677f	0.090529434
142	0xbe49c347	-0.19703399
143	0xbcad3ac3	-0.021146184
144	0xbdab814d	-0.083742715
145	0xbd9420ba	-0.072328046
146	0xbe246aab	-0.16056316
147	0xbe0c5aca	-0.13706508
148	0x3cbe0310	0.02319482
149	0x3d385664	0.045004264
150	0xbd4b9b97	-0.04970893
151	0xbda3d0a9	-0.07998783
152	0x3d114b2f	0.03547209
153	0x3d222bcf	0.03959256
154	0xbe41c289	-0.18921866
155	0xbe0aebb8	-0.13566482
156	0x3d54bc4b	0.051937383
157	0x3db96a4f	0.0905348
158	0xbda9ce53	-0.08291306
159	0xbce93fde	-0.028472837
160	0x3dbca82d	0.092117645
161	0xbe2278e9	-0.15866436
162	0xbd803e18	-0.062618434
163	0x3e6acb77	0.22929178
164	0x3d93e17e	0.072207436
165	0x3e06002b	0.13086002
166	0x3da9bde2	0.082881704
167	0xbd1d5ed4	-0.038420513
168	0x3d1ed10e	0.03877359
169	0x3dca5288	0.09879023
170	0xbc7c9971	-0.015417443
171	0x3d97171d	0.073774554
172	0xbd733410	-0.059375823
173	0xbe6498a0	-0.22323847
174	0x3bf29149	0.0074025732
175	0xbd98a605	-0.07453541
176	0xbe97aa54	-0.29622138
177	0x3dda8fcb	0.106719576
178	0xbddb7f93	-0.10717692
179	0x3d0bf4eb	0.03416912
180	0xbdf26cc3	-0.11837151
181	0xbdc05b41	-0.09392405
182	0x3e6a50ec	0.22882432
183	0x3d9528a5	0.07283143
184	0xbd017dc9	-0.0316141
185	0x3e252120	0.16125917
186	0x3d9e041c	0.077156276
187	0xbca0546e	-0.01957151
188	0x3b4451c2	0.0029955958
189	0xbe179f64	-0.14806896
190	0x3e2bbbf9	0.16770925
191	0xbcc36634	-0.023852445
192	0x3e26592c	0.16244954
193	0x3d36ccb0	0.0446288
194	0x3e246eb4	0.16057855
195	0x3d073e0b	0.033018153
196	0x3dbf35ea	0.09336455
197	0xbd756f2a	-0.059920467
198	0x3e383fb4	0.17993051
199	0xbc266396	-0.010155579
200	0x3d9ffcd7	0.07811897
201	0x3d800756	0.06251399
202	0x3e5a82d5	0.21338971
203	0x3c5e6b1c	0.013575342
204	0xbda0cfec	-0.07852158
205	0xbe112433	-0.14173965
206	0x3e4406fd	0.19143291
207	0xbe0c781e	-0.13717696
208	0xbe66ca1f	-0.2253804
209	0x3e2d5e30	0.16930461
210	0x3cb171f5	0.021660784
211	0x3e94c453	0.29056033
212	0xbe5ff891	-0.21872164
213	0xbe4a1f72	-0.19738558
214	0xbe042812	-0.1290591
215	0xbdb79da7	-0.08965617
216	0xbe22e02f	-0.15905832
217	0xbd979c68	-0.07402879
218	0xbc103178	-0.008800857
219	0x3dadae30	0.08480489
220	0x3d8f60f4	0.07000914
221	0x3e044ed7	0.129207
222	0xbe214f9e	-0.15753028
223	0x3d95c4c9	0.073129244
224	0x3c3b6efd	0.011440036
225	0xbe1c225f	-0.15247487
226	0x3ddeaf08	0.10873228
227	0xbaea7409	-0.0017887364
228	0xbd5bdea4	-0.053679124
229	0xbdc5619f	-0.0963776
230	0xbdd83a4e	-0.10557996
231	0x3c69c26f	0.014267548
232	0x3bbe6f69	0.005811621
233	0xba7774e1	-0.00094397186
234	0xbea15097	-0.31506798
235	0xbdd12b5b	-0.102133475
236	0x3e606fc1	0.2191763
237	0xbe0604c3	-0.13087754
238	0x3e0da17b	0.13831131
239	0xbd1a3719	-0.0376502
240	0x3b11dc8b	0.0022256698
241	0x3e383c7c	0.17991823
242	0xbc5d63dc	-0.013512578
243	0xbdfa35b1	-0.12217272
244	0xbdf91a72	-0.12163247
245	0xbda6305c	-0.081146926
246	0x3e38d9f5	0.18051894
247	0xbcb143ca	-0.02163877
248	0xbc74cbc5	-0.014941161
249	0xbdb93f34	-0.09045258
250	0xbdb27038	-0.0871281
251	0x3e0e696b	0.13907401
252	0x3c82aa6f	0.01595041
253	0xbd4c11b3	-0.049821567
254	0x3e2767d1	0.16348197
255	0xbd25a9b5	-0.04044505

actor_out.bias f4 [12]
0	0x3d052bbf	0.032512423
1	0xbd25e536	-0.040501796
2	0xbb35c197	-0.0027733797
3	0xbb732daa	-0.0037106075
4	0xbcc81085	-0.02442194
5	0xbb759901	-0.003747523
6	0x3d21966b	0.03945009
7	0xbd0e88ef	-0.03479856
8	0x3b98a4a9	0.004658301
9	0xbd020bde	-0.0317496
10	0xbb0f75f6	-0.0021890379
11	0xbb685539	-0.0035451187
