networks/saved_model/ppo_model_ep200.pth (torch, 840050 bytes, 11 tensors)

shared_fc1.weight f4 [256, 31]
-0.18179649 0.2166364 0.13948613 0.029560417 0.07291407 0.104698785 -0.052002598 -0.07273296
0.18449517 0.09064387 0.21682183 -0.063815065 -0.05405924 -0.009435082 -0.10581022 -0.08154191
0.002492701 -0.37070966 0.13412675 1.2202077 -0.28359973 -0.28460014 -0.081351906 0.035053045
-0.01971319 0.0036866816 0.09591664 0.025320439 -0.10795187 0.006985945 0.038279165 0.10923426
0.12826565 0.0017283018 0.08565886 0.014792654 -0.10680871 0.051141404 -0.09405292 0.16904575
-0.08490157 0.00952076 0.13058317 -0.034424316 -0.0405237 0.05056047 0.046192657 -0.07139066
0.091567285 0.1868106 -0.28113276 -0.60918456 0.19180009 0.10810314 0.15675098 -0.10552488
0.057935175 -0.07499228 0.0050306707 0.0077429945 -0.011245636 0.101416685 0.15799963 -0.039715316
0.002501253 -0.07502811 -0.21966225 0.014215216 0.004362009 -0.047438927 -0.0137843955 -0.023901267
-0.062189434 -0.020914206 -0.098127775 -0.04081677 -0.043326624 0.13337149 -0.007176835 0.24729723
-0.056801092 -0.23831871 0.20781182 0.14322343 0.082360774 0.0041966666 -0.12899722 -0.15378672
0.097398646 -0.09127207 0.01948831 -0.026399873 0.020857835 0.17657268 -0.110631004 0.050908256
-0.0029121186 -0.12189087 -0.1259539 -0.053756308 -0.0049615167 -0.21830769 0.19079615 -0.40166417
0.3229597 -0.03868036 0.124294154 0.15680316 0.011220367 0.0054366863 0.043102205 -0.06964922
0.27622822 0.022512281 0.32308418 -0.11119063 0.106017634 -0.07549304 -0.06970285 0.05791727
0.09104796 0.18876943 0.043449737 -0.05697234 -0.23746169 0.1736305 0.06420074 -0.035275504
-0.0957268 0.17494711 0.0033083996 0.06089113 0.18510158 0.020405723 0.21124654 0.098101035
-0.0472109 -0.008340165 0.07929878 -0.10031285 -0.1752894 0.0742837 -0.07351925 0.050988432
-0.64005494 0.16626161 -0.069173895 0.12139746 0.007740424 -0.059030186 0.014682405 0.051999982
-0.072472334 -0.012424561 0.11988755 0.005071215 -0.065208614 -0.026695987 -0.16079606 0.051990114
-0.106380396 -0.23560184 -0.19085196 -0.22348446 -0.0066907527 -0.1121269 0.09307104 -0.13207908
0.015230641 0.04350663 0.1680971 0.027547034 0.23200841 -0.10240248 -0.5077799 -0.05602778
-0.37550238 -0.054746922 0.031326585 -0.1522703 -0.27025762 -0.051913124 -0.028341047 0.053217337
-0.030202638 -0.010786466 -0.19147278 0.026849449 0.14829664 0.006160517 -0.028418992 0.20116743
-0.07864102 0.17140044 0.1925503 0.0016055359 -0.15146847 -0.027742837 0.11809189 0.089128
0.22869515 0.08504353 -0.11407651 0.14730556 -0.069566034 -0.269146 -0.34830263 0.028269423
-0.020466063 -0.059511427 0.27309808 -0.2543896 -0.035705704 0.012735793 0.17611063 0.061188236
0.14044015 -0.019424038 -0.15861759 -0.09388506 -0.10972288 -0.15820819 -0.16511633 -0.23325409
-0.15646076 -0.15395822 0.10876075 -0.057426557 0.06385522 0.06780173 0.01736819 -0.009356889
-0.0313974 0.06740155 -0.053787556 -0.14833558 0.38551137 0.067591056 -0.5866059 -0.018106373
0.28754222 0.10489151 -0.3388941 -0.098982766 0.13348989 0.012253555 -0.007709887 -0.045379166
-0.17396533 0.09767933 0.12709065 0.20291202 -0.1419129 0.04104574 0.045878943 -0.028542234
00000000: dc28 3abe efd5 5d3e 74d5 0e3e b028 f23c
00000010: f953 953d 516c d63d ad00 55bd 05f5 94bd
00000020: 4dec 3c3e 7ea3 b93d 8b06 5e3e 79b1 82bd
00000030: 396d 5dbd 9a95 1abc 07b3 d8bd 72ff a6bd
00000040: 955c 233b a8cd bdbe 8658 093e c42f 9c3f
00000050: fc33 91be 1cb7 91be d49b a6bd c893 0f3d
00000060: 8e7d a1bc 419c 713b f16f c43d cf6c cf3c
00000070: df15 ddbd 5bea e43b 9dca 1c3d 36b6 df3d
00000080: 1258 033e 2f88 e23a ea6d af3d e35c 723c
00000090: 86be dabd a679 513d d19e c0bd 541a 2d3e
000000a0: e0e0 adbd f6fc 1b3c 98b7 053e 8300 0dbd
000000b0: 2efc 25bd 7f18 4f3d 8334 3d3d 4435 92bd
000000c0: a187 bb3d 474b 3f3e a2f0 8fbe 85f3 1bbf
000000d0: 3e67 443e 2e65 dd3d 5483 203e 6e1d d8bd
000000e0: 6f4d 6d3d 8d95 99bd 53d8 a43b f2b8 fd3b
000000f0: 9e3f 38bc 8db3 cf3d a8ca 213e 87ac 22bd
00000100: 10ec 233b 56a8 99bd 24ef 60be f0e6 683c
00000110: 2fef 8e3b 524f 42bd f2d7 61bc 97cc c3bc
00000120: 59ba 7ebd 4554 abbc 37f7 c8bd 7c2f 27bd
00000130: 4277 31bd 8992 083e a82b ebbb 7c3b 7d3e
00000140: 43a8 68bd d209 74be 9fcc 543e 2aa9 123e
00000150: c4ac a83d 3184 893b d917 04be 447a 1dbe
00000160: f178 c73d daec babd f3a5 9f3c 8c44 d8bc
00000170: 0dde aa3c 78cf 343e 8292 e2bd 2d85 503d
00000180: 3ed9 3ebb eca1 f9bd 0ffa 00be 932f 5cbd
00000190: 3894 a2bb 0d8c 5fbe 1160 433e eda6 cdbe
000001a0: f95a a53e 4c6f 1ebd ef8d fe3d 0291 203e
000001b0: a1d5 373c 3b26 b23b f08b 303d 40a4 8ebd
000001c0: c96d 8d3e ad6b b83c 4a6b a53e eab7 e3bd
000001d0: c61f d93d 189c 9abd 5ec0 8ebd a93a 6d3d
000001e0: 5a77 ba3d c64c 413e 5af8 313d d45b 69bd
000001f0: 2829 73be 32cc 313e ad7b 833d 0c7d 10bd
00000200: 6a0c c4bd 5625 333e bcd1 583b fa68 793d
00000210: 458b 3d3e e729 a73c 0351 583e 32e9 c83d
00000220: 3760 41bd 30a5 08bc 6667 a23d d370 cdbd
00000230: 117f 33be 0d22 983d 4391 96bd 3fd9 503d
00000240: a4da 23bf 7c40 2a3e 0bab 8dbd 3b9f f83d
00000250: 62a3 fd3b a3c9 71bd 788e 703c effd 543d
00000260: 606c 94bd 6390 4bbc 9b87 f53d 6f2c a63b
00000270: 188c 85bd 8bb1 dabc b9a7 24be 96f3 543d
00000280: f7dd d9bd 9c41 71be b26e 43be 1cd9 64be
00000290: 1a3e dbbb caa2 e5bd 089c be3d bd3f 07be
000002a0: f089 793c 0234 323d a521 2c3e 51aa e13c
000002b0: 9d93 6d3e 64b8 d1bd ddfd 01bf 637d 65bd
000002c0: d941 c0be 4f3e 60bd 4e50 003d bfec 1bbe
000002d0: 355f 8abe dba2 54bd 7c2b e8bc 6cfa 593d
000002e0: 866b f7bc b8b9 30bc 7111 44be 60f3 db3c
000002f0: 13db 173e 2ade c93b f2ce e8bc d6fe 4d3e
00000300: 8b0e a1bd 9983 2f3e e82b 453e d870 d23a
00000310: 8d1a 1bbe f244 e3bc 29da f13d be88 b63d
00000320: 102f 6a3e 4d2b ae3d f2a0 e9bd 45d7 163e
00000330: a378 8ebd 81cd 89be b954 b2be 4795 e73c
00000340: 72a8 a7bc 41c2 73bd 83d3 8b3e 5b3f 82be
00000350: 2540 12bd caa9 503c 5856 343e 84a0 7a3d
00000360: 8bcf 0f3e 291f 9fbc a66c 22be cf46 c0bd
00000370: 64b6 e0bd 5401 22be 4114 29be 29da 6ebe
00000380: 4037 20be 39a7 1dbe f5bd de3d 1c38 6bbd
00000390: 87c6 823d a2db 8a3d bc47 8e3c a34d 19bc
000003a0: 8f9a 00bd d309 8a3d 5750 5cbd 48e5 17be
000003b0: bf61 c53e 2e6d 8a3d ce2b 16bf d153 94bc
000003c0: bc38 933e 5cd1 d63d 8783 adbe 7ab7 cabd
000003d0: 93b1 083e 22c3 483c 38a3 fcbb 81df 39bd
000003e0: f823 32be 1a0c c83d 0d24 023e 2bc8 4f3e
000003f0: 9e51 11be 941f 283d 8feb 3b3d 67d1 e9bc

shared_fc1.bias f4 [256]
-0.0265923 0.020429745 -0.053930607 0.013859689 -0.020406878 -0.07105908 0.035301805 -0.06005442
0.022309417 -0.016046738 -0.012940975 -0.017977564 -0.0045848754 -0.02245977 0.05472779 0.0113841295
0.03815765 0.036949415 0.004488396 -0.00953565 0.007865027 0.0014983186 -0.13577326 -0.24650292
-0.02420991 0.009702822 -0.027722739 -0.02726552 -0.040626574 0.03299039 -0.043438017 0.016631076
0.03190306 -0.011226741 -0.013445005 -0.009958078 0.049401 0.0011073477 -0.03418665 0.05535643
-0.016969295 0.0054351636 0.0039668772 -0.05017805 -0.013698579 -0.0016543451 0.044819485 0.029678462
0.043565124 0.006765182 0.031707622 0.041684285 0.016887669 -0.023210794 0.060275294 -0.030423107
0.031081764 0.008858688 0.027093064 0.012056998 -0.035852324 0.027984349 0.019695807 0.00040849386
-0.008089109 0.017689126 -0.0023174002 -0.04979657 0.014196099 -0.015956389 0.0011979013 0.04624316
0.023427928 -0.0151831675 -0.023122802 0.0066644596 0.0019125597 -0.0010332504 -0.027541464 -0.015502715
-0.032229412 0.013488824 0.0018914306 0.07485326 0.0049530216 0.010766983 -0.021319995 0.02792337
0.014762629 0.023838963 -0.035596482 0.076432 0.05736653 -0.017883474 -0.017301708 -0.06851641
-0.041766576 -0.020656833 -0.013054383 0.07850093 -0.025793614 -0.0075186486 0.026138995 0.021714088
-0.0208667 0.018893305 0.010847965 0.00715567 0.0046592373 0.026954813 -0.012581965 0.032972764
-0.01461647 0.01245295 -0.07709868 0.009377785 -0.022173751 -0.0031061997 0.02064112 0.044311687
0.040021133 0.032129128 -0.054414567 0.014547545 0.01594508 -0.013905166 -0.007785259 0.0052633076
-0.039678697 -0.040542755 -0.018013224 0.022166375 0.045647956 0.06254948 0.0146481395 -0.000525457
-0.096327685 0.008832938 0.011410949 0.017322097 0.054603554 0.0013501134 -0.015687607 0.056895804
0.0024933203 0.02479029 -0.04223345 -0.01866255 0.0048602344 0.049063154 0.0202615 0.0020719294
0.050222863 -0.1038354 0.0003226762 0.024149837 -0.03610188 0.007601719 0.00751488 0.09542202
-0.043359343 0.022649305 0.06488369 -0.16106549 -0.029597294 0.013057069 0.005237991 -0.006216311
0.019233303 -0.037370805 -0.02827069 -0.003772119 0.0026596894 0.07874612 -0.007231677 -0.01695676
-0.015439324 0.014738257 0.0034362532 0.023546454 0.007070104 0.028972095 -0.0100639155 0.0063654836
0.047205 0.022535633 0.011575638 0.031541232 0.004123972 0.048503533 -0.016708843 0.015368958
0.02071971 -0.025819989 -0.01584492 -0.016287984 -0.044297118 0.007575336 3.473033e-05 -0.051656622
0.0035430845 0.030811535 -0.025808942 -0.018092228 -0.081907585 -0.00079926354 0.041900247 -0.009809659
0.031154469 0.0066715083 -0.0031027207 0.008166969 -0.013735933 0.018121118 -0.0047000516 -0.0034570845
0.026653048 0.008883401 -0.043707598 -0.010041134 -0.0215152 -0.025707852 -0.044556953 0.06269785
0.018650288 0.0016722764 0.009446393 0.0026289641 0.012655533 -0.004200598 -0.029930612 0.021066671
-0.013403513 0.004469602 0.005337226 0.02775254 -0.010230328 0.029665422 0.03625975 -0.07849205
-0.010766118 -0.045087542 0.0110055655 -0.0027526808 0.01733186 -0.013669416 -0.00022171052 -0.024377065
-0.03265719 0.032143403 -0.0006473159 0.015998362 0.008278596 -0.08051685 0.036910515 0.032674927
00000000: 18d8 d9bc 485c a73c 57e6 5cbd c013 633c
00000010: 532c a7bc 6c87 91bd a098 103d a0fb 75bd
00000020: 3dc2 b63c 7374 83bc 6206 54bc af45 93bc
00000030: b93c 96bb 8dfd b7bc 3f2a 603d 8084 3a3c
00000040: 324b 1c3d 4558 173d 6513 933b 6a3b 1cbc
00000050: 50dc 003c 3b63 c43a 2508 0bbe 436b 7cbe
00000060: dc53 c6bc 96f8 1e3c cc1a e3bc f15b dfbc
00000070: 0d68 26bd ee20 073d 10ec 31bd e53d 883c
00000080: c8ac 023d 5df0 37bc 7048 5cbc 3527 23bc
00000090: b458 4a3d 6c24 913a 4d07 0cbd 6dbd 623d
000000a0: 3103 8bbc 7519 b23b 94fc 813b 8087 4dbd
000000b0: 0170 60bc 9cd6 d8ba a394 373d 3f20 f33c
000000c0: 5871 323d 76ae dd3b dadf 013d 24bd 2a3d
000000d0: 0258 8a3c 9024 bebc 3ae3 763d e139 f9bc
000000e0: 2f9f fe3c 0824 113c 46f2 dd3c b78a 453c
000000f0: e3d9 12bd 6f3f e53c 1a59 a13c 1e2b d639
00000100: 2f88 04bc c9e8 903c 86df 17bb 7df7 4bbd
00000110: c196 683c f9b6 82bc e602 9d3a 7869 3d3d
00000120: edeb bf3c d2c2 78bc 086c bdbc 8a61 da3b
00000130: dbae fa3a 216e 87ba a39e e1bc 19ff 7dbc
00000140: fd02 04bd 3a00 5d3c e1e9 f73a aa4c 993d
00000150: f54c a23b 0068 303c 45a7 aebc 8dbf e43c
00000160: f4de 713c ee49 c33c 9ecd 11bd 6188 9c3d
00000170: 2bf9 6a3d 5d80 92bc 50bc 8dbc 5552 8cbd
00000180: 6e13 2bbd 8538 a9bc 0de2 55bc 18c5 a03d
00000190: 214d d3bc ff5e f6bb 7221 d63c bee1 b13c
000001a0: a4f0 aabc 22c6 9a3c aabb 313c 1c7a ea3b
000001b0: 84ac 983b 57d0 dc3c 9624 4ebc 730e 073d
000001c0: eb79 6fbc 7507 4c3c eae5 9dbd 48a5 193c
000001d0: baa5 b5bc 6291 4bbb 9117 a93c 2c80 353d
000001e0: 33ed 233d d599 033d cfe1 5ebd d458 6e3c
000001f0: 429f 823c 7ed2 63bc 7c1b ffbb d377 ac3b
00000200: 2186 22bd 2910 26bd 7890 93bc 4296 b53c
00000210: 5af9 3a3d f119 803d c0fe 6f3c d3be 09ba
00000220: 7347 c5bd 07b8 103c fdf4 3a3c 12e7 8d3c
00000230: faa7 5f3d 4af6 b03a 4c83 80bc 930b 693d
00000240: f966 233b 0215 cb3c fbfc 2cbd 34e2 98bc
00000250: 9a42 9f3b 72f6 483d 72fb a53c 35c9 073b
00000260: 7db6 4d3d a7a7 d4bd de2c a939 e1d5 c53c
00000270: 91df 13bd d717 f93b 623f f63b 9f6c c33d
00000280: 9199 31bd 098b b93c bde1 843d 5aee 24be
00000290: 0676 f2bc 51ed 553c 74a3 ab3b 32b2 cbbb
000002a0: 298f 9d3c 2112 19bd ef97 e7bc a835 77bb
000002b0: 2f4e 2e3b a545 a13d b4f7 ecbb e7e8 8abc
000002c0: 38f5 7cbc bb78 713c c332 613b 7ee4 c03c
000002d0: 55ac e73b e356 ed3c 1fe3 24bc 8c95 d03b
000002e0: 085a 413d a69c b83c bfa7 3d3c 6131 013d
000002f0: 6222 873b a4ab 463d fce0 88bc 15ce 7b3c
00000300: 62bc a93c 7184 d3bc 35cd 81bc 616e 85bc
00000310: e570 35bd 863a f83b 68ab 1138 e595 53bd
00000320: 1833 683b 7968 fc3c 466d d3bc 2736 94bc
00000330: 2abf a7bd ab85 51ba 989f 2b3d b1b8 20bc
00000340: a837 ff3c ab9c da3b 0457 4bbb c0ce 053c
00000350: ae0c 61bc bd72 943c e402 9abb 4190 62bb
00000360: 7e57 da3c af8b 113c bd06 33bd 9283 24bc
00000370: a540 b0bc 4699 d2bc 5a81 36bd bb67 803d
00000380: 7dc8 983c 4930 db3a 0bc5 1a3c b34a 2c3b
00000390: 2759 4f3c 2ca5 89bb 0b31 f5bc 0394 ac3c
000003a0: 689a 5bbc bd75 923b e6e3 ae3b 4b59 e33c
000003b0: 1b9d 27bc e604 f33c 1b85 143d 71c0 a0bd
000003c0: 5f64 30bc b7ad 38bd b050 343c 5266 34bb
000003d0: 8bfb 8d3c b0f5 5fbc f77a 68b9 69b2 c7bc
000003e0: 8cc3 05bd cda8 033d a2b0 29ba ff0e 833c
000003f0: f3a2 073c 05e6 a4bd 7b2f 173d 25d6 053d

shared_fc2.weight f4 [256, 256]
0.017363712 -0.020592416 -0.086071566 0.045719676 -0.08985746 0.049723838 -0.10502521 -0.11779883
-0.1108144 -0.03708824 0.067526825 -0.085131794 -0.111402355 0.040120196 0.054657247 -0.050136343
0.09503467 0.09138551 -0.110478856 -0.09886444 -0.029203542 0.0912585 -0.04727664 0.09062953
-0.0054703685 -0.03642428 0.041754767 0.01696322 -0.0067709894 0.073466115 0.07632417 -0.08801673
0.021734156 -0.033240564 -0.1155196 -0.0019822393 0.08024899 0.007430466 -0.042898662 -0.097181946
-0.07941482 -0.10468529 0.0351351 0.02611689 0.050238717 0.0704502 0.07908228 0.07096122
-0.07474707 -0.106483914 -0.06781256 -0.07792026 0.05527794 -0.01606895 -0.11954867 -0.032971255
0.0020558718 -0.050498575 0.007308605 -0.09824671 -0.099192604 -0.101739466 -0.081202015 0.05595009
-0.033010628 -0.06632053 0.09552551 -0.10016812 -0.090438165 0.0103121875 -0.036475774 -0.09121839
-0.025322739 -0.10369998 -0.015112968 -0.02304044 -0.09226434 0.0402327 -0.117823556 -0.09161821
-0.035054814 -0.11839025 -0.06012922 -0.06940624 -0.106190324 -0.060049992 0.030303523 -0.030260852
-0.02229616 -0.06338905 -0.07511037 -0.11228525 -0.006494405 -0.06253656 -0.04843712 -0.09988487
-0.056455176 -0.064837374 -0.05818206 -0.083900675 0.039075036 -0.030088095 -0.06487666 -0.12632254
0.02161951 0.092737526 -0.018745512 -0.053831737 -0.05906119 -0.009519797 0.047070734 0.09494554
-0.033111002 -0.007961577 -0.06072366 0.046672158 0.012175753 -0.034386907 -0.10667947 -0.07022913
0.020373445 -0.0695658 0.021733163 0.100428574 0.010359713 0.047644265 0.051089574 -0.011098236
-0.08436427 -0.08577863 0.015142155 -0.035329524 0.040450208 -0.077736326 0.08769976 -0.018107494
-0.021199824 -0.06553041 -0.112684086 -0.07725602 -0.11444735 -0.0885725 0.07304105 0.011226799
-0.062274646 0.015799472 -0.11946886 0.067907445 0.005918488 -0.080600806 -0.068685666 0.044824082
-0.09056279 0.06217228 0.0738554 -0.105850376 -0.044381868 0.03397467 -0.108582 -0.01171535
-0.06413015 -0.094421536 -0.057998873 -0.08748617 -0.024538526 0.039049774 -0.0934536 0.11072933
-0.07595614 0.0619903 -0.09292916 -0.07197164 0.05308775 0.06884936 0.025945544 0.0777448
-0.07809711 -0.0053117303 0.023675881 0.054722887 0.075652294 0.08845756 -0.04158254 -0.05403153
0.0003620641 -0.024268271 -0.04109784 -0.09662271 -0.09137264 -0.08456759 0.087084055 -0.081785716
0.062162776 -0.068111196 0.019960955 0.06288601 0.01905302 0.08400435 -0.043858837 -0.007987679
-0.016372925 0.024929442 -0.07567618 -0.07494145 0.047243796 0.06515872 0.04691926 -0.023681205
-0.06880093 -0.09504485 0.056581546 -0.083597265 0.032309055 -0.0042301384 -0.039678298 -0.00072011276
0.028636409 0.067446284 0.073158 0.07853335 -0.09598376 0.006589794 0.0795577 -0.09935981
-0.05838404 -0.0497311 0.0050004176 -0.042530302 0.083517246 0.07846145 0.02846155 0.01115745
-0.060749467 -0.02476736 0.0012150992 -0.078428015 -0.046387468 -0.09703017 -0.036766253 0.01635362
-0.035387874 -0.0864624 -0.11049693 -0.08953255 -0.097116075 0.09598273 -0.07607147 -0.05332618
-0.0705438 0.096547656 -0.020065157 0.06992824 0.07876708 -0.06752104 0.053226877 0.05918827
00000000: 583e 8e3c 6db1 a8bc 4a46 b0bd 8e44 3b3d
00000010: 3007 b8bd 39ab 4b3d 7517 d7bd 8340 f1bd
00000020: a9f2 e2bd d7e9 17bd 814b 8a3d 9459 aebd
00000030: eb26 e4bd 1355 243d 47e0 5f3d c45b 4dbd
00000040: 89a1 c23d 5428 bb3d bd42 e2bd 7179 cabd
00000050: 443c efbc bde5 ba3d 26a5 41bd fa9b b93d
00000060: c740 b3bb a031 15bd 0c07 2b3d 73f6 8a3c
00000070: 2ddf ddbb 6775 963d d94f 9c3d 1e42 b4bd
00000080: d40b b23c 4227 08bd 8a95 ecbd 75e8 01bb
00000090: 9559 a43d 447b f33b 82b6 2fbd 5407 c7bd
000000a0: 3da4 a2bd 3e65 d6bd d3e9 0f3d 17f3 d53c
000000b0: 1dc7 4d3d 3248 903d e4f5 a13d 1e54 913d
000000c0: fe14 99bd 3d14 dabd 50e1 8abd a894 9fbd
000000d0: 1f6b 623d 08a3 83bc efd5 f4bd de0c 07bd
000000e0: cebb 063b 98d7 4ebd 067d ef3b 9235 c9bd
000000f0: 7e25 cbbd c85c d0bd 3e4d a6bd ec2b 653d
00000100: 2736 07bd 0fd3 87bd e1a2 c33d f124 cdbd
00000110: a537 b9bd 73f4 283c 9f67 15bd b5d0 babd
00000120: a271 cfbc a860 d4bd 629c 77bc 4ebf bcbc
00000130: 16f5 bcbd 0bcb 243d 7a4d f1bd 54a2 bbbd
00000140: a395 0fbd 9676 f2bd 0f4a 76bd dc24 8ebd
00000150: 507a d9bd fbf6 75bd 183f f83c 9be5 f7bc
00000160: 70a6 b6bc 1ed2 81bd 77d3 99bd cff5 e5bd
00000170: 05cf d4bb 2b13 80bd 0066 46bd 7090 ccbd
00000180: 8b3d 67bd 75c9 84bd 5050 6ebd 1ed4 abbd
00000190: 250d 203d 4f7b f6bc 0ede 84bd b25a 01be
000001a0: 661b b13c 2ced bd3d 3090 99bc ab7e 5cbd
000001b0: 25ea 71bd ecf8 1bbc 3ecd 403d cf72 c23d
000001c0: 679f 07bd 4671 02bc 5fb9 78bd 4e2b 3f3d
000001d0: cf7c 473c 49d9 0cbd c47a dabd 4ad4 8fbd
000001e0: 36e6 a63c 8478 8ebd bf09 b23c 7fad cd3d
000001f0: c9bb 293c a226 433d 4d43 513d 60d5 35bc
00000200: 2dc7 acbd b5ac afbd cd16 783c b1b5 10bd
00000210: 1eaf 253d 3934 9fbd ef9b b33d 2b56 94bc
00000220: 41ab adbc cf34 86bd eac6 e6bd 6738 9ebd
00000230: 5f63 eabd 8065 b5bd 8c96 953d 9cf0 373c
00000240: b313 7fbd e56d 813c 17ac f4bd 0f13 8b3d
00000250: e0ef c13b 0912 a5bd 12ab 8cbd 7599 373d
00000260: fc78 b9bd 5ca8 7e3d 8041 973d 15c8 d8bd
00000270: c3c9 35bd 0629 0b3d 3d60 debd bdf1 3fbc
00000280: ab56 83bd 1460 c1bd 3a90 6dbd f32b b3bd
00000290: 0505 c9bc a8f2 1f3d 9a64 bfbd 0fc6 e23d
000002a0: e58e 9bbd 8ae9 7d3d a551 bebd de65 93bd
000002b0: 8a72 593d e500 8d3d c08b d43c aa38 9f3d
000002c0: 61f1 9fbd 060e aebb ecf3 c13c 1b25 603d
000002d0: 97ef 9a3d 3d29 b53d 7452 2abd 2a50 5dbd
000002e0: 6cd3 bd39 41ce c6bc 3556 28bd 21e2 c5bd
000002f0: 9421 bbbd c631 adbd 2059 b23d 457f a7bd
00000300: 659e 7e3d e27d 8bbd 2885 a33c 61ca 803d
00000310: 1415 9c3c 790a ac3d 53a5 33bd c1de 02bc
00000320: 8320 86bc d438 cc3c 1dfc 9abd e77a 99bd
00000330: b682 413d ef71 853d 692e 403d 16ff c1bc
00000340: 81e7 8cbd e0a6 c2bd 0dc2 673d 0b35 abbd
00000350: 8056 043d f99c 8abb b685 22bd f3c5 3cba
00000360: e796 ea3c 4721 8a3d ddd3 953d 18d6 a03d
00000370: 2293 c4bd 33ef d73b 26ef a23d 287d cbbd
00000380: 1a24 6fbd d7b2 4bbd 8bda a33b 4134 2ebd
00000390: 170b ab3d 66b0 a03d 3228 e93c bdcd 363c
000003a0: 6fd4 78bd ebe4 cabc f743 9f3a de9e a0bd
000003b0: c900 3ebd c1b7 c6bd 3698 16bd 07f8 853c
000003c0: e0f2 10bd 3313 b1bd 374c e2bd d75c b7bd
000003d0: cbe4 c6bd 9892 c43d 5ccb 9bbd 8d6c 5abd
000003e0: 4579 90bd c7ba c53d af5f a4bc 8936 8f3d
000003f0: a350 a13d 7948 8abd 6d04 5a3d 666f 723d

shared_fc2.bias f4 [256]
-0.008918752 0.020584658 -0.023053097 -0.056570977 0.06758545 0.034252807 0.08133528 0.002224848
0.035716992 -0.009468452 -0.017167192 -0.024650397 0.020554885 0.023845138 0.05036863 0.025449954
-0.008179814 -0.0050297994 -0.022337146 -0.0083537735 -0.021602852 -0.025303673 0.07237801 0.012388034
-0.011278466 0.019290255 0.0044797114 -0.04804672 -0.06702974 0.029860904 0.039549425 0.023575937
0.059264965 0.078559555 0.0105153425 -0.006460455 -0.033067837 0.05153984 -0.034846466 0.08909511
-0.015258916 0.0074171964 -0.019916583 0.0021974947 -0.05744163 0.054070894 0.0005587764 0.0041397875
-0.006732756 0.04237572 0.0023059547 -0.02886433 -0.01505844 -0.015785959 0.057965636 0.0018107924
-0.014387615 0.010705893 0.047321416 0.047445513 -0.053009633 0.010489544 0.022294873 0.009458918
0.07271483 -0.067768425 0.023159172 0.039083824 0.032766476 0.0008467139 0.00371557 -0.082700916
0.017256595 0.035324655 0.061973177 0.013446246 0.030904075 0.045969214 -0.07208255 0.022266451
-0.01369934 0.0068765553 -0.002137967 0.094536394 0.026936183 0.0034514526 -0.011822947 0.030362196
0.058807872 -0.0344178 -0.021335289 0.06398478 -0.012755939 -0.050672308 0.060087312 0.008551274
-0.0035166747 0.059817083 0.01771074 0.00801074 -0.035055105 -0.01349498 0.034459077 0.07344642
-0.0028556585 -0.05674384 -0.03258396 0.11201518 0.014892774 0.065693334 0.04848686 0.023593245
0.02245548 0.024351006 0.049935892 0.02791914 0.013041666 0.042462267 0.002208586 -0.0030603348
0.0011754222 -0.023453705 0.05591485 0.024228381 0.006578859 0.031422462 -0.002789988 -0.009521706
0.049504228 -0.016933214 0.07283846 -0.026377631 -0.047452796 -0.005186824 0.027279321 -0.027682804
-0.011833741 0.037106834 -0.034631345 -0.03818398 0.06630953 0.02895003 -0.028243406 0.028021015
-0.0379426 -0.039301034 0.0036158932 -0.044127323 -0.040370837 -0.050785296 -0.01613559 0.012909743
0.01481324 -0.080252774 -0.01643245 0.03236402 -0.0013687196 -0.008047257 0.05012463 0.056500893
0.03119106 0.014572439 -0.059957784 0.011626047 -0.024103047 0.0006211021 0.012688752 -0.01361221
-0.0153031945 0.041481346 -0.0017685068 -0.037344486 0.06542435 -0.033199415 0.016517896 -0.012208737
-0.0026735642 0.012309582 0.011056889 0.013483593 -0.003570342 0.001674287 0.038103987 -0.024836969
0.015691606 -0.0032295315 0.048336122 0.01306139 0.029298015 0.02012829 -0.013805926 0.12215784
-0.030750208 0.013378869 0.008822254 -0.011635679 -0.078407496 -0.022015736 0.004904964 0.0027899272
-0.0069146324 0.00034653523 -0.015373274 -0.014986901 -0.052766036 0.013156572 -0.0055789026 0.010638718
0.017787876 0.009307119 0.049262054 0.061330523 -0.091496356 0.02588741 -0.026117392 -0.003404247
-0.007054525 0.029280301 -0.0341074 -0.0030645737 0.012399692 -0.014366749 0.060955666 -0.009496997
-0.014503851 -0.028268214 0.016069073 -0.055341456 0.017665721 -0.0326381 0.0071910364 0.02475997
0.086310014 -0.01929846 0.026405009 0.051667638 0.013527525 0.03422873 0.022545105 -0.006818648
-0.0050048623 -0.06318277 0.0086281365 0.0036734147 0.0012309006 0.01693821 0.011280288 0.03301331
0.0018383202 -0.0840855 -0.06259546 0.08168307 0.041827846 0.042956006 0.09316712 0.043694563
00000000: f51f 12bc 28a1 a83c d9d9 bcbc f8b6 67bd
00000010: 3e6a 8a3d ac4c 0c3d 1c93 a63d c1ce 113b
00000020: fb4b 123d 9121 1bbc 36a2 8cbc a1ef c9bc
00000030: b862 a83c e156 c33c 564f 4e3d 6c7c d03c
00000040: a004 06bc 04d1 a4bb 64fc b6bc 44de 08bc
00000050: 77f8 b0bc a649 cfbc ec3a 943d 2ef7 4a3c
00000060: 51c9 38bc 9906 9e3c 8bca 923b a3cc 44bd
00000070: e346 89bd db9e f43c 94fe 213d 5322 c13c
00000080: d2bf 723d d5e3 a03d 8b48 2c3c 39b2 d3bb
00000090: 2472 07bd 701b 533d 2bbb 0ebd 7f77 b63d
000000a0: 8800 7abc f40b f33b 1a28 a3bc d803 103b
000000b0: ea47 6bbd 7179 5d3d d97a 123a 0ea7 873b
000000c0: 739e dcbb 2a92 2d3d 801f 173b e374 ecbc
000000d0: adb7 76bc 8e51 81bc 606d 6d3d 1c58 ed3a
000000e0: 08ba 6bbc c567 2f3c 1ad4 413d 3a56 423d
000000f0: a120 59bd 56dc 2b3c bda3 b63c 94f9 1a3c
00000100: 83eb 943d 2cca 8abd 4eb8 bd3c 5c16 203d
00000110: 2436 063d 02f6 5d3a ec80 733b 195f a9bd
00000120: b45d 8d3c 96b0 103d 96d7 7d3d a54d 5c3c
00000130: 8b2a fd3c 374a 3c3d 04a0 93bd 2268 b63c
00000140: 3273 60bc ba54 e13b 221d 0cbb 4c9c c13d
00000150: 45a9 dc3c c431 623b 09b5 41bc 24ba f83c
00000160: 86e0 703d aef9 0cbd 58c7 aebc 740a 833d
00000170: 49fe 50bc c48d 4fbd 1d1e 763d a51a 0c3c
00000180: 0378 66bb c202 753d 1d16 913c 7b3f 033c
00000190: f195 0fbd 0c1a 5dbc f624 0d3d 146b 963d
000001a0: 0026 3bbb 3b6c 68bd c276 05bd 3768 e53d
000001b0: d200 743c 3a8a 863d 289a 463d 9f46 c13c
000001c0: 8ef4 b73c c37b c73c 9489 4c3d aeb6 e43c
000001d0: b6ac 553c eaec 2d3d edbd 103b e68f 48bb
000001e0: a010 9a3a fc21 c0bc f806 653d 997a c63c
000001f0: 7893 d73b d7b4 003d 3bd8 36bb ee00 1cbc
00000200: f2c4 4a3d 86b7 8abc 552c 953d e715 d8bc
00000210: dd5d 42bd 3cf6 a9bb e278 df3c 0cc7 e2bc
00000220: 4fe2 41bc 56fd 173d 99d9 0dbd ce66 1cbd
00000230: 4acd 873d 9d28 ed3c b75e e7bc 548c e53c
00000240: b369 1bbd 1ffa 20bd 9ff8 6c3b dabe 34bd
00000250: e45b 25bd 3e04 50bd c92e 84bc 6383 533c
00000260: 3bb3 723c 915b a4bd 589d 86bc 2290 043d
00000270: 9c66 b3ba a4d8 03bc 7c4f 4d3d 7b6d 673d
00000280: 6584 ff3c 3dc1 6e3c 4b96 75bd 2d7b 3e3c
00000290: c173 c5bc 75d1 223a 7ce4 4f3c bf05 5fbc
000002a0: 40ba 7abc 58e8 293d 3ecd e7ba 88f6 18bd
000002b0: 34fd 853d 1cfc 07bd 8a50 873c 2807 48bc
000002c0: f736 2fbb 21ae 493c f427 353c 4aea 5c3c
000002d0: 66fc 69bb c073 db3a ed12 1c3d e676 cbbc
000002e0: af8b 803c 8ca6 53bb 19fc 453d 71ff 553c
000002f0: 6402 f03c 15e4 a43c 4032 62bc e42d fa3d
00000300: dce7 fbbc 0b33 5b3c 378b 103c 93a3 3ebc
00000310: 1c94 a0bd 585a b4bc d2b9 a03b 36d7 363b
00000320: 2494 e2bb 2caf b539 2fe0 7bbc 9e8b 75bc
00000330: 3321 58bd aa8e 573c 3acf b6bb 044e 2e3c
00000340: e1b7 913c e37c 183c 02c7 493d b735 7b3d
00000350: 7162 bbbd d511 d43c 24f4 d5bc ca19 5fbb
00000360: a529 e7bb 3edd ef3c 33b4 0bbd 04d7 48bb
00000370: 1428 4b3c 8362 6bbc a6ac 793d 4b99 1bbc
00000380: 8fa1 6dbc be92 e7bc 4aa3 833c b9ad 62bd
00000390: b4b7 903c 87af 05bd c9a2 eb3b 6cd5 ca3c
000003a0: 4ec3 b03d ce17 9ebc 514f d83c 72a1 533d
000003b0: 8da2 5d3c 6d33 0c3d 83b0 b83c f76e dfbb
000003c0: d4ff a3bb f865 81bd 075d 0d3c acbd 703b
000003d0: 2c56 a13a 00c2 8a3c f5d0 383c f738 073d
000003e0: caf3 f03a 0535 acbd 0c32 80bd 7449 a73d
000003f0: ad53 2b3d a3f2 2f3d 67ce be3d 12f9 323d

actor_fc.weight f4 [256, 256]
0.12321606 0.15190761 -0.1137501 0.03624749 -0.13953958 0.055851918 0.074072324 0.01944214
-0.12704812 -0.088890016 -0.030402523 -0.0059740576 -0.13877095 -0.13074984 -0.074773125 -0.009040555
0.06573713 0.10755704 -0.0036443935 0.07504457 -0.08777394 -0.08058792 -0.095896125 0.00029528033
-0.17547686 0.062318772 0.08581711 0.10101113 -0.06707885 0.2808578 0.06883229 -0.12232935
-0.026830792 -0.014586677 -0.060717005 0.18406057 -0.03772565 -0.12768291 -0.22699438 -0.19802445
-0.026572056 -0.05673003 0.03359444 -0.052774053 0.05658668 -0.061040714 -0.047510378 -0.046933908
-0.30365258 -0.11285653 -0.12974897 -0.016754866 -0.07330618 0.00064271665 -0.20781001 -0.27625197
0.0057580927 -0.12463495 -0.13859782 0.18185803 0.0412295 0.10707548 0.056477446 -0.08535351
0.019727279 0.09888787 0.102452114 -0.13288288 -0.015853709 0.113786615 -0.03795675 0.19913442
-0.052793212 -0.12310338 -0.10019634 -0.09338326 0.09163783 -0.10591419 0.10027512 -0.17093934
-0.043825988 0.036650952 0.07694246 -0.01572707 -0.09463063 -0.08039682 -0.018044807 -0.0029366473
-0.041901663 0.021195386 -0.034186006 -0.13765852 -0.045811545 -0.02934894 -0.12017388 -0.16976866
0.16848624 -0.2502276 0.057144213 0.025413232 0.022593614 -0.12585512 0.007607461 -0.050839517
-0.06354962 -0.3135963 0.076061435 -0.29882705 -0.36148944 0.15689105 -0.23737247 -0.042745687
0.3960679 0.18720354 -0.061176006 -0.010745967 -0.20321834 -0.092974946 -0.1377411 0.26265958
-0.07189641 -0.052596014 -0.011735867 0.0926343 -0.093835816 0.028162904 0.026357438 0.055562768
0.12168032 -0.010364568 -0.03034305 -0.1502876 -0.04210415 0.09162415 -0.10920651 0.12104472
-0.045255553 0.11136652 0.09570536 0.06641122 0.13074131 0.07693945 0.008272701 -0.14125867
-0.08773244 -0.048294555 0.16534518 0.0026297942 0.05842934 -0.13342887 -0.084970444 0.0185614
0.16283445 -0.0043083346 0.06158558 0.054699294 0.04182961 -0.049231708 -0.11559582 0.037234377
-0.10200869 0.040167853 0.18582238 -0.055947408 -0.02112749 0.052343193 -0.31337813 -0.12458324
-0.032629043 0.033894587 -0.0058947196 0.24732268 -0.10902881 -0.04822985 0.028324999 -0.04053805
-0.01655125 -0.1685042 0.1963186 -0.05262368 0.08525177 0.19871393 -0.1081415 -0.017115744
0.06388099 -0.032659337 0.048792 -0.12297235 -0.026521428 -0.09655329 0.106870994 0.031330135
-0.09155136 -0.04654941 -0.105360344 0.060202654 0.049606044 -0.01670341 0.17389633 0.008382391
-0.10086807 -0.2706774 -0.032187846 0.047339313 -0.2592279 0.03583207 0.07870898 -0.09764128
0.006613927 0.10144917 0.09507217 -0.021984875 0.38625187 0.07444476 -0.033025883 0.1969663
-0.008229147 0.017896757 -0.19702944 -0.13348325 0.028011533 -0.015549137 0.12986153 0.0990404
-0.07299151 -0.14606585 0.09520393 0.061138857 0.031446528 -0.138252 0.07632376 0.049681753
0.046870455 0.05773791 -0.0880519 0.11314436 -0.02391025 0.01602751 -0.1597228 -0.34256458
-0.059125833 0.06722201 0.13037644 -0.061939124 -0.027868295 0.13757654 0.20734116 -0.15404058
-0.0026055519 0.1228852 -0.021342225 0.05888177 0.16357219 -0.20033833 -0.14222059 0.003101712
00000000: b458 fc3d ab8d 1b3e d0f5 e8bd 4078 143d
00000010: 77e3 0ebe fbc4 643d 3bb3 973d 1f45 9f3c
00000020: e718 02be f80b b6bd b60e f9bc 07c2 c3bb
00000030: f919 0ebe 49e3 05be a722 99bd d61e 14bc
00000040: 30a1 863d de46 dc3d c7d6 6ebb f8b0 993d
00000050: d3c2 b3bd 480b a5bd 3065 c4bd dbcf 9a39
00000060: 35b0 33be f841 7f3d e2c0 af3d ecde ce3d
00000070: a360 89bd 98cc 8f3e f2f7 8c3d cf87 fabd
00000080: 40cc dbbc f5fc 6ebc 65b2 78bd 607a 3c3e
00000090: 3686 1abd 4fbf 02be 3771 68be ecc6 4abe
000000a0: a4ad d9bc bf5d 68bd 539a 093d 9b29 58bd
000000b0: 6fc7 673d d405 7abd 3e9a 42bd c53d 40bd
000000c0: 5a78 9bbe 5321 e7bd eadc 04be 8041 89bc
000000d0: 8d21 96bd fc7b 283a 26cc 54be e670 8dbe
000000e0: 62ae bc3b 9c40 ffbd 96ec 0dbe fe38 3a3e
000000f0: 44e0 283d 644a db3d e554 673d d2cd aebd
00000100: 1a9b a13c b985 ca3d 6ad2 d13d 7312 08be
00000110: a3df 81bc f508 e93d 8978 1bbd e5e9 4b3e
00000120: b23d 58bd a01d fcbd bd33 cdbd b93f bfbd
00000130: 9dac bb3d 8ae9 d8bd 0b5d cd3d b90a 2fbe
00000140: e182 33bd 4f1f 163d 0294 9d3d 0ed6 80bc
00000150: b4cd c1bd 17a7 a4bd b4d2 93bc c474 40bb
00000160: 14a1 2bbd f2a1 ad3c a006 0cbd 5bf6 0cbe
00000170: e3a4 3bbd 306d f0bc b91d f6bd d6d7 2dbe
00000180: a887 2c3e d51d 80be 0d10 6a3d 692f d03c
00000190: 3e16 b93c 2ae0 00be 0248 f93b 193d 50bd
000001a0: 4e26 82bd b28f a0be 19c6 9b3d dcff 98be
000001b0: 2515 b9be 0ca8 203e c511 73be 1a16 2fbd
000001c0: 69c9 ca3e 49b2 3f3e b193 7abd da0f 30bc
000001d0: 7818 50be a669 bebd 010c 0dbe 517b 863e
000001e0: 6d3e 93bd eb6e 57bd cb47 40bc 0db7 bd3d
000001f0: fe2c c0bd e4b5 e63c 8eeb d73c c995 633d
00000200: 8833 f93d 26d0 29bc fd91 f8bc fee4 19be
00000210: 6775 2cbd 71a5 bb3d aaa7 dfbd 4be6 f73d
00000220: e35d 39bd 2114 e43d 2c01 c43d 9b02 883d
00000230: 0de1 053e 6e92 9d3d 398a 073c 1da6 10be
00000240: 11ad b3bd 83d0 45bd 3f50 293e a058 2c3b
00000250: 9b53 6f3d 94a1 08be fc04 aebd 140e 983c
00000260: 13be 263e ee2c 8dbb 2941 7c3d 5e0c 603d
00000270: 8655 2b3d 30a7 49bd 80bd ecbd 1383 183d
00000280: efe9 d0bd 0c87 243d 3948 3e3e 1c29 65bd
00000290: 8f13 adbc d165 563d 1973 a0be 7f25 ffbd
000002a0: 08a6 05bd 0dd5 0a3d 7e28 c1bb 2842 7d3e
000002b0: 7f4a dfbd aa8c 45bd d409 e83c 3a0b 26bd
000002c0: 7d96 87bc 5d8c 2cbe be07 493e ee8b 57bd
000002d0: 7b98 ae3d aa7b 4b3e 4a79 ddbd 5136 8cbc
000002e0: 09d4 823d ccc5 05bd 1fda 473d edd8 fbbd
000002f0: 7743 d9bc bbbd c5bd 2edf da3d 0754 003d
00000300: 487f bbbd 98aa 3ebd 2ac7 d7bd 0f97 763d
00000310: b52f 4b3d 97d5 88bc e111 323e 4c56 093c
00000320: eb93 cebd 3a96 8abe 67d7 03bd dee6 413d
00000330: 85b9 84be a6c4 123d 2c32 a13d 27f8 c7bd
00000340: a4b9 d83b 95c4 cf3d 33b5 c23d a019 b4bc
00000350: cec2 c53e 7f76 983d 2646 07bd 89b1 493e
00000360: 8bd3 06bc 389c 923c 16c2 49be d5af 08be
00000370: 7178 e53c cfc1 7ebc 6cfa 043e b1d5 ca3d
00000380: 937c 95bd 4992 15be 47fa c23d bd6c 7a3d
00000390: 13ce 003d ef91 0dbe a24f 9c3d 187f 4b3d
000003a0: 3cfb 3f3d 967e 6c3d 8e54 b4bd 3bb8 e73d
000003b0: 6edf c3bc 204c 833c 608e 23be a064 afbe
000003c0: ee2d 72bd b1ab 893d 6781 053e e1b3 7dbd
000003d0: 0d4c e4bc dde0 0c3e 3e51 543e d0bc 1dbe
000003e0: e8c1 2abb 3cab fb3d e4d5 aebc 032e 713d
000003f0: 787f 273e 7e25 4dbe 46a2 11be 1846 4b3b

actor_fc.bias f4 [256]
-0.020362489 -0.026235502 -0.010821427 -0.010499513 -0.02226568 0.032674216 -0.028841661 0.06109917
-0.028632669 -0.023540914 0.013864645 0.02015302 -0.017011464 -0.016019875 -0.033620644 0.0012429161
-0.0118273385 -0.016953973 -0.018166753 -0.06536931 -0.05823302 0.005669025 -0.023025412 0.00094972755
-0.020622674 0.0747141 -0.024439372 0.041131705 0.036881268 -0.043223713 -0.02177221 -0.061161
-0.048914123 0.02923769 -0.044993747 -0.031465422 -0.07111096 -0.013976756 -0.04731156 0.024803631
0.009483267 -0.025954701 0.03464721 -0.023886317 -0.035979375 -0.031172296 0.04740082 0.037526608
0.024639461 0.040874686 -0.017134506 -0.028927932 -0.020791115 0.0001258518 0.04306287 0.060362305
-0.048082806 0.0046745767 0.041571517 0.018650018 0.04002733 -0.05511782 -0.025958518 -0.035746645
-0.058419067 0.03082568 0.019900812 0.045507155 0.018443855 0.010487696 0.043291517 0.00068752654
-0.020740503 0.036053326 -0.029508077 -0.04939958 -0.15722056 0.021381058 0.006823557 -0.013334422
-0.02298861 -0.057049733 0.06268845 0.013422701 -0.20017877 -0.02225321 -0.030981824 0.00013527459
0.00044528255 0.024701508 -1.8292885e-05 0.049038853 0.014343103 -0.056352556 -0.021650963 -0.013023434
0.05017046 -0.03955418 0.041555617 -0.01200197 0.041731946 -0.04013628 0.017266942 -0.0019987924
-0.015626995 0.011044563 -0.028140374 -0.0011604868 0.01389232 -0.0027602552 0.040965386 -0.031222995
0.018240407 0.0019291636 0.009684639 -0.01130484 -0.056577522 0.026211007 0.036109388 -0.03903149
-0.09114048 -0.016214507 0.013022748 0.00022941339 -0.022474684 -0.015422304 0.010272774 -0.03997108
0.044508874 0.0006575332 -0.014722605 0.007918596 0.036752876 0.02286356 0.0069724643 0.019790584
0.0038503213 -0.0021716137 0.006083488 0.0014407109 -0.03271904 -0.012300962 -0.029249955 0.021705644
0.04722265 -0.05020464 0.049681295 -0.02567886 -0.0037703055 -0.00018293422 -0.037489466 -0.035427283
0.018282117 1.3509865e-05 -0.037583 -0.012413214 -0.035640083 -0.008839795 0.02150082 -0.013606006
-0.028861785 0.054371998 -0.022060154 -0.042460933 0.018691506 -0.02511751 -0.022712767 -0.041378282
0.0128553985 -0.044339027 -0.050879195 0.008228668 -0.019386796 0.0638938 -0.048757132 0.010074298
-0.03330197 0.098178886 0.043489188 -0.00934651 0.033046413 -0.027190192 0.025676833 -0.006783544
0.012497927 -0.042105045 -0.035367332 0.038218062 -0.03966307 0.0039389855 0.00968638 -0.0063008857
-0.05886301 -0.035653237 0.065014094 -0.018833874 0.018043982 -0.00042672674 0.037491124 0.011972534
-0.023999032 0.055181447 0.0039401585 -0.01144446 0.019753503 -0.03787983 0.062504314 0.05241575
-0.0067762784 -0.014439953 -0.026713368 0.007060072 -0.03008849 -0.056174133 0.017425904 -0.0072979447
0.047838386 0.059649985 -0.0018499439 0.03220362 0.015514303 -0.03651828 -0.01603481 0.0013404286
0.0647372 -0.0025328333 0.010253751 0.034564912 0.009331274 -0.09555798 -0.031340566 0.008810614
0.036930062 0.0014352229 0.017521951 0.00056732364 0.015747875 -0.015947219 0.01430869 -0.02959863
-0.014261293 -0.002013465 -0.039197993 -0.031406995 0.025018593 -0.053179156 -0.028289879 -0.028738316
-1.5670303e-06 0.021095173 -0.020965852 -0.05140126 0.027424898 -0.0028480238 0.016104583 -0.028394435
00000000: 3ccf a6bc d6eb d6bc 5b4c 31bc 2606 2cbc
00000010: 8466 b6bc 66d5 053d 5945 ecbc 2043 7a3d
00000020: 0f8f eabc e0d8 c0bc 8928 633c f217 a53c
00000030: a05b 8bbc 1d3c 83bc cdb5 09bd 58e9 a23a
00000040: 74c7 41bc 0fe3 8abc 71d2 94bc 58e0 85bd
00000050: bf85 6ebd 3ac3 b93b ca9f bcbc 23f7 783a
00000060: e2f0 a8bc b503 993d 1435 c8bc b879 283d
00000070: d010 173d 590b 31bd a25b b2bc f583 7abd
00000080: 2d5a 48bd e183 ef3c 5d4b 38bd e3e1 00bd
00000090: 9fa2 91bd c3fe 64bc c4c9 41bd fc30 cb3c
000000a0: b45f 1b3c f49e d4bc 3cea 0d3d 3dad c3bc
000000b0: 1c5f 13bd 0b5d ffbc 5d27 423d 80b5 193d
000000c0: b2d8 c93c 376c 273d aa5d 8cbc 45fa ecbc
000000d0: 2152 aabc 16f7 0339 b162 303d 773e 773d
000000e0: 7af2 44bd 312d 993b e546 2a3d ecc7 983c
000000f0: b3f3 233d 39c3 61bd f5a6 d4bc 136b 12bd
00000100: d548 6fbd 2386 fc3c 0707 a33c b665 3a3d
00000110: 9117 973c 96d4 2b3c 7252 313d 203b 343a
00000120: fde7 a9bc a7ac 133d ecba f1bc 3757 4abd
00000130: 6dfe 20be 5427 af3c 2598 df3b 9f78 5abc
00000140: 9c52 bcbc fbac 69bd cd62 803d e3ea 5b3c
00000150: aafb 4cbe 5d4c b6bc 98cd fdbc 7fd8 0d39
00000160: d074 e939 d15a ca3c ac73 99b7 f7dc 483d
00000170: 56ff 6a3c f0d1 66bd 5c5d b1bc 3e60 55bc
00000180: 8a7f 4d3d 9003 22bd 3936 2a3d e9a3 44bc
00000190: 1eef 2a3d f165 24bd 6773 8d3c 2cfe 02bb
000001a0: 2f04 80bc 41f4 343c a486 e6bc 7a1b 98ba
000001b0: 9d9c 633c 66e5 34bb 52cb 273d 5ec7 ffbc
000001c0: e86c 953c fddb fc3a 52ac 1e3c f037 39bc
000001d0: d5bd 67bd 77b8 d63c 70e7 133d 7cdf 1fbd
000001e0: dca7 babd 49d4 84bc 5d5d 553c b08e 7039
000001f0: d41c b8bc d5ad 7cbc 234f 283c b7b8 23bd
00000200: f04e 363d 4e5e 2c3a 1537 71bc 00bd 013c
00000210: 2f8a 163d 5c4c bb3c 4579 e43b dd1f a23c
00000220: ac55 7c3b a251 0ebb ff57 c73b 3cd6 bc3a
00000230: 6604 06bd f989 49bc 9a9d efbc 09d0 b13c
00000240: 8a6c 413d 61a3 4dbd 9d7e 4b3d 795c d2bc
00000250: 3b17 77bb 08d2 3fb9 8e8e 19bd 331c 11bd
00000260: 61c4 953c 6ea8 6237 a2f0 19bd cb60 4bbc
00000270: 56fb 11bd cad4 10bc 7d22 b03c baeb 5ebc
00000280: 8d6f ecbc 2cb5 5e3d 7fb7 b4bc 84eb 2dbd
00000290: ee1e 993c 3dc3 cdbc 2010 babc 467c 29bd
000002a0: 739f 523c d79c 35bd b466 50bd 89d1 063c
000002b0: 0fd1 9ebc c1da 823d 8fb5 47bd ab0e 253c
000002c0: a667 08bd 0312 c93d b821 323d 1b22 19bc
000002d0: ad5b 073d f7bd debc 3958 d23c 7e48 debb
000002e0: 1bc4 4c3c 5776 2cbd 56dd 10bd 8b8a 1c3d
000002f0: be75 22bd 9b12 813b 9fb3 1e3c a977 cebb
00000300: 571a 71bd 2109 12bd 1c26 853d 7f49 9abc
00000310: f9d0 933c 4bba dfb9 4b90 193d 7228 443c
00000320: 9e99 c4bc f105 623d 721c 813b 8b81 3bbc
00000330: 19d2 a13c e127 1bbd 4302 803d e6b1 563d
00000340: 8b0b debb 8d95 6cbc fed5 dabc 2d58 e73b
00000350: 237c f6bc d916 66bd c5c0 8e3c 9923 efbb
00000360: 2ff2 433d 8b53 743d d179 f2ba f1e7 033d
00000370: b42f 7e3c 3194 15bd 6f5b 83bc 52b1 af3a
00000380: f094 843d e4fd 25bb 59ff 273c f093 0d3d
00000390: 33e2 183c e7b3 c3bd f75e 00bd 655a 103c
000003a0: fa43 173d 171e bc3a 328a 8f3c 72b8 143a
000003b0: b001 813c bea3 82bc ff6e 6a3c d378 f2bc
000003c0: 33a8 69bc 56f4 03bb 138e 20bd 9fa4 00bd
000003d0: cbf3 cc3c 63d2 59bd 2dc0 e7bc 9e6c ebbc
000003e0: c052 d2b5 c9cf ac3c 94c0 abbc 218a 52bd
000003f0: 2eaa e03c e9a5 3abb c2ed 833c 729b e8bc

actor_out.weight f4 [12, 256]
-0.051985685 0.09311088 0.017307924 -0.31220746 -0.10787329 0.18657492 0.020649897 -0.1861796
-0.2437303 0.14961992 0.13222325 -0.050136212 -0.12775955 -0.030047193 -0.15019466 -0.26846343
0.028769987 -0.004937619 -0.10573293 0.15579693 0.034414757 0.22051258 0.1650719 0.35239002
0.25358075 0.17003821 -0.0944233 0.037758537 0.2998012 0.18483025 0.12644102 -0.13024099
-0.26985306 -0.085532136 -0.14555715 -0.2529315 0.13314918 -0.119897544 -0.17097665 -0.021365853
0.04590435 -0.31786072 0.19942874 0.05403203 0.012818764 0.0737548 -0.10746764 0.09609142
-0.24648263 -0.07173725 0.6095046 -0.015633123 -0.122030064 0.095085286 -0.16631429 0.17354675
-0.08144168 0.2448316 -0.18132764 -0.09483187 0.12329174 0.25883988 -0.21447657 -0.05188013
0.15342611 0.008814521 -0.23959996 0.30114174 0.09584427 0.015340803 0.086751916 -0.03148596
0.0299486 0.14326753 -0.059966855 -0.08122305 -0.109716214 -0.018195044 -0.16842978 0.11694518
-0.0068333047 0.08425729 0.13883127 0.037829 -0.067497514 0.007373756 0.21131337 -0.032875706
0.13686746 0.06261152 -0.091291025 0.012348201 -0.1899648 0.19154721 -0.008777775 0.06388629
-0.08283312 -0.018361371 0.1458403 -0.19289078 0.1070986 -0.02354223 0.18945016 0.1598713
0.06703055 -0.081920065 0.08470832 0.2045743 0.1176023 0.18611218 -0.08669465 0.04612444
0.060279075 -0.05164334 -0.2295016 0.13258688 0.11246004 0.12118988 -0.09075266 0.051415175
0.040840287 0.09811019 -0.042270534 -0.17851591 -0.049211733 0.08164317 -0.09528108 0.02745399
-0.36175257 -0.17368357 0.12822396 -0.108536765 -0.047024343 0.15311627 -0.09055481 -0.07923726
0.10296871 -0.05699352 -0.084748246 0.09561128 -0.13598259 0.090529434 -0.19703399 -0.122064404
-0.07021381 -0.068248525 -0.10425435 -0.13706508 0.08015913 -0.006595466 -0.049663734 -0.07998783
0.00938857 -0.043439966 -0.17853476 -0.13774069 0.03658498 0.08740798 -0.021783743 -0.08786536
0.092117645 -0.13620421 -0.07214363 0.27421343 0.08478821 0.13086002 0.036036797 -0.038420513
0.12844129 0.21748465 -0.12804401 0.10854657 -0.05004467 -0.24724047 0.0074025732 -0.043555107
-0.40775672 0.14866677 -0.061913647 0.03498008 -0.11982689 -0.09938226 0.27463955 0.1179544
-0.050621834 0.16125917 0.032810573 -0.007552579 0.003112271 -0.08762153 0.20925263 -0.009189136
0.15462972 0.27889892 0.21439967 0.033018153 0.24743287 -0.08689703 0.23520899 -0.093158305
0.11480956 0.041118708 0.267287 0.0048973854 -0.05734395 -0.054414723 0.27817082 -0.14158069
-0.29064313 0.25554892 0.021660784 0.35541508 -0.21872164 -0.2565501 -0.24991739 -0.08757784
-0.1463695 -0.06926721 0.012817893 0.12190948 0.05638367 0.08262058 -0.13409042 0.13285857
0.034445405 -0.14638382 0.23042348 -0.00047753006 -0.020694198 -0.08062867 -0.096174344 0.07828505
-0.034024026 -0.021955121 -0.4237561 -0.013409715 0.20231283 -0.14237718 0.087676406 -0.04360845
-0.035018805 0.17129526 -0.013512578 -0.12956478 -0.11475619 -0.09409504 0.1348724 -0.012185584
-0.16116694 -0.06484247 -0.1162225 0.13880195 0.0065382286 -0.072427556 0.15663724 0.10356441
00000000: f1ee 54bd ebb0 be3d 59c9 8d3c a8d9 9fbe
00000010: acec dcbd 7f0d 3f3e f929 a93c dda5 3ebe
00000020: 7094 79be f735 193e 8865 073e a15b 4dbd
00000030: 66d3 02be 8825 f6bc a1cc 19be 0a74 89be
00000040: 09af eb3c c0cb a1bb 828a d8bd 3b89 1f3e
00000050: 7df6 0c3d 0dce 613e 9c08 293e 776c b43e
00000060: 56d5 813e 7f1e 2e3e 0161 c1bd b2a8 1a3d
00000070: 8b7f 993e 2444 3d3e c179 013e e55d 05be
00000080: 2e2a 8abe 792b afbd ef0c 15be 3d80 81be
00000090: 4258 083e d88c f5bd 8114 2fbe 7107 afbc
000000a0: 3306 3c3d a4be a2be 0c37 4c3e b150 5d3d
000000b0: cb05 523c c20c 973d fe17 dcbd 94cb c43d
000000c0: f165 7cbe fbea 92bd 7e08 1c3f 0911 80bc
000000d0: e6ea f9bd 13bc c23d 4b4e 2abe 3db6 313e
000000e0: e5ca a6bd 23b5 7a3e f4ad 39be 3637 c2bd
000000f0: 6180 fc3d a986 843e bf9f 5bbe 4280 54bd
00000100: bc1b 1d3e c86a 103c b159 75be 402f 9a3e
00000110: 004a c43d fe57 7b3c fdaa b13d 6cf7 00bd
00000120: c456 f53c b9b4 123e ce9f 75bd 4558 a6bd
00000130: e5b2 e0bd c60d 95bc db78 2cbe f480 ef3d
00000140: eae9 dfbb 168f ac3d c929 0e3e 95f2 1a3d
00000150: 233c 8abd 8c9f f13b 8862 583e ada8 06bd
00000160: fc26 0c3e 783a 803d caf6 babd 1c50 4a3c
00000170: 2286 42be f424 443e a8d0 0fbc d1d6 823d
00000180: 69a4 a9bd 966a 96bc 2957 153e 2985 45be
00000190: 8356 db3d a2db c0bc 39ff 413e 4db5 233e
000001a0: 5047 893d b5c5 a7bd 8e7b ad3d ed7b 513e
000001b0: 7ad9 f03d 3194 3e3e f78c b1bd fbec 3c3d
000001c0: 31e7 763d f887 53bd 7802 6bbe dbc4 073e
000001d0: 7351 e63d 6632 f83d 88dc b9bd b898 523d
000001e0: 2548 273d ffed c83d de23 2dbd e0cc 36be
000001f0: 3e92 49bd 8934 a73d ba22 c3bd 31e7 e03c
00000200: a237 b9be 1bda 31be 244d 033e 8648 debd
00000210: 999c 40bd 83ca 1c3e cd74 b9bd 2547 a2bd
00000220: 42e1 d23d 0a72 69bd 7d90 adbd d9cf c33d
00000230: 053f 0bbe 7f67 b93d 47c3 49be e7fc f9bd
00000240: 42cc 8fbd e2c5 8bbd 4e83 d5bd ca5a 0cbe
00000250: 782a a43d c71e d8bb 336c 4bbd a9d0 a3bd
00000260: 84d2 193c 1bee 31bd d1d1 36be e50b 0dbe
00000270: 22da 153d f402 b33d d273 b2bc c1f2 b3bd
00000280: 2da8 bc3d 1e79 0bbe 0ac0 93bd b465 8c3e
00000290: 71a5 ad3d 2b00 063e 529b 133d d45e 1dbd
000002a0: 1d86 033e 4cb4 5e3e f81d 03be aa4d de3d
000002b0: a4fb 4cbd 9b2c 7dbe 4991 f23b d766 32bd
000002c0: 7dc5 d0be 1a3c 183e 2a99 7dbd 4647 0f3d
000002d0: cd67 f5bd ed88 cbbd 8e9d 8c3e 1492 f13d
000002e0: d758 4fbd 2021 253e 6164 063d a07b f7bb
000002f0: 3ef7 4b3b eb72 b3bd 5246 563e 088e 16bc
00000300: 4157 1e3e d7cb 8e3e 968b 5b3e 0b3e 073d
00000310: 0b5f 7d3e 12f7 b1bd a0da 703e c8c9 bebd
00000320: 4621 eb3d 176c 283d d7d9 883e 3f7a a03b
00000330: 7de1 6abd f9e1 5ebd 686c 8e3e 87fa 10be
00000340: 2dcf 94be 4fd7 823e f571 b13c f7f8 b53e
00000350: 91f8 5fbe 895a 83be 58ea 7fbe 035c b3bd
00000360: e3e1 15be f8db 8dbd 2402 523c adab f93d
00000370: 90f2 663d fb34 a93d 004f 09be 140c 083e
00000380: a016 0d3d a4e5 15be 22f4 6b3e 005d fab9
00000390: e186 a9bc a520 a5bd 0ef7 c4bd ea53 a03d
000003a0: c75c 0bbd 3adb b3bc 8ff6 d8be 6cb4 5bbc
000003b0: 182b 4f3e 53cb 11be b08f b33d c69e 32bd
000003c0: e16f 0fbd 0668 2f3e dc63 5dbc a1ac 04be
000003d0: 4b05 ebbd e6b4 c0bd fe1b 0a3e 0ba6 47bc
000003e0: f208 25be 21cc 84bd 1006 eebd 1922 0e3e
000003f0: a33e d63b e654 94bd 8365 203e 9419 d43d

actor_out.bias f4 [12]
0.06430445 -0.07545332 0.014184059 0.018043153 -0.036589537 0.011139416 0.057790086 -0.045803666
-0.005882693 -0.012872411 -0.001031524 0.028943436
00000000: 0db2 833d 4587 9abd 4164 683c 3ccf 933c
00000010: e9de 15bd 1982 363c 4cb5 6c3d a09c 3bbd
00000020: 9bc3 c0bb cee6 52bc 3434 87ba c91a ed3c
