networks/saved_model/ppo_model_ep400.pth (torch, 840050 bytes, 11 tensors)

shared_fc1.weight f4 [256, 31]
-0.20862043 0.22079356 0.19164494 0.03899711 0.030634066 0.07631108 -0.10786279 -0.029891005
0.14323987 0.064129196 0.19041598 0.080781676 -0.18516472 0.008258323 -0.13287155 -0.052763313
0.023626875 -0.4293291 0.08685181 1.6061236 -0.16324686 -0.31942147 -0.10247371 0.045090448
-0.045663252 -0.04100458 0.04171652 0.03528331 -0.08194401 0.017222542 0.12769488 0.025523137
0.10034165 -0.029525742 0.11354095 0.036058288 -0.09901576 0.08698196 -0.11401419 0.18030469
-0.08823436 -0.002951834 0.14785303 -0.045634266 -0.041179188 0.05972041 0.05245498 -0.05242572
0.10938623 0.24678978 -0.21238212 -0.651252 0.09127365 0.12900038 0.1279317 -0.06772388
0.078159094 -0.07468369 -0.005371712 0.028087554 -0.049616754 0.05816536 0.067519136 -0.11283197
-0.08938727 -0.12598698 -0.338657 -0.05355337 -0.085479334 -0.102887526 -0.027184136 -0.045479905
-0.1792532 0.121664055 -0.013069507 -0.07852697 0.0790927 0.05944727 0.038528413 0.24695413
-0.13076957 -0.20615135 0.18422158 0.05281114 -0.0056217047 -0.0851444 -0.16402556 -0.19183694
0.056492347 -0.11777533 0.07269612 -0.035228603 0.024934355 0.098826766 -0.043725867 -0.056897543
-0.08405789 -0.19130528 -0.19567572 -0.08511303 -0.101516746 -0.049823746 0.28475088 -0.42224425
0.28886878 -0.069948964 0.1910126 0.304342 0.06619077 -0.063842975 0.13033985 -0.107369125
0.2698636 -0.062212184 0.42909586 -0.18242928 -0.053551078 -0.06375002 -0.1577088 0.040921684
0.029777093 0.021769054 -0.006167824 0.050391752 -0.29086325 0.17803837 0.052848123 -0.035225347
-0.13512471 0.21944407 -0.10380335 0.072177164 0.21002288 0.055040017 0.1737782 0.09773128
0.015105303 -0.028632669 0.07023713 -0.1068593 -0.112245806 -0.009726704 -0.10974119 0.18402001
-0.6347848 0.60159475 -0.08707256 0.07915721 -0.051233843 -0.067404 -0.031765617 0.060557295
0.014030455 -0.007841143 0.0025998913 0.06751795 -0.030752253 0.021890935 -0.20100124 0.09180582
-0.108482085 -0.13110313 -0.27146867 -0.24350815 -0.1589017 -0.15288763 0.08692251 -0.109549075
-0.01790014 0.037468083 0.016088314 0.1450168 0.09990425 -0.14055564 -0.4441401 -0.16778941
-0.4369155 -0.021864103 0.1713959 0.05964427 -0.10086727 0.02676685 0.109919265 0.064759165
-0.033096842 0.19064632 -0.43957022 -0.04504958 0.12506925 -0.0040051453 -0.05862572 0.20146282
-0.10420537 0.14301084 0.27783534 0.054144796 -0.021033717 -0.06001243 0.07705113 0.15587226
0.23472992 0.11480745 -0.0759711 0.13603966 -0.030979972 -0.34049124 -0.331608 0.11296362
-0.015670456 0.014881746 0.35221806 -0.33286458 -0.113094844 -0.023444831 0.11459962 0.15089095
0.10272757 0.090652294 -0.14180112 -0.021626463 -0.07723534 -0.03907327 -0.18110786 -0.15626422
-0.17142193 -0.24130276 0.0909621 -0.04962013 0.12614444 -0.02738074 0.0034273171 -0.089226946
-0.026692567 0.16270974 -0.10501381 -0.18164678 0.5451637 0.09185519 -0.8287437 0.036861636
0.2788812 0.15115799 -0.21896708 -0.07278403 0.17205499 0.03622478 0.03319768 -0.099872984
-0.23781492 0.099441886 0.10099233 0.25030518 -0.1555098 0.06560956 0.01749495 -0.01852277
00000000: 98a0 55be b517 623e 923e 443e 6fbb 1f3d
00000010: 4bf4 fa3c fc48 9c3d 2be7 dcbd fbdd f4bc
00000020: 79ad 123e 2b56 833d 68fc 423e dd70 a53d
00000030: d29b 3dbe eb4d 073c 7b0f 08be 581e 58bd
00000040: 268d c13c 06d1 dbbe 5ddf b13d 7595 cd3f
00000050: 2f2a 27be 368b a3be bddd d1bd c3b0 383d
00000060: 6409 3bbd 6bf4 27bd f1de 2a3d 3b85 103d
00000070: 43d2 a7bd 4a16 8d3c 72c2 023e e615 d13c
00000080: ec7f cd3d f8df f1bc 2888 e83d dbb1 133d
00000090: c6c8 cabd 9923 b23d 4680 e9bd cba1 383e
000000a0: 37b4 b4bd 8e73 41bb c966 173e ffea 3abd
000000b0: 82ab 28bd 639d 743d 08db 563d 5abc 56bd
000000c0: e305 e03d 76b6 7c3e b37a 59be 73b8 26bf
000000d0: aeed ba3d ad18 043e 8700 033e d1b2 8abd
000000e0: e011 a03d c3f3 98bd 3005 b0bb df17 e63c
000000f0: f03a 4bbd cd3e 6e3d 7947 8a3d 7314 e7bd
00000100: ac10 b7bd bb02 01be 7364 adbe c75a 5bbd
00000110: ca0f afbd b2b6 d2bd 44b1 debc 2349 3abd
00000120: 278e 37be 012b f93d 7c21 56bc c0d2 a0bd
00000130: 5afb a13d fb7e 733d f8cf 1d3d 8be1 7c3e
00000140: 75e8 05be 5719 53be 95a4 3c3e 7e50 583d
00000150: 4736 b8bb 3060 aebd 51f6 27be e770 44be
00000160: 8564 673d 3134 f1bd b4e1 943d de4b 10bd
00000170: 2243 cc3c b065 ca3d e519 33bd 660d 69bd
00000180: 8b26 acbd 88e5 43be 375f 48be be4f aebd
00000190: 03e8 cfbd fc13 4cbd deca 913e 6630 d8be
000001a0: 9ce6 933e 6741 8fbd cf98 433e b7d2 9b3e
000001b0: 078f 873d 1bc0 82bd cf77 053e 58e4 dbbd
000001c0: 902b 8a3e 34d2 7ebd 74b2 db3e bece 3abe
000001d0: 6058 5bbd 5f8f 82bd 6a7e 21be 7f9d 273d
000001e0: 17ef f33c 0455 b23c 751b cabb 9567 4e3d
000001f0: 07ec 94be b14f 363e 4677 583d 7448 10bd
00000200: 225e 0abe f2b5 603e da96 d4bd 9fd1 933d
00000210: 3d10 573e a471 613d eaf2 313e 5627 c83d
00000220: 3c7c 773c 0f8f eabc 7cd8 8f3d 0cd9 dabd
00000230: 21e1 e5bd c15c 1fbc fdbf e0bd be6f 3c3e
00000240: 4281 22bf 1d02 1a3f 1953 b2bd 2d1d a23d
00000250: 94da 51bd 1c0b 8abd aa1c 02bd ed0a 783d
00000260: fedf 653c 2378 00bc f062 2a3b da46 8a3d
00000270: 26ec fbbc 9e54 b33c 45d3 4dbe b104 bc3d
00000280: db2b debd e63f 06be f1fd 8abe 335a 79be
00000290: 21b7 22be 938e 1cbe 6e04 b23d 445b e0bd
000002a0: 50a3 92bc 2278 193d a4cb 833c 497f 143e
000002b0: 999a cc3d d1ed 0fbe 5566 e3be fdd0 2bbe
000002c0: 63b3 dfbe 591c b3bc 6882 2f3e 8d4d 743d
000002d0: 8093 cebd 2746 db3c 5a1d e13d 74a0 843d
000002e0: 8e90 07bd ca38 433e 590f e1be e985 38bd
000002f0: 2712 003e 983d 83bb 8621 70bd 454c 4e3e
00000300: a069 d5bd 6f71 123e 6f40 8e3e efc6 5d3d
00000310: e74e acbc 98cf 75bd fccc 9d3d fa9c 1f3e
00000320: 0a5d 703e 2b20 eb3d bc96 9bbd fb4d 0b3e
00000330: b6c9 fdbc de54 aebe 86c8 a9be 7859 e73d
00000340: 545f 80bc 91d2 733c ed55 b43e 3a6d aabe
00000350: 459e e7bd 600f c0bc 35b3 ea3d 2883 1a3e
00000360: d562 d23d e9a7 b93d 5034 11be fb29 b1bc
00000370: 902d 9ebd 4b0b 20bd 5774 39be ba03 20be
00000380: 3b89 2fbe 1218 77be 564a ba3d 7a3e 4bbd
00000390: 022c 013e 934d e0bc d79c 603b 9ebc b6bd
000003a0: 5faa dabc 629d 263e 7b11 d7bd 9d01 3abe
000003b0: d98f 0b3f 931e bc3d 8c28 54bf 3afc 163d
000003c0: 84c9 8e3e 29c9 1a3e e838 60be cb0f 95bd
000003d0: 2f2f 303e 6f60 143d 4afa 073d 358a ccbd
000003e0: c185 73be 30a8 cb3d 11d5 ce3d 0028 803e
000003f0: f63d 1fbe 4e5e 863d 9251 8f3c 10bd 97bc

shared_fc1.bias f4 [256]
-0.04612041 0.03823743 -0.14063862 -0.054890778 -0.0386974 -0.030570354 0.037511658 -0.0048423284
0.033320017 0.011811716 0.009453738 -0.11748029 -0.013693261 -0.034328684 0.06780067 0.019570066
0.021115445 0.05018904 0.022919191 -0.007753319 -0.02637498 -0.0051015522 -0.19115542 -0.3265586
-0.01809679 -0.04280625 -0.049348682 -0.028542297 -0.082773395 0.04998819 -0.1060909 0.016803345
0.008938225 -0.026520703 -0.013450707 -0.0071340627 0.058750816 -0.031161897 -0.058501262 0.035083607
-0.08187806 -0.016342612 0.036382627 -0.0294993 -0.023064714 -0.019659216 0.05074002 0.012663932
0.05681064 -0.003820353 0.032533884 0.051826794 -0.0018694943 0.010879094 0.07421604 -0.046756007
0.0018236585 -0.044098143 0.03415564 0.011321138 -0.032569658 0.031113254 0.020611225 0.0032256825
0.011510412 0.023512496 -0.008791728 -0.11340118 0.006140852 0.019841436 0.012832319 0.049099088
0.024801373 -0.02669763 -0.087170444 0.02194655 0.0014154571 0.020447548 -0.05194639 -0.005059737
-0.05638848 0.018432397 0.023046361 0.077286206 -0.015775492 -0.03575868 -0.049355008 0.036352247
0.0028190415 0.028728608 -0.071903616 0.08367863 0.06188854 -0.022905296 -0.030180018 -0.043588627
-0.0074042906 0.017321369 -0.046659492 0.081033096 -0.014408417 -0.0029830234 0.027302995 0.023851698
-0.036072392 0.037193783 -0.009099104 -0.07606213 -0.009558237 0.04140985 -0.022037705 0.03889103
-0.0031547286 0.025818557 -0.19499391 0.036108207 -0.018742949 -0.021306356 0.004046065 0.036456276
0.029373595 0.023359952 -0.021561254 0.0070064664 0.012477671 -0.035161626 -0.017944556 0.0028794676
-0.015069889 -0.06566856 0.00865778 1.9876448e-05 0.059859373 0.07530469 0.020838423 -0.007958202
-0.18571919 0.015252631 -0.0076184 0.021064224 0.018213134 -0.005713226 -0.019003011 0.03374791
-0.0063134413 0.040375106 -0.033372115 -0.027502107 -0.009283087 0.06890687 0.023171322 0.008049009
0.07425843 -0.1915698 0.029119005 0.033077918 -0.021394204 0.006308328 0.038671944 0.1189914
-0.041324336 0.035284713 0.07786124 -0.21970047 0.03185904 0.03356712 0.0071673454 -0.039510578
0.010333146 -0.0441026 -0.04528529 -0.03238448 -0.0033215485 0.073884904 -0.019144434 -0.006865318
-0.017496286 0.007055286 -0.029177306 0.0299127 -0.009017339 0.043494705 -0.031743243 -0.023866538
0.049472846 0.040785708 -0.0027205814 0.03256291 -0.0142648695 0.06154718 -0.02509515 0.026358724
0.026975624 0.020218482 -0.03921679 -0.04127653 -0.10187285 -0.10275368 -0.06523886 -0.07405966
0.019863753 0.05397532 -0.02621854 -0.02148864 -0.1358975 -0.013299726 0.0076039177 -0.025397219
0.0033269695 -0.013548736 0.0028642158 0.019248016 -0.036945153 0.020818617 -0.008121016 -0.013300064
-0.0123653645 0.016500574 -0.12875842 0.008118095 0.009400994 -0.066988796 -0.18625087 0.05573589
-0.003813996 0.030006168 0.018014124 0.0057967864 0.0327467 -0.07895971 -0.029923713 0.027551066
-0.024274835 0.03222959 0.00774744 0.022430826 -0.006426762 0.007885943 0.0626341 -0.18456772
-0.12488822 -0.07475343 -0.009333441 -0.007012144 0.05327612 -0.13765019 -0.009889359 -0.040065605
-0.020157112 0.01239499 0.0011032397 0.029502861 -0.0026870174 -0.12576981 0.04795187 0.042129472
00000000: c1e8 3cbd da9e 1c3d 9203 10be 27d5 60bd
00000010: 2a81 1ebd ae6e fabc d3a5 193d 65ac 9ebb
00000020: 927a 083d ed85 413c dae3 1a3c 8299 f0bd
00000030: b359 60bc 3c9c 0cbd 14db 8a3d 6751 a03c
00000040: 4cfa ac3c 0693 4d3d 07c1 bb3c 8e0f febb
00000050: 5810 d8bc ec2a a7bb 3fbe 43be b032 a7be
00000060: b83f 94bc 9b55 2fbd d821 4abd 89d1 e9bc
00000070: 1985 a9bd 6bc0 4c3d 3046 d9bd 2ba7 893c
00000080: a271 123c f241 d9bc 5b60 5cbc dbc4 e9bb
00000090: b2a4 703d 3c47 ffbc 059f 6fbd d4b3 0f3d
000000a0: afaf a7bd f1e0 85bc f305 153d 84a8 f1bc
000000b0: 36f2 bcbc 5d0c a1bc c4d4 4f3d 617c 4f3c
000000c0: 46b2 683d e35e 7abb 4042 053d 5548 543d
000000d0: d209 f5ba 3a3e 323c 94fe 973d 3a83 3fbd
000000e0: d307 ef3a 41a0 34bd c9e6 0b3d 4b7c 393c
000000f0: c367 05bd 39e1 fe3c dfd8 a83c f965 533b
00000100: 2b96 3c3c 479d c03c 2e0b 10bc e13e e8bd
00000110: 3339 c93b 828a a23c a63e 523c 201c 493d
00000120: 402c cb3c fdb4 dabc 6b86 b2bd 40c9 b33c
00000130: dc86 b93a 9e81 a73c bdc5 54bd 26cc a5bb
00000140: 9bf7 66bd 8aff 963c b9cb bc3c 3b48 9e3d
00000150: 9b3b 81bc b277 12bd 7a28 4abd 18e6 143d
00000160: abbf 383b 4258 eb3c 3442 93bd b45f ab3d
00000170: d67e 7d3d e3a3 bbbc 163c f7bc fd89 32bd
00000180: b19f f2bb 8be5 8d3c 061e 3fbd aef4 a53d
00000190: 4811 6cbc d47e 43bb 88aa df3c a364 c33c
000001a0: a5c0 13bd 8258 183d 6914 15bc 76c6 9bbd
000001b0: 279a 1cbc 609d 293d 6b88 b4bc 334c 1f3d
000001c0: 90bf 4ebb 7081 d33c 7cac 47be 33e6 133d
000001d0: d08a 99bc ab8a aebc da94 843b 2d53 153d
000001e0: e5a0 f03c 5f5d bf3c 3aa1 b0bc 8096 e53b
000001f0: 256f 4c3c a305 10bd 7600 93bc 73b5 3c3b
00000200: b2e7 76bc 3d7d 86bd 5cd9 0d3c 59bc a637
00000210: 1a2f 753d 5839 9a3d 57b5 aa3c 1e63 02bc
00000220: 2c2d 3ebe 2ce6 793c c5a3 f9bb e18e ac3c
00000230: b633 953c 0336 bbbb 34ac 9bbc 403b 0a3d
00000240: fce0 cebb 5e60 253d 33b1 08bd 194c e1bc
00000250: 1718 18bc 0c1f 8d3d c9d1 bd3c fedf 033c
00000260: ce14 983d e02a 44be fb8a ee3c b67c 073d
00000270: e642 afbc 17b6 ce3b 7966 1e3d c3b1 f33d
00000280: b543 29bd b486 103d b775 9f3d 29f9 60be
00000290: a07e 023d ad7d 093d 0ddc ea3b d8d5 21bd
000002a0: 5b4c 293c eea4 34bd 117d 39bd 97a5 04bd
000002b0: 56ae 59bb f850 973d cad4 9cbc 76f6 e0bb
000002c0: 5f54 8fbc 0730 e73b 3f05 efbc 7b0b f53c
000002d0: 76bd 13bc 8127 323d 3405 02bd c283 c3bc
000002e0: 0aa4 4a3d ea0e 273d c84b 32bb b060 053d
000002f0: 33b7 69bc e518 7c3d 5894 cdbc 40ee d73c
00000300: fcfb dc3c 3ba1 a53c c9a1 20bd 9411 29bd
00000310: b6a2 d0bd 8570 d2bd f49b 85bd 97ac 97bd
00000320: 4fb9 a23c 3a15 5d3d 43c8 d6bc f208 b0bc
00000330: b728 0bbe 18e7 59bc 492a f93b d40d d0bc
00000340: 4909 5a3b 85fb 5dbc 91b5 3b3b 04ae 9d3c
00000350: cd53 17bd ce8b aa3c 030e 05bc 83e8 59bc
00000360: 1998 4abc 362c 873c 3fd9 03be c201 053c
00000370: a006 1a3c 6c31 89bd 8cb8 3ebe 514b 643d
00000380: 3cf4 79bb 7fcf f53c 5b92 933c f8f2 bd3b
00000390: 6721 063d a1b5 a1bd 9322 f5bc c6b2 e13c
000003a0: 05dc c6bc 2d03 043d 3dde fd3b dac0 b73c
000003b0: 9697 d2bb 0b34 013c 4f46 803d 52ff 3cbe
000003c0: 65c5 ffbd 5418 99bd 4aeb 18bc 21c6 e5bb
000003d0: 1038 5a3d 2cf4 0cbe fa06 22bc d51b 24bd
000003e0: 8720 a5bc 5b14 4b3c 959a 903a fcaf f13c
000003f0: ac18 30bb cdc9 00be 2e69 443d f48f 2c3d

shared_fc2.weight f4 [256, 256]
0.017363712 -0.020592416 -0.086071566 0.045719676 -0.08985746 0.049723838 -0.10502521 -0.11779883
-0.1108144 -0.03708824 0.067526825 -0.085131794 -0.111402355 0.040120196 0.054657247 -0.050136343
0.09503467 0.09138551 -0.110478856 -0.09886444 -0.029203542 0.0912585 -0.04727664 0.09062953
-0.0054703685 -0.03642428 0.041754767 0.01696322 -0.0067709894 0.073466115 0.07632417 -0.08801673
0.021734156 -0.033240564 -0.1155196 -0.0019822393 0.08024899 0.007430466 -0.042898662 -0.097181946
-0.07941482 -0.10468529 0.0351351 0.02611689 0.050238717 0.0704502 0.07908228 0.07096122
-0.07474707 -0.106483914 -0.06781256 -0.07792026 0.05527794 -0.01606895 -0.11954867 -0.032971255
0.0020558718 -0.050498575 0.007308605 -0.09824671 -0.099192604 -0.101739466 -0.081202015 0.05595009
-0.033010628 -0.06632053 0.09552551 -0.10016812 -0.090438165 0.0103121875 -0.036475774 -0.09121839
-0.025322739 -0.10369998 -0.015112968 -0.02304044 -0.09226434 0.0402327 -0.117823556 -0.09161821
-0.035054814 -0.11839025 -0.06012922 -0.06940624 -0.106190324 -0.060049992 0.030303523 -0.030260852
-0.02229616 -0.06338905 -0.07511037 -0.11228525 -0.006494405 -0.06253656 -0.04843712 -0.09988487
-0.056455176 -0.064837374 -0.05818206 -0.083900675 0.039075036 -0.030088095 -0.06487666 -0.12632254
0.02161951 0.092737526 -0.018745512 -0.053831737 -0.05906119 -0.009519797 0.047070734 0.09494554
-0.033111002 -0.007961577 -0.06072366 0.046672158 0.012175753 -0.034386907 -0.10667947 -0.07022913
0.020373445 -0.0695658 0.021733163 0.100428574 0.010359713 0.047644265 0.051089574 -0.011098236
-0.08436427 -0.08577863 0.015142155 -0.035329524 0.040450208 -0.077736326 0.08769976 -0.018107494
-0.021199824 -0.06553041 -0.112684086 -0.07725602 -0.11444735 -0.0885725 0.07304105 0.011226799
-0.062274646 0.015799472 -0.11946886 0.067907445 0.005918488 -0.080600806 -0.068685666 0.044824082
-0.09056279 0.06217228 0.0738554 -0.105850376 -0.044381868 0.03397467 -0.108582 -0.01171535
-0.06413015 -0.094421536 -0.057998873 -0.08748617 -0.024538526 0.039049774 -0.0934536 0.11072933
-0.07595614 0.0619903 -0.09292916 -0.07197164 0.05308775 0.06884936 0.025945544 0.0777448
-0.07809711 -0.0053117303 0.023675881 0.054722887 0.075652294 0.08845756 -0.04158254 -0.05403153
0.0003620641 -0.024268271 -0.04109784 -0.09662271 -0.09137264 -0.08456759 0.087084055 -0.081785716
0.062162776 -0.068111196 0.019960955 0.06288601 0.01905302 0.08400435 -0.043858837 -0.007987679
-0.016372925 0.024929442 -0.07567618 -0.07494145 0.047243796 0.06515872 0.04691926 -0.023681205
-0.06880093 -0.09504485 0.056581546 -0.083597265 0.032309055 -0.0042301384 -0.039678298 -0.00072011276
0.028636409 0.067446284 0.073158 0.07853335 -0.09598376 0.006589794 0.0795577 -0.09935981
-0.05838404 -0.0497311 0.0050004176 -0.042530302 0.083517246 0.07846145 0.02846155 0.01115745
-0.060749467 -0.02476736 0.0012150992 -0.078428015 -0.046387468 -0.09703017 -0.036766253 0.01635362
-0.035387874 -0.0864624 -0.11049693 -0.08953255 -0.097116075 0.09598273 -0.07607147 -0.05332618
-0.0705438 0.096547656 -0.020065157 0.06992824 0.07876708 -0.06752104 0.053226877 0.05918827
00000000: 583e 8e3c 6db1 a8bc 4a46 b0bd 8e44 3b3d
00000010: 3007 b8bd 39ab 4b3d 7517 d7bd 8340 f1bd
00000020: a9f2 e2bd d7e9 17bd 814b 8a3d 9459 aebd
00000030: eb26 e4bd 1355 243d 47e0 5f3d c45b 4dbd
00000040: 89a1 c23d 5428 bb3d bd42 e2bd 7179 cabd
00000050: 443c efbc bde5 ba3d 26a5 41bd fa9b b93d
00000060: c740 b3bb a031 15bd 0c07 2b3d 73f6 8a3c
00000070: 2ddf ddbb 6775 963d d94f 9c3d 1e42 b4bd
00000080: d40b b23c 4227 08bd 8a95 ecbd 75e8 01bb
00000090: 9559 a43d 447b f33b 82b6 2fbd 5407 c7bd
000000a0: 3da4 a2bd 3e65 d6bd d3e9 0f3d 17f3 d53c
000000b0: 1dc7 4d3d 3248 903d e4f5 a13d 1e54 913d
000000c0: fe14 99bd 3d14 dabd 50e1 8abd a894 9fbd
000000d0: 1f6b 623d 08a3 83bc efd5 f4bd de0c 07bd
000000e0: cebb 063b 98d7 4ebd 067d ef3b 9235 c9bd
000000f0: 7e25 cbbd c85c d0bd 3e4d a6bd ec2b 653d
00000100: 2736 07bd 0fd3 87bd e1a2 c33d f124 cdbd
00000110: a537 b9bd 73f4 283c 9f67 15bd b5d0 babd
00000120: a271 cfbc a860 d4bd 629c 77bc 4ebf bcbc
00000130: 16f5 bcbd 0bcb 243d 7a4d f1bd 54a2 bbbd
00000140: a395 0fbd 9676 f2bd 0f4a 76bd dc24 8ebd
00000150: 507a d9bd fbf6 75bd 183f f83c 9be5 f7bc
00000160: 70a6 b6bc 1ed2 81bd 77d3 99bd cff5 e5bd
00000170: 05cf d4bb 2b13 80bd 0066 46bd 7090 ccbd
00000180: 8b3d 67bd 75c9 84bd 5050 6ebd 1ed4 abbd
00000190: 250d 203d 4f7b f6bc 0ede 84bd b25a 01be
000001a0: 661b b13c 2ced bd3d 3090 99bc ab7e 5cbd
000001b0: 25ea 71bd ecf8 1bbc 3ecd 403d cf72 c23d
000001c0: 679f 07bd 4671 02bc 5fb9 78bd 4e2b 3f3d
000001d0: cf7c 473c 49d9 0cbd c47a dabd 4ad4 8fbd
000001e0: 36e6 a63c 8478 8ebd bf09 b23c 7fad cd3d
000001f0: c9bb 293c a226 433d 4d43 513d 60d5 35bc
00000200: 2dc7 acbd b5ac afbd cd16 783c b1b5 10bd
00000210: 1eaf 253d 3934 9fbd ef9b b33d 2b56 94bc
00000220: 41ab adbc cf34 86bd eac6 e6bd 6738 9ebd
00000230: 5f63 eabd 8065 b5bd 8c96 953d 9cf0 373c
00000240: b313 7fbd e56d 813c 17ac f4bd 0f13 8b3d
00000250: e0ef c13b 0912 a5bd 12ab 8cbd 7599 373d
00000260: fc78 b9bd 5ca8 7e3d 8041 973d 15c8 d8bd
00000270: c3c9 35bd 0629 0b3d 3d60 debd bdf1 3fbc
00000280: ab56 83bd 1460 c1bd 3a90 6dbd f32b b3bd
00000290: 0505 c9bc a8f2 1f3d 9a64 bfbd 0fc6 e23d
000002a0: e58e 9bbd 8ae9 7d3d a551 bebd de65 93bd
000002b0: 8a72 593d e500 8d3d c08b d43c aa38 9f3d
000002c0: 61f1 9fbd 060e aebb ecf3 c13c 1b25 603d
000002d0: 97ef 9a3d 3d29 b53d 7452 2abd 2a50 5dbd
000002e0: 6cd3 bd39 41ce c6bc 3556 28bd 21e2 c5bd
000002f0: 9421 bbbd c631 adbd 2059 b23d 457f a7bd
00000300: 659e 7e3d e27d 8bbd 2885 a33c 61ca 803d
00000310: 1415 9c3c 790a ac3d 53a5 33bd c1de 02bc
00000320: 8320 86bc d438 cc3c 1dfc 9abd e77a 99bd
00000330: b682 413d ef71 853d 692e 403d 16ff c1bc
00000340: 81e7 8cbd e0a6 c2bd 0dc2 673d 0b35 abbd
00000350: 8056 043d f99c 8abb b685 22bd f3c5 3cba
00000360: e796 ea3c 4721 8a3d ddd3 953d 18d6 a03d
00000370: 2293 c4bd 33ef d73b 26ef a23d 287d cbbd
00000380: 1a24 6fbd d7b2 4bbd 8bda a33b 4134 2ebd
00000390: 170b ab3d 66b0 a03d 3228 e93c bdcd 363c
000003a0: 6fd4 78bd ebe4 cabc f743 9f3a de9e a0bd
000003b0: c900 3ebd c1b7 c6bd 3698 16bd 07f8 853c
000003c0: e0f2 10bd 3313 b1bd 374c e2bd d75c b7bd
000003d0: cbe4 c6bd 9892 c43d 5ccb 9bbd 8d6c 5abd
000003e0: 4579 90bd c7ba c53d af5f a4bc 8936 8f3d
000003f0: a350 a13d 7948 8abd 6d04 5a3d 666f 723d

shared_fc2.bias f4 [256]
-0.008918752 0.01313216 -0.023053097 -0.056570977 0.09419042 0.04145874 0.09778474 0.049459554
0.029706737 -0.01899328 -0.017167192 -0.024650397 0.039901715 0.047058664 0.07355977 0.07151451
-0.0125717055 -0.0050297994 -0.022337146 0.029874094 -0.021602852 -0.025303673 0.110319026 0.013221644
-0.03779578 0.04736745 -0.0005334727 -0.04804672 -0.06702974 0.007903264 0.062748216 0.03197717
0.06825069 0.11283284 0.006858526 -0.01996639 -0.042597003 0.052144736 -0.034846466 0.10440944
-0.02478849 0.024619522 -0.032579634 0.03409927 -0.057773367 0.0667959 0.032057527 0.02008811
-0.024732817 0.045848567 0.0077279964 -0.02886433 -0.01505844 -0.027147654 0.02387607 0.002648849
-0.044462875 0.0136989085 0.06388674 0.06863778 -0.06253708 -0.032853555 0.007050512 0.044008937
0.059751067 -0.11240444 0.013047691 0.057973158 0.04151916 -0.025462253 0.023863284 -0.07197406
0.048609756 0.056330096 0.069187656 -0.026064193 0.035700485 0.10465528 -0.088944644 0.06139881
-0.023228724 -0.0041195992 -0.012383727 0.0738842 0.033430915 -0.027518915 -0.04651885 0.027467655
0.08672119 -0.04674295 -0.030846165 0.097332485 -0.023511427 -0.060192317 0.077194825 0.027865574
0.010513964 0.078728184 0.023897935 -0.011307541 -0.045267798 -0.00045456746 0.02772078 0.05645623
-0.050649792 -0.06785637 -0.012180886 0.123902075 0.010782175 0.067574 0.07628687 0.04698396
-0.017828312 0.01011971 0.06543872 0.035629466 0.019330136 0.077698305 -0.007320825 -0.006114112
0.05584804 -0.023453705 0.064894095 0.044589605 0.0019243928 0.029548373 0.014854923 -0.009521706
0.062373396 -0.016933214 0.09156709 -0.026377631 -0.05840791 0.015906643 -0.00582537 -0.027682804
0.026992878 0.039634652 -0.037539918 -0.03818398 0.02412647 -0.002351228 -0.037764344 0.04388848
-0.0379426 -0.039301034 0.056358226 -0.09073746 -0.04847488 -0.08297208 -0.01613559 0.028159687
0.041783463 -0.10322269 -0.03213951 0.027953846 -0.013092435 -0.008047257 0.07377635 0.09262258
-0.0077000083 0.038627144 -0.05656003 0.042235486 -0.035386294 0.041296083 -0.02372274 -0.01361221
0.013308386 0.06274698 -0.0247055 -0.011299815 0.08696359 -0.031919096 0.001513037 -0.012208737
-0.016187618 0.07656343 0.037694935 0.030182328 0.037519377 -0.03875321 0.046596058 -0.04377574
0.04433184 -0.024016777 0.044653233 0.049517497 0.061783288 0.03622932 -0.03530199 0.13463144
-0.039255638 0.05146944 -0.027096331 -0.019309431 -0.10881864 -0.022015736 0.018465163 -0.0067397333
-0.018581621 -0.020811733 -0.02975774 -0.014986901 -0.0864864 -0.022303166 0.03674742 0.014819783
0.015884515 0.02374958 0.07145935 0.08698546 -0.09559526 0.036763538 -0.026117392 -0.003404247
0.020041859 0.051549394 -0.041316334 -0.017392665 -0.0048606554 0.0018039051 0.06510469 -0.019976653
-0.020856857 -0.03779777 0.046363644 -0.04001685 0.037066218 -0.0596317 0.02792109 0.07504824
0.11877485 -0.008318956 0.03372702 0.062394846 0.017228885 0.06878965 0.020527618 -0.033424303
-0.009540052 -0.09929908 0.01690083 0.018753685 0.0041799797 0.015090154 0.027196309 0.029029874
0.028187867 -0.08774808 -0.06259546 0.13147005 0.064527705 0.05025885 0.08942687 0.05934804
00000000: f51f 12bc 4528 573c d9d9 bcbc f8b6 67bd
00000010: e8e6 c03d a4d0 293d 5e43 c83d 1a96 4a3d
00000020: 8b5b f33c cc97 9bbc 36a2 8cbc a1ef c9bc
00000030: fb6f 233d 96c0 403d 81a6 963d 3376 923d
00000040: 8ef9 4dbc 04d1 a4bb 64fc b6bc 84ba f43c
00000050: 77f8 b0bc a649 cfbc f1ee e13d 989f 583c
00000060: bfcf 1abd 5f04 423d bfd8 0bba a3cc 44bd
00000070: e346 89bd b17c 013c 2382 803d 7efa 023d
00000080: 05c7 8b3d e714 e73d 7cbd e03b 8e90 a3bc
00000090: 327a 2ebd b895 553d 2bbb 0ebd 9ed4 d53d
000000a0: 3b11 cbbc e1ae c93c 3972 05bd adab 0b3d
000000b0: c4a3 6cbd 4acc 883d c14e 033d d28f a43c
000000c0: 7a9c cabc b5cb 3b3d 223b fd3b e374 ecbc
000000d0: adb7 76bc c264 debc bf97 c33c 5098 2d3b
000000e0: b41e 36bd 6371 603c 0dd7 823d f791 8c3d
000000f0: 7113 80bd 7391 06bd fb07 e73b b742 343d
00000100: 89bd 743d 4d34 e6bd fcc5 553c 4375 6d3d
00000110: ff0f 2a3d 3796 d0bc ef7c c33c 2367 93bd
00000120: 061b 473d 63ba 663d 42b2 8d3d 9384 d5bc
00000130: ac3a 123d 8255 d63d 9c28 b6bd 527d 7b3d
00000140: 2a4a bebc b4fd 86bb 1ee5 4abc 9950 973d
00000150: dbee 083d 596f e1bc 8d8a 3ebd d903 e13c
00000160: e19a b13d 8975 3fbd 19b1 fcbc 4156 c73d
00000170: 099b c0bc 388c 76bd 5218 9e3d 5846 e43c
00000180: c342 2c3c 3e3c a13d 9ac5 c33c 4443 39bc
00000190: ba6a 39bd 0353 eeb9 b016 e33c a63e 673d
000001a0: 2876 4fbd 48f8 8abd 5792 47bc 5fc0 fd3d
000001b0: b8a7 303c 3d64 8a3d 4a3c 9c3d 4172 403d
000001c0: ae0c 92bc 24cd 253c bc04 863d 34f0 113d
000001d0: 3c5a 9e3c 4a20 9f3d 88e3 efbb e458 c8bb
000001e0: eac0 643d fc21 c0bc 32e7 843d 97a3 363d
000001f0: e83b fc3a 6e0f f23c 1062 733c ee00 1cbc
00000200: 3f7b 7f3d 86b7 8abc 8787 bb3d e715 d8bc
00000210: 223d 6fbd a64e 823c bfe2 bebb 0cc7 e2bc
00000220: 2b20 dd3c f257 223d 75c3 19bd ce66 1cbd
00000230: e0a4 c53c 0f17 1abb c9ae 1abd 68c4 333d
00000240: b369 1bbd 1ffa 20bd e2d7 663d 90d4 b9bd
00000250: 998d 46bd 44ed a9bd c92e 84bc 25af e63c
00000260: 2325 2b3d 6b66 d3bd b8a4 03bd 77ff e43c
00000270: a781 56bc a4d8 03bc 0e18 973d e8b0 bd3d
00000280: 5a50 fcbb 7f37 1e3d 7dab 67bd 1eff 2c3d
00000290: 38f1 10bd 1526 293d 3156 c2bc bf05 5fbc
000002a0: 6b0b 5a3c 7d81 803d 3063 cabc dc22 39bc
000002b0: f719 b23d 99bd 02bd 1951 c63a 2807 48bc
000002c0: e59b 84bc 4acd 9c3d 0166 1a3d ee40 f73c
000002d0: ebad 193d b0bb 1ebd 82db 3e3d 314e 33bd
000002e0: 4e95 353d d5be c4bc 4fe6 363d dcd2 4a3d
000002f0: 7910 7d3d 3265 143d d298 10bd d3dc 093e
00000300: 85ca 20bd 9fd1 523d 20f9 ddbc d02e 9ebc
00000310: 4fdc debd 585a b4bc 4144 973c fbd8 dcbb
00000320: 7c38 98bc 5e7d aabc 81c6 f3bc 9e8b 75bc
00000330: c81f b1bd 21b5 b6bc 7684 163d adce 723c
00000340: 3e20 823c 7b8e c23c 4859 923d 6f25 b23d
00000350: 73c7 c3bd 5d95 163d 24f4 d5bc ca19 5fbb
00000360: d32e a43c 7525 533d 513b 29bd 107b 8ebc
00000370: 2246 9fbb 0371 ec3a 9c55 853d 14a6 a3bc
00000380: 00dc aabc d6d1 1abd cee7 3d3d b5e8 23bd
00000390: bfd2 173d 5f40 74bd c5ba e43c e4b2 993d
000003a0: 3b40 f33d 3b4c 08bc 5825 0a3d bd91 7f3d
000003b0: 9723 8d3c 97e1 8c3d 8929 a83c ece7 08bd
000003c0: e14d 1cbc 515d cbbd 9c73 8a3c 54a1 993c
000003d0: 36f8 883b b13c 773c cbca de3c 0fd0 ed3c
000003e0: 3eea e63c 44b5 b3bd 0c32 80bd 16a0 063e
000003f0: 1a27 843d 39dc 4d3d 6f25 b73d ee16 733d

actor_fc.weight f4 [256, 256]
0.12321606 0.09409294 -0.1137501 0.03624749 -0.21416225 -0.04188757 -0.0018108432 -0.059819818
-0.20433196 -0.09782348 -0.030402523 -0.0059740576 -0.08609053 -0.120857514 -0.08321721 -0.011378786
0.18054794 0.10755704 -0.0036443935 0.08878558 -0.08777394 -0.08058792 -0.15908553 -0.038765904
-0.20751745 -0.006102436 0.1856843 0.10101113 -0.06707885 0.27564618 0.029804327 -0.25915027
-0.029947747 0.085279554 -0.10850379 0.11936581 -0.047213454 -0.26520517 -0.22699438 -0.34124643
-0.026572056 0.105840646 0.03359444 -0.18215993 0.11753745 -0.07371236 0.14370914 -0.23831747
-0.23671535 0.09351436 -0.2540911 -0.016754866 -0.07330618 0.0925308 -0.07205976 -0.27646422
0.07138821 -0.11736174 -0.32173958 -0.061836448 0.049441356 0.11996747 0.039637312 -0.13015452
0.051479306 0.16192603 -0.061072294 -0.07530719 0.066941686 0.13760254 0.013972651 0.4800149
-0.03983537 -0.19007367 -0.08041192 -0.09525981 -0.18156505 -0.25241548 0.07738705 -0.0816964
-0.043825988 0.036650952 0.07694246 -0.03312464 -0.15686326 -0.1508118 -0.053110298 -0.24331088
0.047527153 0.021201756 -0.025992509 -0.21737401 -0.033420175 -0.029344698 -0.23764047 -0.23582229
0.24500655 -0.18284337 -0.094215676 0.023317767 0.022593614 -0.13198829 -0.00010703802 -0.092930555
-0.1523087 -0.3135963 0.2053111 -0.23314883 -0.31794024 0.18879424 -0.2594346 -0.0016743275
0.3960679 0.16152216 -0.29731968 0.03435167 -0.33648795 -0.013657905 -0.1377411 0.42555946
-0.31160906 -0.052596014 0.02387547 0.21142475 0.11872039 0.018382244 -0.17069562 0.055562768
0.16584083 -0.010364568 -0.27082452 -0.1502876 -0.09396221 -0.056172684 -0.15892957 0.12104472
-0.013806866 0.17723148 -0.035978045 0.06641122 0.1154068 0.15772454 0.008272701 -0.17398334
-0.08773244 -0.048294555 0.35276282 0.009350547 0.057463996 -0.14337516 -0.084970444 0.06180248
0.26492125 0.0018481704 0.002438601 0.10129755 -0.0034622208 -0.049231708 -0.25154328 0.030603968
-0.10200869 0.04806559 0.24745122 -0.1360427 -0.02112749 0.26458502 -0.31337813 -0.12458324
-0.082820155 -0.014324587 -0.0058947196 0.2789044 -0.05217118 -0.057225313 -0.051936205 -0.04053805
0.075070396 -0.33143458 0.16930091 -0.3597738 -0.08857497 0.17567344 -0.121631555 -0.017115744
-0.10903043 -0.032659337 -0.04145075 -0.34397104 0.034983672 -0.06414754 0.23217319 -0.049530614
-0.10020761 -0.17051396 -0.020768864 0.060202654 -0.013608579 -0.01670341 0.13500516 0.008382391
-0.069915086 -0.5246433 -0.0031009957 0.047339313 -0.25586978 0.040379398 0.18071048 -0.058233898
0.052436054 0.20953846 -0.16841719 0.011238776 0.45385143 0.23611945 -0.033025883 0.1969663
-0.121884525 -0.09879984 -0.19702944 -0.03209238 0.028011533 0.018746357 -0.14568445 0.0990404
-0.04607657 -0.14606585 0.2126783 0.054421768 0.0023662655 -0.13908944 0.1112326 0.29702568
-0.019757565 0.09585298 -0.09293846 0.20711677 -0.22072607 0.082446694 -0.0880502 -0.2818455
-0.059125833 0.06886222 0.007695613 0.07232513 -0.07198989 0.11758855 0.283794 -0.085280545
-0.1333425 0.17719342 -0.021342225 -0.16486986 0.2594415 -0.17692691 -0.24346489 0.0017602822
00000000: b458 fc3d cdb3 c03d d0f5 e8bd 4078 143d
00000010: 594d 5bbe 4d92 2bbd d159 edba a005 75bd
00000020: 663c 51be ad57 c8bd b60e f9bc 07c2 c3bb
00000030: 3b50 b0bd 2584 f7bd c96d aabd 166e 3abc
00000040: 8fe1 383e de46 dc3d c7d6 6ebb 37d5 b53d
00000050: d3c2 b3bd 480b a5bd 51e7 22be ffc8 1ebd
00000060: 747f 54be f2f6 c7bb 0624 3e3e ecde ce3d
00000070: a360 89bd 7f21 8d3e 3428 f43c 58af 84be
00000080: fa54 f5bc 0ca7 ae3d 3c37 debd 1076 f43d
00000090: e562 41bd f9c8 87be 3771 68be dab7 aebe
000000a0: a4ad d9bc fbc2 d83d 539a 093d 2288 3abe
000000b0: 79b7 f03d 81f6 96bd 7d28 133e 7f09 74be
000000c0: 8265 72be 7584 bf3d 3b18 82be 8041 89bc
000000d0: 8d21 96bd ca80 bd3d 1194 93bd b88c 8dbe
000000e0: fb33 923d 5a5b f0bd 0dbb a4be 3748 7dbd
000000f0: 0583 4a3d 81b1 f53d bc5a 223d 3a47 05be
00000100: f7db 523d f0cf 253e f126 7abd a83a 9abd
00000110: b918 893d aee7 0c3e 8ced 643c 83c4 f53e
00000120: 6a2a 23bd aca2 42be 01af a4bd 9317 c3bd
00000130: 30ec 39be 9a3c 81be 1a7d 9e3d 7150 a7bd
00000140: e182 33bd 4f1f 163d 0294 9d3d b4ad 07bd
00000150: c3a0 20be 696e 1abe 2f8a 59bd 7d26 79be
00000160: d5ab 423d 4eaf ad3c 3eee d4bc 4b97 5ebe
00000170: 98e3 08bd 4b64 f0bc 0658 73be 667b 71be
00000180: ffe2 7a3e 4b3b 3bbe 26f4 c0bd e704 bf3c
00000190: 3e16 b93c f027 07be 9979 e0b8 6052 bebd
000001a0: d0f6 1bbe b28f a0be 133d 523e 91be 6ebe
000001b0: 10c9 a2be 4753 413e 9dd4 84be 1c75 dbba
000001c0: 69c9 ca3e 1166 253e 493a 98be 56b4 0c3d
000001d0: 2648 acbe 68c5 5fbc 010c 0dbe eee2 d93e
000001e0: 398b 9fbe eb6e 57bd 7d96 c33c bb7f 583e
000001f0: ad23 f33d 5c96 963c d5ca 2ebe c995 633d
00000200: 2ed2 293e 26d0 29bc 83a9 8abe fee4 19be
00000210: 426f c0bd 5415 66bd 6fbe 22be 4be6 f73d
00000220: 3136 62bc 2b7c 353e b75d 13bd 9b02 883d
00000230: 665a ec3d 8b82 213e 398a 073c b028 32be
00000240: 11ad b3bd 83d0 45bd 549d b43e 0933 193c
00000250: 5e5f 6b3d f0d0 12be fc04 aebd 9924 7d3d
00000260: c2a3 873e 4f3e f23a f0d0 1f3b 1775 cf3d
00000270: 6de6 62bb 30a7 49bd 48ca 80be 2cb5 fa3c
00000280: efe9 d0bd 6de0 443d da63 7d3e c74e 0bbe
00000290: 8f13 adbc b077 873e 1973 a0be 7f25 ffbd
000002a0: 9d9d a9bd acb1 6abc 7e28 c1bb 8fcc 8e3e
000002b0: 72b1 55bd 1765 6abd 0fbb 54bd 3a0b 26bd
000002c0: 82be 993d cbb1 a9be 385d 2d3e 4634 b8be
000002d0: cb66 b5bd bde3 333e f719 f9bd 5136 8cbc
000002e0: 594b dfbd ccc5 05bd 43c8 29bd f91c b0be
000002f0: 0a4b 0f3d c95f 83bd cfbe 6d3e 9de0 4abd
00000300: a639 cdbd 369b 2ebe 7723 aabc 0f97 763d
00000310: 84f6 5ebc 97d5 88bc cb3e 0a3e 4c56 093c
00000320: a42f 8fbd 064f 06bf 133a 4bbb dee6 413d
00000330: 5d01 83be de64 253d 2b0c 393e ab86 6ebd
00000340: 30c7 563d 4091 563e 8e75 2cbe d822 383c
00000350: 375f e83e 4cc9 713e 2646 07bd 89b1 493e
00000360: 989e f9bd 9257 cabd 16c2 49be 4d73 03bd
00000370: 7178 e53c f691 993c 4e2e 15be b1d5 ca3d
00000380: c9ba 3cbd 4992 15be 57c8 593e 5ce9 5e3d
00000390: 5913 1b3b 766d 0ebe ebcd e33d c013 983e
000003a0: 9eda a1bc 914e c43d 8556 bebd 6b16 543e
000003b0: 0406 62be d0d9 a83d aa53 b4bd 0e4e 90be
000003c0: ee2d 72bd a307 8d3d 7b2b fc3b 331f 943d
000003d0: 6f6f 93bd 44d2 f03d 724d 913e 91a7 aebd
000003e0: f08a 08be 3172 353e e4d5 aebc a5d3 28be
000003f0: 84d5 843e 542c 35be dc4e 79be 45b9 e63a

actor_fc.bias f4 [256]
-0.01940891 -0.035764735 -0.005279631 -0.050746594 0.008186903 -0.023301428 -0.03836409 0.09233759
0.023317778 -0.018371228 0.028434223 0.043470208 0.018749047 -0.09841124 -0.033620644 0.03003206
-0.027462978 -0.026472697 0.04390175 0.03080133 -0.07383461 0.0058018584 -0.004444562 0.055768557
-0.03438324 0.040087022 -0.024439372 -0.013211316 -0.01955063 -0.11288634 -0.041059967 0.023914695
-0.048914123 0.026469072 -0.00050577265 0.016612247 -0.04676083 0.015253728 -0.1007932 0.029283226
-0.041025467 0.034715645 -0.032081407 -0.043186583 -0.039151616 -0.044979904 -0.010234211 0.028145367
0.015597634 0.019865025 0.01891495 0.030248376 0.068198025 -0.017678482 0.004083596 0.013348284
-0.015862735 -0.03358374 0.057321575 -0.00089391274 0.05412059 -0.029677054 0.04755208 -0.018844046
-0.058419067 -0.012857069 0.028338354 0.074310035 -0.04836694 -0.05842318 0.023680286 -0.040425062
-0.031341568 0.03486501 -0.03892322 -0.03271886 -0.17824437 0.017726101 0.040991694 -0.0023716714
-0.017168792 -0.0027388653 0.08820638 -0.00029701123 -0.22170135 0.0266266 -0.06619526 0.036697116
-0.02043929 -0.011489691 0.050868914 0.042978946 0.016469527 -0.08278647 -0.030223344 -0.10266566
0.02449625 -0.019023566 0.024580443 -0.04366815 0.08834543 -0.06067142 -0.02139296 0.025401892
-0.057150446 0.029447772 -0.037660297 -0.05030786 0.029689426 -0.0067255725 0.028491624 -0.031222995
-0.05999772 -0.017720075 0.04112071 -0.031506337 -0.06606427 -0.019184284 -0.0045216302 -0.008250349
-0.11852015 -0.00020181804 -0.006539232 0.024984797 0.04016202 -0.035503738 0.0571674 -0.049489476
0.039256226 -0.023361504 0.0032378065 0.005750812 0.054598343 0.010397502 -0.001414592 -0.03943073
-0.00517498 0.025565239 -0.013222179 0.019884398 0.022692434 -0.021814218 -0.047766875 -0.03203597
-0.007161422 -0.05020464 0.034465514 -0.02567886 0.032411076 -0.031016203 -0.037489466 -0.035427283
0.0699121 0.043646067 -0.025952209 0.023191124 -0.035640083 -0.06427704 0.021292346 -0.007629128
-0.028861785 0.057760555 -0.02681884 -0.06134036 0.06229594 -0.03463927 -0.05788463 -0.056202117
0.02818805 -0.031030225 -0.06752041 -0.0062582884 -0.019386796 0.0929284 -0.023685843 0.036992226
0.031475533 0.09308134 -0.019533092 0.024525613 -0.00016997417 -0.036713056 0.0244068 0.04358411
-0.0349155 -0.010650874 0.03348832 -0.0053205383 -0.03966307 -0.075641125 -0.0006072114 -0.0108807385
-0.06440327 0.0365475 0.06325379 -0.018833874 -0.030487292 -0.0010831511 0.07136678 0.02709895
-0.0420303 0.027126456 0.011471278 -0.06639402 -0.022974344 -0.015218975 0.07874332 0.053638294
0.0007889091 -0.04798786 -0.033931367 0.064288996 -0.03008849 -0.03618656 0.061080962 0.050698843
0.052202027 0.08487857 -0.015234412 0.012829 -0.034545135 -0.08444929 0.027091749 0.00030084865
0.021501653 -0.0803974 0.010566868 0.107377715 0.00948319 -0.09390385 -0.038654048 0.05968043
0.044917323 0.03589268 -0.03747102 -0.037944265 0.043394163 -0.049750704 -0.03656826 -0.048551522
-0.09771597 -0.025975816 -0.039197993 -0.011822005 0.03244819 -0.04190412 -0.034082685 -0.028738316
-0.03586984 -0.011685877 -0.061794277 -0.05140126 -0.024706723 -0.006242992 -0.016971562 -0.05329224
00000000: 6fff 9ebc 0b7e 12bd c100 adbb a9db 4fbd
00000010: 5c22 063c a3e2 bebc aa23 1dbd 7e1b bd3d
00000020: ed04 bf3c 427f 96bc e3ee e83c d10d 323d
00000030: 9a97 993c d58b c9bd cdb5 09bd cb05 f63c
00000040: 0afa e0bc 45dd d8bc 52d2 333d 1253 fc3c
00000050: 9a36 97bd 841d be3b b0a3 91bb 926d 643d
00000060: 71d5 0cbd 4a32 243d 1435 c8bc 4774 58bc
00000070: a528 a0bc f430 e7bd 7f2e 28bd c0e8 c33c
00000080: 2d5a 48bd abd5 d83c d495 04ba 6816 883c
00000090: 4988 3fbd c6ea 793c aa6c cebd 60e3 ef3c
000000a0: 520a 28bd fe31 0e3d cb67 03bd 6ae4 30bd
000000b0: 725d 20bd d93c 38bd 64ad 27bc 1d91 e63c
000000c0: 388d 7f3c fabb a23c 86f3 9a3c 71cb f73c
000000d0: 68ab 8b3d 77d2 90bc b0cf 853b c3b2 5a3c
000000e0: 91f2 81bc 1b8f 09bd 07ca 6a3d 7855 6aba
000000f0: 8dad 5d3d 4b1d f3bc f8c5 423d d45e 9abc
00000100: d548 6fbd 75a6 52bc d625 e83c dc2f 983d
00000110: 6a1c 46bd 254d 6fbd 29fd c13c c094 25bd
00000120: 0460 00bd 9dce 0e3d f46d 1fbd 3604 06bd
00000130: b185 36be 5436 913c e8e6 273d 0b6e 1bbb
00000140: 91a5 8cbc 897e 33bb 8ca5 b43d 2cb8 9bb9
00000150: ae05 63be 0720 da3c 6191 87bd b74f 163d
00000160: 4c70 a7bc 423f 3cbc ec5b 503d b10a 303d
00000170: 1aeb 863c f48b a9bd f296 f7bc 6042 d2bd
00000180: 5cac c83c 4fd7 9bbc ed5c c93c 60dd 32bd
00000190: 73ee b43d 9882 78bd 4a40 afbc a117 d03c
000001a0: 9616 6abd 743c f13c af41 1abd 9d0f 4ebd
000001b0: 3d37 f33c 3162 dcbb 4467 e93c 5ec7 ffbc
000001c0: 2bc0 75bd b129 91bc 316e 283d ca0c 01bd
000001d0: b44c 87bd 5c28 9dbc 2f2a 94bb 792c 07bc
000001e0: b1ba f2bd 1e9f 53b9 0e47 d6bb ebac cc3c
000001f0: ee80 243d 5e6c 11bd 5d28 6a3d 7ab5 4abd
00000200: 23cb 203d a060 bfbc 6131 543b 4f71 bc3b
00000210: 83a2 5f3d 495a 2a3c d569 b9ba 1e82 21bd
00000220: e192 a9bb 316e d13c d7a1 58bc 9be4 a23c
00000230: 7ce5 b93c bbb3 b2bc 33a7 43bd 2638 03bd
00000240: 5daa eabb 61a3 4dbd b62b 0d3d 795c d2bc
00000250: 7ac1 043d b115 febc 8e8e 19bd 331c 11bd
00000260: 132e 8f3d 38c6 323d ba99 d4bc 50fb bd3c
00000270: 56fb 11bd aea3 83bd 496d ae3c c4fd f9bb
00000280: 8d6f ecbc 5596 6c3d 2fb3 dbbc 0840 7bbd
00000290: 072a 7f3d e8e1 0dbd 6f18 6dbd 3134 66bd
000002a0: a0ea e63c 1933 febc 2448 8abd 5412 cdbb
000002b0: 0fd1 9ebc 3f51 be3d d008 c2bc 2985 173d
000002c0: 7dec 003d 6ea1 be3d dd03 a0bc f0e9 c83c
000002d0: 183b 32b9 6e60 16bd c5f0 c73c 4085 323d
000002e0: 8e03 0fbd 0181 2ebc 0c2b 093d e957 aebb
000002f0: be75 22bd bce9 9abd 442d 1fba 2045 32bc
00000300: dde5 83bd d5b2 153d 348b 813d 7f49 9abc
00000310: 7cc0 f9bc 85f8 8dba bf28 923d 9efe dd3c
00000320: f727 2cbd 4d38 de3c 07f2 3b3c 97f9 87bd
00000330: b134 bcbc 0259 79bc 2e44 a13d d4b3 5b3d
00000340: cbce 4e3a eb8e 44bd 9efb 0abd f3a9 833d
00000350: 237c f6bc 5c38 14bd 0830 7a3d 97a9 4f3d
00000360: cbd1 553d d1d4 ad3d c199 79bc ba30 523c
00000370: 337f 0dbd c0f3 acbd 84ef dd3c 39bb 9d39
00000380: 3c24 b03c 64a7 a4bd a820 2d3c d9e8 db3d
00000390: 625f 1b3c a950 c0bd b553 1ebd 7773 743d
000003a0: 3afb 373d 3404 133d 367b 19bd 726b 1bbd
000003b0: 14be 313d 65c7 4bbd 9ac8 15bd f6dd 46bd
000003c0: 4f1f c8bd 3ccb d4bc 138e 20bd 15b1 41bc
000003d0: 65e8 043d a8a3 2bbd 499a 0bbd 9e6c ebbc
000003e0: 41ec 12bd 1f76 3fbc ff1b 7dbd 218a 52bd
000003f0: c165 cabc 0392 ccbb f207 8bbc f748 5abd

actor_out.weight f4 [12, 256]
-0.07190613 0.08360616 0.02207688 -0.45378697 -0.14227137 0.120223776 0.030162765 -0.14977191
-0.3501226 0.2918056 0.12394886 -0.052510947 -0.15895106 -0.07489427 -0.15019466 -0.2881891
0.10865813 -0.013453297 0.015707837 0.14517441 0.029643713 0.26343203 0.11411268 0.33275166
0.40741733 0.1444567 -0.0944233 0.1767146 0.4462264 0.20940755 0.10396656 -0.1409077
-0.26985306 -0.02661036 -0.20691235 -0.28223717 0.04184023 -0.11800153 -0.3507426 0.031684697
0.103498444 -0.39677587 0.2320501 0.020388171 -0.09543807 -0.0042225975 0.014986244 0.16453245
-0.12014543 -0.085669726 1.0633534 0.017516473 -0.2011276 0.3043723 -0.22556119 0.27023914
-0.2347181 0.14567776 -0.15279569 -0.06285015 0.11225064 0.31451592 -0.38527468 -0.08202722
0.15342611 0.053029556 -0.19311239 0.31556502 -0.0013778122 -0.002011052 0.07121962 0.03560886
0.0299486 0.0110901585 -0.059966855 -0.071427085 -0.024609191 -0.027064376 -0.37158918 0.13695152
0.06127769 -0.07241091 0.09439997 0.09783702 -0.00555649 -0.040401403 0.060604986 0.086367875
0.1520894 0.051810633 -0.051044945 0.008359258 -0.10951107 0.14616333 -0.16296425 0.109167725
-0.046138354 -0.021625761 -0.017217372 -0.31279945 0.15084395 -0.044343334 0.27894446 0.114238776
-0.088779464 -0.03569645 0.08474374 0.44169396 0.005024599 0.108711205 -0.06638319 0.04612444
0.09554431 -0.069646195 -0.45693335 0.16690372 0.102962755 0.078286506 -0.10056006 -0.13229102
0.030099338 0.011274243 -0.24557933 -0.22245403 -0.24640922 0.118763305 0.00010445718 0.03520283
-0.39348072 -0.30041155 0.066643566 -0.22518802 -0.025958152 0.17585643 -0.08941582 -0.22644727
0.19238381 -0.11340195 -0.29230565 0.0074211927 -0.3053739 0.08237623 -0.20205711 -0.23330483
-0.12767047 -0.068248525 -0.092438824 -0.13706508 0.05559611 0.025047434 -0.049663734 -0.07998783
0.024463361 0.028163485 -0.3282117 -0.12647569 0.03658498 -0.026952008 0.0383192 -0.2468671
0.092117645 -0.23311646 -0.05923829 0.19423313 0.05028334 0.12174243 -0.10275126 -0.019330129
0.19791631 0.24241287 -0.120382525 0.1696936 -0.05004467 -0.31197134 0.17554538 -0.13589309
-0.5699963 0.2747417 -0.21559133 0.03804855 -0.12825093 -0.090094544 0.32301855 0.24725984
-0.040123925 0.28510836 0.073137805 0.16866498 0.003112271 -0.14028344 0.33226827 -0.025073498
0.16747437 0.19616085 0.16093962 0.033018153 0.21423225 -0.06154639 0.23420772 -0.21346298
0.11368732 -0.030418048 0.33740386 0.08501581 -0.0003247607 -0.25210965 0.26891083 -0.24816333
-0.468422 0.37771022 0.012536299 0.31723544 -0.21872164 -0.3307355 -0.18617451 -0.060960777
-0.095713265 -0.050033577 0.019111631 0.24407466 -0.030540626 0.06764769 -0.16098908 0.21154414
0.0031973228 -0.17495587 0.35397857 0.07411363 0.015881484 -0.13970459 -0.07513619 0.10295173
-0.13544823 0.008801319 -0.5512332 -0.104663886 0.287202 -0.30858007 0.13244832 -0.05335858
-0.005861165 0.28199428 -0.013512578 -0.5386265 -0.17258538 -0.3581608 0.11181037 -0.012185584
-0.10236837 -0.025087917 -0.115064055 0.13880195 0.5449543 -0.040336948 0.1998713 0.08873631
00000000: 8543 93bd b539 ab3d 93da b43c c456 e8be
00000010: 96af 11be e237 f63d e717 f73c cf5d 19be
00000020: 4543 b3be 8b67 953e e6d8 fd3d b815 57bd
00000030: 11c4 22be 2b62 99bd a1cc 19be 868d 93be
00000040: 2788 de3d 386b 5cbc b9ad 803c 9aa8 143e
00000050: 5fd7 f23c 90e0 863e e9b3 e93d 6d5e aa3e
00000060: 0199 d03e 75ec 133e 0161 c1bd acf4 343e
00000070: c977 e43e ef6e 563e 6bec d43d 1c4a 10be
00000080: 2e2a 8abe f8fd d9bc d5e0 53be 6481 90be
00000090: a960 2b3d c9aa f1bd 8994 b3be d0c7 013d
000000a0: fef6 d33d 3526 cbbe 8b9e 6d3e 1805 a73c
000000b0: 0975 c3bd b75d 8abb dd88 753c 327b 283e
000000c0: cf0e f6bd 9c73 afbd f71b 883f b57e 8f3c
000000d0: 65f4 4dbe b0d6 9b3e 83f9 66be c95c 8a3e
000000e0: f159 70be 8d2c 153e 7976 1cbe 94b7 80bd
000000f0: aae3 e53d 3b08 a13e b942 c5be e3fd a7bd
00000100: bc1b 1d3e 8535 593d 41bf 45be bd91 a13e
00000110: b597 b4ba dbcb 03bb 98db 913d 99da 113d
00000120: c456 f53c 7fb3 353c ce9f 75bd 5d48 92bd
00000130: 3799 c9bc 1cb6 ddbc f040 bebe 053d 0c3e
00000140: 51fe 7a3d 2c4c 94bd c554 c13d c75e c83d
00000150: 3713 b6bb f17b 25bd ef3c 783d a4e1 b03d
00000160: 53bd 1b3e 6337 543d 8114 51bd 45f5 083c
00000170: 5747 e0bd d7ab 153e 1ae0 26be 5493 df3d
00000180: 92fb 3cbd 8228 b1bc 720b 8dbc 4027 a0be
00000190: d676 1a3e 5ba1 35bd cfd1 8e3e 05f6 e93d
000001a0: 02d2 b5bd 7136 12bd 208e ad3d b625 e23e
000001b0: 64a5 a43b fba3 de3d e9f3 87bd fbec 3c3d
000001c0: bcac c33d aaa2 8ebd 2bf3 e9be cfe8 2a3e
000001d0: 23de d23d ad54 a03d 6ff2 cdbd 4c77 07be
000001e0: e392 f63c 9ab7 383c 2679 7bbe fdca 63be
000001f0: b352 7cbe 2d3a f33d 0610 db38 d830 103d
00000200: 4e76 c9be 8bcf 99be 6c7c 883d b097 66be
00000210: 31a6 d4bc b513 343e a41f b7bd cbe1 67be
00000220: 4300 453e 483f e8bd 16a9 95be 7a2d f33b
00000230: f859 9cbe deb4 a83d 0fe8 4ebe 76e7 6ebe
00000240: 0cbc 02be e2c5 8bbd 9150 bdbd ca5a 0cbe
00000250: bfb8 633d 4730 cd3c 336c 4bbd a9d0 a3bd
00000260: 6367 c83c 1cb7 e63c 5d0b a8be d882 01be
00000270: 22da 153d 75ca dcbc 98f4 1c3d bbca 7cbe
00000280: 2da8 bc3d 15b6 6ebe d9a3 72bd 0de5 463e
00000290: e7f5 4d3d 1854 f93d 416f d2bd 385a 9ebc
000002a0: 93aa 4a3e 143b 783e 1d8b f6bd 29c4 2d3e
000002b0: a4fb 4cbd b5ba 9fbe 2bc2 333e 8f27 0bbe
000002c0: 47eb 11bf f2aa 8c3e f9c3 5cbe ccd8 1b3d
000002d0: 3654 03be 7d83 b8bd b062 a53e af31 7d3e
000002e0: fc58 24bd b9f9 913e 46c9 953d 83b6 2c3e
000002f0: 3ef7 4b3b 76a6 0fbe 111f aa3e f066 cdbc
00000300: 677e 2b3e 64de 483e 5bcd 243e 0b3e 073d
00000310: b35f 5b3e 1118 7cbd 26d4 6f3e 0a96 5abe
00000320: e6d4 e83d 452f f9bc 33c0 ac3e c51c ae3d
00000330: a544 aab9 8414 81be aeae 893e 871e 7ebe
00000340: 02d5 efbe 3c63 c13e 0d65 4d3c af6c a23e
00000350: 91f8 5fbe 2a56 a9be 88a4 3ebe 02b2 79bd
00000360: 5105 c4bd 02f0 4cbd ff8f 9c3c b5ee 793e
00000370: 5630 fabc df8a 8a3d 52da 24be 079f 583e
00000380: 2d8a 513b a227 33be ae3c b53e e3c8 973d
00000390: e319 823c b80e 0fbe 01e1 99bd 5bd8 d23d
000003a0: f1b2 0abe 6833 103c 9e1d 0dbf 055a d6bd
000003b0: 240c 933e 35fe 9dbe 88a0 073e 878e 5abd
000003c0: 040f c0bb 8e61 903e dc63 5dbc 6de3 09bf
000003d0: 39ba 30be da60 b7be d6fc e43d 0ba6 47bc
000003e0: 82a6 d1bd 2d85 cdbc b4a6 ebbd 1922 0e3e
000003f0: 2082 0b3f 5b38 25bd 10ab 4c3e 62bb b53d

actor_out.bias f4 [12]
0.0615547 -0.056222938 -0.007604928 0.016018553 -0.081649095 -0.047193386 0.0473143 -0.027869927
-0.055298027 0.016260091 0.0033522358 0.03926375
00000000: c820 7c3d 064a 66bd c332 f9bb 5739 833c
00000010: a437 a7bd da4d 41bd a4cc 413d 794f e4bc
00000020: 2f80 62bd e233 853c 2fb1 5b3b 07d3 203d
