networks/saved_model/ppo_model_ep700.pth (torch, 840050 bytes, 11 tensors)

shared_fc1.weight f4 [256, 31]
0	0xbe8bf3aa	-0.27334338
1	0x3e53ce5c	0.20684189
2	0x3e8bafd8	0.27282596
3	0x3d6ab0e1	0.05729759
4	0x3d23d5e1	0.039998893
5	0x3d2bbc88	0.041927844
6	0x3c714ad4	0.014727313
7	0xbd25aea0	-0.04044974
8	0x3d4e4a53	0.05036385
9	0x3cb0bf7a	0.021575678
10	0x3d9c5069	0.076325245
11	0x3dc14111	0.094362386
12	0xbe382bf6	-0.1798552
13	0x3e276020	0.16345263
14	0x3af7902a	0.0018887569
15	0xbb371aca	-0.0027939552
16	0xbc8e7965	-0.01739187
17	0xbedf4d6a	-0.4361375
18	0x3da53b17	0.08067911
19	0x3ffd59a5	1.9792982
20	0xbe34ac07	-0.17643748
21	0xbf3ea7e9	-0.7447496
22	0xbdaecfc9	-0.085357256
23	0x3dc36d1e	0.09542297
24	0x3d338111	0.04382426
25	0xbdb28db0	-0.08718431
26	0x3c8f5073	0.017494416
27	0x3cd0b37a	0.025476206
28	0xbc1e055d	-0.009644833
29	0x3c46b58f	0.012128248
30	0x3e20ab7c	0.15690416
31	0x3d985982	0.07438947
32	0x3dceb9e3	0.10094049
33	0x3c8c7259	0.017144369
34	0x3e0604cc	0.13087767
35	0x3d995432	0.07486762
36	0xbd87f34b	-0.06638201
37	0x3de0b544	0.10972074
38	0xbdb6c6bd	-0.08924625
39	0x3e1b0c24	0.1514135
40	0xbd822864	-0.0635536
41	0xbc8a20db	-0.01686137
42	0x3e0ca54b	0.1373493
43	0xbd2adc6d	-0.04171412
44	0xbd247167	-0.04014721
45	0x3d1c9af0	0.038233697
46	0x3dbd3dee	0.09240328
47	0xbc90e043	-0.017685061
48	0x3e183afa	0.14866248
49	0x3e7166ad	0.23574324
50	0xbe249b7d	-0.16074939
51	0xbf40389a	-0.7508637
52	0x3d6bece0	0.05759895
53	0x3e291431	0.16511609
54	0x3dc5a63a	0.09650846
55	0xbd94be9f	-0.072629206
56	0x3d96e41e	0.07367729
57	0xbdffc4e9	-0.124887295
58	0x3d37c976	0.044869862
59	0x3d238d25	0.039929528
60	0xbc79c8e7	-0.015245653
61	0x3cbfe961	0.023426713
62	0x3e0171d5	0.1264108
63	0xbcb880c5	-0.02252234
64	0xbdcb1f12	-0.099180356
65	0xbcbaf33f	-0.022821067
66	0xbecbe427	-0.39822504
67	0x3d04c19d	0.032411207
68	0xbddbd8f2	-0.107347384
69	0xbe3e663d	-0.18593688
70	0x3e2838fe	0.16427991
71	0x3da82838	0.08210796
72	0xbe33ead6	-0.17570052
73	0x3e661cd9	0.22471942
74	0xbc55d24d	-0.013050628
75	0xbe0cb8c4	-0.13742357
76	0x3c29cdad	0.010363978
77	0x3d6506f4	0.055914834
78	0x3d8dcdfa	0.069240525
79	0x3e5f02b0	0.21778369
80	0xbdaf592b	-0.08561929
81	0xbe208e73	-0.1567934
82	0xbe582697	-0.21108471
83	0xbd22d0d6	-0.039749943
84	0xbcaeea90	-0.021352082
85	0xbdfeb75c	-0.12437317
86	0x3daff258	0.08591145
87	0xbe923160	-0.28553295
88	0x3c32c9b8	0.010912351
89	0x3cd0159d	0.025400931
90	0x3e1f2aa2	0.15543607
91	0x3e01fe47	0.12694655
92	0xbd66f07a	-0.05638168
93	0x3e8efca5	0.27927127
94	0x3d2d0c90	0.04224831
95	0xbcb27e70	-0.021788806
96	0xbdb62461	-0.088936575
97	0xbe0ea305	-0.13929375
98	0xbd7b9da8	-0.06142965
99	0xbdeb9514	-0.11503044
100	0xbc441ed0	-0.011970237
101	0xbe851e6f	-0.2599978
102	0x3ea5d6ce	0.32390445
103	0xbf0b8098	-0.54493093
104	0x3e4dff22	0.20116857
105	0x3d9bccb8	0.076074064
106	0x3d5195dc	0.051168308
107	0x3e58a97b	0.21158402
108	0x3e08fe81	0.13378336
109	0xbc014385	-0.007889633
110	0x3e0954d0	0.1341126
111	0x3c81cad0	0.015843779
112	0x3f05c563	0.52254313
113	0xbd8c55de	-0.06852315
114	0x3f24e82b	0.6441676
115	0xbe3fd3e5	-0.18733175
116	0x3e0fb002	0.14031985
117	0x3bc86f75	0.0061168023
118	0xbd4cba12	-0.049982138
119	0x3de3b512	0.11118521
120	0x3dece3ef	0.115669124
121	0x3e218b80	0.15775871
122	0x3dda8fc4	0.10671952
123	0x3e2f2b98	0.17106473
124	0xbecfdc79	-0.40597895
125	0x3e648323	0.2231565
126	0x3d08b1a1	0.033372525
127	0xbc6699da	-0.014074767
128	0xbdf5a62c	-0.119945854
129	0x3e56a4bb	0.20961277
130	0xbe92d79b	-0.2868012
131	0x3dea0815	0.11427323
132	0x3e1e7234	0.15473253
133	0x3da91ce3	0.08257463
134	0x3e193f17	0.14965473
135	0x3dc3586c	0.095383495
136	0xbda60416	-0.08106248
137	0x3d3c1db5	0.04592677
138	0x3d542a86	0.051798366
139	0xbd432a69	-0.047647867
140	0xbe186b51	-0.14884688
141	0xbc167742	-0.009183707
142	0xbdc8de8a	-0.09808071
143	0x3e34819e	0.1762757
144	0xbf85946a	-1.0435917
145	0x3f220b9a	0.6329895
146	0xbe0b0447	-0.1357585
147	0x3dcdb0b1	0.10043467
148	0xbcef23c4	-0.029191859
149	0xbd8d87a1	-0.06910635
150	0xbd1e6b3b	-0.03867648
151	0x3c8514d9	0.016245292
152	0x3cf02cab	0.029318174
153	0x3d1c1c32	0.038112827
154	0xbdd933fa	-0.10605617
155	0x3d9756ea	0.073896244
156	0x3c977cda	0.018492151
157	0x3d4fdeb3	0.050749492
158	0xbe714e94	-0.23565131
159	0x3e268167	0.162603
160	0xbe267959	-0.16257228
161	0xbd9f841d	-0.077888705
162	0xbe9630ce	-0.2933411
163	0xbe4fbe51	-0.20287444
164	0xbddad79d	-0.10685656
165	0xbe2892ca	-0.16462246
166	0x3d727783	0.059196007
167	0xbe169d69	-0.14708485
168	0xbd0c7663	-0.03429259
169	0xbc89d925	-0.016827175
170	0x3bf05b7c	0.0073351245
171	0x3e20c763	0.1570106
172	0x3da7f28f	0.08200561
173	0xbe600753	-0.21877794
174	0xbec8bf28	-0.3920834
175	0xbdcbf472	-0.099587336
176	0xbee72aeb	-0.4514993
177	0xbb76c325	-0.0037652936
178	0x3e00b1aa	0.12567773
179	0x3e6e8fa5	0.23296984
180	0xbd72191e	-0.059105985
181	0x3d8fb0ac	0.07016119
182	0x3dd23444	0.10263875
183	0x3d371ae1	0.044703368
184	0xbc6da404	-0.014504436
185	0x3e1fef6b	0.15618674
186	0xbf18f6a2	-0.5975133
187	0xbd8cfad2	-0.06883778
188	0x3e46491c	0.19363827
189	0xbd0b7267	-0.03404465
190	0xbc6f3e1a	-0.0146022085
191	0x3e512350	0.20423627
192	0xbd84153a	-0.06449361
193	0x3e29f7ed	0.16598482
194	0x3e901433	0.2814041
195	0x3d24bc1e	0.040218465
196	0xbd487099	-0.048935506
197	0xbdb69627	-0.08915358
198	0x3da4c64d	0.08045635
199	0x3e0818f1	0.13290764
200	0x3e445d63	0.19176249
201	0x3df371e9	0.11886961
202	0xbd47a885	-0.048744697
203	0x3dfaf48b	0.12253674
204	0x3b44b2f0	0.0030013882
205	0xbeac2598	-0.33622432
206	0xbe85a5f2	-0.2610317
207	0x3e613e2d	0.21996374
208	0x3d29d659	0.041464183
209	0xbb26a35f	-0.0025426967
210	0x3eafcc0d	0.34335366
211	0xbe9e03f8	-0.30862403
212	0xbdf7c0c0	-0.12097311
213	0xbd026cca	-0.03184203
214	0x3e07d4d7	0.13264786
215	0x3e251272	0.16120318
216	0x3d6e181c	0.05812846
217	0x3dc88d64	0.09792593
218	0xbe48a7b9	-0.19595231
219	0xbcf5a779	-0.029987084
220	0xbd76fca9	-0.06029955
221	0xbc521c6c	-0.012824159
222	0xbe77085b	-0.24124281
223	0xbe4576bb	-0.19283573
224	0xbe49b1b3	-0.19696693
225	0xbe3e9157	-0.1861013
226	0x3d0a2ec7	0.033736017
227	0xbd63648d	-0.055515815
228	0x3d75d074	0.06001325
229	0x3cd6dd2b	0.026228508
230	0xbb3428a5	-0.0027490046
231	0xbde19cef	-0.11016261
232	0xbc3fa61e	-0.01169732
233	0x3e2875fd	0.16451259
234	0xbe07619c	-0.13220829
235	0xbe78ead6	-0.24308333
236	0x3f360401	0.7109986
237	0x3c7c5610	0.015401378
238	0xbf86b20d	-1.0523087
239	0x3ce50fbf	0.02796161
240	0x3e3dc79f	0.1853318
241	0x3e23ed5c	0.16008514
242	0xbe47c35d	-0.19508119
243	0xbda86a76	-0.08223431
244	0x3e1cb4d2	0.15303352
245	0xbd6c4448	-0.057682306
246	0xbc58def4	-0.01323675
247	0xbe005ffb	-0.12536614
248	0xbe9783aa	-0.2959264
249	0x3d310d05	0.043225307
250	0x3e08bd35	0.13353427
251	0x3e6de578	0.23232067
252	0xbe502635	-0.20327075
253	0x3d433f50	0.0476678
254	0x3df21882	0.11821081
255	0xbcf340ec	-0.029694043

shared_fc1.bias f4 [256]
0	0xbcef79a2	-0.029232804
1	0x3d8c6a57	0.0685622
2	0xbe21fb78	-0.15818584
3	0xbd583817	-0.052787866
4	0xbdaee55e	-0.08539842
5	0xbc200af2	-0.009768235
6	0x3dbd9aa8	0.09258014
7	0xbc686db2	-0.01418631
8	0x3cfddab8	0.030988082
9	0xbb358dc0	-0.0027702898
10	0x3cf15ba0	0.029462636
11	0xbddc1a68	-0.10747224
12	0x3c2f21b0	0.010689184
13	0x3bcae2e2	0.0061915973
14	0x3d1d1606	0.03835108
15	0x3ba525db	0.005039913
16	0x3d14280d	0.036171008
17	0x3d880473	0.066414736
18	0xbc440084	-0.011963014
19	0x3d0a4868	0.03376046
20	0xbc81ef10	-0.015861064
21	0x3c16c9e6	0.00920341
22	0xbe5d431a	-0.21607628
23	0xbeb71479	-0.35757807
24	0xbd477d74	-0.048703626
25	0xbd700894	-0.05860193
26	0xbd8c7af1	-0.06859387
27	0xbaf9af91	-0.0019049515
28	0xbd6af01d	-0.057357896
29	0x3d9caaa0	0.07649732
30	0xbe1e909a	-0.15484849
31	0x3caf6f0b	0.021415254
32	0x3d231ea2	0.039824136
33	0xbccd85f7	-0.025088293
34	0xbcc5035b	-0.024049452
35	0xbc4c2e11	-0.012462155
36	0xbd1d0ba9	-0.038341198
37	0xbc466f75	-0.012111534
38	0xbd6f9f05	-0.058501262
39	0x3e07353e	0.13203904
40	0xbddfaaab	-0.10921224
41	0x3c15f935	0.009153654
42	0x3d33c913	0.04389293
43	0x3d6cc174	0.05780168
44	0xbcfdb9df	-0.03097242
45	0xbb8dff1a	-0.004333389
46	0x3d68b59d	0.056813825
47	0x3db01722	0.08598162
48	0x3d8048de	0.06263898
49	0x3b7bc030	0.0038414113
50	0x3d950d3e	0.07277916
51	0x3d5e4a35	0.054269988
52	0xbd2b462c	-0.041814968
53	0x3cab49ff	0.020909308
54	0x3da73368	0.08164102
55	0xbd38ed6d	-0.045148302
56	0x3c1c6f08	0.009547956
57	0xbd7beab8	-0.061503142
58	0x3d711711	0.05885989
59	0x3d4b8a75	0.04969259
60	0xbd25badb	-0.040461402
61	0x3cb3b58d	0.021937156
62	0x3cb7e36e	0.022447314
63	0x3bbc1697	0.0057399976
64	0x3d6d2370	0.057895124
65	0x3d047bc0	0.03234458
66	0x3d9f8b81	0.0779028
67	0xbdcc4c5e	-0.099755034
68	0x3d788d1e	0.060681455
69	0x3d1413c9	0.03615168
70	0x3d031f97	0.03201255
71	0x3c9eb82d	0.019374931
72	0x3d6ff43d	0.058582533
73	0xbc5bb557	-0.013409934
74	0xbe06436f	-0.13111661
75	0x3d390240	0.04516816
76	0x3c12436f	0.00892721
77	0x3dcab3fe	0.09897612
78	0xbd599806	-0.053123496
79	0x3be34d27	0.0069366875
80	0xbd0f3a82	-0.034967907
81	0x3caf6d95	0.021414557
82	0x3d104731	0.035224143
83	0x3daee20e	0.0853921
84	0xbd062b72	-0.032756276
85	0xbc0440a3	-0.008072051
86	0xbcf72a09	-0.030171411
87	0x3ce7013b	0.028198829
88	0x3c1a2419	0.00940802
89	0x3c11e1f5	0.00890397
90	0xbe0b70e4	-0.13617283
91	0x3dcf62ae	0.101262435
92	0x3d2d6205	0.042329807
93	0xbcd0b985	-0.025479088
94	0x3d1ffaaa	0.03905741
95	0xbcee0aa1	-0.029057803
96	0xbbe41fec	-0.006961813
97	0xbd32778a	-0.043571033
98	0xbc931ff0	-0.017959565
99	0x3dde74ad	0.10862098
100	0xbca4871d	-0.020083958
101	0x3d84637d	0.064642884
102	0x3b71b5ae	0.0036881971
103	0x3c894f3e	0.016761418
104	0xbc160ec2	-0.009158792
105	0x3d6f9d04	0.05849935
106	0x3ca9cf49	0.020728724
107	0xbe101e61	-0.14074089
108	0xbd205dcf	-0.039151963
109	0x3d62d693	0.055380415
110	0x3baf9673	0.005358511
111	0x3d6b4ab9	0.057444308
112	0x3d136109	0.03598121
113	0x3d3b3240	0.04570222
114	0xbe76ede5	-0.24114187
115	0x3d09dfd7	0.033660736
116	0xbacfaf93	-0.0015845172
117	0xbd16ef7b	-0.03684948
118	0xbc709270	-0.014683351
119	0x3dbab7ee	0.09117113
120	0xbb2662f3	-0.0025388568
121	0xbc741c32	-0.0148993
122	0x3bc12c35	0.0058951625
123	0x3c3d51d2	0.011555152
124	0x3d154d1f	0.0364505
125	0x3ce46764	0.027881332
126	0xb9a9ce11	-0.00032387723
127	0x3cd1a5a4	0.025591679
128	0x3d145647	0.036215093
129	0xbdf36e15	-0.11886231
130	0x3c4cff08	0.012511976
131	0xbbf6930e	-0.0075248545
132	0x3d650e0d	0.055921603
133	0x3df6e35e	0.120550856
134	0x3d3aac07	0.045574214
135	0x3d113be8	0.03545752
136	0xbe465216	-0.19367251
137	0x3c56cadf	0.013109892
138	0xbcbd4a8d	-0.023106838
139	0x3c97e695	0.018542567
140	0x3d1cb7ef	0.03826135
141	0x3bcf7a1b	0.006331695
142	0x3d1a7e5a	0.037718154
143	0x3d8690a4	0.06570557
144	0x3d2e1ba2	0.04250682
145	0x3d2bf532	0.041981883
146	0xbce7c242	-0.028290872
147	0xbc854b42	-0.016271237
148	0x3ca3a8d1	0.019977959
149	0x3dcc8aeb	0.09987434
150	0xbbacde27	-0.005275506
151	0x3d09fc34	0.033687785
152	0x3d9a4df9	0.07534403
153	0xbe3323be	-0.17494103
154	0x3d89bb5a	0.067251876
155	0x3c1d0dca	0.009585807
156	0xbd92409f	-0.07141232
157	0x3cf1658d	0.029467368
158	0x3d757af6	0.059931718
159	0x3e31142b	0.1729285
160	0xbd69b562	-0.057057746
161	0x3d7410d4	0.05958636
162	0x3d79b35d	0.06096207
163	0xbe8075ef	-0.25089976
164	0x3d107bef	0.035274442
165	0x3ca4a3fc	0.020097725
166	0x3cfff4b3	0.031244611
167	0xbcb47bfe	-0.02203178
168	0x3cd4cd19	0.025976704
169	0xbc3ae8cc	-0.011408042
170	0xbd297445	-0.04137065
171	0xbd07ecb9	-0.03318474
172	0x3be11db4	0.006869996
173	0x3da2ff25	0.07958821
174	0x3c884ee8	0.016639188
175	0x3c8d0b1e	0.017217215
176	0x3c8648b7	0.016392095
177	0x3b9c86a7	0.004776794
178	0xbdb3460e	-0.08753596
179	0x3d182a99	0.03715
180	0x3d01bf02	0.0316763
181	0x3d79e104	0.061005607
182	0xbe32839c	-0.17433017
183	0x3b012594	0.0019706236
184	0x3d2f51d0	0.04280263
185	0x3d80a8d8	0.062822044
186	0x3c57e10d	0.013176215
187	0x3b27ceaf	0.002560537
188	0xbc73e788	-0.014886744
189	0x3d444d30	0.047925174
190	0xbb9f9815	-0.0048704245
191	0xbd38fa07	-0.04516032
192	0x3ceb57a4	0.028728314
193	0x3ce6a8bd	0.028156633
194	0xbdba585d	-0.09098885
195	0xbe08f1c9	-0.13373484
196	0xbd28de6b	-0.04122774
197	0xbd06cae5	-0.03290834
198	0xbdeee881	-0.1166544
199	0xbd115456	-0.03548082
200	0x3ca398e9	0.019970374
201	0x3cd6cd95	0.026221076
202	0xbd0c93be	-0.034320585
203	0xbc46e63d	-0.012139854
204	0xbe24f249	-0.1610805
205	0x3c4b782b	0.012418787
206	0x3cc8b233	0.024499035
207	0xbcb2a37f	-0.021806477
208	0x3c3d8f8b	0.011569868
209	0x3cd00d81	0.025397064
210	0x3c03b47a	0.008038634
211	0x3c96e3fb	0.018419256
212	0xbd8dbead	-0.06921134
213	0x3d9af0a8	0.07565433
214	0xbc29b37a	-0.010357732
215	0xb9c3e167	-0.00037361236
216	0xbccf35c9	-0.025294201
217	0x3d01d4b4	0.03169699
218	0xbe41e951	-0.1893666
219	0x3d1b74df	0.037953254
220	0xbc0c881f	-0.008577376
221	0xbd94c52f	-0.07264172
222	0xbe10517d	-0.14093585
223	0x3d832021	0.064026125
224	0xbca4f0df	-0.020134388
225	0x3d3f3ab8	0.046686858
226	0x3d1be691	0.038061682
227	0x3d3f1b45	0.046656866
228	0x3c9930a6	0.018699955
229	0xbe53fad8	-0.20701158
230	0xbd48cbb3	-0.049022388
231	0x385e9ad3	5.3073116e-05
232	0x3ba1660a	0.004925494
233	0x3be3436f	0.006935529
234	0x3b0e96ef	0.0021757444
235	0x3d19cd9d	0.037549604
236	0xbc1bc5f5	-0.009507646
237	0x3da08c1a	0.07839222
238	0x3da40195	0.08008114
239	0xbe93cfec	-0.2886957
240	0xbe03c76d	-0.12869044
241	0xbd8cc2f6	-0.06873123
242	0x3d004423	0.03131498
243	0x3b8f8b6c	0.004380634
244	0x3d0c984a	0.03432492
245	0xbe0a4bd6	-0.13505492
246	0x3ceff3b5	0.029291013
247	0xbd20e853	-0.03928406
248	0x3d01f53c	0.031728014
249	0x3da656e7	0.08122044
250	0x3c10b6f6	0.008832684
251	0x3c7d6fb9	0.015468531
252	0x3ca9be36	0.020720582
253	0xbcb73378	-0.02236341
254	0x3d8b5c73	0.06804743
255	0x3c8630b8	0.016380653

shared_fc2.weight f4 [256, 256]
0	0x3c8e3e58	0.017363712
1	0xbca8b16d	-0.020592416
2	0xbdb0464a	-0.086071566
3	0x3d3b448e	0.045719676
4	0xbdb80730	-0.08985746
5	0x3d4bab39	0.049723838
6	0xbdd71775	-0.10502521
7	0xbdf14083	-0.11779883
8	0xbde2f2a9	-0.1108144
9	0xbd17e9d7	-0.03708824
10	0x3d8a4b81	0.067526825
11	0xbdae5994	-0.085131794
12	0xbde426eb	-0.111402355
13	0x3d245513	0.040120196
14	0x3d5fe047	0.054657247
15	0xbd4d5bc4	-0.050136343
16	0x3dc2a189	0.09503467
17	0x3dbb2854	0.09138551
18	0xbde242bd	-0.110478856
19	0xbdca7971	-0.09886444
20	0xbcef3c44	-0.029203542
21	0x3dbae5bd	0.0912585
22	0xbd41a526	-0.04727664
23	0x3db99bfa	0.09062953
24	0xbbb340c7	-0.0054703685
25	0xbd1531a0	-0.03642428
26	0x3d2b070c	0.041754767
27	0x3c8af673	0.01696322
28	0xbbdddf2d	-0.0067709894
29	0x3d967567	0.073466115
30	0x3d9c4fd9	0.07632417
31	0xbdb4421e	-0.08801673
32	0x3cb20bd4	0.021734156
33	0xbd082742	-0.033240564
34	0xbdec958a	-0.1155196
35	0xbb01e875	-0.0019822393
36	0x3da45995	0.08024899
37	0x3bf37b44	0.007430466
38	0xbd2fb682	-0.042898662
39	0xbdc70754	-0.097181946
40	0xbda2a43d	-0.07941482
41	0xbdd6653e	-0.10468529
42	0x3d0fe9d3	0.0351351
43	0x3cd5f317	0.02611689
44	0x3d4dc71d	0.050238717
45	0x3d904832	0.0704502
46	0x3da1f5e4	0.07908228
47	0x3d91541e	0.07096122
48	0xbd9914fe	-0.07474707
49	0xbdda143d	-0.106483914
50	0xbd8ae150	-0.06781256
51	0xbd9f94a8	-0.07792026
52	0x3d626b1f	0.05527794
53	0xbc83a308	-0.01606895
54	0xbdf4d5ef	-0.11954867
55	0xbd070cde	-0.032971255
56	0x3b06bbce	0.0020558718
57	0xbd4ed798	-0.050498575
58	0x3bef7d06	0.007308605
59	0xbdc93592	-0.09824671
60	0xbdcb257e	-0.099192604
61	0xbdd05cc8	-0.101739466
62	0xbda64d3e	-0.081202015
63	0x3d652bec	0.05595009
64	0xbd073627	-0.033010628
65	0xbd87d30f	-0.06632053
66	0x3dc3a2e1	0.09552551
67	0xbdcd24f1	-0.10016812
68	0xbdb937a5	-0.090438165
69	0x3c28f473	0.0103121875
70	0xbd15679f	-0.036475774
71	0xbdbad0b5	-0.09121839
72	0xbccf71a2	-0.025322739
73	0xbdd460a8	-0.10369998
74	0xbc779c62	-0.015112968
75	0xbcbcbf4e	-0.02304044
76	0xbdbcf516	-0.09226434
77	0x3d24cb0b	0.0402327
78	0xbdf14d7a	-0.117823556
79	0xbdbba254	-0.09161821
80	0xbd0f95a3	-0.035054814
81	0xbdf27696	-0.11839025
82	0xbd764a0f	-0.06012922
83	0xbd8e24dc	-0.06940624
84	0xbdd97a50	-0.106190324
85	0xbd75f6fb	-0.060049992
86	0x3cf83f18	0.030303523
87	0xbcf7e59b	-0.030260852
88	0xbcb6a670	-0.02229616
89	0xbd81d21e	-0.06338905
90	0xbd99d377	-0.07511037
91	0xbde5f5cf	-0.11228525
92	0xbbd4cf05	-0.006494405
93	0xbd80132b	-0.06253656
94	0xbd466600	-0.04843712
95	0xbdcc9070	-0.09988487
96	0xbd673d8b	-0.056455176
97	0xbd84c975	-0.064837374
98	0xbd6e5050	-0.05818206
99	0xbdabd41e	-0.083900675
100	0x3d200d25	0.039075036
101	0xbcf67b4f	-0.030088095
102	0xbd84de0e	-0.06487666
103	0xbe015ab2	-0.12632254
104	0x3cb11b66	0.02161951
105	0x3dbded2c	0.092737526
106	0xbc999030	-0.018745512
107	0xbd5c7eab	-0.053831737
108	0xbd71ea25	-0.05906119
109	0xbc1bf8ec	-0.009519797
110	0x3d40cd3e	0.047070734
111	0x3dc272cf	0.09494554
112	0xbd079f67	-0.033111002
113	0xbc027146	-0.007961577
114	0xbd78b95f	-0.06072366
115	0x3d3f2b4e	0.046672158
116	0x3c477ccf	0.012175753
117	0xbd0cd949	-0.034386907
118	0xbdda7ac4	-0.10667947
119	0xbd8fd44a	-0.07022913
120	0x3ca6e636	0.020373445
121	0xbd8e7884	-0.0695658
122	0x3cb209bf	0.021733163
123	0x3dcdad7f	0.100428574
124	0x3c29bbc9	0.010359713
125	0x3d4326a2	0.047644265
126	0x3d51434d	0.051089574
127	0xbc35d560	-0.011098236
128	0xbdacc72d	-0.08436427
129	0xbdafacb5	-0.08577863
130	0x3c7816cd	0.015142155
131	0xbd10b5b1	-0.035329524
132	0x3d25af1e	0.040450208
133	0xbd9f3439	-0.077736326
134	0x3db39bef	0.08769976
135	0xbc94562b	-0.018107494
136	0xbcadab41	-0.021199824
137	0xbd8634cf	-0.06553041
138	0xbde6c6ea	-0.112684086
139	0xbd9e3867	-0.07725602
140	0xbdea635f	-0.11444735
141	0xbdb56580	-0.0885725
142	0x3d95968c	0.07304105
143	0x3c37f09c	0.011226799
144	0xbd7f13b3	-0.062274646
145	0x3c816de5	0.015799472
146	0xbdf4ac17	-0.11946886
147	0x3d8b130f	0.067907445
148	0x3bc1efe0	0.005918488
149	0xbda51209	-0.080600806
150	0xbd8cab12	-0.068685666
151	0x3d379975	0.044824082
152	0xbdb978fc	-0.09056279
153	0x3d7ea85c	0.06217228
154	0x3d974180	0.0738554
155	0xbdd8c815	-0.105850376
156	0xbd35c9c3	-0.044381868
157	0x3d0b2906	0.03397467
158	0xbdde603d	-0.108582
159	0xbc3ff1bd	-0.01171535
160	0xbd8356ab	-0.06413015
161	0xbdc16014	-0.094421536
162	0xbd6d903a	-0.057998873
163	0xbdb32bf3	-0.08748617
164	0xbcc90505	-0.024538526
165	0x3d1ff2a8	0.039049774
166	0xbdbf649a	-0.0934536
167	0x3de2c60f	0.11072933
168	0xbd9b8ee5	-0.07595614
169	0x3d7de98a	0.0619903
170	0xbdbe51a5	-0.09292916
171	0xbd9365de	-0.07197164
172	0x3d59728a	0.05308775
173	0x3d8d00e5	0.06884936
174	0x3cd48bc0	0.025945544
175	0x3d9f38aa	0.0777448
176	0xbd9ff161	-0.07809711
177	0xbbae0e06	-0.0053117303
178	0x3cc1f3ec	0.023675881
179	0x3d60251b	0.054722887
180	0x3d9aef97	0.075652294
181	0x3db5293d	0.08845756
182	0xbd2a5274	-0.04158254
183	0xbd5d502a	-0.05403153
184	0x39bdd36c	0.0003620641
185	0xbcc6ce41	-0.024268271
186	0xbd285635	-0.04109784
187	0xbdc5e221	-0.09662271
188	0xbdbb2194	-0.09137264
189	0xbdad31c6	-0.08456759
190	0x3db25920	0.087084055
191	0xbda77f45	-0.081785716
192	0x3d7e9e65	0.062162776
193	0xbd8b7de2	-0.068111196
194	0x3ca38528	0.019960955
195	0x3d80ca61	0.06288601
196	0x3c9c1514	0.01905302
197	0x3dac0a79	0.08400435
198	0xbd33a553	-0.043858837
199	0xbc02dec1	-0.007987679
200	0xbc862083	-0.016372925
201	0x3ccc38d4	0.024929442
202	0xbd9afc1d	-0.07567618
203	0xbd997ae7	-0.07494145
204	0x3d4182b6	0.047243796
205	0x3d8571ef	0.06515872
206	0x3d402e69	0.04691926
207	0xbcc1ff16	-0.023681205
208	0xbd8ce781	-0.06880093
209	0xbdc2a6e0	-0.09504485
210	0x3d67c20d	0.056581546
211	0xbdab350b	-0.083597265
212	0x3d045680	0.032309055
213	0xbb8a9cf9	-0.0042301384
214	0xbd2285b6	-0.039678298
215	0xba3cc5f3	-0.00072011276
216	0x3cea96e7	0.028636409
217	0x3d8a2147	0.067446284
218	0x3d95d3dd	0.073158
219	0x3da0d618	0.07853335
220	0xbdc49322	-0.09598376
221	0x3bd7ef33	0.006589794
222	0x3da2ef26	0.0795577
223	0xbdcb7d28	-0.09935981
224	0xbd6f241a	-0.05838404
225	0xbd4bb2d7	-0.0497311
226	0x3ba3da8b	0.0050004176
227	0xbd2e3441	-0.042530302
228	0x3dab0b17	0.083517246
229	0x3da0b066	0.07846145
230	0x3ce92832	0.02846155
231	0x3c36cdbd	0.01115745
232	0xbd78d46f	-0.060749467
233	0xbccae4eb	-0.02476736
234	0x3a9f43f7	0.0012150992
235	0xbda09ede	-0.078428015
236	0xbd3e00c9	-0.046387468
237	0xbdc6b7c1	-0.09703017
238	0xbd169836	-0.036766253
239	0x3c85f807	0.01635362
240	0xbd10f2e0	-0.035387874
241	0xbdb11333	-0.0864624
242	0xbde24c37	-0.11049693
243	0xbdb75cd7	-0.08953255
244	0xbdc6e4cb	-0.097116075
245	0x3dc49298	0.09598273
246	0xbd9bcb5c	-0.07607147
247	0xbd5a6c8d	-0.05332618
248	0xbd907945	-0.0705438
249	0x3dc5bac7	0.096547656
250	0xbca45faf	-0.020065157
251	0x3d8f3689	0.06992824
252	0x3da150a3	0.07876708
253	0xbd8a4879	-0.06752104
254	0x3d5a046d	0.053226877
255	0x3d726f66	0.05918827

shared_fc2.bias f4 [256]
0	0xbc121ff5	-0.008918752
1	0x3d3a7887	0.0455251
2	0xbcbcd9d9	-0.023053097
3	0xbd55a07d	-0.052155007
4	0x3e3df2ba	0.18549624
5	0x3de9b88a	0.11412151
6	0x3dd1f577	0.10251897
7	0x3d6e4d86	0.0581794
8	0x3dc53336	0.09628908
9	0xbc9b97cc	-0.01899328
10	0xbc8ca236	-0.017167192
11	0xbcc9efa1	-0.024650397
12	0x3daef5b1	0.08542956
13	0x3d48ff40	0.04907155
14	0x3da2b261	0.07944179
15	0x3e0a846a	0.13527074
16	0x3d2febaa	0.042949356
17	0xbba4d104	-0.0050297994
18	0xbcf50522	-0.029909674
19	0x3ca41994	0.020031728
20	0xbcb0f877	-0.021602852
21	0xbccf49a6	-0.025303673
22	0x3e06e5ab	0.13173549
23	0x3d3b2953	0.045693707
24	0xbd35b60b	-0.044363063
25	0x3de510be	0.11184834
26	0x3ddd7a78	0.10814375
27	0xbd44cca3	-0.04804672
28	0xbd8946e3	-0.06702974
29	0x3d703012	0.058639593
30	0x3e35bcf0	0.17747855
31	0x3cf24cb3	0.029577589
32	0xbc2c9390	-0.0105332285
33	0x3dfac764	0.12245062
34	0x3cd1bd72	0.02560303
35	0x3d0d643e	0.034519427
36	0xbd2e7a32	-0.042597003
37	0x3cd8b7a4	0.026454754
38	0xbd0ebb2b	-0.034846466
39	0x3e00b14a	0.1256763
40	0xbccb113b	-0.02478849
41	0x3ce7a814	0.028278388
42	0xbd2c7acf	-0.042109307
43	0x3e0f9b7a	0.14024153
44	0xbd3ff444	-0.04686381
45	0x3dd4000e	0.10351573
46	0xba55f7b2	-0.00081622147
47	0x3bd3f36a	0.006468226
48	0x3b7527fa	0.003740786
49	0x3db622d5	0.088933624
50	0x3da31724	0.07963398
51	0xbcec74e3	-0.02886433
52	0xbc76b7ad	-0.01505844
53	0xbc386262	-0.011253925
54	0x3cc397bf	0.02387607
55	0x3c44a981	0.0120033035
56	0xbd361eb4	-0.044462875
57	0x3d955328	0.072912514
58	0x3e0c5536	0.1370438
59	0x3e1a38bb	0.15060703
60	0xbd801371	-0.06253708
61	0xbd069173	-0.032853555
62	0x3b36051f	0.0027774049
63	0x3c9f0542	0.019411687
64	0x3dbd78a4	0.09251526
65	0xbde6344d	-0.11240444
66	0x3cec4bda	0.028844763
67	0x3ded8306	0.11597256
68	0x3d58d70d	0.052939463
69	0xbcd09637	-0.025462253
70	0x3dc1270d	0.094312765
71	0xbd1cb762	-0.038260825
72	0x3d56e3a6	0.052463196
73	0x3d76534b	0.060138028
74	0x3dd88fc5	0.10574297
75	0xbcd58493	-0.026064193
76	0x3d4fff14	0.05078037
77	0x3e0a33c2	0.13496307
78	0xbdc9ace7	-0.09847432
79	0x3deb8486	0.11499886
80	0xbd061d3a	-0.032742716
81	0xbb86fdb4	-0.0041195992
82	0xbc884a5e	-0.016637024
83	0x3db42728	0.08796531
84	0xbc328fce	-0.0108985435
85	0xbce16f59	-0.027518915
86	0xbd61bc1a	-0.05511103
87	0x3dac90c4	0.08426049
88	0x3dc12dab	0.094325386
89	0xbd3f7589	-0.04674295
90	0xbcfcb119	-0.030846165
91	0x3d82f636	0.06394617
92	0xbcc09b09	-0.023511427
93	0xbd768c38	-0.060192317
94	0x3da4d8ab	0.08049139
95	0x3c8747bc	0.016513698
96	0x3ca39e47	0.019972933
97	0x3d6356aa	0.05550257
98	0x3d0b918c	0.03407435
99	0xbc394344	-0.011307541
100	0xbd64717f	-0.0557723
101	0x3d039deb	0.032133024
102	0x3cbd1eec	0.023086034
103	0x3e0176cf	0.12642978
104	0xbd4f7628	-0.050649792
105	0xbdb0db54	-0.086355835
106	0xbd3e4236	-0.046449862
107	0x3e136aeb	0.14396255
108	0x3ddd075d	0.1079242
109	0x3d845c66	0.06462936
110	0x3d310b06	0.043223403
111	0x3db9109d	0.09036372
112	0xbc920cae	-0.017828312
113	0x3c25cd24	0.01011971
114	0x3dbd84f8	0.092538774
115	0x3d5f899b	0.05457459
116	0x3d49dce8	0.04928294
117	0x3dd5c68d	0.10438261
118	0xbbefe388	-0.007320825
119	0xbd824bb9	-0.06362099
120	0x3dcafbe6	0.09911327
121	0xbcc021fc	-0.023453705
122	0x3bfb3d25	0.007667201
123	0x3de93bee	0.11388384
124	0x3d610cba	0.054943778
125	0x3db7bac3	0.08971169
126	0x3c83b2b1	0.016076418
127	0xbc1c00ee	-0.009521706
128	0x3d9f7a3b	0.077869855
129	0xbc8ab786	-0.016933214
130	0x3e0295dd	0.12752481
131	0xbcd815e7	-0.026377631
132	0xbd75adfa	-0.05998037
133	0x3c9ab0be	0.018883105
134	0xbbbee2bf	-0.00582537
135	0xbce2c70c	-0.027682804
136	0x3dcca2e2	0.09992005
137	0x3dc619a0	0.09672856
138	0xbd17bd56	-0.0370458
139	0xbd1c66ce	-0.03818398
140	0x3d72cb28	0.059275776
141	0x3d498dba	0.049207427
142	0xbd1aaec9	-0.037764344
143	0x3d251a43	0.04030825
144	0xbd1b69b3	-0.0379426
145	0xbd29e65d	-0.041479457
146	0x3d28f035	0.041244704
147	0xbe0b6746	-0.13613614
148	0xbd9bc024	-0.07605007
149	0xbd3bba12	-0.045831747
150	0xbc842ec9	-0.01613559
151	0x3dbcd634	0.092205435
152	0x3db0b34e	0.0862795
153	0xbdd3666b	-0.10322269
154	0xbd03a4b8	-0.03213951
155	0x3db99447	0.09061485
156	0xbcf08f43	-0.029365188
157	0xbc1456ab	-0.009053866
158	0x3df883f3	0.12134542
159	0x3e27216b	0.16321342
160	0xbbfc505a	-0.0077000083
161	0x3db764a6	0.08954744
162	0xbc9f215d	-0.019425089
163	0x3d62d572	0.05537934
164	0xbd10f138	-0.035386294
165	0x3d34e3a4	0.044162408
166	0xbd0815e4	-0.033224
167	0xbc5f05bf	-0.01361221
168	0x3d6a671b	0.057227235
169	0x3ddb7282	0.107152
170	0xbcca6330	-0.0247055
171	0x3d51b4af	0.051197704
172	0x3dd8dd6d	0.105891086
173	0xbd0bc9c2	-0.034127958
174	0xbd38e7b4	-0.045142844
175	0xbcb21423	-0.021738118
176	0xbc6123c2	-0.0137414355
177	0x3da2a786	0.07942109
178	0x3c580b7c	0.013186332
179	0x3d8aad97	0.06771391
180	0x3cb97a9c	0.022641473
181	0xbd1ebbb0	-0.03875321
182	0x3db09361	0.0862186
183	0xbd334e31	-0.04377574
184	0x3dfddf34	0.12396088
185	0xbcc4bed5	-0.024016777
186	0x3daedf30	0.085386634
187	0x3df7391a	0.12071438
188	0x3dc3a776	0.09553425
189	0x3cbe3550	0.02321878
190	0xbd8c464e	-0.06849347
191	0x3e33856f	0.1753137
192	0xbd20ca85	-0.039255638
193	0x3d95f191	0.07321466
194	0xbd3a5128	-0.045487553
195	0xbc9e2ed0	-0.019309431
196	0xbdc06b89	-0.09395511
197	0xbcb45a58	-0.022015736
198	0x3b733714	0.0037111687
199	0xbbdcd8fb	-0.0067397333
200	0xbca609ea	-0.0202684
201	0xbd4e31b7	-0.05034038
202	0xbcf3c681	-0.02975774
203	0xbd36d281	-0.044634346
204	0xbdc4a405	-0.09601597
205	0xbd4e2725	-0.0503303
206	0xb9dcd1e8	-0.00042118062
207	0x3cc8a1f2	0.024491284
208	0x3b8b8a04	0.004258396
209	0x3d808ce3	0.06276872
210	0x3c8942a5	0.016755411
211	0x3def090e	0.11671649
212	0xbe085925	-0.13315256
213	0x3e201e65	0.15636595
214	0xbcd5f424	-0.026117392
215	0xbb5f19ca	-0.003404247
216	0x3cd76241	0.026291968
217	0x3c8d1104	0.017220028
218	0xbd51fceb	-0.051266592
219	0x3d4a9fc9	0.04946879
220	0xbb9f4622	-0.0048606554
221	0x3d0a604d	0.033783246
222	0x3d831e15	0.06402222
223	0xbca3a614	-0.019976653
224	0xbcaadc00	-0.020856857
225	0xbd1ad1d6	-0.03779777
226	0x3dbcb477	0.092141084
227	0xbd21b27a	-0.03947685
228	0x3ca46370	0.020066947
229	0xbd02dd35	-0.03194924
230	0x3d91650c	0.07099351
231	0x3d4b0885	0.04956867
232	0x3e1914ac	0.14949292
233	0xbd44cf5d	-0.04804932
234	0x3da85c33	0.082207106
235	0x3d36e05e	0.044647567
236	0xbcb8669d	-0.022509867
237	0x3e0fe20e	0.14051077
238	0x3d8d53dc	0.069007605
239	0xbd08e7ec	-0.033424303
240	0xbc1c4de1	-0.009540052
241	0xbdaf2d91	-0.08553613
242	0x3dbae259	0.09125204
243	0x3cc5283e	0.02406704
244	0xbd226218	-0.03964433
245	0xbc8bc5bc	-0.01706206
246	0xbd0381b5	-0.03210612
247	0x3d6a7165	0.057237048
248	0x3da2525b	0.07925864
249	0xbd133e34	-0.035947993
250	0xbd80320c	-0.06259546
251	0x3e03d177	0.12872873
252	0x3d84991c	0.06474516
253	0x3d31d1bd	0.043412913
254	0x3e0fe11a	0.14050713
255	0x3e0d4744	0.13796717

actor_fc.weight f4 [256, 256]
0	0x3dfc58b4	0.12321606
1	0x3dd1c64c	0.102429
2	0xbde8f5d0	-0.1137501
3	0x3d9dc134	0.07702866
4	0xbd667262	-0.056261428
5	0x3e0f7db1	0.14012791
6	0x3d46781f	0.0484544
7	0xbe2eb58d	-0.17061444
8	0xbe83551a	-0.25650865
9	0xbdc857ad	-0.09782348
10	0xbcf90eb6	-0.030402523
11	0xbbc3c207	-0.0059740576
12	0xbdc3c738	-0.09559482
13	0xbda1bc0f	-0.078971975
14	0x3da6ff91	0.08154214
15	0x3db23dec	0.08703217
16	0x3e1d0071	0.153322
17	0x3ddc46de	0.10755704
18	0xbb977cd9	-0.0046230373
19	0xbe19508c	-0.14972132
20	0xbdb3c2d3	-0.08777394
21	0xbda50b48	-0.08058792
22	0xbda7b32f	-0.081884734
23	0xbe2a0e9b	-0.16607134
24	0xbe51f4c1	-0.20503522
25	0x3d75381e	0.05986797
26	0x3dc573aa	0.09641202
27	0x3dcedeec	0.10101113
28	0xbd8960a3	-0.06707885
29	0x3e341bcc	0.17588729
30	0x3dae414b	0.085085474
31	0xbef452cf	-0.47719428
32	0xbd3b18af	-0.045677837
33	0x3e378e94	0.17925483
34	0x3e3bd8e2	0.18344453
35	0xbd3a97a6	-0.04555478
36	0xbd4162e5	-0.047213454
37	0xbf07e75b	-0.53087395
38	0xbe687137	-0.22699438
39	0xbea302c9	-0.31838062
40	0xbcd9ada4	-0.026572056
41	0x3e615996	0.2200683
42	0x3d099a53	0.03359444
43	0x3ae2bb7d	0.0017298308
44	0x3e961ecb	0.29320368
45	0xbdc4f2a4	-0.096165925
46	0x3e2faa21	0.17154743
47	0xbeb5ed52	-0.35532624
48	0xbe98ff2f	-0.2988219
49	0x3e84f646	0.25969142
50	0xbda61f6f	-0.08111464
51	0xbc894180	-0.016754866
52	0xbd96218d	-0.07330618
53	0x3d99bc34	0.075066
54	0xbd939411	-0.07205976
55	0xbd310ee4	-0.04322709
56	0x3d9233fb	0.07138821
57	0xbcffe5e8	-0.031237558
58	0xbe153367	-0.1457039
59	0xbd895246	-0.067051455
60	0x3d4a8305	0.049441356
61	0x3df5b181	0.11996747
62	0xbdbc9151	-0.092074044
63	0xbae406fd	-0.0017397102
64	0xbd4d9db8	-0.05019924
65	0x3e25cff0	0.16192603
66	0xbe03079d	-0.12795873
67	0xbc3a5736	-0.011373332
68	0xbd00e202	-0.031465538
69	0x3e0ce7ae	0.13760254
70	0x3e2fb873	0.17160206
71	0x3f0360b7	0.5131945
72	0x3e10cf30	0.14141536
73	0xbc131d2c	-0.008979123
74	0x3d05b06c	0.032638952
75	0xbdc31793	-0.09525981
76	0xbed3b3bd	-0.41348067
77	0xbe0af25b	-0.13569014
78	0x3da76236	0.08173029
79	0x3c8859c7	0.016644372
80	0xbd3382e1	-0.043825988
81	0x3d161f4f	0.036650952
82	0x3d9d9402	0.07694246
83	0xbc289ba4	-0.010291014
84	0xbe2097c5	-0.15682895
85	0xbe1a6e69	-0.1508118
86	0xbd2ec43a	-0.042667605
87	0xbec11026	-0.37707633
88	0x3e059357	0.13044487
89	0x3cadaf4e	0.021201756
90	0xbcd4ee3e	-0.025992509
91	0xbea3684e	-0.31915516
92	0xbd08e398	-0.033420175
93	0xbcf0644b	-0.029344698
94	0xbebe8e0f	-0.37217757
95	0xbe9be5a1	-0.3044863
96	0x3e88a1ec	0.26686037
97	0x3d3ad03b	0.04560874
98	0x3ea79f2f	0.32738635
99	0x3cbf04e7	0.023317767
100	0x3cb9163e	0.022593614
101	0xbe408377	-0.1880015
102	0x3b30f798	0.0027003046
103	0xbd99a720	-0.0750258
104	0xbe1bf6d0	-0.1523087
105	0xbe971d6a	-0.2951463
106	0x3e1f2aa9	0.15543617
107	0xbdd4d487	-0.10392099
108	0xbe270983	-0.16312222
109	0x3ec01d4b	0.3752235
110	0x3cb96bb9	0.022634374
111	0x3dc38c65	0.095482625
112	0x3ecac969	0.3960679
113	0x3e256611	0.16152216
114	0xbeeec30b	-0.4663318
115	0xbc4cdf7e	-0.012504457
116	0xbe8c75fd	-0.27433768
117	0x3db76350	0.08954489
118	0xbe0d0c01	-0.1377411
119	0x3f128638	0.5723605
120	0xbe559e51	-0.20861174
121	0xbd576eeb	-0.052596014
122	0xbdae498d	-0.085101224
123	0x3e7add30	0.24498439
124	0x3e53b436	0.20674214
125	0x3cbd2a26	0.023091387
126	0xbda5265a	-0.080639556
127	0x3d6395c9	0.055562768
128	0x3e41c5d2	0.18923119
129	0xbc29d026	-0.010364568
130	0xbde596b0	-0.11210382
131	0xbe19e4fe	-0.1502876
132	0xbd8a0446	-0.06739096
133	0xb9e9159c	-0.00044457323
134	0xbe22be6f	-0.15892957
135	0x3df7e64b	0.12104472
136	0x3dbeff19	0.09326
137	0x3e918132	0.2841888
138	0xbdd987ff	-0.10621642
139	0x3d88029b	0.06641122
140	0x3d5bdab0	0.053675354
141	0xbd37639e	-0.044772737
142	0x3c078a39	0.008272701
143	0xbe0f8ee2	-0.14019349
144	0xbdb3ad11	-0.08773244
145	0xbd296468	-0.04135552
146	0x3ea6d188	0.32581735
147	0x3e4d364c	0.20040244
148	0x3ba009eb	0.004883995
149	0xbe8e7638	-0.2782457
150	0xbdae04fc	-0.084970444
151	0x3de9751a	0.113992885
152	0x3eb4056f	0.35160396
153	0x3af23e4f	0.0018481704
154	0x3b1fd0f0	0.002438601
155	0x3e1b9d68	0.15196764
156	0x3e121975	0.14267524
157	0x3c3b1020	0.011417419
158	0xbe589e0d	-0.21154042
159	0x3e2100d1	0.15722968
160	0xbdd0e9ef	-0.10200869
161	0x3d00ebb1	0.031474773
162	0x3ea96b83	0.33089837
163	0xbdc9d2ba	-0.09854646
164	0xbcad138f	-0.02112749
165	0x3ec51d95	0.38499132
166	0xbea07319	-0.31337813
167	0xbdff257f	-0.12458324
168	0x3c7b40a1	0.015335233
169	0x3d609c21	0.054836396
170	0xbbc1287e	-0.0058947196
171	0x3ec0f110	0.37683916
172	0x3cfd3c42	0.030912522
173	0xbc72ece7	-0.01482699
174	0xbc6aeb7a	-0.014338369
175	0xbcffa07b	-0.031204453
176	0x3e2dc6a9	0.16970314
177	0xbecbb072	-0.39783055
178	0x3ea0f51f	0.31437013
179	0xbedda17a	-0.4328726
180	0x3b0d7b85	0.0021588516
181	0x3e33e3bd	0.17567344
182	0xbdab756e	-0.08372007
183	0xbc8c3651	-0.017115744
184	0xbd21fceb	-0.039547842
185	0xbd05c5cc	-0.032659337
186	0x3da096ca	0.07841261
187	0xbe59e329	-0.21278061
188	0x3e3a7083	0.18206982
189	0xbdaba932	-0.08381881
190	0x3eb785d9	0.35844305
191	0xbddf451f	-0.10901856
192	0xbdcd39a6	-0.10020761
193	0xbe403dc2	-0.18773559
194	0xbcaa2377	-0.020768864
195	0x3d76970f	0.060202654
196	0x3c8fe2c1	0.01756418
197	0xbc88d597	-0.01670341
198	0x3ea8eeab	0.3299459
199	0x3c09564c	0.008382391
200	0xbd8c2796	-0.06843488
201	0xbf251435	-0.6448396
202	0xbb4b3a13	-0.0031009957
203	0x3e47b257	0.19501625
204	0xbe8379ec	-0.25678957
205	0xbe033be5	-0.12815817
206	0x3e527d97	0.20555721
207	0x3e0cd832	0.13754347
208	0xbd02e893	-0.03196008
209	0x3d6d8dcb	0.057996552
210	0xbe6f9f61	-0.23400642
211	0x3e0d8e94	0.1382392
212	0x3f050067	0.5195374
213	0x3e0e336a	0.138868
214	0xbd074626	-0.033025883
215	0x3e49b189	0.1969663
216	0xbe5e2829	-0.21695007
217	0x3df91adb	0.121633254
218	0xbe49c216	-0.19702944
219	0x3d859d04	0.06524089
220	0x3ce57871	0.028011533
221	0x3ebf6cc4	0.3738767
222	0x3d57d5c0	0.052694082
223	0x3dcad5b1	0.0990404
224	0xbd3cbac9	-0.04607657
225	0xbe159249	-0.14606585
226	0x3e8c0440	0.27346992
227	0xbd318899	-0.04334316
228	0xbc619037	-0.013767294
229	0xbd1c1e70	-0.038114965
230	0x3e66247c	0.22474855
231	0x3eddcf75	0.4332234
232	0xbc13a026	-0.00901035
233	0x3e2005d4	0.15627223
234	0xbe416222	-0.18885091
235	0x3d849fa3	0.06475761
236	0xbe6f2607	-0.2335435
237	0x3dcfddc0	0.10149717
238	0x3c928651	0.017886313
239	0xbe904e0e	-0.2818455
240	0xbd722dee	-0.059125833
241	0x3d863d13	0.06554618
242	0x3da6a590	0.08137047
243	0xbc96f82f	-0.01842889
244	0xbe1a9281	-0.1509495
245	0xbc9f8655	-0.019473234
246	0x3edb364b	0.4281486
247	0xbe061c93	-0.13096838
248	0xbca30eb5	-0.019904474
249	0x3e857d6a	0.26072246
250	0xbcaed5e4	-0.021342225
251	0xbe7dff80	-0.24804497
252	0x3ed4b8b4	0.41547167
253	0x3d89d5a8	0.06730205
254	0xbdf31fdd	-0.11871312
255	0x3e40d79f	0.18832253

actor_fc.bias f4 [256]
0	0x3dc2458c	0.09485921
1	0xbd127e0b	-0.035764735
2	0x3d03085e	0.0319904
3	0xbd571cc0	-0.052517653
4	0x3b9d8ae5	0.0048078173
5	0xbd41dc77	-0.047329392
6	0xbd1d23aa	-0.03836409
7	0x3c2f85fb	0.010713096
8	0x3cf14ad2	0.029454622
9	0x3c5cf155	0.013485272
10	0x3cebc1d4	0.028778948
11	0x3d350e7d	0.04420327
12	0xbd378148	-0.044801027
13	0xbd58c9c6	-0.0529268
14	0xbd09b5cd	-0.033620644
15	0x3cd15598	0.02555351
16	0xbd15e66a	-0.036596693
17	0xbd12d344	-0.03584601
18	0xbd609fa9	-0.054839764
19	0xbc2f7ed4	-0.0107113905
20	0xbd97369a	-0.07383461
21	0xbda2dbc0	-0.0795207
22	0x3ca4a250	0.020096928
23	0x3c84cc61	0.016210737
24	0xbd401c7c	-0.046902165
25	0xbd84ec36	-0.06490366
26	0xbcc83514	-0.024439372
27	0xbcaa3f3d	-0.020782107
28	0xbc47148f	-0.012150898
29	0xbd08ae03	-0.033369076
30	0xbd52458d	-0.05133586
31	0xbca629dd	-0.020283634
32	0xbd485a2d	-0.048914123
33	0xbc8dc622	-0.017306391
34	0xbca625b5	-0.020281652
35	0xb9351ce9	-0.00017272275
36	0xbcccf18f	-0.025017528
37	0xbd2f58cc	-0.042809293
38	0xbd91a8e9	-0.07112295
39	0x3c9f7818	0.019466445
40	0x3d33579b	0.04378472
41	0xbd0d67ce	-0.034522824
42	0xbd4dd338	-0.050250262
43	0x3ba99366	0.005175042
44	0xbd205d72	-0.039151616
45	0xbdc173a3	-0.09445884
46	0x3b117f80	0.002220124
47	0xbcf3138d	-0.029672408
48	0x3cbf29cc	0.02333536
49	0x3c8ec160	0.017426193
50	0x3c5dcb5b	0.013537253
51	0xbcb8c35e	-0.022554096
52	0x3e082936	0.1329697
53	0xbd2c0be5	-0.04200353
54	0xbb80a7a6	-0.0039262353
55	0x3d515b82	0.05111266
56	0xbb95c03b	-0.004570035
57	0xbcf01a82	-0.029309515
58	0x3cca6845	0.024707923
59	0xbd8bb4a9	-0.068215676
60	0x3d1c6928	0.038186222
61	0xbd988849	-0.07447869
62	0x3cdb31e7	0.026757194
63	0x3db60bac	0.08888945
64	0xbd80f180	-0.062960625
65	0xbd0cea95	-0.034403402
66	0xbd0b57d2	-0.0340193
67	0x3ddb3bda	0.10704775
68	0xbda4eee4	-0.08053377
69	0xbd73d13a	-0.059525706
70	0xbd1bca2a	-0.038034596
71	0xbd0f638e	-0.035007052
72	0xbd006004	-0.031341568
73	0x3b39ff03	0.0028380759
74	0xbd1f6df4	-0.03892322
75	0xbda51ed6	-0.08062522
76	0xbe3685b1	-0.17824437
77	0xbcb015b1	-0.021494718
78	0x3d1904c4	0.03735806
79	0x3d239fb6	0.039947234
80	0xbd16e314	-0.036837652
81	0x3c2c08bc	0.010500129
82	0x3d07274e	0.03299647
83	0xbc89a33f	-0.016801475
84	0xbe6305ae	-0.22170135
85	0x3ca89314	0.020577945
86	0xbbbcc5e9	-0.0057608974
87	0xbd82f397	-0.06394117
88	0x3cdece5b	0.027198007
89	0x3b28d800	0.0025763512
90	0xbd02518c	-0.03181605
91	0x3d59d38e	0.05318027
92	0x3c932ffd	0.017967219
93	0xbdbb22c1	-0.09137488
94	0xbc9f66a3	-0.01945812
95	0xbe040f6d	-0.1289651
96	0x3bfcc72a	0.007714172
97	0xbd921acd	-0.07134018
98	0x3deaa71d	0.114576556
99	0xbdad79bf	-0.08470487
100	0x3d6fb129	0.058518562
101	0xbd788298	-0.06067142
102	0xbcad5f2c	-0.021163546
103	0xbc32985d	-0.010900584
104	0xbccde285	-0.025132427
105	0x3d849c12	0.064750805
106	0xbc19fbc2	-0.009398403
107	0xbc2a68a5	-0.010400926
108	0x3d1ce5be	0.038305037
109	0xbd7c25ca	-0.061559476
110	0xbc295038	-0.010334067
111	0xbcffc75e	-0.031222995
112	0xbd75c02b	-0.05999772
113	0xbda10af0	-0.07863414
114	0xbb4bcbc6	-0.00310968
115	0xbd010cca	-0.031506337
116	0xbd874cb4	-0.06606427
117	0xbcd7f380	-0.026361227
118	0x3ccd30eb	0.02504774
119	0xbd9f650d	-0.07782946
120	0xbdf2bab1	-0.11852015
121	0xbcac0ae4	-0.021001287
122	0x3cf0e7c4	0.02940739
123	0xb8b610b0	-8.6815446e-05
124	0xbcc5e0c7	-0.024155034
125	0xbce92213	-0.02845863
126	0xbb835db3	-0.0040089726
127	0xbd4ab57a	-0.049489476
128	0x3d1bd55f	0.038045283
129	0x3d9822ec	0.07428536
130	0x3d140982	0.03614188
131	0xbb242da2	-0.0025051613
132	0x3c8a6a0a	0.016896266
133	0xbd0e163c	-0.034689173
134	0x3c8c3fa8	0.017120197
135	0xbccda2a9	-0.025101976
136	0xbda4bc53	-0.080437325
137	0x3b2804e8	0.002563769
138	0xbd043bc4	-0.03228356
139	0x3c8e60fe	0.017380234
140	0xbd4b3688	-0.049612552
141	0xbcffcaf0	-0.031224698
142	0xbd4881b8	-0.048951834
143	0x3cba1dd5	0.022719303
144	0xbc440a6c	-0.011965375
145	0xbd4da361	-0.05020464
146	0xbd59e1c3	-0.05319382
147	0xbcd25c79	-0.02567886
148	0x3ce148c6	0.027500521
149	0x3cb7bdbb	0.022429338
150	0xbd988d7e	-0.074488625
151	0xbd38220a	-0.044954337
152	0x3d1e1210	0.038591444
153	0x3bd797bd	0.006579368
154	0xbdada5b4	-0.08478871
155	0x3cadd709	0.0212207
156	0xbd11fb56	-0.035640083
157	0xbb33ee20	-0.0027455166
158	0xbd339463	-0.043842684
159	0x3cfa7fc3	0.0305785
160	0xbcec6f8d	-0.028861785
161	0xbad1c3e7	-0.0016003818
162	0xbcdbb32f	-0.02681884
163	0xbdbb498d	-0.09144888
164	0x3db8f288	0.09030634
165	0xbd0de1e8	-0.03463927
166	0xbdab4e75	-0.08364574
167	0xbd663431	-0.056202117
168	0xbd76aaec	-0.060221598
169	0xbd64c218	-0.055849165
170	0xbd8a4824	-0.06752041
171	0x3c9ed523	0.01938874
172	0xbc9ed10f	-0.019386796
173	0x3d8c9c84	0.068657905
174	0x3c661125	0.0140421735
175	0x3b98238a	0.0046429085
176	0x3d8be470	0.0683068
177	0x3daed2a2	0.08536269
178	0xbd5796ca	-0.052634038
179	0xbd359bf1	-0.04433817
180	0x3d6195e1	0.055074576
181	0xbd16606e	-0.036713056
182	0x3cad75c8	0.021174327
183	0x3d9d7c52	0.07689728
184	0x3c4a6345	0.012352769
185	0x3d200ceb	0.03907482
186	0xbd47ef59	-0.048812244
187	0xbd110dee	-0.035413675
188	0xbd2275be	-0.03966307
189	0xbd8021c3	-0.062564395
190	0x3c961995	0.018322745
191	0x3d24fa5c	0.040277824
192	0xbd83e5dd	-0.06440327
193	0x3c0aa750	0.008462742
194	0x3d90810f	0.07055866
195	0xbce83577	-0.028345807
196	0xbcf9c07c	-0.030487292
197	0x3dcdcb46	0.10048537
198	0xbbfece5e	-0.0077760657
199	0xbc92d81c	-0.017925315
200	0xbd75303c	-0.059860453
201	0x3d1d4720	0.03839791
202	0xbd007a1a	-0.031366445
203	0xbd87f997	-0.06639402
204	0xbd929048	-0.07156426
205	0xbd85a698	-0.06525916
206	0x3d14506f	0.03620952
207	0x3c3f3b8d	0.011671913
208	0x3b9136ba	0.0044315727
209	0xbdd2d14f	-0.10293829
210	0xbd0afb9e	-0.033931367
211	0x3cf259c7	0.029583825
212	0xbd2725ff	-0.04080772
213	0xbe0f80a6	-0.14013919
214	0xbc46991c	-0.012121465
215	0x3bf928a4	0.0076037217
216	0x3d3f77b2	0.04674501
217	0x3dfa3e71	0.12218941
218	0xbc7999c1	-0.015234412
219	0x3ba2ce6b	0.0049684546
220	0x3d4dc2d8	0.050234646
221	0xbdacf3c0	-0.08444929
222	0x3ae93bcd	0.0017794311
223	0xbcc723fd	-0.024309153
224	0x3c84998e	0.016186502
225	0xbd817430	-0.06320989
226	0xbcbb58c4	-0.022869475
227	0x3d5592c1	0.05214191
228	0xbd44035f	-0.047854777
229	0xbe4b48c1	-0.19851972
230	0xbd1e53b5	-0.038654048
231	0x3d385fb8	0.04501316
232	0x3d2f2441	0.042759184
233	0x3c6f65aa	0.014611641
234	0x3c01a493	0.007912773
235	0xbbcd5d99	-0.006267261
236	0xbd019018	-0.03163156
237	0x3addd91b	0.0016925664
238	0xbacc5145	-0.0015588185
239	0xbd46ddf6	-0.048551522
240	0xbde0abb8	-0.10970253
241	0xbdb58f21	-0.0886519
242	0xbd208e13	-0.039197993
243	0xbcfa6db2	-0.030569885
244	0xbbf0b105	-0.007345321
245	0xbd2a086c	-0.041511938
246	0xbd0b9a49	-0.034082685
247	0xbceb6c9e	-0.028738316
248	0x3d560d2c	0.052258655
249	0xbd181423	-0.03712858
250	0xbd7d1bff	-0.061794277
251	0xbd528a21	-0.05140126
252	0x3d04a115	0.032380182
253	0xbd5a25b3	-0.05325861
254	0xbcb3adfe	-0.021933552
255	0xbc1b1370	-0.0094650835

actor_out.weight f4 [12, 256]
0	0xbce6aba1	-0.02815801
1	0x3dab39b5	0.08360616
2	0x3e0705e6	0.13185844
3	0xbe9e1a03	-0.3087922
4	0x3d622bff	0.05521774
5	0x3e7cb39d	0.24677892
6	0x3cf717e7	0.030162765
7	0xbe65490f	-0.22391151
8	0xbe2eb05d	-0.17059465
9	0x3e88c53e	0.26712984
10	0x3e190046	0.1494151
11	0x3e0ea2db	0.13929312
12	0xbe409518	-0.18806875
13	0x3e09c8b4	0.13455468
14	0xbe19cca1	-0.15019466
15	0xbe7e7b4f	-0.24851726
16	0x3d20db46	0.039271615
17	0xbc5c6b38	-0.013453297
18	0x3dcd26f2	0.10017194
19	0x3d8f7e4a	0.070065096
20	0x3cf2d75f	0.029643713
21	0x3e6cd46c	0.23127908
22	0x3e9c954b	0.30582651
23	0x3ea516f4	0.32244074
24	0x3ec6886d	0.3877596
25	0x3ecd5541	0.40104106
26	0xbdc16101	-0.0944233
27	0x3ea04d08	0.3130877
28	0x3f1adecc	0.6049621
29	0xbca71c72	-0.020399306
30	0x3d8c7ee4	0.0686014
31	0xbd23220b	-0.039827388
32	0xbe8a2a2e	-0.26985306
33	0xbe2dd2ef	-0.16974996
34	0xbde4068c	-0.11134061
35	0xbe5ef6df	-0.21773861
36	0xbe263853	-0.16232423
37	0xbda13b0b	-0.0787259
38	0xbdacf0f3	-0.08444395
39	0x3d2f7827	0.042839196
40	0x3ec0010d	0.37500802
41	0xbe86561a	-0.26237565
42	0x3e87c08e	0.26514095
43	0x3e3c2d80	0.18376732
44	0xbdc37509	-0.09543807
45	0x3e2f9af5	0.17148955
46	0x3d9cb1a5	0.076510705
47	0x3d2a2b43	0.041545164
48	0xbd78fbb1	-0.060786907
49	0xbe378e83	-0.17925458
50	0x3f8ce810	1.100832
51	0x3dd4ac63	0.10384443
52	0xbddf1249	-0.108921595
53	0x3e8354a3	0.2565051
54	0xbe5178a3	-0.20456176
55	0x3eca6a2b	0.39534125
56	0xbe8804b1	-0.2656608
57	0x3e7f8679	0.24953641
58	0xbe17d410	-0.14826989
59	0xbdc2626a	-0.09491427
60	0x3df014a4	0.11722687
61	0x3ea39d85	0.31956115
62	0xbeb3226a	-0.34987193
63	0xbe04fe7e	-0.12987706
64	0x3e1d1bbc	0.15342611
65	0xbe2d5bae	-0.16929504
66	0xbe8a9463	-0.27066335
67	0x3ed9e016	0.42553777
68	0x3e190c08	0.14945996
69	0x3e585a83	0.21128277
70	0x3e99f352	0.3006845
71	0x3df010cb	0.11721953
72	0x3cf556c4	0.0299486
73	0x3dc842d3	0.09778371
74	0xbd759fce	-0.059966855
75	0xbefa9d6d	-0.4894823
76	0xbcc99937	-0.024609191
77	0x3d94b348	0.07260758
78	0xbeb597f8	-0.35467505
79	0x3e3b2eb3	0.18279533
80	0x3ef2e285	0.47438446
81	0xbd75a770	-0.059974134
82	0x3e207df3	0.15673046
83	0x3e952a84	0.29134
84	0xbbb61337	-0.00555649
85	0x3cb7c447	0.02243246
86	0xbb846712	-0.0040406073
87	0xbdfb0543	-0.12256863
88	0x3e4fdefc	0.20299906
89	0xbe1ebc3f	-0.15501498
90	0xbc0ed436	-0.008717587
91	0x3c05bb9b	0.008162404
92	0x3b03b059	0.0020094125
93	0x3e1b825d	0.15186448
94	0xbea4472d	-0.32085553
95	0x3de2a6a7	0.11066943
96	0x3d40426f	0.046938356
97	0x3ce261ea	0.02763458
98	0x3d37c4d4	0.044865444
99	0xbe95579d	-0.29168406
100	0xbdadb73c	-0.08482215
101	0xbd35a15b	-0.044343334
102	0x3ec5e2ef	0.386497
103	0x3eb00d85	0.34385315
104	0xbed46b3a	-0.41488057
105	0x3d72c48c	0.059269473
106	0x3e6331b7	0.22186933
107	0x3f1485e7	0.5801682
108	0x3dac86a1	0.08424116
109	0x3decd934	0.11564866
110	0x3ab7ae24	0.001401369
111	0x3d3cecfb	0.04612444
112	0x3dc3acbc	0.09554431
113	0x3d07af95	0.033126432
114	0xbf090909	-0.5352941
115	0x3e2ae8cf	0.16690372
116	0x3dd2de23	0.102962755
117	0x3e407000	0.18792725
118	0xbde122cf	-0.10992967
119	0xbe9a5d30	-0.3014922
120	0x3cf692e3	0.030099338
121	0x3dfad368	0.12247354
122	0xbebd5297	-0.36977074
123	0xbecb702b	-0.39734015
124	0xbdc809a6	-0.09767465
125	0x3e2c84bb	0.16847508
126	0xbd398c90	-0.045300066
127	0x3d1030d8	0.03520283
128	0xbea17547	-0.31534788
129	0xbf2f9d1f	-0.6859912
130	0xbd3305a1	-0.04370654
131	0xbe8d5e68	-0.2761109
132	0xbd644536	-0.055730067
133	0x3e9e611d	0.30933467
134	0xbdd50012	-0.10400404
135	0xbea11672	-0.31462437
136	0x3cfdf753	0.031001722
137	0xbdab7a53	-0.08372941
138	0xbe402eac	-0.18767804
139	0x3d5b5667	0.053549197
140	0xbe91703a	-0.28405935
141	0x3da98c67	0.08278733
142	0xbe4ee80f	-0.20205711
143	0xbee8b0c7	-0.4544737
144	0xbe90e5a9	-0.28300217
145	0xbd8bc5e2	-0.068248525
146	0xbe21cd26	-0.15800914
147	0xbe0c5aca	-0.13706508
148	0x3e43c04e	0.19116327
149	0x3db695fe	0.089153275
150	0xbc6bc155	-0.014389356
151	0xbd92d1d6	-0.07168929
152	0xba8dddb6	-0.0010823521
153	0x3d5ba611	0.05362517
154	0xbf4b85ee	-0.79501235
155	0xbe6a693c	-0.22891706
156	0x3d15da22	0.03658498
157	0xbd08262b	-0.033239525
158	0x3d86dc5a	0.065849975
159	0xbeaf96ef	-0.3429484
160	0x3dbca82d	0.092117645
161	0xbe6e7bf1	-0.23289467
162	0xbd72a3d9	-0.05923829
163	0x3ebed424	0.37271225
164	0x3ea1199d	0.31464854
165	0x3df95418	0.12174243
166	0xbdf8837a	-0.12134452
167	0xbc9e5a38	-0.019330129
168	0x3e7b6c6e	0.24553081
169	0x3e0c6228	0.13709319
170	0xbdf68b1d	-0.120382525
171	0x3e51b7ff	0.20480345
172	0xbd4cfba4	-0.05004467
173	0xbd8d7676	-0.0690736
174	0x3ed1623a	0.40895253
175	0xbd716e82	-0.05894328
176	0xbeffd782	-0.49969107
177	0x3eb89ddd	0.3605794
178	0xbee3e104	-0.4450761
179	0x3d81d27e	0.06338976
180	0xbda54f41	-0.08071757
181	0xbdb8837d	-0.090094544
182	0x3ec092cc	0.37611997
183	0x3e58ecd2	0.2118409
184	0xbe80b542	-0.2513829
185	0x3e8b3dce	0.2719559
186	0xbcaccf08	-0.021094814
187	0x3dca44d3	0.098764084
188	0x3b4bf73e	0.003112271
189	0xbcc2afbd	-0.02376544
190	0x3e9e1315	0.30873933
191	0x3e65aa1b	0.22428171
192	0x3e2b7e67	0.16747437
193	0x3e9e5b8c	0.3092922
194	0x3e82d3ce	0.2555222
195	0x3d07321f	0.033006784
196	0x3e5b5fb3	0.21423225
197	0xbd74aaaf	-0.05973309
198	0x3ebb9763	0.36638936
199	0xbdfec486	-0.124398276
200	0x3dccd0ea	0.10000785
201	0x3d5d9829	0.05410019
202	0x3efbfebf	0.49217793
203	0x3dae1cc5	0.08501581
204	0x3d227ea9	0.039671574
205	0xbeb35abf	-0.3503017
206	0x3ed503bd	0.41604415
207	0xbe4836b0	-0.19552112
208	0xbf369570	-0.71321774
209	0x3ebd02db	0.3691624
210	0x3c4d650d	0.012536299
211	0x3e9937bd	0.29925337
212	0xbe5756af	-0.21029161
213	0xbe5bd24a	-0.21466938
214	0x3c74e182	0.014946343
215	0x3ded64c3	0.115914844
216	0xbe491de8	-0.19640315
217	0x3c308470	0.010773763
218	0x3c9c8fff	0.019111631
219	0x3ee979c5	0.45600715
220	0x3e2b43c7	0.16725074
221	0x3d8a8adf	0.06764769
222	0xbe190b4c	-0.14945716
223	0x3e469973	0.19394474
224	0xbd331934	-0.043725207
225	0xbe2402d9	-0.16016711
226	0x3eb22f37	0.34801647
227	0x3ddddbcd	0.10832939
228	0x3d1dcdd1	0.03852636
229	0xbe21128b	-0.1572973
230	0xbd99e101	-0.07513619
231	0xbc2ed54a	-0.010670969
232	0xbe3c8b0b	-0.18412416
233	0x3e8a35d7	0.26994202
234	0xbf0cc995	-0.5499509
235	0xbdc491bf	-0.09598111
236	0x3e959f29	0.29222992
237	0xbed94771	-0.42437318
238	0x3d93d591	0.07218469
239	0xbd5a8e87	-0.05335858
240	0xbb6f0973	-0.0036474138
241	0x3eb2788b	0.34857592
242	0xbc5d63dc	-0.013512578
243	0xbee61eca	-0.44945365
244	0xbdcb256e	-0.099192485
245	0xbe9ce814	-0.30645812
246	0x3de4fcd6	0.11181037
247	0xbc47a60b	-0.012185584
248	0xbe0ba221	-0.13636066
249	0x3ea24638	0.31694198
250	0xbdeba6b4	-0.115064055
251	0x3e0e2219	0.13880195
252	0x3eed9204	0.46400464
253	0xbe5a1fe0	-0.21301222
254	0x3e19b3b3	0.15009956
255	0x3de9ad07	0.114099555

actor_out.bias f4 [12]
0	0x3d781ba3	0.06057323
1	0xbd5aebaa	-0.053447403
2	0xbbd69e66	-0.0065496443
3	0x3d0d238b	0.034457725
4	0xbdce341a	-0.10068531
5	0xbc2a361e	-0.010388879
6	0x3bf60773	0.0075082122
7	0xbbad4c8d	-0.0052886666
8	0xbdb5a887	-0.08870035
9	0x3c7c1188	0.015385039
10	0x3d417bf4	0.04723735
11	0x3d3aa455	0.045566875
