networks/saved_model/ppo_model_ep800.pth (torch, 840050 bytes, 11 tensors)

shared_fc1.weight f4 [256, 31]
000000 dc 8d 87 be 26 ed 56 3e b8 2c a0 3e 0d f4 c5 3d
       -0.26475418 0.20988902 0.31284118 0.096656896
000010 d1 e0 f7 3c ca d4 a2 3d 66 24 15 3c 65 04 33 bd
       0.030258568 0.079507425 0.009102916 -0.043705363
000020 50 a8 aa bd 36 3a 85 3c f9 1a e3 3d 11 18 19 3e
       -0.08332884 0.016263109 0.11089129 0.14950587
000030 a3 38 07 be d3 bb e7 3d 82 8d a8 bd 70 7c 8a 3d
       -0.13205199 0.113151215 -0.082301155 0.06762016
000040 96 c8 31 bc a4 07 db be 2b 66 dd 3d 1b 21 00 40
       -0.010851046 -0.42779267 0.108105026 2.0020206
000050 0c 87 42 be 2f fb 59 bf 1f 5d 96 bd 1e 9c 45 3d
       -0.18996829 -0.851489 -0.0734198 0.048244588
000060 59 28 d2 3d 09 51 bf bd bc 10 86 3d d6 c3 85 3d
       0.10261602 -0.09341628 0.065461606 0.06531493
000070 82 5b 9b 3c 98 5b 41 3d ca 69 0a 3e cd 30 9a 3d
       0.018964533 0.04720649 0.13516918 0.07528839
000080 f1 e2 dd 3d 76 74 c8 3c dd 60 09 3e b5 da a7 3d
       0.10834301 0.024469595 0.13415857 0.08196012
000090 c1 a3 80 bd be 97 c0 3d 10 b7 ae bd fd cc 30 3e
       -0.062812336 0.094039425 -0.0853101 0.17265697
0000a0 4b 08 9b bd 48 95 38 bb 6b 8c 09 3e 31 e2 f1 bc
       -0.07569941 -0.002816515 0.13432471 -0.029526802
0000b0 91 c2 4f bd 4d c2 9d 3d b3 56 61 3d 48 59 7a bc
       -0.050722662 0.077030756 0.055014323 -0.015280075
0000c0 31 15 00 3e 28 08 5f 3e a7 5f 31 be 61 95 4a bf
       0.12508084 0.21780455 -0.17321645 -0.79134184
0000d0 cb f3 ca 3d 11 15 3a 3e 36 63 01 3e 9f 64 25 bd
       0.09909781 0.18172099 0.12635502 -0.040379163
0000e0 03 e0 9e 3d 3d e0 e7 bd 3e 9c 04 3d 79 9d 2c 3d
       0.077575706 -0.11322067 0.032375567 0.042142365
0000f0 93 f6 2e 3d 5e 97 59 3d 2d 9d 19 3e 98 fb af bc
       0.04271562 0.05312287 0.15001364 -0.021482274
000100 f5 e3 74 bd df 52 aa 3c 89 4a ce be ed 78 ac 3d
       -0.05978771 0.02079147 -0.4029124 0.08421502
000110 08 dc 82 bd a0 d9 2f be 00 d7 78 3d 09 43 f2 3d
       -0.06389624 -0.17172861 0.060751915 0.11829192
000120 bc c2 09 be 00 01 ce 3d d1 61 33 bd 01 3d 0c be
       -0.13453192 0.100587845 -0.043794457 -0.13695146
000130 13 f2 07 3c aa 5e 6b 3d 3c 3a d1 3d 3a ca 7a 3e
       0.008297461 0.057463326 0.102161855 0.24491206
000140 c6 a5 25 bd d2 aa e5 3d d8 30 12 be c2 72 a1 be
       -0.040441297 0.11214222 -0.14276445 -0.31532866
000150 93 60 60 bb bb 34 c5 bd 22 78 c3 3d 01 57 92 be
       -0.003423725 -0.09629198 0.09544398 -0.28582004
000160 b0 59 28 3d 97 ce 3b 3d 55 0c 44 3e 62 46 29 3e
       0.041101158 0.045851316 0.1914533 0.16530755
000170 95 b7 80 bc 87 2d 90 3e 7a ab 62 3d 38 d0 d2 bc
       -0.015712539 0.28159735 0.055339314 -0.025734052
000180 0d ba bc bd d6 dc 0c be 39 6c 7e bd e1 cd eb bd
       -0.09215174 -0.13756117 -0.062114928 -0.11513878
000190 01 96 77 bb 78 87 8a be a1 4e b6 3e 47 5d 11 bf
       -0.0037778618 -0.2705648 0.35606864 -0.56782955
0001a0 47 9c 2a 3e 5b 66 45 3e 0f 18 66 3d 4e 05 ed 3d
       0.16661178 0.19277327 0.056175288 0.115732774
0001b0 47 a3 29 3e 39 42 42 bc 60 2c cb 3d d0 bc d9 3c
       0.16566192 -0.011856609 0.09920573 0.02657929
0001c0 c5 39 26 3f b4 c1 45 bd ec ae 12 3f 25 f0 49 be
       0.649319 -0.048280433 0.5729816 -0.19720514
0001d0 bf 9c 1f 3e 72 b4 17 bd 1a aa 09 bc 49 f8 db 3d
       0.15587138 -0.03703732 -0.008402372 0.10740716
0001e0 33 e4 03 3e b4 bc 2f 3e a9 a0 cc 3d 71 1b 0f 3e
       0.1288002 0.17161828 0.09991581 0.13975312
0001f0 f4 29 d4 be 1a 25 72 3e e4 c0 14 3a dd 40 4a b8
       -0.41438258 0.23646966 0.0005674495 -4.822096e-05
000200 5a ef 13 be e8 50 6d 3e 54 0e 8e be fa 47 02 3e
       -0.14446774 0.23175395 -0.27745306 0.1272277
000210 7b ce 3b 3e cc 73 70 3d 23 28 cc 3d 54 e0 07 3e
       0.18340485 0.058704183 0.09968593 0.13269168
000220 42 02 d7 bd 93 4a 72 3d bc 5f 81 3d 88 eb 70 bd
       -0.104984775 0.05915315 0.06317088 -0.05881837
000230 e2 54 40 be 37 57 0d 3d 58 22 d2 bd d3 c9 d8 3b
       -0.1878238 0.034507003 -0.10260457 0.006615856
000240 16 67 87 bf 6f 61 0a 3f 46 ed 11 be bb ff 82 3d
       -1.0578334 0.5405492 -0.14250669 0.06396433
000250 cf e4 5c bd 0e ca 99 bd c5 80 0b bd 7f b5 39 b9
       -0.053929146 -0.07509242 -0.03405835 -0.00017710587
000260 51 11 97 3d bd 16 7b 3d 7a b8 18 be 75 c7 ad 3d
       0.0737635 0.06130098 -0.14914122 0.08485309
000270 a5 1c 32 3d 48 cc 6f 3d 67 a6 64 be f3 ff 4c 3e
       0.04348435 0.058544427 -0.22329102 0.20019512
000280 ad a8 2f be 82 3b 54 bd d2 0f 8e be f7 b7 78 be
       -0.17154188 -0.051814564 -0.27746445 -0.24288927
000290 81 ab 67 bd dd 5d 22 be 34 9a 04 3e 70 07 f0 bd
       -0.056560043 -0.15856119 0.12949449 -0.117201686
0002a0 c3 e5 f7 bc 3b 32 83 3d e9 5b 8f bc 5b 5a 15 3e
       -0.030260926 0.06406065 -0.01749988 0.14585249
0002b0 06 07 95 3d ae f4 63 be 78 83 04 bf 21 03 78 bd
       0.0727673 -0.22261307 -0.51763105 -0.06054986
0002c0 60 98 b1 be 00 f2 55 3c e8 a4 b3 3d d8 61 8d 3e
       -0.34686565 0.013058186 0.08771688 0.2761371
0002d0 c0 98 a2 bd 07 a4 e4 3d 79 23 3c 3e 1c f0 cd 3b
       -0.07939291 0.11164098 0.18372907 0.006284727
0002e0 e8 c1 a1 bc 7d d2 0a 3e f8 13 24 bf 64 f3 47 bd
       -0.019745782 0.13556857 -0.6409297 -0.0488161
0002f0 9a 1e 5d 3e 6a 6f 06 bd 22 70 b2 bc 1d 7b 60 3e
       0.21593705 -0.032821096 -0.021781985 0.21921964
000300 08 10 cd bd b6 7c 1b 3e bc 7f 79 3e 25 6a 08 3e
       -0.10012823 0.15184292 0.24365133 0.13321741
000310 f4 f9 c5 bc 0d 6b c0 bd 69 cc f1 3c b1 93 1f 3e
       -0.024167039 -0.09395418 0.029516416 0.15583684
000320 aa 4a 1b 3e 83 09 03 3e a2 91 21 bd cb 7c 78 3d
       0.15165201 0.12796597 -0.039445527 0.060665887
000330 8f 03 0a bb d5 79 cf be 8a 1f 89 be 19 f3 88 3e
       -0.002105925 -0.40522638 -0.26781875 0.2674797
000340 50 70 86 3d a7 ef df bb 00 65 a5 3e d6 1a 8d be
       0.06564391 -0.0068339887 0.3230362 -0.27559537
000350 99 22 fc bd 70 d0 0f bd 9a d8 0c 3e 32 3a fb 3d
       -0.123112865 -0.03511089 0.13754502 0.12266959
000360 3a 8e 81 3d f4 f3 3c 3d 0d 40 7f be 0e 21 ab bd
       0.06325956 0.04613109 -0.24926777 -0.08355914
000370 db 63 cc bd 9a 69 50 bd 06 48 95 be ba 79 71 be
       -0.099799834 -0.05088196 -0.29156512 -0.23581591
000380 bd f7 81 be e0 17 15 be fd 63 4b 3c 2b 77 25 bd
       -0.25384322 -0.14559889 0.012413976 -0.04039685
000390 3e f2 cb 3c 97 1b 66 3c 11 f4 19 bd ae ed bf bd
       0.024895784 0.014044664 -0.037586275 -0.09371506
0003a0 2e 96 9f 3c dc ff 0e 3e 05 28 36 be 87 b2 99 be
       0.019480791 0.1396479 -0.17788704 -0.30019018
0003b0 b6 e3 2f 3f 65 38 e6 3c 17 1c 89 bf 5a e2 b1 bc
       0.68706834 0.028103063 -1.0711697 -0.021714378
0003c0 01 54 35 3e 5a bb ec 3d fd 5a 56 be 00 94 0c be
       0.17707826 0.11559172 -0.20933147 -0.13728333
0003d0 16 84 98 3d 8b 80 d2 bc e8 df 15 bd c8 5e 53 be
       0.074470684 -0.02569606 -0.036590487 -0.20641625
0003e0 de 19 9a be 00 7b 75 3d da fa 10 3e e4 e9 73 3e
       -0.3009786 0.059931755 0.14158192 0.23819691
0003f0 01 08 66 be 12 28 7c 3d be 42 1a 3e d3 b9 50 bc
       -0.22463991 0.06156165 0.15064523 -0.012739616

shared_fc1.bias f4 [256]
000000 da 84 97 bc 95 54 a7 3d 29 3f 10 be bb 20 78 bd
       -0.018495966 0.081704296 -0.14086594 -0.06057809
000010 75 8f bc bd 24 3c f2 3b a4 6b ec 3d e8 55 82 bd
       -0.0920705 0.007392423 0.11543968 -0.063640416
000020 25 f4 1f 3d 1e 2f a2 bc 52 ac 08 3d 21 80 d2 bd
       0.039051194 -0.019797858 0.033367462 -0.10278345
000030 67 1e a2 3c 2c 24 a7 3c ac 2c 0c 3d b4 10 36 bc
       0.019789888 0.02040299 0.03422229 -0.011112381
000040 5c 1b 0b 3d 60 a5 c6 3d 02 4b 3c bc c4 30 3b 3d
       0.03396164 0.096995115 -0.011492493 0.045700803
000050 16 e8 79 3b b3 15 8c 3b d6 0b 65 be e5 4c b6 be
       0.0038132719 0.0042750477 -0.22367796 -0.3560554
000060 22 b3 7e bd 75 d7 9f bd 05 12 82 bd 78 60 c0 3b
       -0.062182553 -0.07804767 -0.06351093 0.005870875
000070 f8 be 22 bd b9 fe c8 3d 49 2c 08 be da 89 be bb
       -0.039732903 0.098142095 -0.13298143 -0.005814773
000080 9a 90 64 3c 37 51 ef bc fc f4 96 bc 23 c7 19 bb
       0.013950491 -0.029213531 -0.018427365 -0.0023464642
000090 36 c0 46 bd fc 5b f6 3a 05 9f 6f bd 84 e4 12 3e
       -0.04852315 0.0018795724 -0.058501262 0.14344984
0000a0 89 69 e9 bd 32 a5 18 3d 07 0e 18 3d df 89 54 3d
       -0.11397082 0.037266918 0.037122753 0.051889297
0000b0 ac 2b c7 bc 55 9c 88 3c 15 6c 68 3d 00 f7 f3 3d
       -0.024312817 0.016676107 0.0567437 0.11912346
0000c0 ff eb 98 3d 34 b4 e3 3c 05 3a c9 3d fc 19 1b 3d
       0.07466888 0.027795888 0.098255195 0.037866578
0000d0 07 21 87 bd ac 8f 8e 3d 6d d3 ca 3d 1a 2e cd bd
       -0.06598096 0.06960997 0.099036075 -0.10018559
0000e0 7d 99 82 3c 1a 48 87 bb 81 17 8c 3d b7 8e 3c 3d
       0.01594233 -0.004128468 0.068404205 0.04603454
0000f0 a9 82 88 bd be 43 69 3c ec 34 19 3d bb f1 01 3d
       -0.066655464 0.014237342 0.037403986 0.031724673
000100 5d cf ad 3d aa 0a 24 3d 23 19 bd 3d af 76 02 be
       0.08486817 0.040049233 0.0923331 -0.12740587
000110 fe 3b a5 3d dc d4 9d 3c f6 8a 18 3d a3 bd 34 3c
       0.08068083 0.019266538 0.0372419 0.011031541
000120 60 fe 9b 3d 3b cc 0a 3b a0 96 f9 bd b3 24 6d 3d
       0.076168776 0.002117886 -0.121869326 0.057896327
000130 f2 05 e7 3c c0 35 19 3e 30 8e 7f bd 62 db 33 3c
       0.028201077 0.1496191 -0.06239146 0.010977598
000140 70 45 9b bc a0 df a7 3c 55 58 54 3d c1 b0 72 3d
       -0.018954009 0.020492375 0.051842052 0.059250597
000150 12 39 3f bd b9 d4 7a bc 15 a0 3e bc 5c cb de 3c
       -0.046685286 -0.015309506 -0.011634846 0.027196579
000160 82 70 d3 3c c0 95 ca 3a ca 30 14 be 26 e1 e1 3d
       0.025810484 0.0015456006 -0.14471737 0.11029272
000170 38 25 85 3d 43 ae 55 bd 37 1c 6c 3d 33 45 01 bd
       0.065012395 -0.052168142 0.057644095 -0.031560134
000180 da 40 17 bc 9e 07 bc bc eb b8 87 3a 2e c5 03 3e
       -0.00923177 -0.02295285 0.0010354792 0.12868187
000190 01 8e bc bc c0 7a c5 3d c0 a2 95 3b 70 3f 65 3d
       -0.023016931 0.09642553 0.0045665205 0.0559687
0001a0 45 c2 84 bc 3d 90 0e 3d 9c 29 c9 3c 40 c9 10 be
       -0.016205916 0.034805525 0.024555974 -0.14139271
0001b0 f4 ee 4c bd 4b 54 4d 3d 0b d6 d2 3c 0a 90 ab 3d
       -0.05003257 0.050129216 0.02573683 0.08377083
0001c0 92 45 52 3d 3d 22 99 3d 90 aa 6f be e9 da c8 3c
       0.05133588 0.074772336 -0.23404908 0.024518447
0001d0 4c 49 99 3c ef 34 29 bd f0 02 86 bb c4 c9 ed 3d
       0.018711708 -0.041310247 -0.0040897056 0.11610749
0001e0 85 06 9e 3c 99 02 8f bc 19 3f 01 3d ab 78 f0 3c
       0.019290218 -0.017457293 0.031554315 0.029354414
0001f0 27 ae 6b 3d 8a 3c 5e 3d ae 0e 87 3c 36 db 17 3d
       0.05753913 0.054256953 0.016486492 0.03707429
000200 d1 21 81 3d 22 04 c1 bd f1 46 36 3d a1 1f 4e bb
       0.06305278 -0.094246164 0.04450125 -0.0031451958
000210 50 7a 8e 3d d2 7c 0d 3e 57 8a 50 3d fe 00 72 3d
       0.06956923 0.13817146 0.05091318 0.059082977
000220 8c 26 46 be d9 e9 d1 3c b7 a6 a4 bc cb c1 2a 3d
       -0.19350642 0.025624203 -0.020099027 0.04168872
000230 95 21 46 3d 8e 4f 98 3c 0a 49 8d 3d 1e d2 82 3d
       0.04837187 0.018592622 0.06898697 0.06387733
000240 ec 23 1e 3d 54 eb 74 3d 1b 7c 85 bc 50 ce 89 bc
       0.038608477 0.05979474 -0.01629453 -0.01682201
000250 d7 72 18 3d d0 c0 09 3e c7 29 9e bc 20 d8 19 3d
       0.037218895 0.13452458 -0.01930703 0.03755963
000260 76 c1 f5 3d 06 57 32 be c6 69 a1 3d b8 af 30 3a
       0.1199979 -0.1741601 0.07881503 0.00067400513
000270 bc 5e 72 bd cb b1 4a 3d da 83 01 3d 1b 8a 46 3e
       -0.059172377 0.049485963 0.031619884 0.1938862
000280 f1 9d a5 bd 2b c9 92 3d 39 07 20 3d 3c 40 89 be
       -0.080867656 0.07167276 0.039069388 -0.2680682
000290 aa 93 ec 3c 6b 47 b6 3c 4e 8f 25 3d 26 19 92 bd
       0.028879005 0.022250852 0.04041987 -0.07133703
0002a0 08 7a 29 3d 7f 8b b4 3c 44 ce 9c 3a bf 50 11 bd
       0.041376144 0.022039173 0.0011963327 -0.035477396
0002b0 b7 18 a2 3c b0 9b b4 3d 07 b8 11 3d 1e 46 23 3d
       0.019787176 0.088187575 0.035575893 0.03986179
0002c0 26 67 ad bb dd 6c 8a 3c 6c ea ad bd 51 bc 2f 3d
       -0.0052918373 0.016897613 -0.08491978 0.042904202
0002d0 98 73 3a 3d d0 c1 94 3d 7a 1a 32 be 2f d5 96 3c
       0.045520395 0.07263529 -0.17392913 0.0184122
0002e0 4c 0a ee 3c 53 9d ba 3d 18 72 0b 3d 88 e7 dc bc
       0.029057644 0.091120385 0.034044355 -0.026965871
0002f0 7e a5 0d bd c2 86 7b 3d f2 ba 5b 3c bb c7 77 bd
       -0.034581654 0.061407812 0.01341127 -0.060493212
000300 a5 6a 0c 3d 23 01 c6 3c 39 81 c5 bd c9 f1 08 be
       0.03428139 0.024170464 -0.09643788 -0.13373484
000310 c4 d8 05 bd 1c 87 a4 bc 04 7f 13 be ac 41 55 bd
       -0.032677427 -0.020083956 -0.14403921 -0.052064583
000320 02 80 c3 3c 77 e6 58 3c 85 08 0e bd a1 52 e6 3b
       0.02386475 0.013238541 -0.034676094 0.007028893
000330 fc 06 2f be 7b f1 10 3d c9 c9 22 3d 61 3d 96 bc
       -0.17092508 0.035386544 0.03974322 -0.018339815
000340 0f 2f ff 3c 23 31 a9 3c fe e3 3e 3c 1b 41 c4 3c
       0.031150369 0.020653313 0.011651037 0.023956826
000350 8e 62 a0 bd 2a dc de 3d 47 e8 f2 3b d4 18 67 3c
       -0.07831298 0.10881837 0.0074129435 0.014105041
000360 cb 38 33 bd 2f b9 d9 3c 0c f4 38 be 4f a1 a8 3c
       -0.043755334 0.02657756 -0.18061846 0.02058473
000370 fc ca 2e bd 68 7c 9b bd c4 ec 12 be ce 4b 57 3d
       -0.04267405 -0.07592088 -0.14348131 0.052562527
000380 e8 f8 56 bc 4d d0 53 3d 55 e0 75 3d 24 ed 8f 3d
       -0.013120867 0.051712323 0.060028393 0.07027653
000390 f8 fc ab 3c d5 fa 4f be a2 78 7d bd 28 b1 3f bb
       0.020994648 -0.20310529 -0.061882623 -0.002924988
0003a0 e7 8a d7 3c 86 a7 e7 bb a4 68 65 3b ac 38 73 3d
       0.026311351 -0.007069531 0.0035004998 0.05938022
0003b0 79 d3 3d bc 8e da c2 3d 98 f1 b2 3d 6c 1c 9b be
       -0.011586064 0.09514342 0.087374866 -0.30295122
0003c0 0d a6 11 be d7 8c 94 bd 5a e1 57 3d f7 de b1 3c
       -0.142235 -0.072534256 0.052705146 0.021712763
0003d0 8f 53 be 3c 46 56 0f be ca d4 05 3d 16 d7 05 bd
       0.023233203 -0.13997754 0.032673635 -0.032675825
0003e0 4f 55 44 3d 1b 01 dc 3d 71 db 92 3c 0b 3e c7 bb
       0.04793292 0.10742398 0.017926903 -0.006080394
0003f0 1d 2f 29 3d ae 3c 6a bc 57 92 81 3d b0 0a 19 bd
       0.041304696 -0.014296694 0.0632674 -0.037363708

shared_fc2.weight f4 [256, 256]
000000 58 3e 8e 3c 6d b1 a8 bc 4a 46 b0 bd 8e 44 3b 3d
       0.017363712 -0.020592416 -0.086071566 0.045719676
000010 30 07 b8 bd 39 ab 4b 3d 75 17 d7 bd 83 40 f1 bd
       -0.08985746 0.049723838 -0.10502521 -0.11779883
000020 a9 f2 e2 bd d7 e9 17 bd 81 4b 8a 3d 94 59 ae bd
       -0.1108144 -0.03708824 0.067526825 -0.085131794
000030 eb 26 e4 bd 13 55 24 3d 47 e0 5f 3d c4 5b 4d bd
       -0.111402355 0.040120196 0.054657247 -0.050136343
000040 89 a1 c2 3d 54 28 bb 3d bd 42 e2 bd 71 79 ca bd
       0.09503467 0.09138551 -0.110478856 -0.09886444
000050 44 3c ef bc bd e5 ba 3d 26 a5 41 bd fa 9b b9 3d
       -0.029203542 0.0912585 -0.04727664 0.09062953
000060 c7 40 b3 bb a0 31 15 bd 0c 07 2b 3d 73 f6 8a 3c
       -0.0054703685 -0.03642428 0.041754767 0.01696322
000070 2d df dd bb 67 75 96 3d d9 4f 9c 3d 1e 42 b4 bd
       -0.0067709894 0.073466115 0.07632417 -0.08801673
000080 d4 0b b2 3c 42 27 08 bd 8a 95 ec bd 75 e8 01 bb
       0.021734156 -0.033240564 -0.1155196 -0.0019822393
000090 95 59 a4 3d 44 7b f3 3b 82 b6 2f bd 54 07 c7 bd
       0.08024899 0.007430466 -0.042898662 -0.097181946
0000a0 3d a4 a2 bd 3e 65 d6 bd d3 e9 0f 3d 17 f3 d5 3c
       -0.07941482 -0.10468529 0.0351351 0.02611689
0000b0 1d c7 4d 3d 32 48 90 3d e4 f5 a1 3d 1e 54 91 3d
       0.050238717 0.0704502 0.07908228 0.07096122
0000c0 fe 14 99 bd 3d 14 da bd 50 e1 8a bd a8 94 9f bd
       -0.07474707 -0.106483914 -0.06781256 -0.07792026
0000d0 1f 6b 62 3d 08 a3 83 bc ef d5 f4 bd de 0c 07 bd
       0.05527794 -0.01606895 -0.11954867 -0.032971255
0000e0 ce bb 06 3b 98 d7 4e bd 06 7d ef 3b 92 35 c9 bd
       0.0020558718 -0.050498575 0.007308605 -0.09824671
0000f0 7e 25 cb bd c8 5c d0 bd 3e 4d a6 bd ec 2b 65 3d
       -0.099192604 -0.101739466 -0.081202015 0.05595009
000100 27 36 07 bd 0f d3 87 bd e1 a2 c3 3d f1 24 cd bd
       -0.033010628 -0.06632053 0.09552551 -0.10016812
000110 a5 37 b9 bd 73 f4 28 3c 9f 67 15 bd b5 d0 ba bd
       -0.090438165 0.0103121875 -0.036475774 -0.09121839
000120 a2 71 cf bc a8 60 d4 bd 62 9c 77 bc 4e bf bc bc
       -0.025322739 -0.10369998 -0.015112968 -0.02304044
000130 16 f5 bc bd 0b cb 24 3d 7a 4d f1 bd 54 a2 bb bd
       -0.09226434 0.0402327 -0.117823556 -0.09161821
000140 a3 95 0f bd 96 76 f2 bd 0f 4a 76 bd dc 24 8e bd
       -0.035054814 -0.11839025 -0.06012922 -0.06940624
000150 50 7a d9 bd fb f6 75 bd 18 3f f8 3c 9b e5 f7 bc
       -0.106190324 -0.060049992 0.030303523 -0.030260852
000160 70 a6 b6 bc 1e d2 81 bd 77 d3 99 bd cf f5 e5 bd
       -0.02229616 -0.06338905 -0.07511037 -0.11228525
000170 05 cf d4 bb 2b 13 80 bd 00 66 46 bd 70 90 cc bd
       -0.006494405 -0.06253656 -0.04843712 -0.09988487
000180 8b 3d 67 bd 75 c9 84 bd 50 50 6e bd 1e d4 ab bd
       -0.056455176 -0.064837374 -0.05818206 -0.083900675
000190 25 0d 20 3d 4f 7b f6 bc 0e de 84 bd b2 5a 01 be
       0.039075036 -0.030088095 -0.06487666 -0.12632254
0001a0 66 1b b1 3c 2c ed bd 3d 30 90 99 bc ab 7e 5c bd
       0.02161951 0.092737526 -0.018745512 -0.053831737
0001b0 25 ea 71 bd ec f8 1b bc 3e cd 40 3d cf 72 c2 3d
       -0.05906119 -0.009519797 0.047070734 0.09494554
0001c0 67 9f 07 bd 46 71 02 bc 5f b9 78 bd 4e 2b 3f 3d
       -0.033111002 -0.007961577 -0.06072366 0.046672158
0001d0 cf 7c 47 3c 49 d9 0c bd c4 7a da bd 4a d4 8f bd
       0.012175753 -0.034386907 -0.10667947 -0.07022913
0001e0 36 e6 a6 3c 84 78 8e bd bf 09 b2 3c 7f ad cd 3d
       0.020373445 -0.0695658 0.021733163 0.100428574
0001f0 c9 bb 29 3c a2 26 43 3d 4d 43 51 3d 60 d5 35 bc
       0.010359713 0.047644265 0.051089574 -0.011098236
000200 2d c7 ac bd b5 ac af bd cd 16 78 3c b1 b5 10 bd
       -0.08436427 -0.08577863 0.015142155 -0.035329524
000210 1e af 25 3d 39 34 9f bd ef 9b b3 3d 2b 56 94 bc
       0.040450208 -0.077736326 0.08769976 -0.018107494
000220 41 ab ad bc cf 34 86 bd ea c6 e6 bd 67 38 9e bd
       -0.021199824 -0.06553041 -0.112684086 -0.07725602
000230 5f 63 ea bd 80 65 b5 bd 8c 96 95 3d 9c f0 37 3c
       -0.11444735 -0.0885725 0.07304105 0.011226799
000240 b3 13 7f bd e5 6d 81 3c 17 ac f4 bd 0f 13 8b 3d
       -0.062274646 0.015799472 -0.11946886 0.067907445
000250 e0 ef c1 3b 09 12 a5 bd 12 ab 8c bd 75 99 37 3d
       0.005918488 -0.080600806 -0.068685666 0.044824082
000260 fc 78 b9 bd 5c a8 7e 3d 80 41 97 3d 15 c8 d8 bd
       -0.09056279 0.06217228 0.0738554 -0.105850376
000270 c3 c9 35 bd 06 29 0b 3d 3d 60 de bd bd f1 3f bc
       -0.044381868 0.03397467 -0.108582 -0.01171535
000280 ab 56 83 bd 14 60 c1 bd 3a 90 6d bd f3 2b b3 bd
       -0.06413015 -0.094421536 -0.057998873 -0.08748617
000290 05 05 c9 bc a8 f2 1f 3d 9a 64 bf bd 0f c6 e2 3d
       -0.024538526 0.039049774 -0.0934536 0.11072933
0002a0 e5 8e 9b bd 8a e9 7d 3d a5 51 be bd de 65 93 bd
       -0.07595614 0.0619903 -0.09292916 -0.07197164
0002b0 8a 72 59 3d e5 00 8d 3d c0 8b d4 3c aa 38 9f 3d
       0.05308775 0.06884936 0.025945544 0.0777448
0002c0 61 f1 9f bd 06 0e ae bb ec f3 c1 3c 1b 25 60 3d
       -0.07809711 -0.0053117303 0.023675881 0.054722887
0002d0 97 ef 9a 3d 3d 29 b5 3d 74 52 2a bd 2a 50 5d bd
       0.075652294 0.08845756 -0.04158254 -0.05403153
0002e0 6c d3 bd 39 41 ce c6 bc 35 56 28 bd 21 e2 c5 bd
       0.0003620641 -0.024268271 -0.04109784 -0.09662271
0002f0 94 21 bb bd c6 31 ad bd 20 59 b2 3d 45 7f a7 bd
       -0.09137264 -0.08456759 0.087084055 -0.081785716
000300 65 9e 7e 3d e2 7d 8b bd 28 85 a3 3c 61 ca 80 3d
       0.062162776 -0.068111196 0.019960955 0.06288601
000310 14 15 9c 3c 79 0a ac 3d 53 a5 33 bd c1 de 02 bc
       0.01905302 0.08400435 -0.043858837 -0.007987679
000320 83 20 86 bc d4 38 cc 3c 1d fc 9a bd e7 7a 99 bd
       -0.016372925 0.024929442 -0.07567618 -0.07494145
000330 b6 82 41 3d ef 71 85 3d 69 2e 40 3d 16 ff c1 bc
       0.047243796 0.06515872 0.04691926 -0.023681205
000340 81 e7 8c bd e0 a6 c2 bd 0d c2 67 3d 0b 35 ab bd
       -0.06880093 -0.09504485 0.056581546 -0.083597265
000350 80 56 04 3d f9 9c 8a bb b6 85 22 bd f3 c5 3c ba
       0.032309055 -0.0042301384 -0.039678298 -0.00072011276
000360 e7 96 ea 3c 47 21 8a 3d dd d3 95 3d 18 d6 a0 3d
       0.028636409 0.067446284 0.073158 0.07853335
000370 22 93 c4 bd 33 ef d7 3b 26 ef a2 3d 28 7d cb bd
       -0.09598376 0.006589794 0.0795577 -0.09935981
000380 1a 24 6f bd d7 b2 4b bd 8b da a3 3b 41 34 2e bd
       -0.05838404 -0.0497311 0.0050004176 -0.042530302
000390 17 0b ab 3d 66 b0 a0 3d 32 28 e9 3c bd cd 36 3c
       0.083517246 0.07846145 0.02846155 0.01115745
0003a0 6f d4 78 bd eb e4 ca bc f7 43 9f 3a de 9e a0 bd
       -0.060749467 -0.02476736 0.0012150992 -0.078428015
0003b0 c9 00 3e bd c1 b7 c6 bd 36 98 16 bd 07 f8 85 3c
       -0.046387468 -0.09703017 -0.036766253 0.01635362
0003c0 e0 f2 10 bd 33 13 b1 bd 37 4c e2 bd d7 5c b7 bd
       -0.035387874 -0.0864624 -0.11049693 -0.08953255
0003d0 cb e4 c6 bd 98 92 c4 3d 5c cb 9b bd 8d 6c 5a bd
       -0.097116075 0.09598273 -0.07607147 -0.05332618
0003e0 45 79 90 bd c7 ba c5 3d af 5f a4 bc 89 36 8f 3d
       -0.0705438 0.096547656 -0.020065157 0.06992824
0003f0 a3 50 a1 3d 79 48 8a bd 6d 04 5a 3d 66 6f 72 3d
       0.07876708 -0.06752104 0.053226877 0.05918827

shared_fc2.bias f4 [256]
000000 f5 1f 12 bc 1d 35 97 3d d9 d9 bc bc 7d a0 55 bd
       -0.008918752 0.073831774 -0.023053097 -0.052155007
000010 66 ee 57 3e 85 07 0e 3e 1d 14 da 3d 5e 2f 91 3d
       0.21087036 0.13870056 0.106483676 0.07089113
000020 90 3e 00 3e cc 97 9b bc 36 a2 8c bc a1 ef c9 bc
       0.12523866 -0.01899328 -0.017167192 -0.024650397
000030 29 98 ea 3d ac c0 01 3d 9e 6b c2 3d a1 3c 35 3e
       0.114548035 0.031677887 0.094931826 0.1769891
000040 7b a3 94 3d 04 d1 a4 bb 22 05 f5 bc eb b6 43 3c
       0.07257744 -0.0050297994 -0.029909674 0.0119454665
000050 77 f8 b0 bc a6 49 cf bc eb c1 1c 3e 37 86 1f 3d
       -0.021602852 -0.025303673 0.15308349 0.038946357
000060 0b b6 35 bd ea 3f 0d 3e 05 6f 21 3e a3 cc 44 bd
       -0.044363063 0.13793913 0.15765007 -0.04804672
000070 e3 46 89 bd e2 28 1e 3d 53 1f 5e 3e 11 00 bf 3c
       -0.06702974 0.038613208 0.21691637 0.023315461
000080 51 b2 c2 bc 65 3a 0d 3e b8 8c 9f 3d df 7a 9e 3d
       -0.023766669 0.13791807 0.07790512 0.077382796
000090 32 7a 2e bd 92 99 13 3b 2b bb 0e bd 25 14 14 3e
       -0.042597003 0.0022521955 -0.034846466 0.1446081
0000a0 3b 11 cb bc d7 06 2b 3d cf 7a 2c bd 60 6d 2e 3e
       -0.02478849 0.04175457 -0.042109307 0.17033911
0000b0 da 0f f5 bc 7d 60 09 3e d1 a0 3c bc 1a 98 b7 3c
       -0.029914785 0.13415714 -0.011512951 0.022411395
0000c0 d8 37 14 bc d5 db 9c 3d a7 cf e2 3d e3 74 ec bc
       -0.009046517 0.07659117 0.11074763 -0.02886433
0000d0 ad b7 76 bc 8a 5b 35 3c bf 97 c3 3c e8 ee e2 3c
       -0.01505844 0.011069188 0.02387607 0.02770181
0000e0 b4 1e 36 bd fd 72 be 3d 19 a7 24 3e 5d d1 19 3e
       -0.044462875 0.09299276 0.16079368 0.15021272
0000f0 71 13 80 bd 73 91 06 bd f0 ef 94 3b 34 72 25 3c
       -0.06253708 -0.032853555 0.0045452043 0.010098029
000100 6d 74 c8 3d 4d 34 e6 bd 3f d0 e9 3c b8 86 16 3e
       0.097878315 -0.11240444 0.028541682 0.14699829
000110 14 c2 99 3d 37 96 d0 bc f8 6b 06 3e 81 28 bb bc
       0.075077206 -0.025462253 0.13127124 -0.022846462
000120 22 46 77 3d cc f0 e2 3d 72 a6 0b 3e 93 84 d5 bc
       0.06036962 0.110810846 0.13637713 -0.026064193
000130 91 35 81 3d fe 50 21 3e e7 ac c9 bd 87 c1 0f 3e
       0.06309045 0.15753552 -0.09847432 0.14038669
000140 3a 1d 06 bd b4 fd 86 bb 5e 4a 88 bc 65 7d 34 3d
       -0.032742716 -0.0041195992 -0.016637024 0.044064898
000150 3d 90 0b bd 59 6f e1 bc 1a bc 61 bd e9 79 dd 3d
       -0.034073103 -0.027518915 -0.05511103 0.10814268
000160 88 35 db 3d 89 75 3f bd 19 b1 fc bc 0d 3b 5a 3d
       0.1070357 -0.04674295 -0.030846165 0.05327897
000170 09 9b c0 bc 38 8c 76 bd 83 73 82 3d 20 63 d3 3c
       -0.023511427 -0.060192317 0.06369688 0.025804102
000180 7b e4 a2 3c bf b5 4f 3d b8 7f 17 3d 44 43 39 bc
       0.019884339 0.050710436 0.036987036 -0.011307541
000190 7f 71 64 bd 64 ad 70 3d db 5d e9 3c 9d 44 0d 3e
       -0.0557723 0.05875911 0.028487137 0.13795705
0001a0 28 76 4f bd 54 db b0 bd 23 1e 32 bd 25 d6 1a 3e
       -0.050649792 -0.086355835 -0.043485772 0.15120752
0001b0 f5 69 07 3e db c6 9b 3d 04 a8 35 3d 01 51 f1 3d
       0.13224013 0.07606288 0.044349685 0.117830284
0001c0 ae 0c 92 bc 24 cd 25 3c 9d 46 ce 3d bd c7 79 3d
       -0.017828312 0.01011971 0.10072062 0.0609815
0001d0 43 5e 90 3d 43 f3 e4 3d 88 e3 ef bb e5 31 a0 bd
       0.07049229 0.11179211 -0.007320825 -0.078220166
0001e0 23 c6 de 3d fc 21 c0 bc fe 6a b2 3c 4a d6 12 3e
       0.10877635 -0.023453705 0.021779533 0.14339557
0001f0 b6 ad 9c 3d f4 9a f6 3d a4 df 86 3c ee 00 1c bc
       0.0765032 0.12041274 0.016464062 -0.009521706
000200 bb b0 88 3d 86 b7 8a bc 26 08 1d 3e e7 15 d8 bc
       0.06674334 -0.016933214 0.1533514 -0.026377631
000210 2b e4 90 bd 70 d4 b8 3c bf e2 be bb 0c c7 e2 bc
       -0.070747696 0.022562236 -0.00582537 -0.027682804
000220 bc 54 f5 3d 85 7b 05 3e c7 a7 1c bd ce 66 1c bd
       0.119790524 0.130354 -0.038245942 -0.03818398
000230 1f 80 7f 3d 50 c5 80 3d c9 ae 1a bd ef 11 f4 3c
       0.062378045 0.062876344 -0.037764344 0.029793708
000240 b3 69 1b bd 5d e6 29 bd 0b 36 f9 3c 97 39 2b be
       -0.0379426 -0.041479457 0.030421278 -0.16721188
000250 7c f5 b0 bd f8 98 4d bd c9 2e 84 bc cd c8 e3 3d
       -0.086405724 -0.05019471 -0.01613559 0.11122284
000260 59 e1 eb 3d 6b 66 d3 bd b8 a4 03 bd b7 f1 e8 3d
       0.11517591 -0.10322269 -0.03213951 0.113742284
000270 2c 5c 37 bd ab 56 14 bc 08 05 19 3e ab bc 45 3e
       -0.044765636 -0.009053866 0.14943326 0.19310252
000280 5a 50 fc bb 05 9b e3 3d e9 8d 0d bc 9a b3 89 3d
       -0.0077000083 0.11113552 -0.008639791 0.067237094
000290 38 f1 10 bd 03 9b 31 3d e4 15 08 bd bf 05 5f bc
       -0.035386294 0.04336072 -0.033224 -0.01361221
0002a0 01 9e a0 3d bf 71 08 3e 30 63 ca bc 61 28 98 3d
       0.07842637 0.1332464 -0.0247055 0.07429577
0002b0 c6 ee c5 3d 92 3a 39 bd b4 e7 38 bd 23 14 b2 bc
       0.09664683 -0.045221873 -0.045142844 -0.021738118
0002c0 45 da 9e bc b4 f8 af 3d 6f 9b e3 3c 7c 0f a2 3d
       -0.019391188 0.08592358 0.027784077 0.0791311
0002d0 a6 e2 e5 3c b0 bb 1e bd 0f 62 db 3d 31 4e 33 bd
       0.028062176 -0.03875321 0.107120626 -0.04377574
0002e0 bc 45 1e 3e d5 be c4 bc 90 b4 da 3d 30 98 15 3e
       0.15456289 -0.024016777 0.10678971 0.14608836
0002f0 fb dc e0 3d f6 69 68 3d 4e 46 8c bd d8 22 4d 3e
       0.10979649 0.056741677 -0.06849347 0.20032823
000300 85 ca 20 bd 10 db b5 3d 28 51 3a bd d0 2e 9e bc
       -0.039255638 0.088796735 -0.045487553 -0.019309431
000310 b9 05 b6 bd 58 5a b4 bc 12 c5 9e 3c fb d8 dc bb
       -0.0888781 -0.022015736 0.01938108 -0.0067397333
000320 aa fc 84 bc b7 31 4e bd 81 c6 f3 bc 38 b1 8c bd
       -0.01623376 -0.05034038 -0.02975774 -0.06869739
000330 05 a4 c4 bd 44 67 0a bd 4a e3 1c bc af 70 27 3d
       -0.09601597 -0.033789888 -0.009575674 0.040878948
000340 c4 89 1b 3c 50 b6 8b 3d a5 42 89 3c 0f 18 03 3e
       0.009493295 0.06821883 0.016755411 0.12802146
000350 4d 1f 10 be 37 b0 32 3e 24 f4 d5 bc ca 19 5f bb
       -0.1407444 0.17450033 -0.026117392 -0.003404247
000360 6c c6 ea 3c c8 1d f2 3b eb fc 51 bd ae 89 a0 3d
       0.028659068 0.007388804 -0.051266592 0.0783876
000370 22 46 9f bb 6d 3f 88 3d 2a b0 27 3d 14 a6 a3 bc
       -0.0048606554 0.066527225 0.040939488 -0.019976653
000380 00 dc aa bc d6 d1 1a bd a6 f5 e1 3d 72 d8 cf bc
       -0.020856857 -0.03779777 0.11033182 -0.025371764
000390 f5 0b 7c bc a7 4e 84 bc 2a b0 ba 3d a4 3d 55 3d
       -0.01538371 -0.016150786 0.09115632 0.05206074
0003a0 02 e2 23 3e 89 77 8e bd ed fe d8 3d 4a 99 0a 3d
       0.16004184 -0.06956393 0.10595498 0.033837594
0003b0 9d 66 b8 bc 42 e5 0e 3e 16 23 c9 3d ec e7 08 bd
       -0.022509867 0.13954642 0.09821145 -0.033424303
0003c0 e1 4d 1c bc f7 a1 ad bd 33 49 da 3d c5 40 13 3d
       -0.009540052 -0.08478158 0.10658493 0.03595044
0003d0 f2 ef 40 bd 97 5b a9 bc 5c 62 0f bd 51 97 ac 3d
       -0.04710383 -0.020673556 -0.035005912 0.08427299
0003e0 07 c9 b9 3d ae 86 99 bb 0c 32 80 bd ea b2 10 3e
       0.09071546 -0.0046852445 -0.06259546 0.1413075
0003f0 7f 6d b5 3d ba fd 5d 3d e0 0e 06 3e 19 08 22 3e
       0.08858775 0.05419705 0.13091612 0.15823402

actor_fc.weight f4 [256, 256]
000000 b4 58 fc 3d 7d 87 12 3e d0 f5 e8 bd 34 c1 9d 3d
       0.12321606 0.14309497 -0.1137501 0.07702866
000010 ba 02 fa bd 31 73 2b 3e f5 ca 17 3e 06 61 49 be
       -0.12207551 0.16743161 0.14823516 -0.19665918
000020 17 15 6a be ad 57 c8 bd b6 0e f9 bc 07 c2 c3 bb
       -0.22859608 -0.09782348 -0.030402523 -0.0059740576
000030 af 65 88 bd 4e b8 8e 3d 72 8e 04 3e 7c 15 bb 3d
       -0.066600196 0.06968747 0.12944964 0.09134957
000040 5c fd 42 3e de 46 dc 3d d9 7c 97 bb 54 13 2e be
       0.19041961 0.10755704 -0.0046230373 -0.1699956
000050 d3 c2 b3 bd 48 0b a5 bd da bf b9 bd 5b 67 b4 bc
       -0.08777394 -0.08058792 -0.09069796 -0.02202194
000060 c1 f4 51 be b7 8e b0 3d bb 0f b9 3d ec de ce 3d
       -0.20503522 0.08620971 0.090362035 0.10101113
000070 a3 60 89 bd 5c 91 53 3e 4c 0b c7 3d 3f fb bd be
       -0.06707885 0.20660919 0.097189516 -0.37105748
000080 bf 4b 27 bd aa 1e 5b 3e 2f 94 5f 3e 58 28 01 bc
       -0.04084372 0.21398416 0.21833871 -0.007883154
000090 e5 62 41 bd a9 41 f0 be 37 71 68 be 37 7a 9e be
       -0.047213454 -0.46925095 -0.22699438 -0.30952618
0000a0 a4 ad d9 bc 0a ad 69 3e 53 9a 09 3d 14 f2 ba bc
       -0.026572056 0.22819915 0.03359444 -0.02282051
0000b0 76 04 53 3e 5f 57 e6 bd e7 a2 1d 3e b5 04 9e be
       0.2060717 -0.112471335 0.15394174 -0.30862966
0000c0 7e 96 90 be ea 5a 95 3e c9 7c fe bc 80 41 89 bc
       -0.28239816 0.29170924 -0.031065362 -0.016754866
0000d0 8d 21 96 bd c4 e3 39 3e 11 94 93 bd 5c 8a 08 3d
       -0.07330618 0.18153292 -0.07205976 0.033335075
0000e0 fb 33 92 3d e9 af 60 3c b8 0c ad bd c1 2f b3 bc
       0.07138821 0.013713815 -0.084496915 -0.021873357
0000f0 05 83 4a 3d 81 b1 f5 3d 97 1f 9b bd eb 4e 10 3d
       0.049441356 0.11996747 -0.07574385 0.035231512
000100 ce 4f e6 3c f0 cf 25 3e d4 b8 8c 3d f4 87 1d b9
       0.028114226 0.16192603 0.06871191 -0.00015023333
000110 ed c3 a9 3d ae e7 0c 3e a3 66 2d 3e df 19 03 3f
       0.08289323 0.13760254 0.16933684 0.5121135
000120 fd 6d 15 3e f1 f7 97 3d f5 68 09 3e 93 17 c3 bd
       0.14592738 0.07420338 0.13418944 -0.09525981
000130 b8 c5 cd be 67 97 da bd 36 62 a7 3d 9e 31 03 3d
       -0.4018991 -0.10673409 0.08173029 0.03202974
000140 e1 82 33 bd 4f 1f 16 3d 02 94 9d 3d 88 42 8e 3d
       -0.043825988 0.036650952 0.07694246 0.069462836
000150 d0 c9 29 be 69 6e 1a be 3a c4 2e bd 55 ce b4 be
       -0.16580892 -0.1508118 -0.042667605 -0.3531367
000160 2f 81 05 3e 4e af ad 3c 3e ee d4 bc e4 bb e5 be
       0.13037561 0.021201756 -0.025992509 -0.44869912
000170 98 e3 08 bd 4b 64 f0 bc c1 64 68 be 44 b8 8a be
       -0.033420175 -0.029344698 -0.22694685 -0.2709371
000180 bd 1e 98 3e 03 58 61 3d 16 2b 45 3e e7 04 bf 3c
       0.2971095 0.055015575 0.19254717 0.023317767
000190 3e 16 b9 3c ee 05 2e be 74 74 df 3d 67 6e 67 bc
       0.022593614 -0.1699445 0.109108835 -0.014125443
0001a0 d0 f6 1b be 6a 1d 97 be e9 8a 2c 3e 2f 2c 9f bd
       -0.1523087 -0.2951463 0.16849865 -0.07772099
0001b0 43 85 55 be c8 bf 08 3f 50 da 9c 3d 9e 4e e2 3d
       -0.20851617 0.53417635 0.07658827 0.11050151
0001c0 69 c9 ca 3e 11 66 25 3e ba b4 c6 be 56 73 9f 3d
       0.3960679 0.16152216 -0.38809758 0.077856705
0001d0 3c 4f 86 be b3 e8 de 3d 01 0c 0d be d6 5c 0f 3f
       -0.26232326 0.108842276 -0.1377411 0.5600103
0001e0 53 0b 50 be eb 6e 57 bd fd 09 a4 bd 1d ca 54 3e
       -0.2031682 -0.052596014 -0.080097176 0.20780225
0001f0 d9 b5 4a 3e a6 3d 4c 3d bd 21 21 be c9 95 63 3d
       0.19795932 0.04986348 -0.15735526 0.055562768
000200 64 c4 30 3e 26 d0 29 bc 57 f0 b3 bd fe e4 19 be
       0.17262417 -0.010364568 -0.087860756 -0.1502876
000210 ae 2b 55 3b 3c ae 6a 3c 6f be 22 be 4b e6 f7 3d
       0.0032527256 0.014323767 -0.15892957 0.12104472
000220 6a 2e be 3d d4 c2 a0 3e dd ea 2d bd 9b 02 88 3d
       0.092861965 0.31398642 -0.04246031 0.06641122
000230 98 09 eb 3d 3a 4c 96 3d 39 8a 07 3c d7 59 6a bb
       0.11476439 0.07338758 0.008272701 -0.0035759115
000240 11 ad b3 bd 68 64 29 bd a7 90 98 3e 27 f2 e7 3d
       -0.08773244 -0.04135552 0.2979786 0.11325484
000250 f4 9f db bd fa e7 73 be fc 04 ae bd d5 7c cc 3d
       -0.10723868 -0.23818961 -0.084970444 0.09984747
000260 6d 18 c0 3e 4f 3e f2 3a f0 d0 1f 3b c1 c0 47 3e
       0.37518635 0.0018481704 0.002438601 0.19507124
000270 7f 0b 7e 3e 20 10 3b 3c 47 99 41 be 11 6b 37 3e
       0.24809073 0.011417419 -0.18906127 0.17911936
000280 ef e9 d0 bd d8 00 24 3d c8 97 cc 3e a1 0f 0b bd
       -0.10200869 0.040039867 0.3995955 -0.03395045
000290 8f 13 ad bc bf 14 ee 3e 19 73 a0 be 7f 25 ff bd
       -0.02112749 0.46500203 -0.31337813 -0.12458324
0002a0 5e 67 02 3e 0a 35 bc 3d 7e 28 c1 bb 4f 88 d5 3e
       0.12734744 0.09189804 -0.0058947196 0.41705558
0002b0 8a c0 9d 3d 38 6c 4d 3d 7a eb 6a bc 7b a0 ff bc
       0.077027395 0.050152034 -0.014338369 -0.031204453
0002c0 6b 1f 2a 3e 5a 25 c6 be 83 e1 5b 3e 8b 07 a8 be
       0.16613548 -0.38700372 0.21472745 -0.32818255
0002d0 a2 3d 31 3d bd e3 33 3e 0e a9 ce bd 51 36 8c bc
       0.04327167 0.17567344 -0.100908384 -0.017115744
0002e0 da c2 ed bc cc c5 05 bd 80 4c b7 3d 2f 88 47 be
       -0.029023577 -0.032659337 0.08950138 -0.19485544
0002f0 3b 89 45 3e 38 fc 10 be d9 85 b7 3e 00 bf 92 bd
       0.1929063 -0.14158714 0.35844305 -0.071653366
000300 a6 39 cd bd e6 61 0f be 77 23 aa bc 0f 97 76 3d
       -0.10020761 -0.14002189 -0.020768864 0.060202654
000310 1e 40 81 bd 97 d5 88 bc 8c de 87 3e 4c 56 09 3c
       -0.063110575 -0.01670341 0.26536977 0.008382391
000320 4b 4f b7 bc 35 14 25 bf 13 3a 4b bb 5a b3 63 3e
       -0.022376677 -0.6448396 -0.0031009957 0.22236386
000330 ec 79 83 be 40 f1 75 3d ef b7 4d 3e 53 aa 13 3e
       -0.25678957 0.060044527 0.20089696 0.14420442
000340 cb 48 a7 3a 1f c7 cf 3d 61 9f 6f be d5 53 24 3e
       0.0012762783 0.10145401 -0.23400642 0.16047604
000350 7f 04 0c 3f e2 de 17 3e 26 46 07 bd 89 b1 49 3e
       0.5469436 0.14831117 -0.033025883 0.1969663
000360 c0 b2 38 be f7 5a 5c 3e 16 c2 49 be da fc 6a 3c
       -0.18036938 0.21519075 -0.19702944 0.014342511
000370 71 78 e5 3c c1 5e cf 3e 26 25 67 3d b1 d5 ca 3d
       0.028011533 0.4050198 0.056431912 0.0990404
000380 c9 ba 3c bd 49 92 15 be e9 1a 52 3e 96 18 a5 3c
       -0.04607657 -0.14606585 0.20518078 0.020153325
000390 59 f3 95 3d b4 70 f6 bd 2f 7b 59 3e 5a 19 be 3e
       0.073218055 -0.12033215 0.21238397 0.37128717
0003a0 b0 f8 3e 3d fd 4d 38 3e 3d 30 32 be e1 93 30 3d
       0.046623886 0.179985 -0.17401214 0.04310978
0003b0 07 26 6f be 2d 20 0a 3e d8 ff 80 3c 0e 4e 90 be
       -0.2335435 0.13488837 0.015746996 -0.2818455
0003c0 ee 2d 72 bd 92 c4 90 3d 69 60 a7 3d 5a 03 7b bd
       -0.059125833 0.07068743 0.08172686 -0.061282493
0003d0 db c2 14 be 95 e5 94 3c 63 de ab 3e c9 87 d1 bd
       -0.14527456 0.01817588 0.33568105 -0.10230977
0003e0 9a 4c e6 bc 4f a7 67 3e e4 d5 ae bc d2 1b 90 be
       -0.028112698 0.22622417 -0.021342225 -0.28146225
0003f0 d1 d8 f4 3e 25 cf 47 3e e8 78 87 bd fc 1a 3b 3e
       0.47821668 0.19512613 -0.06614858 0.18272012

actor_fc.bias f4 [256]
000000 0e d2 f2 3d 0b 7e 12 bd 5f eb 1f bd c4 a4 18 bc
       0.11856471 -0.035764735 -0.039042827 -0.009316627
000010 ed 8b 3f 3c da 35 d1 bd aa 23 1d bd 5b e8 0d 3d
       0.011691076 -0.102153495 -0.03836409 0.03464542
000020 fb fe a7 bc c4 d1 88 bc 08 6c 1f 3c 9c e2 50 3d
       -0.020507326 -0.016701587 0.0097303465 0.05099736
000030 48 81 37 bd f3 69 41 bd cd b5 09 bd 8c 98 af 39
       -0.044801027 -0.04722018 -0.033620644 0.00033492257
000040 ae db 17 bd 44 d3 12 bd a9 9f 60 bd 1f 81 ed bc
       -0.037074737 -0.03584601 -0.054839764 -0.028992234
000050 9a 36 97 bd 50 15 e5 bd 15 a0 5a bd c3 e0 5f 3c
       -0.07383461 -0.11185706 -0.053375322 0.013664427
000060 58 30 8d bd 36 ec 84 bd 14 35 c8 bc 8b 67 9d 3c
       -0.068939865 -0.06490366 -0.024439372 0.019214412
000070 5a 99 bb bc 94 4d 3a bd 8d 45 52 bd 60 9d 64 3c
       -0.022900272 -0.04548414 -0.05133586 0.013953537
000080 2d 5a 48 bd 22 c6 8d bc ad d4 8e bd 2c 5a b7 3c
       -0.048914123 -0.017306391 -0.069741584 0.022381864
000090 af f7 37 bd b5 3e 15 3c a5 30 c1 bd 82 5b be 3c
       -0.044913944 0.009109189 -0.09433106 0.023236994
0000a0 ff 28 31 3c 4f 41 15 bd 21 2c 16 bd 25 03 67 3b
       0.010812997 -0.036439236 -0.03666318 0.0035249677
0000b0 72 5d 20 bd 0b 3e a6 bd 80 7f 11 3b 8d 13 f3 bc
       -0.039151616 -0.081173025 0.002220124 -0.029672408
0000c0 19 60 1d 3d 31 1c 37 bd 2d 6d 82 ba b4 c9 8c bd
       0.038421724 -0.04470462 -0.000995075 -0.06874409
0000d0 cc 9d e7 3d 4a 08 53 bd 90 0c b7 3c 38 14 12 3d
       0.11309394 -0.051521577 0.022344857 0.035663813
0000e0 cc c4 ee bb 7f 30 e9 3b d0 e2 62 3c e9 fc 1e bd
       -0.0072866436 0.007116377 0.013848022 -0.038815413
0000f0 c5 b7 47 3d 4c 3a 61 bd f1 d4 04 3b 42 1f a2 3d
       0.04875924 -0.054987237 0.0020268525 0.07916118
000100 80 f1 80 bd fd 11 c8 bc f9 ed 53 bd e8 e7 96 3d
       -0.062960625 -0.02442264 -0.05174062 0.07368451
000110 e4 ee a4 bd b0 cc 57 bd 30 0e 0d 3d a9 34 2a bd
       -0.08053377 -0.05268544 0.03443736 -0.041554127
000120 04 60 00 bd 8c a6 d2 bc f4 6d 1f bd ff 9f a7 bd
       -0.031341568 -0.025714181 -0.03892322 -0.08184814
000130 b1 85 36 be 51 30 75 bc 66 82 83 3d 0b 45 3a 3d
       -0.17824437 -0.014965133 0.06421356 0.045476
000140 65 dc 16 bd fd 4c 41 3c e7 53 00 3b aa f5 c9 3b
       -0.03683128 0.011798141 0.001958126 0.0061633186
000150 ae 05 63 be ad ea e4 bc d6 ca a8 3c 2d 4e 9e bd
       -0.22170135 -0.027943933 0.020604532 -0.077297546
000160 8f 8b 05 3d 82 da de bc 8c 51 02 bd 3d a6 0e 3d
       0.032603797 -0.027203802 -0.03181605 0.034826506
000170 7a 2f e1 3c 2f d0 e1 bc 0a 43 22 bd 6d 0f 04 be
       0.027488459 -0.02756509 -0.039614715 -0.1289651
000180 69 cb 3f bd 35 2f 64 bd b3 11 fb 3d 89 5b 55 bd
       -0.046824846 -0.055709083 0.12259235 -0.052089248
000190 29 83 5f 3d 98 82 78 bd 31 6c b1 3b 6f 1d 03 bd
       0.054568443 -0.06067142 0.0054145087 -0.032010492
0001a0 a5 a8 7d bc e7 b9 82 3d a0 3b 0e bd 4d 73 a7 bb
       -0.0154821025 0.06383114 -0.03472483 -0.0051101805
0001b0 77 2a 4a 3d 73 86 90 bd 38 50 29 bc 5e c7 ff bc
       0.049356904 -0.07056894 -0.010334067 -0.031222995
0001c0 2b c0 75 bd f0 0a a1 bd 0c de 7a bc ca 0c 01 bd
       -0.05999772 -0.07863414 -0.015311729 -0.031506337
0001d0 b4 4c 87 bd 36 0f 88 bd 38 6e a8 3c 0d 65 9f bd
       -0.06606427 -0.06643526 0.020560369 -0.07782946
0001e0 b1 ba f2 bd ca ce c5 bb fb be 11 3d f1 54 61 bd
       -0.11852015 -0.006036614 0.035582524 -0.055012647
0001f0 35 74 fa bc 41 2c 97 bd 57 c0 9e 3b 12 63 55 bd
       -0.03057299 -0.07381488 0.004844706 -0.052096434
000200 59 57 0a 3d 12 72 8e 3d 5f 02 78 3b 8b 8a 94 3c
       0.033774707 0.06955351 0.003784321 0.018132469
000210 d5 36 38 bc 6e 81 b9 bc 5a fc 3d 3c b6 ba 9d bc
       -0.011243542 -0.022644725 0.01159581 -0.01925407
000220 72 0e a8 bd 84 c7 a7 3c 84 3f b5 bc e3 42 dc 3c
       -0.0820588 0.020480879 -0.022125013 0.026887363
000230 88 36 4b bd f0 ca ff bc b8 81 48 bd d5 fc 22 3c
       -0.049612552 -0.031224698 -0.048951834 0.009947975
000240 0f f0 7a bd 61 a3 4d bd b8 8e 9f bd 79 5c d2 bc
       -0.061264094 -0.05020464 -0.07790893 -0.02567886
000250 04 ac 86 ba 96 5a 0b ba 7e 8d 98 bd 0a 22 38 bd
       -0.0010274653 -0.00053159276 -0.074488625 -0.044954337
000260 fa 0e 41 3d 3c 37 18 3c b1 7c 9a bd 74 44 87 bc
       0.047133423 0.009290513 -0.07543314 -0.016512133
000270 56 fb 11 bd 9a 95 89 bc 9e 66 40 bd f6 e5 e2 3c
       -0.035640083 -0.016794968 -0.046972863 0.027697545
000280 8d 6f ec bc e9 00 47 ba 2f b3 db bc f3 d1 3c be
       -0.028861785 -0.0007591383 -0.02681884 -0.18439464
000290 cd bc 8c 3d e8 e1 0d bd f1 3a ee bd 3f 57 68 bd
       0.068719484 -0.03463927 -0.11632336 -0.05672383
0002a0 ec aa 76 bd 16 b3 ae bd 24 48 8a bd 31 b1 86 bb
       -0.060221598 -0.08530252 -0.06752041 -0.0041104783
0002b0 0f d1 9e bc 08 43 9e 3d 38 b9 2f bb ed 5f 12 3d
       -0.019386796 0.07727629 -0.002681328 0.035736013
0002c0 12 65 b5 3d 10 86 10 3d 23 f1 b7 bd 98 59 7e bd
       0.08857168 0.035284102 -0.0898154 -0.062097162
0002d0 bb 72 2b 3d 6e 60 16 bd 3e cf c4 3b 2d ce 66 3d
       0.041857462 -0.036713056 0.0060061505 0.05634897
0002e0 c7 e9 8d 3c d9 3b b7 3c 73 55 f4 bc ee 0d 11 bd
       0.017323388 0.022367405 -0.029825902 -0.035413675
0002f0 be 75 22 bd 80 4b 75 bd 23 62 8b 3b 4d da 8c 3d
       -0.03966307 -0.059886456 0.004253642 0.06877575
000300 dd e5 83 bd e9 65 9b 3c 35 8e a9 3d 77 35 e8 bc
       -0.06440327 0.018969493 0.08279077 -0.028345807
000310 7c c0 f9 bc af 5c a4 3d 5e ce fe bb 7a 1d b9 bc
       -0.030487292 0.080254905 -0.0077760657 -0.022597063
000320 3c 30 75 bd 35 7e 46 3d f4 9a 5f bd 97 f9 87 bd
       -0.059860453 0.048460204 -0.054591134 -0.06639402
000330 43 c5 00 be d6 2f c1 bd f4 3d 53 3d ff cb 19 ba
       -0.1257525 -0.09432952 0.051572755 -0.00058668846
000340 98 04 fe 3c 4f d1 d2 bd 9e fb 0a bd 47 fe 78 3c
       0.03100805 -0.10293829 -0.033931367 0.015197343
000350 ff 25 27 bd a6 80 0f be f1 8c 9a 3c c5 d9 6c 3c
       -0.04080772 -0.14013919 0.018866034 0.014456217
000360 4f 5e 58 3d 39 93 ce 3d c1 99 79 bc cd 55 a2 bc
       0.052824315 0.10086674 -0.015234412 -0.019816304
000370 1f 23 6b 3d c0 f3 ac bd bb 50 36 bc 4a 9c 1d b8
       0.05740654 -0.08444929 -0.011127646 -3.7577272e-05
000380 8d cd 8f bb 63 ee b6 bd 4a d1 00 bd be e9 65 3d
       -0.0043885172 -0.089321874 -0.031449594 0.056131117
000390 ec 7d 9f bd 19 03 47 be b5 53 1e bd 4b 6a 75 3c
       -0.077876896 -0.19434775 -0.038654048 0.0149789555
0003a0 80 50 43 3d 15 eb a3 3d bd 24 52 bc 07 56 62 bd
       0.047684193 0.08003823 -0.012826142 -0.055257823
0003b0 44 df 9d bc 62 bb 3e bc 99 9c 5c bd f6 dd 46 bd
       -0.0192715 -0.011641355 -0.05386028 -0.048551522
0003c0 b8 ab e0 bd 21 8f b5 bd 13 8e 20 bd 8f 3d 1a bd
       -0.10970253 -0.0886519 -0.039197993 -0.037656363
0003d0 5d a5 02 bc 56 ff 90 bc 49 9a 0b bd 9e 6c eb bc
       -0.007973996 -0.017699879 -0.034082685 -0.028738316
0003e0 b2 b4 1d 3d 69 ca 4a bd ff 1b 7d bd 21 8a 52 bd
       0.038502403 -0.04950944 -0.061794277 -0.05140126
0003f0 a9 5e 49 3d 78 38 32 bd 49 ea 47 bc 08 ac 1f bd
       0.04916254 -0.043510884 -0.012201854 -0.03898242

actor_out.weight f4 [12, 256]
000000 5f 4f dc bb b5 39 ab 3d c7 ed d0 3d c8 1f 81 be
       -0.006723329 0.08360616 0.102016024 -0.2521956
000010 b7 46 26 bd cc fd 66 3e e7 17 f7 3c 8b f9 a6 be
       -0.040594783 0.22557753 0.030162765 -0.3261226
000020 86 88 41 be 19 8f 6a 3e 8a 35 15 3e 2c ff 46 3d
       -0.18899736 0.2290615 0.14571205 0.048583195
000030 18 95 40 be f0 65 2a 3d a1 cc 19 be 87 d7 82 be
       -0.18806875 0.04160112 -0.15019466 -0.2555506
000040 30 97 a2 3d 38 6b 5c bc f2 26 cd 3d a2 c1 0e 3e
       0.07938993 -0.013453297 0.10017194 0.13941053
000050 5f d7 f2 3c 6c d4 6c 3e f7 f5 fb 3e f8 00 61 3e
       0.029643713 0.23127908 0.49211094 0.21973026
000060 a1 d5 cb 3e 41 55 cd 3e 01 61 c1 bd 70 2f 80 3e
       0.39811423 0.40104106 -0.0944233 0.25036192
000070 ee ee 20 3f 32 91 05 bd e4 7e 8c 3d c5 8e d4 bd
       0.6286458 -0.032609172 0.0686014 -0.103787936
000080 2e 2a 8a be ef d2 2d be 19 4c 4a bd 38 02 82 be
       -0.26985306 -0.16974996 -0.04938898 -0.25392318
000090 cd 81 4b bc f7 c5 e0 bd 5e be 9c bd 05 fb e0 3c
       -0.012421084 -0.10975259 -0.07653497 0.027463445
0000a0 8e 57 bd 3e 1a 56 86 be ac 78 8a 3e ca 4b 2f 3e
       0.3698086 -0.26237565 0.2704519 0.17118755
0000b0 09 75 c3 bd 59 c0 03 3e a5 b1 9c 3d 43 2b 2a 3d
       -0.09543807 0.12866344 0.076510705 0.041545164
0000c0 78 c5 53 bd 45 03 43 be 2b be 8e 3f 45 9e 2d 3e
       -0.051701993 -0.19044216 1.1151785 0.16954906
0000d0 c7 75 fe bd af b2 5f 3e f5 01 65 be a7 b5 d2 3e
       -0.12424808 0.21845506 -0.22364028 0.41154215
0000e0 4f 3f 82 be a3 ea 9f 3e 44 5f 29 be b6 6f ec 3d
       -0.25438926 0.312337 -0.16540247 0.11544745
0000f0 b2 7e 1a 3e 6d 5f f4 3e d5 5e b0 be 69 ab 0b be
       0.15087393 0.47729054 -0.3444735 -0.13639607
000100 bc 1b 1d 3e 5a 19 41 be 5d 27 88 be b0 cc ec 3e
       0.15342611 -0.18857327 -0.26592532 0.46249914
000110 08 0c 19 3e 9d bd 43 3e 9b 8b 9c 3e 06 fe 22 3e
       0.14945996 0.191153 0.3057526 0.15917215
000120 c4 56 f5 3c 2c 82 4f 3d ce 9f 75 bd 19 ed 0d bf
       0.0299486 0.05066125 -0.059966855 -0.5543991
000130 37 99 c9 bc f9 6e c5 3d a2 fb c7 be 99 0c 70 3e
       -0.024609191 0.09640307 -0.39059168 0.23442306
000140 a5 ee 2a 3f 7f 7c 80 bd 54 53 1a 3e 5f 53 8d 3e
       0.6677039 -0.06273746 0.1507085 0.2760267
000150 37 13 b6 bb bd 62 85 bc 7c 77 26 be ef 12 ad be
       -0.00555649 -0.016282434 -0.16256517 -0.33803508
000160 bb 4f 25 3e 24 39 5a be 36 d4 0e bc 78 6b b1 3d
       0.16143696 -0.2131086 -0.008717587 0.08663076
000170 26 75 0a bd 9c 2c be 3d 6b 2b e4 be a7 a6 e2 3d
       -0.033803128 0.09285852 -0.44564375 0.11066943
000180 4a 86 8a 3a 48 c2 41 3e 11 4e ae 3d 8e 41 60 be
       0.0010568586 0.18921769 0.08510984 -0.21900007
000190 50 92 4e 3d 5b a1 35 bd c3 0a c3 3e 69 25 db 3e
       0.050432503 -0.044343334 0.38094148 0.4280198
0001a0 51 0d db be af 0d 57 bd 68 ec 6e 3e 85 42 20 3f
       -0.42783597 -0.052503284 0.2333237 0.626015
0001b0 48 7c 8e 3c 6b dc 08 3e 24 ae b7 3a fb ec 3c 3d
       0.017393246 0.13365333 0.001401369 0.04612444
0001c0 bc ac c3 3d 95 af 07 3d 5b 26 09 bf cf e8 2a 3e
       0.09554431 0.033126432 -0.5357415 0.16690372
0001d0 23 de d2 3d b0 c8 1a 3e 67 3d 55 be 30 5d 9a be
       0.102962755 0.15115619 -0.20824204 -0.3014922
0001e0 e3 92 f6 3c ea 55 99 3d 6b 6b ab be 5e 9b c1 be
       0.030099338 0.0748709 -0.3348039 -0.37813848
0001f0 50 a2 0c be 2b 4d a3 3e 49 c0 eb 3c 67 2d 10 3d
       -0.13733792 0.31894812 0.028778212 0.03519955
000200 c7 c2 b4 be d1 fe 22 bf 4d fd 8d bd cb 66 ce be
       -0.35304853 -0.6367007 -0.06933079 -0.403128
000210 88 48 38 bd cc a9 ad 3e 2a 61 dc bd 4a 3c c4 be
       -0.044991046 0.33918607 -0.1076072 -0.38327247
000220 71 a8 e1 3d aa 02 dc bd 8e ce 4d be 5d 29 7f 3c
       0.11018456 -0.10742696 -0.20098326 0.015573827
000230 3a 70 91 be 67 8c a9 3d 0f e8 4e be 92 59 03 bf
       -0.28405935 0.08278733 -0.20205711 -0.5130855
000240 83 43 bd be e2 c5 8b bd 91 4b 29 be ca 5a 0c be
       -0.3696557 -0.068248525 -0.16532733 -0.13706508
000250 41 c0 87 3e f9 8d 96 3d 55 c1 6b bc d6 d1 92 bd
       0.26513866 0.07351298 -0.014389356 -0.07168929
000260 fe 1a 51 bd 83 d0 fa ba b4 bc 45 bf 5b e5 68 be
       -0.051051132 -0.0019135628 -0.77241063 -0.22743742
000270 22 da 15 3d f1 38 ea bc 99 9d 1d 3d f7 be 90 be
       0.03658498 -0.028591605 0.038480375 -0.28270695
000280 2d a8 bc 3d 85 09 46 be d9 a3 72 bd 3d 47 ad 3e
       0.092117645 -0.19339569 -0.05923829 0.33843413
000290 16 0f b8 3e 18 54 f9 3d 9b 0d 0f be 38 5a 9e bc
       0.3594901 0.12174243 -0.13970034 -0.019330129
0002a0 6e 6c 7b 3e 42 b0 55 3e 1d 8b f6 bd 3d dd 28 3e
       0.24553081 0.20868018 -0.120382525 0.16490646
0002b0 a4 fb 4c bd e2 bc 96 bd 55 94 d0 3e de 07 e5 bd
       -0.05004467 -0.07360245 0.40738168 -0.11183141
0002c0 df 9c 02 bf 7f d7 ae 3e c4 80 dc be 67 9e f6 3d
       -0.51020616 0.34148785 -0.4306699 0.120419316
0002d0 b7 43 ae 3d 7d 83 b8 bd c4 8f 7d 3e 54 cf 61 3e
       0.08509009 -0.090094544 0.24761873 0.22051746
0002e0 0e 9d 82 be 11 30 81 3e ce c0 48 3d d3 44 ca 3d
       -0.25510448 0.25231984 0.049011998 0.098764084
0002f0 3e f7 4b 3b 67 34 25 be dc 86 9d 3e f6 d7 47 3e
       0.003112271 -0.16133271 0.30766952 0.19515976
000300 67 7e 2b 3e 63 80 c0 3e e1 d3 85 3e 1f 32 07 3d
       0.16747437 0.3759795 0.26138213 0.033006784
000310 b3 5f 5b 3e 81 2c a8 bd 63 97 bb 3e 3d b9 c8 bd
       0.21423225 -0.082116134 0.36638936 -0.098009564
000320 ea d0 cc 3d ab a4 3e 3c bf fe fb 3e c5 1c ae 3d
       0.10000785 0.01163594 0.49217793 0.08501581
000330 0c 67 20 bd e2 8b bc be 42 66 c3 3e dc 08 4b be
       -0.039160773 -0.36825472 0.38163954 -0.19827598
000340 5e a2 35 bf db 02 bd 3e 0d 65 4d 3c b0 16 9b 3e
       -0.7095088 0.3691624 0.012536299 0.30290747
000350 af 56 57 be 4a d2 5b be cf 5e d6 3d fd 60 3e 3e
       -0.21029161 -0.21466938 0.10467302 0.18591686
000360 95 af 5e be d4 bd 49 bc ff 8f 9c 3c 75 72 e5 3e
       -0.21746667 -0.012313325 0.019111631 0.44813886
000370 ac ee e1 3d df 8a 8a 3d 9e 7b 22 be bb 31 a1 3e
       0.11031851 0.06764769 -0.15867469 0.31483254
000380 d9 fb f5 bc 03 7f 45 be 15 32 b2 3e 52 24 fe 3d
       -0.030027317 -0.19286732 0.34803835 0.12409271
000390 f1 b2 04 bd a7 5e 26 be 01 e1 99 bd 27 fb ef 3c
       -0.032397214 -0.16247045 -0.07513619 0.029294563
0003a0 3a 25 ea 3d 5f c9 64 3e 7d ad 1b bf ba bb 00 be
       0.11432882 0.22342442 -0.608116 -0.12571612
0003b0 bd 89 66 3e f9 29 e5 be e1 d3 0e 3e 87 8e 5a bd
       0.2251348 -0.44758585 0.13948013 -0.05335858
0003c0 73 09 6f bb 8b 78 b2 3e dc 63 5d bc 62 62 04 bf
       -0.0036474138 0.34857592 -0.013512578 -0.5171262
0003d0 75 f4 d8 bd d0 d7 d5 be d6 fc e4 3d 0b a6 47 bc
       -0.105935015 -0.41766214 0.11181037 -0.012185584
0003e0 c7 74 2c be 99 c6 60 3e b4 a6 eb bd 19 22 0e 3e
       -0.16841422 0.21950759 -0.115064055 0.13880195
0003f0 a5 62 ac 3e 69 95 c5 be 53 37 1c 3e 3d be 41 3e
       0.3366901 -0.38590553 0.1525548 0.18920226

actor_out.bias f4 [12]
000000 01 39 9d 3d a2 50 90 bd 0d 2b c6 3c 3b 72 88 3d
       0.07676888 -0.070466295 0.02419045 0.06662413
000010 42 20 c9 bd ad 63 68 3b 34 3e 17 3c ea 54 ae bc
       -0.09820606 0.0035459802 0.009231139 -0.021280725
000020 4f 72 a8 bd c8 35 36 3d f1 98 f3 3c 30 b7 73 3d
       -0.08224928 0.044484884 0.029736014 0.059500873
