networks/saved_model/ppo_model_ep300.pth (torch, 840050 bytes, 11 tensors)

shared_fc1.weight f4 [256, 31]
-0.18675403 0.23166658 0.15174137 0.049940743 0.0553914 0.11013235 -0.0928689 -0.03859491
0.18531077 0.07375007 0.17991938 0.034459002 -0.09367194 0.0037163286 -0.07252862 -0.10851127
-0.0097870035 -0.41130844 0.108152725 1.4139819 -0.19750561 -0.30515775 -0.09368876 0.059164204
-0.036016326 0.024670752 0.06944298 0.037126906 -0.08864894 0.011410875 0.076709904 0.06483483
0.11518018 -0.016786514 0.08859541 0.027181586 -0.105721086 0.06536843 -0.097562276 0.18468247
-0.062433995 0.0080699455 0.13564272 -0.02966885 -0.028462905 0.0580385 0.032562666 -0.07373946
0.11610427 0.21213105 -0.28207374 -0.6635972 0.11999917 0.11942975 0.1646144 -0.10685634
0.051323164 -0.08621558 0.0033685232 0.004933152 -0.022506393 0.08641329 0.062496774 -0.09630186
-0.08614233 -0.14574425 -0.31777906 -0.08803899 -0.08789363 -0.12119682 -0.056363303 0.05102038
-0.16833062 0.08422064 -0.0716165 -0.085749306 0.019309804 0.07651643 -0.008836551 0.3124773
-0.13992055 -0.2291291 0.19355346 0.11961658 -0.0016254509 -0.06569732 -0.16196924 -0.16511975
0.050548065 -0.06833469 0.021755464 -0.08153 0.029552989 0.15586862 -0.07499036 0.0026573266
-0.019516505 -0.14687021 -0.13776001 -0.057552557 -0.030810602 -0.1217878 0.2554881 -0.44005373
0.3271528 -0.120809965 0.16107497 0.13908611 0.015595669 -0.012795356 0.07384689 -0.06153297
0.34446862 -0.006223819 0.35978436 -0.12849115 0.05635824 -0.014993901 -0.12018824 0.0047160373
0.05694286 0.1272997 -0.009923507 0.05273446 -0.25387615 0.18431723 0.0584881 -0.026438816
-0.1252819 0.22623308 -0.0837949 0.090698294 0.19004196 0.05216849 0.19737765 0.08261859
0.004931043 -0.023756754 0.07734782 -0.12525064 -0.12358362 -0.043466624 -0.10064958 0.055606212
-0.6159274 0.34456295 -0.084829986 0.0741223 -0.05204924 -0.06969024 -0.025411677 0.042465832
-0.0049496936 -0.05491595 0.11586702 0.0025549696 -0.06373233 -0.014178257 -0.18966214 0.021020915
-0.080955856 -0.22122666 -0.20975143 -0.3238281 -0.00782907 -0.025038717 0.08519094 -0.09722848
0.00171036 0.065635234 0.15665422 0.11235216 0.18359625 -0.118695825 -0.5777368 -0.084871314
-0.3767037 -0.058547262 0.13471885 -0.12143835 -0.21264462 -0.04069111 0.0044939257 0.051314726
-0.018404214 -0.025716115 -0.30940542 -0.016722674 0.10585683 -0.021558823 -0.061098672 0.19458789
-0.12920198 0.16373262 0.26568133 0.03188476 -0.0709487 -0.043134343 0.097690955 0.1538353
0.2550115 0.08718617 -0.100840084 0.19370429 -0.07170057 -0.37169197 -0.38315827 -0.051515482
-0.037071515 0.005905528 0.29975846 -0.28167602 -0.087833114 -0.054804534 0.14952978 0.09337437
0.14017852 0.054840453 -0.13982789 -0.02906504 -0.08526385 -0.106447846 -0.16022326 -0.1850833
-0.15065044 -0.20216294 0.092970535 -0.123127066 0.1182022 0.028807508 0.0004927921 -0.093044445
0.029049275 0.15823606 -0.027652785 -0.14589268 0.31899595 0.10096123 -0.7095039 0.025032338
0.26377162 0.10532008 -0.23447981 -0.07005332 0.21237133 0.025431966 0.025189558 -0.14307919
-0.18455271 0.10949594 0.13145179 0.22813049 -0.14080974 0.064138114 0.045427434 -0.00035552244
00000000: 733c 3fbe 013a 6d3e 1762 1b3e aa8e 4c3d
00000010: 18e2 623d 128d e13d 0d32 bebd b215 1ebd
00000020: 1bc2 3d3e 470a 973d c93c 383e e224 0d3d
00000030: 13d7 bfbd a68d 733b e389 94bd 283b debd
00000040: ab59 20bc 0597 d2be 2d7f dd3d 5cfd b43f
00000050: e93e 4abe a33d 9cbe e5df bfbd 2a56 723d
00000060: db85 13bd 511a ca3c 1f38 8e3d 6212 183d
00000070: 938d b5bd aef4 3a3c 151a 9d3d 20c8 843d
00000080: 96e3 eb3d df83 89bc 8371 b53d ebab de3c
00000090: 4c84 d8bd e2df 853d bbce c7bd 671d 3d3e
000000a0: caba 7fbd ce37 043c ede5 0a3e 170c f3bc
000000b0: 0a2b e9bc c7b9 6d3d 6e60 053d b704 97bd
000000c0: 13c8 ed3d e238 593e f86b 90be 82e1 29bf
000000d0: 20c2 f53d 9697 f43d ad90 283e 7fd7 dabd
000000e0: 3d38 523d cb91 b0bd 71c2 5c3b 47a6 a13b
000000f0: 545f b8bc 73f9 b03d 9efc 7f3d e939 c5bd
00000100: 646b b0bd fb3d 15be f0b3 a2be c94d b4bd
00000110: 9301 b4bd 0a36 f8bd 35dd 66bd bffa 503d
00000120: dd5e 2cbe df7b ac3d acab 92bd 559d afbd
00000130: 982f 9e3c a5b4 9c3d 2ec7 10bc 06fd 9f3e
00000140: 5547 0fbe d2a0 6abe e132 463e 8af9 f43d
00000150: 150d d5ba 518c 86bd 44db 25be 2715 29be
00000160: 7d0b 4f3d 0ff3 8bbd 8438 b23c 33f9 a6bd
00000170: 1c19 f23c 069c 1f3e 8c94 99bd 8b26 2e3b
00000180: 14e1 9fbc 2565 16be f610 0dbe 3bbc 6bbd
00000190: 8466 fcbc e26b f9bd 56cf 823e b94e e1be
000001a0: 9280 a73e 376b f7bd d6f0 243e 976c 0e3e
000001b0: fa84 7f3c 9da3 51bc 0a3d 973d ff09 7cbd
000001c0: 315e b03e 2ef1 cbbb a835 b83e 2f93 03be
000001d0: e6d7 663d fba8 75bc 4125 f6bd fd88 9a3b
000001e0: eb3c 693d da5a 023e 3596 22bc 1700 583d
000001f0: 0efc 81be a8bd 3c3e 3891 6f3d 3796 d8bc
00000200: e649 00be a5a9 673e a99c abbd 07c0 b93d
00000210: 5c9a 423e a0ae 553d 5e1d 4a3e ef33 a93d
00000220: 9694 a13b 869d c2bc 8968 9e3d b441 00be
00000230: 6919 fdbd 0f0a 32bd 5e21 cebd 57c3 633d
00000240: 6bad 1dbf 8e6a b03e 58bb adbd 6fcd 973d
00000250: 9531 55bd c2b9 8ebd 262c d0bc a7f0 2d3d
00000260: 0a31 a2bb 8cef 60bd b04b ed3d 4771 273b
00000270: 1986 82bd ec4b 68bc cb36 42be 0e34 ac3c
00000280: 2fcc a5bd 3e89 62be 14c9 56be cccc a5be
00000290: 8045 00bc ff1d cdbc 9678 ae3d ba1f c7bd
000002a0: 292e e03a c46b 863d f769 203e e418 e63d
000002b0: a800 3c3e cc16 f3bd 8fe6 13bf 03d1 adbd
000002c0: 4fdf c0be 41cf 6fbd bdf3 093e abb4 f8bd
000002d0: 83bf 59be b9ab 26bd c841 933b 642f 523d
000002e0: 6fc4 96bc 9aaa d2bc 636a 9ebe fdfd 88bc
000002f0: 77cb d83d 219c b0bc 9a42 7abd 0c42 473e
00000300: 864d 04be 86a9 273e 6207 883e 9899 023d
00000310: 8d4d 91bd a3ad 30bd 3212 c83d 0087 1d3e
00000320: de90 823e aa8e b23d 3f85 cebd 6b5a 463e
00000330: c0d7 92bd 694e bebe 522d c4be e601 53bd
00000340: 4dd8 17bd 2983 c13b f179 993e d737 90be
00000350: d9e1 b3bd b87a 60bd 561e 193e 103b bf3d
00000360: f58a 0f3e 62a0 603d 0b2f 0fbe cf19 eebc
00000370: d09e aebd 5401 dabd 9111 24be 7a86 3dbe
00000380: 1c44 1abe cd03 4fbe 5667 be3d 0b2a fcbd
00000390: ff13 f23d b9fd eb3c b82e 013a 168e bebd
000003a0: bff8 ed3c a208 223e 1888 e2bc e464 15be
000003b0: 7053 a33e c3c4 ce3d 0ca2 35bf 9e10 cd3c
000003c0: 130d 873e 0eb2 d73d 7a1b 70be 1d78 8fbd
000003d0: df77 593e b356 d03c 555a ce3c 5a83 12be
000003e0: 63fb 3cbe 683f e03d 4c9b 063e 0a9b 693e
000003f0: 6e30 10be d85a 833d 1e12 3a3d 6a65 bab9

shared_fc1.bias f4 [256]
-0.03784157 0.02945837 -0.13774408 -0.0023214407 -0.035834987 -0.07408466 0.017186945 -0.01674509
0.037475687 0.021424294 -0.003130282 -0.09376483 -0.003564529 -0.038011782 0.06138592 0.021051724
0.028888388 0.055112872 0.040394064 -0.014083937 -0.014474992 -0.011980383 -0.20126046 -0.29691052
-0.01171848 -0.009518395 -0.040154193 -0.012370056 -0.091486506 0.035222255 -0.12625495 0.0042635147
0.028565647 -0.023789192 -0.01610656 -0.004612079 0.06217075 -0.023915451 -0.0490545 0.058693293
-0.09525509 -0.026691059 0.03159652 -0.03319182 -0.01388183 -0.01439137 0.056164455 0.017697027
0.054039095 -0.00199378 0.041620925 0.051784977 -0.0033570258 -3.5639026e-05 0.067096926 -0.086546466
0.008127444 -0.0060086534 0.025256483 0.013769142 -0.030047871 0.032529153 0.019893086 -0.007149317
-0.00982611 0.003608013 -0.0038424542 -0.07614498 -0.0072551165 0.0069011324 0.0082729645 0.044558913
0.021864543 -0.030563982 -0.061628576 0.019622946 0.012357798 0.0017528759 -0.067140125 -0.02380231
-0.03462201 0.013307819 0.03093609 0.09739884 -0.008730365 0.00032454837 -0.04115043 0.020848796
0.000977347 0.04072312 -0.058524523 0.08777547 0.05710764 -0.03717218 -0.02266884 -0.081434816
-0.016335828 0.0020165911 -0.025320288 0.083379574 -0.012368154 -0.0014856176 0.041158244 0.029015735
-0.04626819 0.03879487 0.0001987032 0.0067126327 -0.0048040217 0.038260024 -0.043864552 0.04248013
-0.001364784 0.012910069 -0.1542122 0.013201987 -0.030017212 -0.0055106906 0.013551002 0.03269605
0.04240018 0.028986355 -0.0744088 0.023093598 0.018805584 -0.038408723 -0.0067760213 -0.0074232514
-0.052139074 -0.057280984 0.008776505 0.011728975 0.06245562 0.06503168 0.038965907 -0.014439946
-0.1595616 0.018187346 0.0031983696 0.009166101 0.04091627 -0.014058444 -0.020481925 0.059026375
-0.0060370313 0.0404027 -0.029874789 -0.014799452 0.0008055342 0.06659388 0.023903148 -0.00017380907
0.06716095 -0.21213254 0.028150357 0.010373814 -0.019120876 0.002144756 0.01897016 0.117491074
-0.037663877 0.030660206 0.08186918 -0.22332115 0.0061632157 0.03524796 -0.0024570313 -0.04093515
0.00800733 -0.044654798 -0.05752395 -0.016422164 6.073316e-05 0.079023756 -0.0063828337 -0.011465833
-0.02052629 0.010991435 -0.031803004 0.023264794 0.0064199916 0.03763543 -0.024327941 -0.004453139
0.06477183 0.036636066 0.0068869297 0.042663496 -0.012829441 0.05865539 -0.06912266 0.010321495
0.027017245 -0.011375783 -0.03517253 -0.027655423 -0.096025966 -0.07099101 -0.019989368 -0.07775714
0.017476736 0.0397072 -0.01938255 -0.014564763 -0.14172393 -0.026264299 0.0259623 -0.020227225
0.005608308 -0.002106566 0.0027255367 0.019460319 -0.021407861 0.02804757 -0.00666856 -0.0026640426
-0.01155818 0.018030198 -0.11409578 -0.03739023 -0.0039490825 -0.053114995 -0.116428755 0.064703666
0.024297917 0.016479863 0.023965893 0.0076551926 0.015724083 -0.07630693 -0.03865158 0.03350647
-0.02624431 0.019247862 0.006233783 0.025192453 -0.0025930456 0.024072867 0.06350538 -0.1775013
-0.07899948 -0.08932357 -0.024369992 -0.007570836 0.049036518 -0.1112848 -0.018695636 -0.037454322
-0.035289306 0.026353618 -0.0055743833 0.03093022 -0.0018552187 -0.12922062 0.04591538 0.020003842
00000000: c3ff 1abd ae52 f13c c90c 0dbe 5023 18bb
00000010: b5c7 12bd b3b9 97bd a3cb 8c3c 002d 89bc
00000020: 1b80 193d 0082 af3c 6b25 4dbb c607 c0bd
00000030: df9a 69bb 3eb2 1bbd cd6f 7b3d aa74 ac3c
00000040: 57a7 ec3c 09be 613d 3f74 253d 50c0 66bc
00000050: 8428 6dbc 5e49 44bc 3917 4ebe a804 98be
00000060: defe 3fbc 0bf3 1bbc b978 24bd c6ab 4abc
00000070: 475d bbbd 3645 103d fa48 01be f4b4 8b3b
00000080: 8102 ea3c 8de1 c2bc e8f1 83bc ec20 97bb
00000090: c2a6 7e3d 56ea c3bc 5fed 48bd 6168 703d
000000a0: 1a15 c3bd 35a7 dabc 5a6b 013d 25f4 07bd
000000b0: 9d70 63bc c8c9 6bbc b30c 663d 5bf9 903c
000000c0: 1958 5d3d 14aa 02bb b47a 2a3d 7c1c 543d
000000d0: 8c01 5cbb 1d7b 15b8 1d6a 893d 463f b1bd
000000e0: f928 053c 3de4 c4bb afe6 ce3c f897 613c
000000f0: f426 f6bc 4a3d 053d d3f6 a23c d144 eabb
00000100: b1fd 20bc 6a74 6c3b afd1 7bbb e6f1 9bbd
00000110: 54bc edbb e522 e23b 548b 073c 6883 363d
00000120: 451d b33c 5161 fabc 3f6e 7cbd 4dc0 a03c
00000130: 5d78 4a3c c1c0 e53a c380 89bd 10fd c2bc
00000140: cfcf 0dbd 0a09 5a3c af6d fd3c 0b79 c73d
00000150: ce09 0fbc 2528 aa39 5a8d 28bd 18cb aa3c
00000160: 531a 803a 49cd 263d 69b7 6fbd a0c3 b33d
00000170: b3e9 693d db41 18bd 01b4 b9bc 4cc7 a6bd
00000180: b7d2 85bc c928 043b 7e6c cfbc e9c2 aa3d
00000190: cca3 4abc 0eb9 c2ba 8c95 283d 68b2 ed3c
000001a0: b783 3dbd 5fe7 1e3d fc5a 5039 a5f5 db3b
000001b0: 0e6b 9dbb 8bb6 1c3d 51ab 33bd a5ff 2d3d
000001c0: 8de2 b2ba c184 533c cee9 1dbe 264d 583c
000001d0: a8e6 f5bc 0693 b4bb 0605 5e3c 4bec 053d
000001e0: d0ab 2d3d cb74 ed3c a463 98bd c92e bd3c
000001f0: 2b0e 9a3c 7752 1dbd 6309 debb bf3e f3bb
00000200: c88f 55bd 779f 6abd 54cb 0f3c e32a 403c
00000210: 77d1 7f3d 542f 853d b79a 1f3d 8695 6cbc
00000220: 1e64 23be a1fd 943c bd9b 513b 6a2d 163c
00000230: d297 273d 6355 66bc b6c9 a7bc a4c5 713d
00000240: 4ad2 c5bb 4d7d 253d f9bb f4bc 6779 72bc
00000250: 7c2a 533a 5f62 883d 89d0 c33c 8440 36b9
00000260: ae8b 893d 4639 59be 949b e63c eef6 293c
00000270: 62a3 9cbc 098f 0c3b 4f67 9b3c 299f f03d
00000280: 7045 1abd 1d2b fb3c 07ab a73d 4dae 64be
00000290: cdf4 c93b 2a60 103d 2506 21bb 9eab 27bd
000002a0: 2d31 033c f3e7 36bd 3c9e 6bbd c687 86bc
000002b0: bcbb 7e38 35d7 a13d 1727 d1bb 30db 3bbc
000002c0: c026 a8bc 6b15 343c de43 02bd cf95 be3c
000002d0: cb5e d23b 9c27 1a3d 644b c7bc a3eb 91bb
000002e0: 18a7 843d b30f 163d c1ab e13b ebbf 2e3d
000002f0: 9332 52bc a240 703d 2e90 8dbd 7d1b 293c
00000300: 4553 dd3c 7e61 3abc 1211 10bd a08d e2bc
00000310: 43a9 c4bd bc63 91bd bec0 a3bc 233f 9fbd
00000320: 5f2b 8f3c 04a4 223d 27c8 9ebc 0ba1 6ebc
00000330: 1420 11be 3a28 d7bc e4ae d43c 91b3 a5bc
00000340: e6c5 b73b 500e 0abb eb9e 323b 3f6b 9f3c
00000350: 8a5f afbc 04c4 e53c f083 dabb 3897 2ebb
00000360: 855e 3dbc 11b4 933c 0cab e9bd 7f26 19bd
00000370: 4e67 81bb 1c8f 59bd 3372 eebd 5b83 843d
00000380: 6d0c c73c c700 873c 1f54 c43c 69d8 fa3b
00000390: cbcf 803c cf46 9cbd 1f51 1ebd 153e 093d
000003a0: 4ffe d6bc b1ad 9d3c c344 cc3b 6760 ce3c
000003b0: 16f0 29bb 7634 c53c 1c0f 823d e7c2 35be
000003c0: 7bca a1bd 47ef b6bd 94a3 c7bc c714 f8bb
000003d0: 84da 483d 49e9 e3bd 9727 99bc b469 19bd
000003e0: 858b 10bd 8be3 d73c 51a9 b6bb 5f61 fd3c
000003f0: cf2a f3ba 6952 04be c411 3c3d 19df a33c

shared_fc2.weight f4 [256, 256]
0.017363712 -0.020592416 -0.086071566 0.045719676 -0.08985746 0.049723838 -0.10502521 -0.11779883
-0.1108144 -0.03708824 0.067526825 -0.085131794 -0.111402355 0.040120196 0.054657247 -0.050136343
0.09503467 0.09138551 -0.110478856 -0.09886444 -0.029203542 0.0912585 -0.04727664 0.09062953
-0.0054703685 -0.03642428 0.041754767 0.01696322 -0.0067709894 0.073466115 0.07632417 -0.08801673
0.021734156 -0.033240564 -0.1155196 -0.0019822393 0.08024899 0.007430466 -0.042898662 -0.097181946
-0.07941482 -0.10468529 0.0351351 0.02611689 0.050238717 0.0704502 0.07908228 0.07096122
-0.07474707 -0.106483914 -0.06781256 -0.07792026 0.05527794 -0.01606895 -0.11954867 -0.032971255
0.0020558718 -0.050498575 0.007308605 -0.09824671 -0.099192604 -0.101739466 -0.081202015 0.05595009
-0.033010628 -0.06632053 0.09552551 -0.10016812 -0.090438165 0.0103121875 -0.036475774 -0.09121839
-0.025322739 -0.10369998 -0.015112968 -0.02304044 -0.09226434 0.0402327 -0.117823556 -0.09161821
-0.035054814 -0.11839025 -0.06012922 -0.06940624 -0.106190324 -0.060049992 0.030303523 -0.030260852
-0.02229616 -0.06338905 -0.07511037 -0.11228525 -0.006494405 -0.06253656 -0.04843712 -0.09988487
-0.056455176 -0.064837374 -0.05818206 -0.083900675 0.039075036 -0.030088095 -0.06487666 -0.12632254
0.02161951 0.092737526 -0.018745512 -0.053831737 -0.05906119 -0.009519797 0.047070734 0.09494554
-0.033111002 -0.007961577 -0.06072366 0.046672158 0.012175753 -0.034386907 -0.10667947 -0.07022913
0.020373445 -0.0695658 0.021733163 0.100428574 0.010359713 0.047644265 0.051089574 -0.011098236
-0.08436427 -0.08577863 0.015142155 -0.035329524 0.040450208 -0.077736326 0.08769976 -0.018107494
-0.021199824 -0.06553041 -0.112684086 -0.07725602 -0.11444735 -0.0885725 0.07304105 0.011226799
-0.062274646 0.015799472 -0.11946886 0.067907445 0.005918488 -0.080600806 -0.068685666 0.044824082
-0.09056279 0.06217228 0.0738554 -0.105850376 -0.044381868 0.03397467 -0.108582 -0.01171535
-0.06413015 -0.094421536 -0.057998873 -0.08748617 -0.024538526 0.039049774 -0.0934536 0.11072933
-0.07595614 0.0619903 -0.09292916 -0.07197164 0.05308775 0.06884936 0.025945544 0.0777448
-0.07809711 -0.0053117303 0.023675881 0.054722887 0.075652294 0.08845756 -0.04158254 -0.05403153
0.0003620641 -0.024268271 -0.04109784 -0.09662271 -0.09137264 -0.08456759 0.087084055 -0.081785716
0.062162776 -0.068111196 0.019960955 0.06288601 0.01905302 0.08400435 -0.043858837 -0.007987679
-0.016372925 0.024929442 -0.07567618 -0.07494145 0.047243796 0.06515872 0.04691926 -0.023681205
-0.06880093 -0.09504485 0.056581546 -0.083597265 0.032309055 -0.0042301384 -0.039678298 -0.00072011276
0.028636409 0.067446284 0.073158 0.07853335 -0.09598376 0.006589794 0.0795577 -0.09935981
-0.05838404 -0.0497311 0.0050004176 -0.042530302 0.083517246 0.07846145 0.02846155 0.01115745
-0.060749467 -0.02476736 0.0012150992 -0.078428015 -0.046387468 -0.09703017 -0.036766253 0.01635362
-0.035387874 -0.0864624 -0.11049693 -0.08953255 -0.097116075 0.09598273 -0.07607147 -0.05332618
-0.0705438 0.096547656 -0.020065157 0.06992824 0.07876708 -0.06752104 0.053226877 0.05918827
00000000: 583e 8e3c 6db1 a8bc 4a46 b0bd 8e44 3b3d
00000010: 3007 b8bd 39ab 4b3d 7517 d7bd 8340 f1bd
00000020: a9f2 e2bd d7e9 17bd 814b 8a3d 9459 aebd
00000030: eb26 e4bd 1355 243d 47e0 5f3d c45b 4dbd
00000040: 89a1 c23d 5428 bb3d bd42 e2bd 7179 cabd
00000050: 443c efbc bde5 ba3d 26a5 41bd fa9b b93d
00000060: c740 b3bb a031 15bd 0c07 2b3d 73f6 8a3c
00000070: 2ddf ddbb 6775 963d d94f 9c3d 1e42 b4bd
00000080: d40b b23c 4227 08bd 8a95 ecbd 75e8 01bb
00000090: 9559 a43d 447b f33b 82b6 2fbd 5407 c7bd
000000a0: 3da4 a2bd 3e65 d6bd d3e9 0f3d 17f3 d53c
000000b0: 1dc7 4d3d 3248 903d e4f5 a13d 1e54 913d
000000c0: fe14 99bd 3d14 dabd 50e1 8abd a894 9fbd
000000d0: 1f6b 623d 08a3 83bc efd5 f4bd de0c 07bd
000000e0: cebb 063b 98d7 4ebd 067d ef3b 9235 c9bd
000000f0: 7e25 cbbd c85c d0bd 3e4d a6bd ec2b 653d
00000100: 2736 07bd 0fd3 87bd e1a2 c33d f124 cdbd
00000110: a537 b9bd 73f4 283c 9f67 15bd b5d0 babd
00000120: a271 cfbc a860 d4bd 629c 77bc 4ebf bcbc
00000130: 16f5 bcbd 0bcb 243d 7a4d f1bd 54a2 bbbd
00000140: a395 0fbd 9676 f2bd 0f4a 76bd dc24 8ebd
00000150: 507a d9bd fbf6 75bd 183f f83c 9be5 f7bc
00000160: 70a6 b6bc 1ed2 81bd 77d3 99bd cff5 e5bd
00000170: 05cf d4bb 2b13 80bd 0066 46bd 7090 ccbd
00000180: 8b3d 67bd 75c9 84bd 5050 6ebd 1ed4 abbd
00000190: 250d 203d 4f7b f6bc 0ede 84bd b25a 01be
000001a0: 661b b13c 2ced bd3d 3090 99bc ab7e 5cbd
000001b0: 25ea 71bd ecf8 1bbc 3ecd 403d cf72 c23d
000001c0: 679f 07bd 4671 02bc 5fb9 78bd 4e2b 3f3d
000001d0: cf7c 473c 49d9 0cbd c47a dabd 4ad4 8fbd
000001e0: 36e6 a63c 8478 8ebd bf09 b23c 7fad cd3d
000001f0: c9bb 293c a226 433d 4d43 513d 60d5 35bc
00000200: 2dc7 acbd b5ac afbd cd16 783c b1b5 10bd
00000210: 1eaf 253d 3934 9fbd ef9b b33d 2b56 94bc
00000220: 41ab adbc cf34 86bd eac6 e6bd 6738 9ebd
00000230: 5f63 eabd 8065 b5bd 8c96 953d 9cf0 373c
00000240: b313 7fbd e56d 813c 17ac f4bd 0f13 8b3d
00000250: e0ef c13b 0912 a5bd 12ab 8cbd 7599 373d
00000260: fc78 b9bd 5ca8 7e3d 8041 973d 15c8 d8bd
00000270: c3c9 35bd 0629 0b3d 3d60 debd bdf1 3fbc
00000280: ab56 83bd 1460 c1bd 3a90 6dbd f32b b3bd
00000290: 0505 c9bc a8f2 1f3d 9a64 bfbd 0fc6 e23d
000002a0: e58e 9bbd 8ae9 7d3d a551 bebd de65 93bd
000002b0: 8a72 593d e500 8d3d c08b d43c aa38 9f3d
000002c0: 61f1 9fbd 060e aebb ecf3 c13c 1b25 603d
000002d0: 97ef 9a3d 3d29 b53d 7452 2abd 2a50 5dbd
000002e0: 6cd3 bd39 41ce c6bc 3556 28bd 21e2 c5bd
000002f0: 9421 bbbd c631 adbd 2059 b23d 457f a7bd
00000300: 659e 7e3d e27d 8bbd 2885 a33c 61ca 803d
00000310: 1415 9c3c 790a ac3d 53a5 33bd c1de 02bc
00000320: 8320 86bc d438 cc3c 1dfc 9abd e77a 99bd
00000330: b682 413d ef71 853d 692e 403d 16ff c1bc
00000340: 81e7 8cbd e0a6 c2bd 0dc2 673d 0b35 abbd
00000350: 8056 043d f99c 8abb b685 22bd f3c5 3cba
00000360: e796 ea3c 4721 8a3d ddd3 953d 18d6 a03d
00000370: 2293 c4bd 33ef d73b 26ef a23d 287d cbbd
00000380: 1a24 6fbd d7b2 4bbd 8bda a33b 4134 2ebd
00000390: 170b ab3d 66b0 a03d 3228 e93c bdcd 363c
000003a0: 6fd4 78bd ebe4 cabc f743 9f3a de9e a0bd
000003b0: c900 3ebd c1b7 c6bd 3698 16bd 07f8 853c
000003c0: e0f2 10bd 3313 b1bd 374c e2bd d75c b7bd
000003d0: cbe4 c6bd 9892 c43d 5ccb 9bbd 8d6c 5abd
000003e0: 4579 90bd c7ba c53d af5f a4bc 8936 8f3d
000003f0: a350 a13d 7948 8abd 6d04 5a3d 666f 723d

shared_fc2.bias f4 [256]
-0.008918752 0.013961619 -0.023053097 -0.056570977 0.09833665 0.031934824 0.09376967 0.03577261
0.031161495 -0.009468452 -0.017167192 -0.024650397 0.0335116 0.049397547 0.06623317 0.05933546
-0.010236206 -0.0050297994 -0.022337146 0.011604912 -0.021602852 -0.025303673 0.102304496 0.0061463322
-0.024940178 0.04375044 -0.0061849565 -0.04804672 -0.06702974 0.011540991 0.0522597 0.024483772
0.077557735 0.10392268 0.023431286 0.009067117 -0.042597003 0.046299703 -0.034846466 0.11235639
-0.015258916 0.01870873 -0.032579634 0.027753996 -0.03416137 0.070450984 0.02513498 0.0134058995
-0.022048162 0.064290754 0.014633723 -0.02886433 -0.01505844 -0.017332975 0.02387607 0.010268268
-0.03636258 0.0087595675 0.07271214 0.054655656 -0.06253708 -0.032853555 0.012914294 0.041366693
0.07237174 -0.07599367 0.0026991386 0.058255747 0.039742026 -0.015932908 0.016268827 -0.08405304
0.049181826 0.04872482 0.08061372 -0.016535224 0.016834825 0.103080966 -0.087739654 0.02887021
-0.023228724 -0.0041195992 -0.002137967 0.09998313 0.045525555 -0.027518915 -0.010954036 0.029306786
0.088152274 -0.0344178 -0.021335289 0.07920637 -0.023511427 -0.060192317 0.04707128 0.022236979
0.0044119232 0.079138644 0.023453677 0.00030372018 -0.045267798 -0.01349498 0.026110666 0.051497925
-0.02916994 -0.06785637 -0.04346831 0.13318409 -0.008722038 0.08124229 0.068140276 0.042294245
-0.017828312 0.01011971 0.05973381 0.032277253 0.009203899 0.06549199 -0.007320825 -0.0019083588
0.022037938 -0.023453705 0.06802559 0.033860087 -0.005003336 0.018827228 0.0012913826 -0.009521706
0.060688015 -0.016933214 0.07567352 -0.026377631 -0.064228736 0.014780498 -0.00582537 -0.027682804
-0.013322156 0.06567217 -0.044592593 -0.03818398 0.017130807 0.0049480973 -0.028243406 0.046855953
-0.0379426 -0.039301034 0.046242014 -0.06793563 -0.02789026 -0.07165857 -0.01613559 0.043969814
0.02814822 -0.093693085 -0.025962094 0.023214718 -0.01859544 -0.008047257 0.066083826 0.077071436
-0.0077000083 0.04741323 -0.07303639 0.011824617 -0.022804886 0.025878796 -0.004139644 -0.01361221
0.022736771 0.04870885 -0.015176013 -0.022296961 0.07859401 -0.047250435 0.019365093 -0.012208737
-0.0076688575 0.036517598 0.04332612 0.007749687 0.022584073 -0.03409274 0.041933853 -0.04377574
0.019571679 -0.012739197 0.06006554 0.033868637 0.0558172 0.054425612 -0.0074634072 0.14262877
-0.034446463 0.05188041 -0.014046351 -0.019309431 -0.09958259 -0.022015736 0.014574663 -0.0067397333
-0.008972389 -0.0017579912 -0.02975774 -0.014986901 -0.0864864 -0.023794353 0.025020933 -0.005608027
0.025537888 0.017324325 0.06970677 0.07736302 -0.08547019 0.03748109 -0.026117392 -0.003404247
-0.016581172 0.037395332 -0.041316334 -0.056021158 -0.0048606554 -0.014366749 0.04595712 -0.009496997
-0.020856857 -0.03779777 0.027546609 -0.046778824 0.041563105 -0.048994243 0.020496963 0.06837458
0.09995765 -0.0023981617 0.029884458 0.044385098 -0.01043735 0.06554067 0.017854363 -0.033424303
-0.0050048623 -0.095246084 0.02259154 0.012179536 0.014037872 0.019260686 0.03192164 0.03014435
0.006873655 -0.09484566 -0.06259546 0.11839953 0.060524773 0.056427274 0.10860149 0.05292464
00000000: f51f 12bc 46bf 643c d9d9 bcbc f8b6 67bd
00000010: ba64 c93d 17ce 023d 500a c03d 4d86 123d
00000020: 6446 ff3c 9121 1bbc 36a2 8cbc a1ef c9bc
00000030: 7643 093d 1555 4a3d 42a5 873d bd09 733d
00000040: c3b5 27bc 04d1 a4bb 64fc b6bc 8722 3e3c
00000050: 77f8 b0bc a649 cfbc 0585 d13d 2c67 c93b
00000060: 584f ccbc a933 333d 2dab cabb a3cc 44bd
00000070: e346 89bd 6d16 3d3c 440e 563d 3192 c83c
00000080: 97d6 9e3d 6ad5 d43d f8f2 bf3c 3f8e 143c
00000090: 327a 2ebd c2a4 3d3d 2bbb 0ebd 1b1b e63d
000000a0: 8800 7abc 0d43 993c 3972 05bd 595c e33c
000000b0: cbec 0bbd 9b48 903d e0e7 cd3c 6ba4 5b3c
000000c0: 599e b4bc dfaa 833d 48c2 6f3c e374 ecbc
000000d0: adb7 76bc e2fd 8dbc bf97 c33c 3d3c 283c
000000e0: eef0 14bd 4a84 0f3c 1aea 943d 9cde 5f3d
000000f0: 7113 80bd 7391 06bd 7a96 533c 1f70 293d
00000100: a337 943d 92a2 9bbd 08e4 303b 949d 6e3d
00000110: 89c8 223d bb85 82bc 3446 853c 0024 acbd
00000120: e272 493d ad93 473d ce18 a53d e174 87bc
00000130: 30e9 893c 1d1c d33d d9b0 b3bd 3881 ec3c
00000140: 2a4a bebc b4fd 86bb 221d 0cbb f5c3 cc3d
00000150: 0179 3a3d 596f e1bc 8f78 33bc c914 f03c
00000160: 2e89 b43d aef9 0cbd 58c7 aebc f336 a23d
00000170: 099b c0bc 388c 76bd d1cd 403d 532a b63c
00000180: e591 903b 7113 a23d ed21 c03c a23c 9f39
00000190: ba6a 39bd 0c1a 5dbc 09e6 d53c 7def 523d
000001a0: ccf5 eebc 48f8 8abd d40b 32bd 6961 083e
000001b0: e1e6 0ebc 5c62 a63d 218d 8b3d bb3c 2d3d
000001c0: ae0c 92bc 24cd 253c 71ab 743d 2735 043d
000001d0: f3cb 163c aa20 863d 88e3 efbb e521 faba
000001e0: e888 b43c fc21 c0bc 0051 8b3d e0b0 0a3d
000001f0: 06f3 a3bb 8f3b 9a3c 9c43 a93a ee00 1cbc
00000200: ff93 783d 86b7 8abc b8fa 9a3d e715 d8bc
00000210: 5b8a 83bd e729 723c bfe2 bebb 0cc7 e2bc
00000220: 2c45 5abc 217f 863d b9a6 36bd ce66 1cbd
00000230: e855 8c3c a623 a23b b75e e7bc 07ec 3f3d
00000240: b369 1bbd 1ffa 20bd 4468 3d3d d621 8bbd
00000250: 1d7a e4bc bac1 92bd c92e 84bc b119 343d
00000260: 1997 e63c 29e2 bfbd 75ae d4bc cb2c be3c
00000270: 7755 98bc a4d8 03bc f556 873d a1d7 9d3d
00000280: 5a50 fcbb 6034 423d 1a94 95bd 0abc 413c
00000290: 50d1 babc c5ff d33c daa5 87bb bf05 5fbc
000002a0: 7742 ba3c ee82 473d d0a4 78bc 1ea8 b6bc
000002b0: e5f5 a03d ac89 41bd 8ba3 9e3c 2807 48bc
000002c0: 0a4b fbbb 7a93 153d bb76 313d 16f1 fd3b
000002d0: 3c02 b93c d4a4 0bbd d5c2 2b3d 314e 33bd
000002e0: c954 a03c 11b8 50bc 4907 763d d7b9 0a3d
000002f0: 94a0 643d 64ed 5e3d 998f f4bb 470d 123e
00000300: bc17 0dbd 8e80 543d ab22 66bc d02e 9ebc
00000310: f5f1 cbbd 585a b4bc 91ca 6e3c fbd8 dcbb
00000320: ed00 13bc 656c e6ba 81c6 f3bc 9e8b 75bc
00000330: c81f b1bd 60ec c2bc b3f8 cc3c 8ac3 b7bb
00000340: d534 d13c beeb 8d3c 6cc2 8e3d 8170 9e3d
00000350: ff0a afbd c585 193d 24f4 d5bc ca19 5fbb
00000360: 3dd5 87bc d92b 193d 513b 29bd 7176 65bd
00000370: 2246 9fbb 8362 6bbc 883d 3c3d 4b99 1bbc
00000380: 00dc aabc d6d1 1abd 6da9 e13c 279b 3fbd
00000390: 133e 2a3d 30ae 48bd 3fe9 a73c f907 8c3d
000003a0: 99b6 cc3d 7a2a 1dbb 40d0 f43c 26cd 353d
000003b0: 6b01 2bbc 303a 863d 5043 923c ece7 08bd
000003c0: d4ff a3bb 6110 c3bd e511 b93c ad8c 473c
000003d0: 1aff 653c 96c8 9d3c 44c0 023d 49f1 f63c
000003e0: 663c e13b 713e c2bd 0c32 80bd 747b f23d
000003f0: d3e8 773d 4920 673d 756a de3d 82c7 583d

actor_fc.weight f4 [256, 256]
0.12321606 0.1267798 -0.1137501 0.03624749 -0.16231163 -0.0017042432 0.06259872 0.083954334
-0.17388977 -0.088890016 -0.030402523 -0.0059740576 -0.04093901 -0.15352158 -0.07919009 -0.042181566
0.18147242 0.10755704 -0.0036443935 0.18951176 -0.08777394 -0.08058792 -0.118937366 -0.018931393
-0.21784243 0.03703815 0.15865979 0.10101113 -0.06707885 0.32962394 0.021615898 -0.27113622
-0.060974684 0.097001955 -0.10861985 0.16698875 -0.047213454 -0.11187843 -0.22699438 -0.21017812
-0.026572056 0.09644472 0.03359444 -0.1128786 0.07015184 -0.004902592 0.06115083 -0.17454526
-0.3248583 0.014410375 -0.28148887 -0.016754866 -0.07330618 0.097781725 -0.07205976 -0.31861994
0.07138821 0.054049972 -0.22030348 0.0013553211 0.049441356 0.11996747 0.07280849 -0.121227026
0.06228531 0.092441134 0.067164 -0.09428913 0.06349642 0.13195027 -0.031715948 0.375696
-0.070340455 -0.18359351 -0.1404867 -0.09525981 -0.14254779 -0.16726093 0.07738705 -0.08017328
-0.043825988 0.036650952 0.07694246 -0.047264148 -0.1262837 -0.1508118 -0.0012974 -0.28110418
-0.15050961 0.021195386 -0.034186006 -0.3225359 -0.033420175 -0.029344698 -0.14046787 -0.13443999
0.19401075 -0.21390864 -0.06586649 0.025413232 0.022593614 -0.12585512 0.043468382 -0.074989356
-0.1523087 -0.3135963 0.076061435 -0.24352697 -0.43197694 0.120331116 -0.25749928 0.0019063414
0.3960679 0.16152216 -0.12585193 0.055464588 -0.24958469 -0.09772576 -0.1377411 0.40520355
-0.23193 -0.052596014 0.004778013 0.15612082 0.08819431 0.038637478 -0.14531492 0.055562768
0.09378025 -0.010364568 -0.12099627 -0.1502876 -0.103607796 -0.05291607 -0.15892957 0.12104472
-0.0062100994 0.055882722 -0.050694905 0.06641122 0.08010829 0.11173963 0.008272701 -0.16442385
-0.08773244 -0.048294555 0.36282954 -0.0064210966 0.05367147 -0.13835728 -0.084970444 0.059868563
0.23279515 0.0049406677 0.06158558 0.09551383 0.018624596 -0.049231708 -0.22496632 0.022505715
-0.10200869 0.059503317 0.23904888 -0.10465911 -0.02112749 0.10442253 -0.31337813 -0.12458324
-0.16200142 -0.028596785 -0.0058947196 0.24121778 -0.17005602 -0.019612735 -0.08368988 -0.04053805
0.03122314 -0.111638784 0.18615863 -0.1973842 -0.0012022629 0.17797306 -0.06040815 -0.017115744
0.051174995 -0.032659337 0.0049844906 -0.3307473 0.024039166 -0.07306724 0.2922681 -0.03934844
-0.09155136 -0.1079371 -0.020768864 0.060202654 -0.08151265 -0.01670341 0.23397274 0.008382391
-0.028442323 -0.53451777 -0.0031009957 0.047339313 -0.25586978 -0.011367783 0.11137616 -0.06883788
0.02952869 0.22762764 -0.101614125 0.0011989877 0.4325679 0.15150125 -0.033025883 0.1969663
-0.017222617 -0.21871655 -0.19702944 -0.07109458 0.028011533 -0.015549137 0.023038864 0.0990404
-0.04607657 -0.14606585 0.11211191 0.013686462 0.04201641 -0.14884305 0.13161658 0.25777328
-0.099853635 0.068808585 -0.075709924 0.20110703 -0.03605946 0.019818498 -0.055877905 -0.2818455
-0.059125833 0.020804089 0.049149916 -0.056864247 -0.03831881 0.12549718 0.12340645 -0.14085889
-0.096910104 0.11022315 -0.021342225 -0.080382854 0.22142088 -0.16332397 -0.16576028 -0.0041105254
00000000: b458 fc3d 90d2 013e d0f5 e8bd 4078 143d
00000010: 0535 26be ea60 dfba c233 803d 40f0 ab3d
00000020: 2910 32be f80b b6bd b60e f9bc 07c2 c3bb
00000030: aaaf 27bd c334 1dbe 6a2e a2bd 94c6 2cbd
00000040: e8d3 393e de46 dc3d c7d6 6ebb 5f0f 423e
00000050: d3c2 b3bd 480b a5bd 6f95 f3bd 0216 9bbc
00000060: 1612 5fbe 51b5 173d b677 223e ecde ce3d
00000070: a360 89bd 78c4 a83e d313 b13c 5ed2 8abe
00000080: 97c0 79bd f6a8 c63d 1574 debd 19ff 2a3e
00000090: e562 41bd 8520 e5bd 3771 68be ef38 57be
000000a0: a4ad d9bc cf84 c53d 539a 093d e52c e7bd
000000b0: c5ab 8f3d eca5 a0bb 4b79 7a3d febb 32be
000000c0: d453 a6be 7e19 6c3c 4f1f 90be 8041 89bc
000000d0: 8d21 96bd c941 c83d 1194 93bd 2722 a3be
000000e0: fb33 923d 8163 5d3d 3c97 61be 08a5 b13a
000000f0: 0583 4a3d 81b1 f53d 9e1c 953d e045 f8bd
00000100: e21e 7f3d c751 bd3d 478d 893d a91a c1bd
00000110: 690a 823d f91d 073e 95e8 01bd 3a5b c03e
00000120: a80e 90bd f0ff 3bbe bfdb 0fbe 9317 c3bd
00000130: 0cf8 11be 7346 2bbe 1a7d 9e3d e331 a4bd
00000140: e182 33bd 4f1f 163d 0294 9d3d 0d98 41bd
00000150: 8450 01be 696e 1abe 850d aaba e3ec 8fbe
00000160: 311f 1abe f2a1 ad3c a006 0cbd 6d23 a5be
00000170: 98e3 08bd 4b64 f0bc cfd6 0fbe a3aa 09be
00000180: c1aa 463e de0a 5bbe 03e5 86bd 692f d03c
00000190: 3e16 b93c 2ae0 00be e70b 323d 0594 99bd
000001a0: d0f6 1bbe b28f a0be 19c6 9b3d 225f 79be
000001b0: 152c ddbe 2970 f63d f2d6 83be 34de f93a
000001c0: 69c9 ca3e 1166 253e 54df 00be d62e 633d
000001d0: 2193 7fbe 7124 c8bd 010c 0dbe d776 cf3e
000001e0: 0f7f 6dbe eb6e 57bd e190 9c3b 23de 1f3e
000001f0: 389f b43d 5542 1e3d 6fcd 14be c995 633d
00000200: dc0f c03d 26d0 29bc e4cc f7bd fee4 19be
00000210: 5330 d4bd 85be 58bd 6fbe 22be 4be6 f73d
00000220: 177e cbbb 48e5 643d 76a5 4fbd 9b02 883d
00000230: d10f a43d bfd7 e43d 398a 073c ba5e 28be
00000240: 11ad b3bd 83d0 45bd cbc4 b93e 1068 d2bb
00000250: 9ed6 5b3d 88ad 0dbe fc04 aebd bd38 753d
00000260: da61 6e3e 53e5 a13b 2941 7c3d c19c c33d
00000270: 9c92 983c 30a7 49bd 925d 66be e85d b83c
00000280: efe9 d0bd c0b9 733d 3bc9 743e 8457 d6bd
00000290: 8f13 adbc 7bdb d53d 1973 a0be 7f25 ffbd
000002a0: b3e3 25be ce43 eabc 7e28 c1bb cb01 773e
000002b0: 2a23 2ebe e3aa a0bc 9a65 abbd 3a0b 26bd
000002c0: acc7 ff3c e0a2 e4bd 5ea0 3e3e 151f 4abe
000002d0: 4095 9dba 923e 363e 896e 77bd 5136 8cbc
000002e0: df9c 513d ccc5 05bd f054 a33b b657 a9be
000002f0: c9ed c43c 47a4 95bd 2aa4 953e d42b 21bd
00000300: 487f bbbd 200e ddbd 7723 aabc 0f97 763d
00000310: 1bf0 a6bd 97d5 88bc 8d96 6f3e 4c56 093c
00000320: e0ff e8bc 28d6 08bf 133a 4bbb dee6 413d
00000330: 5d01 83be f03f 3abc 2f19 e43d e0fa 8cbd
00000340: 27e6 f13c 3817 693e 111b d0bd 5a27 9d3a
00000350: 8a79 dd3e 2523 1b3e 2646 07bd 89b1 493e
00000360: 7216 8dbc 3bf7 5fbe 16c2 49be 099a 91bd
00000370: 7178 e53c cfc1 7ebc 00bc bc3c b1d5 ca3d
00000380: c9ba 3cbd 4992 15be ee9a e53d 2f3d 603c
00000390: 6619 2c3d 506a 18be 7fc6 063e dcfa 833e
000003a0: 1080 ccbd 84eb 8c3d ce0d 9bbd 00ef 4d3e
000003b0: 16b3 13bd 675a a23c 3be0 64bd 0e4e 90be
000003c0: ee2d 72bd 566d aa3c 6c51 493d 7cea 68bd
000003d0: 2ff4 1cbd 5582 003e 85bc fc3d 503d 10be
000003e0: ce78 c6bd adbc e13d e4d5 aebc c49f a4bd
000003f0: 28bc 623e 663e 27be 10bd 29be 96b1 86bb

actor_fc.bias f4 [256]
-0.023207596 -0.026235502 -0.0073314747 -0.05221576 -0.02226568 0.0021583042 -0.03836409 0.10252797
-0.010933218 -0.00072030624 0.054453894 0.012664032 -0.017011464 -0.029081143 -0.033620644 -0.0051160003
0.0021675364 -0.026472697 -0.02579869 0.0027323521 -0.07383461 0.006561246 -0.017742766 0.040211655
-0.051830996 0.056038365 -0.024439372 -0.064099185 0.018463671 -0.1138539 -0.0312777 0.04287606
-0.048914123 0.055756897 -0.057791248 -0.01729058 -0.02993648 -0.011534303 -0.02185999 0.031923916
-0.024124986 0.046753697 0.0041243746 -0.058004078 -0.039151616 -0.020291276 -0.027144447 0.008459692
0.007059928 0.045893736 -0.009380851 0.010784639 0.013375122 -0.018026745 0.029131686 0.020173986
-0.016617332 -0.059624832 0.04839006 -0.00077280385 0.04858885 -0.057202827 -0.013495436 -0.035746645
-0.058419067 0.024376994 0.047066096 0.047611848 -0.012136883 -0.006170579 0.011454867 -0.030962631
-0.020740503 0.04049101 -0.03892322 0.02178362 -0.17824437 0.016539501 0.0062896926 0.0038607544
-0.02618604 -0.034801394 0.07637335 0.013336189 -0.22170135 0.037760373 -0.08478636 0.021906396
-0.022663578 0.004190963 0.03551181 0.01819486 -0.001696644 -0.07327216 -0.052789733 -0.048039332
0.047666453 0.0026172637 0.0008545205 -0.026725773 0.02640415 -0.06067142 0.020531988 0.031856675
-0.012681431 0.031574145 -0.028140374 0.00999641 0.034238815 -0.0415768 0.04753258 -0.031222995
-0.035854932 0.0012003197 0.010630485 -0.031506337 -0.06606427 -0.050802726 0.021386623 0.005633201
-0.11852015 0.016028158 -0.013162956 0.015045177 -0.019668853 -0.0055991025 0.009750876 -0.049489476
0.03965863 -0.018488647 0.02625001 0.022783853 0.014442089 -0.025777638 0.012540734 0.010706894
0.010019404 0.018648498 -0.056849413 -0.02048086 -0.04214559 -0.021814218 -0.038480476 0.027632054
-0.0051509775 -0.05020464 0.05450436 -0.02567886 0.023532096 0.009026757 -0.037489466 -0.035427283
0.06286571 0.018460717 -0.0038029822 -0.014834048 -0.035640083 -0.0019494883 0.010123986 -0.011569792
-0.028861785 0.082703 -0.022060154 -0.031046418 -0.00083482225 -0.03463927 -0.02019946 -0.034628775
0.027700717 -0.018308517 -0.06752041 -0.0020629594 -0.019386796 0.101843864 -0.04907159 -0.0040263985
-0.016001616 0.1375639 0.014831208 0.025767565 0.018483916 -0.036713056 0.066183984 0.015216034
-0.045520805 -0.05155137 -0.009871833 0.036569595 -0.03966307 -0.054280065 -0.0003403013 -0.05639387
-0.05886301 -0.01079608 0.08818502 -0.018833874 -0.021165686 -0.007153976 -0.004330738 0.034374926
-0.023999032 0.059714805 0.017654354 -0.065860614 -0.021842673 -0.058956876 0.10190967 0.022069266
0.013298291 -0.012375126 -0.026713368 0.044132575 -0.03008849 -0.0006373297 0.036085606 0.024292959
0.022967482 0.033377904 -0.015234412 0.017225554 -0.0016060564 -0.07411487 0.0038215606 0.005664024
0.038784012 -0.007948816 0.0467538 0.0566562 -0.0005453941 -0.11174552 -0.038654048 0.03430871
0.042982377 0.0076930663 -0.015972666 -0.04460753 0.0020061752 -0.02906619 0.010652757 -0.039126806
-0.048138846 -0.037264008 -0.039197993 0.012152001 5.0346098e-05 -0.027362496 -0.028289879 -0.028738316
0.047773823 0.0043867663 -0.061794277 -0.05140126 -0.037647 -0.009883045 0.012716002 -0.04589994
00000000: db1d bebc d6eb d6bc de3c f0bb 31e0 55bd
00000010: 8466 b6bc 5672 0d3b aa23 1dbd 2ffa d13d
00000020: 3d21 33bc efd2 3cba 0c0b 5f3d cd7c 4f3c
00000030: a05b 8bbc 943b eebc cdb5 09bd 1fa4 a7bb
00000040: 3a0d 0e3b 45dd d8bc c657 d3bc 4311 333b
00000050: 9a36 97bd b8ff d63b 4759 91bc fab4 243d
00000060: bd4c 54bd 7c88 653d 1435 c8bc 6f46 83bd
00000070: 2041 973c 3c2c e9bd 0c1d 00bd cf9e 2f3d
00000080: 2d5a 48bd 5861 643d 84b6 6cbd f9a4 8dbc
00000090: 593d f5bc 60fa 3cbc b913 b3bc a7c2 023d
000000a0: c3a1 c5bc ce80 3f3d c325 873b af95 6dbd
000000b0: 725d 20bd e439 a6bc 085e debc 859a 0a3c
000000c0: f856 e73b 12fb 3b3d 24b2 19bc 0eb2 303c
000000d0: 5423 5b3c d3ac 93bc 93a5 ee3c ea43 a53c
000000e0: 1221 88bc 2b39 74bd a834 463d fd95 4aba
000000f0: 1a05 473d 834d 6abd f61b 5dbc 136b 12bd
00000100: d548 6fbd 43b2 c73c 61c8 403d a404 433d
00000110: c7d9 46bc 9232 cabb 32ad 3b3c 58a5 fdbc
00000120: fde7 a9bc e7d9 253d f46d 1fbd 9073 b23c
00000130: b185 36be d97d 873c c419 ce3b b604 7d3b
00000140: 1b84 d6bc e88b 0ebd a269 9c3d 0880 5a3c
00000150: ae05 63be 9faa 1a3d 79a4 adbd 0b75 b33c
00000160: f8a8 b9bc 5954 893b d574 113d 630d 953c
00000170: ed61 deba b70f 96bd 0c3a 58bd e4c4 44bd
00000180: e63d 433d 6686 2b3b e601 603a 02f0 dabc
00000190: 844d d83c 9882 78bd b332 a83c 257c 023d
000001a0: c7c5 4fbc e453 013d a486 e6bc fcc7 233c
000001b0: 003e 0c3d 6f4c 2abd 86b1 423d 5ec7 ffbc
000001c0: 9fdc 12bd 0c54 9d3a 7c2b 2e3c ca0c 01bd
000001d0: b44c 87bd 8516 50bd 0033 af3c b796 b83b
000001e0: b1ba f2bd 7c4d 833c 70a9 57bc 0c80 763c
000001f0: 9320 a1bc ad78 b7bb 23c2 1f3c 7ab5 4abd
00000200: 1671 223d 8175 97bc 430a d73c 34a5 ba3c
00000210: 839e 6c3c a02b d3bc a777 4d3c f86b 2f3c
00000220: 6d28 243c bcc4 983c eeda 68bd 7ac7 a7bc
00000230: dba0 2cbd bbb3 b2bc b49d 1dbd 9e5c e23c
00000240: 88c9 a8bb 61a3 4dbd f73f 5f3d 795c d2bc
00000250: 62c6 c03c f7e4 133c 8e8e 19bd 331c 11bd
00000260: bdbf 803d ee3a 973c 743b 79bb 820a 73bc
00000270: 56fb 11bd f985 ffba 13df 253c 3a8f 3dbc
00000280: 8d6f ecbc 3160 a93d 7fb7 b4bc 0f55 febc
00000290: f9d7 5aba e8e1 0dbd 5779 a5bc e7d6 0dbd
000002a0: 9dec e23c befb 95bc 2448 8abd b732 07bb
000002b0: 0fd1 9ebc 8493 d03d 4bff 48bd e1ef 83bb
000002c0: d215 83bc 8ddd 0c3e 98fe 723c 8016 d33c
000002d0: 956b 973c 6e60 16bd 788b 873d ac4c 793c
000002e0: 0674 3abd 8827 53bd 78bd 21bc 00ca 153d
000002f0: be75 22bd c654 5ebd 786a b2b9 42fd 66bd
00000300: 571a 71bd 0be2 30bc 599a b43d 7f49 9abc
00000310: a963 adbc e66b eabb dde8 8dbb b9cc 0c3d
00000320: 9e99 c4bc 8397 743d dd9f 903c eee1 86bd
00000330: 68ef b2bc c47c 71bd 04b6 d03d 9bca b43c
00000340: 13e1 593c 0ac1 4abc fed5 dabc 5cc4 343d
00000350: 237c f6bc 7912 27ba 80ce 133d 0702 c73c
00000360: 4d26 bc3c 45b7 083d c199 79bc 9b1c 8d3c
00000370: 4f82 d2ba 89c9 97bd 2673 7a3b 4799 b93b
00000380: fcdb 1e3d c03b 02bc ea80 3f3d 5510 683d
00000390: c7f8 0eba d6da e4bd b553 1ebd 4a87 0c3d
000003a0: 4a0e 303d 1e16 fc3b 1cd9 82bc 63b6 36bd
000003b0: 097a 033b 381c eebc e788 2e3c 6e43 20bd
000003c0: 3d2d 45bd 25a2 18bd 138e 20bd 3019 473c
000003d0: b62a 5338 5027 e0bc 2dc0 e7bc 9e6c ebbc
000003e0: 7cae 433d ddbe 8f3b ff1b 7dbd 218a 52bd
000003f0: be33 1abd 7fec 21bc c756 503c 9301 3cbd

actor_out.weight f4 [12, 256]
-0.098574795 0.09311088 0.03804034 -0.4005781 -0.10787329 0.15254346 0.030162765 -0.17636783
-0.3334518 0.23452343 0.088931374 0.009763982 -0.12775955 4.7828416e-06 -0.15019466 -0.2780676
0.09568556 -0.013453297 -0.09669484 0.15311937 0.029643713 0.27786866 0.1152725 0.3375432
0.34763986 0.17077318 -0.0944233 0.13704765 0.42821464 0.18386695 0.11691861 -0.08197459
-0.26985306 -0.053876672 -0.23175205 -0.2200236 0.15867823 -0.076805 -0.28861842 -0.0265552
0.051413205 -0.43475798 0.26223823 0.058650874 -0.09543807 0.07561955 -0.060600385 0.15788226
-0.11531152 -0.10042903 0.8628155 0.021985931 -0.1569578 0.21690671 -0.15393521 0.18690303
-0.15155356 0.11825113 -0.17987002 -0.04268782 0.12636222 0.32870463 -0.34010112 -0.05188013
0.15342611 0.028950993 -0.19897465 0.35183513 0.108824335 -0.026074562 0.07167474 -0.029015845
0.0299486 0.09847246 -0.059966855 -0.04330972 -0.024609191 -0.035749048 -0.29249558 0.10081427
0.09236448 -0.049265362 0.07610964 0.14611308 -0.00555649 -0.0025190504 0.14194389 0.0834695
0.18273042 0.037191 -0.08083085 0.040311817 -0.1510087 0.14616333 -0.08625621 0.10476074
-0.0381477 -0.033883356 0.2089013 -0.2881907 0.1385514 -0.044343334 0.25260523 0.14674224
-0.0862728 -0.03107605 0.08470832 0.33368564 0.00011837901 0.064675614 -0.030836416 0.04612444
0.05033641 -0.0038853958 -0.41222844 0.16690372 0.102962755 0.06143825 -0.09611307 -0.05793132
0.030099338 0.05885796 -0.12168345 -0.20907532 -0.22169958 0.1144771 -0.026265344 0.03520283
-0.33886638 -0.23027185 0.04546489 -0.123383075 -0.04049206 0.16418754 -0.08034663 -0.1249926
0.1501096 -0.10186331 -0.13907473 -0.07841523 -0.1365197 0.08237623 -0.20205711 -0.1513131
-0.085517175 -0.068248525 -0.15696181 -0.13706508 0.12013299 0.015965616 -0.049663734 -0.07998783
0.0019408796 0.003209669 -0.22777812 -0.11678879 0.03658498 -0.058155894 0.052657656 -0.14031315
0.092117645 -0.16985045 -0.07214363 0.21403112 0.073212795 0.12174243 -0.0046848035 -0.03506012
0.12519024 0.27796784 -0.120382525 0.10649841 -0.05004467 -0.21561086 0.0074025732 -0.06512025
-0.5171159 0.18872947 -0.22879456 0.016981237 -0.1704063 -0.090094544 0.34519216 0.2114007
-0.03210145 0.16125885 0.045109663 0.08073549 0.003112271 -0.085602485 0.2332843 -0.029291922
0.15462972 0.28911576 0.20087071 0.033018153 0.21423225 -0.093375236 0.22525801 -0.16592208
0.11480956 0.022006644 0.31764057 0.07012199 -0.061155833 -0.15227515 0.23439488 -0.17436981
-0.32060418 0.36174387 0.021660784 0.33274105 -0.21872164 -0.282983 -0.22648875 -0.019878233
-0.18354775 -0.05017537 0.019111631 0.18270795 0.107308835 0.0962788 -0.115640596 0.15458946
0.07908157 -0.16461821 0.3147454 -0.0038698227 0.017395915 -0.17055474 -0.07513619 0.07629598
-0.11100897 -0.00026845414 -0.50698763 -0.09150605 0.19191892 -0.28050452 0.010960112 -0.053129915
-0.029912744 0.24111325 -0.013512578 -0.56869286 -0.13103294 -0.21693254 0.1348724 -0.012185584
-0.10506342 0.027541492 -0.115064055 0.13880195 0.21523629 -0.04768364 0.21528055 0.10032644
00000000: 95e1 c9bd ebb0 be3d 30d0 1b3d 9318 cdbe
00000010: acec dcbd 5a34 1c3e e717 f73c c599 34be
00000020: 32ba aabe e926 703e a721 b63d 1cf9 1f3c
00000030: 66d3 02be 4c7c a036 a1cc 19be e05e 8ebe
00000040: caf6 c33d 386b 5cbc f207 c6bd 53cb 1c3e
00000050: 5fd7 f23c cd44 8e3e fd13 ec3d 76d2 ac3e
00000060: dafd b13e 2adf 2e3e 0161 c1bd 3856 0c3e
00000070: f33e db3e 9e47 3c3e 0673 ef3d 4be2 a7bd
00000080: 2e2a 8abe c9ad 5cbd 6950 6dbe de4d 61be
00000090: 8c7c 223e f14b 9dbd cbc5 93be 4a8a d9bc
000000a0: a796 523d 9998 debe 1744 863e e63b 703d
000000b0: 0975 c3bd 6cde 9a3d 1c38 78bd e3ab 213e
000000c0: 7228 ecbd bcad cdbd 7ae1 5c3f d71b b43c
000000d0: 8cb9 20be cb1c 5e3e 31a1 1dbe 8263 3f3e
000000e0: db30 1bbe a62d f23d d92f 38be 6cd9 2ebd
000000f0: 1965 013e f94b a83e bc21 aebe 4280 54bd
00000100: bc1b 1d3e a22a ed3c 03c0 4bbe bc23 b43e
00000110: 4bdf de3d 529a d5bc 35ca 923d a3b2 edbc
00000120: c456 f53c eeab c93d ce9f 75bd 8865 31bd
00000130: 3799 c9bc 986d 12bd fbc1 95be b677 ce3d
00000140: 9729 bd3d 7aca 49bd 5fdf 9b3d ab9e 153e
00000150: 3713 b6bb a716 25bb bd59 113e 0ff2 aa3d
00000160: af1d 3b3e 9755 183d a58a a5bd 011e 253d
00000170: 06a2 1abe d7ab 153e 19a7 b0bd cd8c d63d
00000180: c340 1cbd 46c9 0abd 39ea 553e bb8d 93be
00000190: 6be0 0d3e 5ba1 35bd 7955 813e 9943 163e
000001a0: cbaf b0bd 3393 febc 8e7b ad3d d8d8 aa3e
000001b0: 3f42 f838 a674 843d a79c fcbc fbec 3c3d
000001c0: 8d2d 4e3d 20a2 7ebb 9b0f d3be cfe8 2a3e
000001d0: 23de d23d ada6 7b3d eed6 c4bd 6449 6dbd
000001e0: e392 f63c 0b15 713d 2c35 f9bd d717 56be
000001f0: 3705 63be f872 ea3d 6b2a d7bc d830 103d
00000200: e57f adbe 62cc 6bbe 6439 3a3d 44b0 fcbd
00000210: 01db 25bd c720 283e c68c a4bd 1ffc ffbd
00000220: 55b6 193e b69d d0bd 9b69 0ebe 2a98 a0bd
00000230: d2cb 0bbe deb4 a83d 0fe8 4ebe d2f1 1abe
00000240: a123 afbd e2c5 8bbd 99ba 20be ca5a 0cbe
00000250: 4908 f63d 53ca 823c 336c 4bbd a9d0 a3bd
00000260: 1d65 fe3a 4f59 523b ab3e 69be f62e efbd
00000270: 22da 153d e034 6ebd 8eaf 573d 40ae 0fbe
00000280: 2da8 bc3d 47ed 2dbe 0ac0 93bd f92a 5b3e
00000290: 97f0 953d 1854 f93d fb82 99bb 339b 0fbd
000002a0: df31 003e cd51 8e3e 1d8b f6bd d71b da3d
000002b0: a4fb 4cbd 18c9 5cbe 4991 f23b c45d 85bd
000002c0: b561 04bf 4c42 413e 1f49 6abe 3c1c 8b3c
000002d0: fd7e 2ebe 7d83 b8bd 07bd b03e 6d79 583e
000002e0: cf7c 03bd 0a21 253e e9c4 383d a658 a53d
000002f0: 3ef7 4b3b 5b50 afbd 14e2 6e3e 9df5 efbc
00000300: 4157 1e3e fb06 943e 0db1 4d3e 0b3e 073d
00000310: b35f 5b3e 843b bfbd 09aa 663e 7ae7 29be
00000320: 4621 eb3d 4747 b43c c9a1 a23e 1e9c 8f3d
00000330: 8a7e 7abd 04ee 1bbe 3605 703e 008e 32be
00000340: 3b26 a4be 7e36 b93e f571 b13c 095d aa3e
00000350: 91f8 5fbe 26e3 90be abec 67be add7 a2bc
00000360: f1f3 3bbe b084 4dbd ff8f 9c3c cb17 3b3e
00000370: bcc4 db3d d22d c53d fad4 ecbd b34c 1e3e
00000380: 85f5 a13d ad91 28be 4f26 a13e da9c 7dbb
00000390: e181 8e3c e7a5 2ebe 01e1 99bd 1141 9c3d
000003a0: ac58 e3bd 4ebf 8cb9 f1c9 01bf 8667 bbbd
000003b0: 6586 443e 4a9e 8fbe 0b92 333c c19e 59bd
000003c0: 920b f5bc 64e6 763e dc63 5dbc db95 11bf
000003d0: 802d 06be 9023 5ebe fe1b 0a3e 0ba6 47bc
000003e0: 7e2b d7bd b29e e13c b4a6 ebbd 1922 0e3e
000003f0: e766 5c3e ec4f 43bd 8172 5c3e f377 cd3d

actor_out.bias f4 [12]
0.0643129 -0.0588343 0.009392877 0.01594561 -0.07205541 -0.008150744 0.021407878 -0.049209088
-0.020446055 0.0050153313 0.024357619 0.035075918
00000000: 7bb6 833d 3cfc 70bd 95e4 193c 5ea0 823c
00000010: c991 93bd b38a 05bc 935f af3c 788f 49bd
00000020: 7c7e a7bc a657 a43b a189 c73c c4ab 0f3d
