networks/saved_model/ppo_model_ep500.pth (torch, 840050 bytes, 11 tensors)

shared_fc1.weight f4 [256, 31]
000000 96 fb 63 be 32 e1 71 3e 84 41 78 3e cf 05 38 3d
       -0.22263941 0.23621061 0.24243742 0.044927415
000010 2f 26 31 3d 08 1b 98 3d 9e b6 56 bd 26 aa 69 bd
       0.043249305 0.07427031 -0.05242025 -0.05704703
000020 19 a0 1b 3e 60 9f 79 3d 84 5b db 3d a9 0a 64 3d
       0.15197791 0.060943007 0.107108146 0.05567423
000030 c7 c3 2a be 48 7f a8 3c 94 de f8 bd 3d bc 26 bd
       -0.16676246 0.020568505 -0.121518284 -0.04070686
000040 49 da ae 3c 07 43 f3 be 80 c3 a9 3d 71 1d dd 3f
       0.02134432 -0.47512075 0.08289242 1.727461
000050 e9 48 4d be 2f 7b e3 be 40 ea bf bd c8 d8 b1 3c
       -0.20047344 -0.4442992 -0.093708515 0.021709815
000060 22 bb 83 bc 4d 4d 80 bd cb ba 64 3c 6c d8 93 3d
       -0.016080443 -0.06264744 0.013960551 0.072190136
000070 aa 4e 87 bd 20 06 09 3c cb e2 05 3e 89 b1 50 3d
       -0.06606801 0.008363277 0.13074796 0.05095056
000080 30 b6 c9 3d f0 3f b5 bc e8 b3 fd 3d 29 8b 2a 3d
       0.09849203 -0.022125214 0.1238783 0.04163662
000090 6a 84 a5 bd 78 4c ac 3d d7 ef e0 bd 0c 88 2d 3e
       -0.080818966 0.08413023 -0.10983246 0.16946429
0000a0 41 ee a7 bd 49 87 f1 bb 58 b4 10 3e f8 a0 84 bd
       -0.0819974 -0.0073708636 0.14131296 -0.06476015
0000b0 8c fe 0b bd 8e dd 52 3d c6 cd 8e 3d a5 32 13 bd
       -0.0341783 0.051480822 0.06972842 -0.03593697
0000c0 e9 3f e5 3d 1c a4 82 3e 49 13 4b be b1 03 2c bf
       0.111938305 0.2551583 -0.19831575 -0.6719313
0000d0 d3 be 8d 3d 9c 0f 08 3e 02 24 01 3e 07 6c 73 bd
       0.069211625 0.13287205 0.12611392 -0.059429195
0000e0 7f 69 ac 3d 7a 9e 96 bd 89 71 0c 3b 5d 1d 06 3d
       0.08418559 -0.07354446 0.0021429977 0.032742847
0000f0 72 f8 f7 bc 77 9e 77 3d 8c 00 b2 3d 39 60 a3 bd
       -0.030269835 0.06045386 0.086915106 -0.079773374
000100 a2 86 89 bd 43 f8 91 bd df 29 a7 be b2 7c c4 bc
       -0.06715132 -0.0712743 -0.32649133 -0.02398524
000110 51 fc b0 bd cf c2 aa bd 0d 61 36 bd 5f e1 32 bd
       -0.086418755 -0.08337938 -0.04452615 -0.043671962
000120 4d 8e 51 be 8d 58 47 3e e1 da 1e bd b3 ea 23 be
       -0.2046444 0.19467373 -0.038782958 -0.160075
000130 47 6a 00 3e 38 29 b7 3d 23 17 83 3d e2 1e 58 3e
       0.12540542 0.08943409 0.06400897 0.21105531
000140 c5 9c e6 bd 2f 74 44 be 9b e9 d2 3d 86 30 b7 3d
       -0.1126037 -0.19184946 0.10298463 0.08944802
000150 9b dc 25 3c 73 c6 39 bd b3 36 b1 bd 94 bc dd bd
       0.010123397 -0.04535527 -0.08653011 -0.10826984
000160 5c 2e 89 3d 5b e5 fc bb ac 5b 7b 3d 46 8c 52 3d
       0.066982955 -0.007717771 0.061366722 0.051403306
000170 6f e9 78 3d cb b0 6c 3e 1a d1 94 3c 59 6b d0 bc
       0.060769495 0.23114316 0.018166114 -0.025441812
000180 9e e7 d5 bd b7 0f 0c be 05 7f 12 be ad 08 98 bd
       -0.10444568 -0.1367787 -0.14306267 -0.0742353
000190 50 5a 52 bd 1a 93 1d be 0c d1 b6 3e 9b c6 01 bf
       -0.05135566 -0.15388146 0.35706365 -0.5069367
0001a0 39 4d 82 3e 78 b6 b9 3b 19 cf 16 3d 08 a5 9a 3e
       0.2544954 0.005667504 0.036818597 0.30204034
0001b0 ba 10 83 3d 37 ad 7a bd 0e 35 d6 3d a0 e2 2c bd
       0.06399675 -0.061200347 0.10459338 -0.042208314
0001c0 7c 38 aa 3e 19 af 6f bd 20 d8 e7 3e 05 27 31 be
       0.3324622 -0.058516596 0.45282078 -0.17300041
0001d0 4c 99 74 bc 9f fc f2 3c 0b c0 14 be fd ad 3c 3c
       -0.014929127 0.029661475 -0.14526384 0.011516091
0001e0 c6 fc a3 3d 50 47 be 3d f5 86 d8 3c cb 68 66 3d
       0.08007197 0.092909455 0.02643154 0.056252282
0001f0 31 5c a7 be 7a 3c 22 3e e3 31 05 3d 6c 84 19 bd
       -0.32687524 0.15843382 0.03251828 -0.037479803
000200 f4 88 56 be 1c 66 48 3e a5 46 1a be 4e 32 b1 3d
       -0.20950681 0.19570202 -0.15066011 0.08652173
000210 4e 39 6b 3e b4 ee 80 3d d2 0b 47 3e 0f 7a c0 3d
       0.22971079 0.06295529 0.19438103 0.09398281
000220 d7 1a 17 bd ca 93 4b 3c 49 a3 48 3d 41 67 d3 bd
       -0.03689083 0.012425372 0.048983846 -0.103224285
000230 e1 13 e3 bd cb f1 7c 3d 97 7e f9 bd e8 dc 8a 3e
       -0.11087776 0.06175403 -0.12182348 0.27121663
000240 12 35 47 bf 11 a0 07 3f f4 ab cc bd 60 cf f0 3d
       -0.77815354 0.52978617 -0.09993735 0.11758304
000250 8c bd ff bc a5 13 4b bd d3 8c ec bc e0 f5 1c 3d
       -0.031218313 -0.04957928 -0.028875744 0.038320422
000260 82 d6 39 3d 32 ad 56 3d f9 2b 85 bc 42 dd 97 3d
       0.045370586 0.052411266 -0.01625632 0.074152485
000270 94 75 40 bb f0 d6 24 3d 43 fd 67 be 59 9e f4 3d
       -0.0029366957 0.040244043 -0.22655205 0.11944265
000280 34 69 f2 bd 22 4c d5 bd e8 81 89 be c8 2b 6d be
       -0.11836472 -0.10414912 -0.26856923 -0.23161232
000290 95 e5 0b be 37 e8 58 be 69 93 0d 3e 14 a9 0c be
       -0.13661797 -0.21182333 0.13825764 -0.13736373
0002a0 da d5 8d bb 42 7c bb 3b 17 7a ed bc dc 86 21 3e
       -0.0043284716 0.0057216 -0.028988881 0.15774101
0002b0 6d 04 9c 3d 78 0e 25 be 41 21 ec be 9e 63 c6 bd
       0.07618032 -0.161188 -0.4611912 -0.09686969
0002c0 92 18 ee be f5 a0 ed bb dc e8 31 3e 35 02 f5 3d
       -0.4650312 -0.0072518536 0.17373985 0.119633116
0002d0 1d a2 8e bd 5e 52 d2 3d b2 75 fb 3d 43 ed 51 3d
       -0.069645144 0.102696165 0.12278308 0.05125166
0002e0 b3 8e ef 3b 55 e2 0b 3e 2d e9 03 bf 82 55 76 bd
       0.0073107122 0.13660558 -0.51527673 -0.06014014
0002f0 76 de 01 3e 00 8f 25 bd 5a 0b 44 bd fb 78 4d 3e
       0.12682518 -0.04041958 -0.04786239 0.20065682
000300 0c 48 05 be 2d 23 1c 3e f5 82 8f 3e 1d 48 2a 3d
       -0.13015765 0.15247793 0.280296 0.04157268
000310 ee c6 57 bd 94 2c de bd 3f 5a 9b 3d 53 45 29 3e
       -0.05267995 -0.10848346 0.075855725 0.16530351
000320 46 a3 68 3e be f7 e2 3d fb 07 cb bd b5 07 28 3e
       0.22718534 0.11082409 -0.099136315 0.1640919
000330 07 ca 11 bd 66 ea a1 be f0 2c af be cd cd 97 3d
       -0.03559306 -0.31624144 -0.34213972 0.074123
000340 54 72 15 bc 1e 12 30 bb 41 fd ab 3e d6 47 ad be
       -0.009121496 -0.0026866267 0.33591655 -0.3384387
000350 c4 4d 00 be d9 32 35 bd f8 37 ba 3d b0 b5 15 3e
       -0.12529665 -0.044237945 0.090927064 0.1462009
000360 2c 2c b6 3d db 1f 94 3d 3d 8a 31 be 50 07 3d bd
       0.08895144 0.072326384 -0.1733789 -0.046149552
000370 56 31 bd bd 5b e5 34 bd bd b5 6a be d2 de 42 be
       -0.09237926 -0.044164043 -0.2292089 -0.19030312
000380 a0 30 37 be 44 ca 5d be 3b 7e 1d 3d c2 34 d0 bd
       -0.17889643 -0.2165919 0.03845046 -0.10166313
000390 51 e8 e5 3d 97 07 6a bd 60 70 d8 3c a6 46 8d bd
       0.112259515 -0.057136144 0.026420772 -0.06898241
0003a0 4d cf 4b bd a9 aa 19 3e 11 e2 0e be 0a 03 5c be
       -0.049758244 0.15006508 -0.13953425 -0.21485534
0003b0 84 4e 25 3f 6a 7e 71 3d 65 80 66 bf 68 cd 6e 3c
       0.6457293 0.05895845 -0.90039665 0.01457534
0003c0 3e 2f 88 3e 7f 92 22 3e 21 59 70 be cc 79 aa bd
       0.26598543 0.15876196 -0.234715 -0.08324012
0003d0 7e 68 1b 3e a0 0b 61 bd 69 e7 f5 3c d5 b9 7a bd
       0.1517658 -0.054942727 0.030017572 -0.06121238
0003e0 c9 01 74 be 70 77 a7 3d 9e 07 bf 3d 1a bc 72 3e
       -0.23828806 0.08177078 0.09327625 0.23704568
0003f0 62 e4 2f be d7 f0 b0 3d 95 20 78 3c 54 5f 98 bc
       -0.17176965 0.086396866 0.015144487 -0.018600143

shared_fc1.bias f4 [256]
000000 cf 50 16 bd 1d 50 27 3d de ca ff bd 14 0b 2f bd
       -0.03669816 0.040847886 -0.12489866 -0.042735174
000010 11 aa 54 bd 94 1b 75 bc 6f 69 31 3d 54 72 d7 bc
       -0.05192 -0.014960188 0.04331344 -0.026299633
000020 1a 79 ad 3c 2f a6 93 ba 0b 7f c8 3a d3 9e d5 bd
       0.02117591 -0.0011264737 0.0015296651 -0.10430684
000030 e1 3b 87 bc a8 b4 6f bc 7d e4 26 3d 0e 63 40 3c
       -0.016508045 -0.014630474 0.040745247 0.0117423665
000040 cf 3f 46 3d 3b 26 8f 3d a1 b6 d4 3c 38 85 cc bb
       0.048400696 0.06989714 0.02596599 -0.006241467
000050 1c 90 b9 bc 4d 29 96 bc 3e 14 3f be aa 27 af be
       -0.022651725 -0.01833024 -0.18660066 -0.3420995
000060 e9 b5 42 bd 10 b6 4b bd 1b 42 68 bd 24 6d e7 bb
       -0.047536764 -0.049734175 -0.056703668 -0.007062571
000070 3d 30 3e bd f8 58 77 3d 18 7f b7 bd b9 57 4d 3c
       -0.046432722 0.06038758 -0.08959788 0.012533122
000080 2e dd 0c 3d ae ff 34 bd cd aa 2f bc 8e 37 b1 bc
       0.03439062 -0.044189148 -0.010721874 -0.021632936
000090 0a 46 41 3d ab 64 b6 bc 05 9f 6f bd 9a d7 9d 3d
       0.047185935 -0.0222648 -0.058501262 0.07707138
0000a0 28 a6 ce bd 1a 8e 6e bc e7 7b de 3c c2 c2 b3 3c
       -0.100902855 -0.014560247 0.02715869 0.021943454
0000b0 01 e5 25 bd d3 81 18 bc 61 84 64 3d 2e 56 25 3d
       -0.0405016 -0.009308296 0.05579031 0.04036539
0000c0 02 9c 55 3d f9 a0 17 bc 92 92 12 3d ee 88 52 3d
       0.052150734 -0.0092546875 0.03578431 0.051400118
0000d0 4d 89 f2 bc 42 bf a5 3b 67 14 9e 3d 65 4f 2d bd
       -0.029606486 0.0050582 0.07718735 -0.042312045
0000e0 ca 9d 5e 3c f1 2c c6 bc 45 8d 21 3d 9e 66 e0 3c
       0.0135874245 -0.024191352 0.039441366 0.027392682
0000f0 b8 f2 1d bd 1c e3 88 3c 05 17 f9 3c 2b ed 92 bc
       -0.038561553 0.016709857 0.030406484 -0.017935356
000100 6a e8 c1 3b 20 90 f4 3c 41 74 14 3d c5 77 c3 bd
       0.0059175985 0.02985388 0.03624368 -0.095443286
000110 89 f7 d4 bb 27 37 23 3d 28 01 74 3c d8 f0 15 3d
       -0.006499235 0.03984752 0.014892854 0.03660664
000120 91 a0 f9 3c 4b 75 04 bc f0 4b 31 bd 58 3b c9 3c
       0.030472072 -0.008084605 -0.04328531 0.02456443
000130 0d 1f fe bb 20 06 aa 3d b3 43 75 bd be ea cf b9
       -0.0077551664 0.083019495 -0.059879016 -0.00039657013
000140 28 86 2d bd 34 2f da 3c d0 2c 95 3c ec 62 8d 3d
       -0.04236427 0.026633836 0.018209845 0.069036335
000150 99 2b e0 bc 12 9b 4f bc db 1c 54 bd 23 13 3c 3d
       -0.027364539 -0.012671249 -0.05178533 0.045916688
000160 44 f5 aa 3c ff 7a 7d 3d 14 67 c0 bd fd 79 bf 3d
       0.020868905 0.061884876 -0.093946606 0.09349439
000170 24 f7 77 3d 7d b3 35 bc 32 54 c4 bb b7 c7 10 bd
       0.060538426 -0.011090157 -0.005991482 -0.035346713
000180 ae 75 48 ba f2 3d 04 bc f1 80 54 bd 2d 7a bb 3d
       -0.000764693 -0.00807141 -0.05188078 0.091541626
000190 82 e2 88 bc ea 6f 1d 3d 0d 0b 8f 3b 5d a0 b0 3c
       -0.01670957 0.038436808 0.004365331 0.021560842
0001a0 a5 1f 1b bd e0 34 fd 3c a9 7c df ba a0 a1 e6 bd
       -0.037871975 0.030909002 -0.0017050701 -0.11261296
0001b0 b7 48 15 bd 68 e1 7b 3c 80 cb 0f bd 38 6e 35 3d
       -0.0364463 0.015373565 -0.035106182 0.044294566
0001c0 3d c9 4d 3c f1 34 f6 3c 8f 4d 40 be 55 4e 00 3d
       0.012560186 0.030054541 -0.18779586 0.031324703
0001d0 65 ec 6a bc ba 8a 0a bd 0c 9a b0 bb ee 10 34 3d
       -0.014338587 -0.033823706 -0.0053894576 0.043961458
0001e0 37 04 16 3d 37 5a 83 3c 2c 53 93 3c 4a f4 64 3b
       0.036625113 0.016034229 0.017983995 0.0034935647
0001f0 08 53 66 3c 8e 31 37 bc d7 cb a8 bc 69 99 03 3c
       0.014057882 -0.011181248 -0.02060501 0.008032181
000200 19 28 ed bb 3d b1 c7 bd 1b 6a 75 3c 14 2a cf bc
       -0.007237446 -0.097506024 0.014978911 -0.02528862
000210 a6 a8 84 3d 16 43 8d 3d 75 67 26 3d eb de f3 3c
       0.0647748 0.06897561 0.040626008 0.029769382
000220 ee 3c 36 be 7d b5 10 3c 8f a6 f6 bb 57 f1 e1 3c
       -0.1779668 0.008832333 -0.0075271796 0.0275809
000230 a3 fc ee 3c c1 f2 9e bb a0 b5 38 3c 30 ac 8e 3c
       0.029173201 -0.004850716 0.0112737715 0.01741609
000240 a7 c7 2f 3c c4 4c a4 3c 8c 49 26 bd ae e0 05 bd
       0.010728753 0.020056136 -0.040597484 -0.032684974
000250 50 80 8a bb e4 8b 8c 3d 83 84 3f 3b 20 3a ec 3b
       -0.004226722 0.068626195 0.002922327 0.0072090775
000260 77 3b ae 3d 61 57 1f be 12 30 56 3d f5 21 a6 39
       0.08507436 -0.15560676 0.052291937 0.00031687287
000270 22 22 2a bd 55 a7 f8 3b ae 75 24 3d 9a b4 f6 3d
       -0.041536458 0.007588307 0.04015129 0.12046166
000280 2c 35 27 bd 58 23 38 3d eb af 72 3d 07 13 64 be
       -0.040822193 0.04495558 0.0592498 -0.22272883
000290 76 fd 14 3d 4b 4f b1 3c e7 74 83 3c bb 14 03 bd
       0.03637453 0.021644255 0.016046954 -0.032002192
0002a0 62 8b 94 3b fa ff 15 bd 3a 33 12 bd 47 c1 17 bd
       0.0045332173 -0.03662107 -0.035693385 -0.037049558
0002b0 70 05 08 bc 79 ac ad 3d f2 4b a7 bc 29 2f 2d 3c
       -0.008302078 0.08480162 -0.020421956 0.010570326
0002c0 fc 84 9d bc 1c 98 c0 ba 6a da 74 bd 49 54 c3 3c
       -0.019228451 -0.001469377 -0.05977861 0.023843901
0002d0 00 fd af ba b1 e5 4b 3d e9 64 c2 bd 49 8c d3 bc
       -0.001342684 0.049779598 -0.09491903 -0.02582373
0002e0 22 49 ef 3c dc 51 30 3d 51 b7 fd bb ae 39 ad 3c
       0.029209677 0.043046817 -0.0077428003 0.021145668
0002f0 be 06 52 bc f7 40 44 3d 39 42 67 bc 3b 06 9c bc
       -0.01281899 0.047913518 -0.01411491 -0.01904594
000300 24 6b fe 3c 9d ee b6 3c 99 fd 15 bd 3e bd e2 bd
       0.031056948 0.022330577 -0.036618803 -0.11071251
000310 5b 97 ad bd 9e 79 b0 bd 79 4a 8d bd 5c c0 6b bd
       -0.084761344 -0.08616947 -0.0689897 -0.057556495
000320 05 ee b9 3a 0f 10 16 3d eb 07 dc bc 77 85 1a bd
       0.0014185315 0.03663641 -0.026859244 -0.03772494
000330 ed a5 01 be cf 3f 8d 3c d6 e1 d4 3b 23 5a b4 bc
       -0.12660952 0.01724234 0.0064966483 -0.022015637
000340 29 df 0a 3c 6e c7 db bc d4 60 ad 3b e9 bb 90 3c
       0.008476057 -0.026828494 0.005291084 0.017667728
000350 33 33 26 bd 40 c0 28 3d 3d 60 ac bc c9 05 2c bc
       -0.04057617 0.04119897 -0.021041984 -0.010499426
000360 a6 79 aa bc 73 b3 9d 3c b4 cd 1c be fe 22 a8 3b
       -0.02080996 0.019250607 -0.15312845 0.0051311245
000370 f6 75 59 3c 99 fc a6 bd bf 57 3d be 02 40 88 3d
       0.013272753 -0.08153648 -0.18490504 0.066528335
000380 0d 7d 0b bc 70 6f f5 3c e4 d2 a0 3c 92 48 7f 3c
       -0.008513701 0.029960364 0.01963181 0.015581267
000390 e3 d4 f0 3c e7 ba d7 bd 89 f3 30 bd e2 87 01 3c
       0.029398387 -0.10533696 -0.043201003 0.007905932
0003a0 c5 c0 e7 bc f1 56 0a 3c 61 cd 7e ba 1c 80 a2 3c
       -0.028290162 0.00844358 -0.0009719935 0.019836478
0003b0 cc 80 a4 b8 76 e7 2f 3d 8b 2a 81 3d 4a cd 64 be
       -7.84412e-05 0.042945348 0.063069426 -0.22343937
0003c0 26 c2 b7 bd 44 ac c2 bd 9f 5e ec bb cd db 8b bb
       -0.08972578 -0.09505513 -0.007213428 -0.0042681457
0003d0 0b 92 53 3d 4f da 28 be 34 36 83 3c ef d8 32 bd
       0.05165295 -0.16489528 0.016017057 -0.043663915
0003e0 a3 86 23 3d c1 d1 5e 3d 86 c4 32 bd 80 59 b1 3c
       0.03992332 0.054399256 -0.04364445 0.021649122
0003f0 49 9e 10 3b d5 9d d2 bd c2 a1 6b 3d 4e 8e 25 3d
       0.0022067002 -0.1028401 0.05752731 0.040418915

shared_fc2.weight f4 [256, 256]
000000 58 3e 8e 3c 6d b1 a8 bc 4a 46 b0 bd 8e 44 3b 3d
       0.017363712 -0.020592416 -0.086071566 0.045719676
000010 30 07 b8 bd 39 ab 4b 3d 75 17 d7 bd 83 40 f1 bd
       -0.08985746 0.049723838 -0.10502521 -0.11779883
000020 a9 f2 e2 bd d7 e9 17 bd 81 4b 8a 3d 94 59 ae bd
       -0.1108144 -0.03708824 0.067526825 -0.085131794
000030 eb 26 e4 bd 13 55 24 3d 47 e0 5f 3d c4 5b 4d bd
       -0.111402355 0.040120196 0.054657247 -0.050136343
000040 89 a1 c2 3d 54 28 bb 3d bd 42 e2 bd 71 79 ca bd
       0.09503467 0.09138551 -0.110478856 -0.09886444
000050 44 3c ef bc bd e5 ba 3d 26 a5 41 bd fa 9b b9 3d
       -0.029203542 0.0912585 -0.04727664 0.09062953
000060 c7 40 b3 bb a0 31 15 bd 0c 07 2b 3d 73 f6 8a 3c
       -0.0054703685 -0.03642428 0.041754767 0.01696322
000070 2d df dd bb 67 75 96 3d d9 4f 9c 3d 1e 42 b4 bd
       -0.0067709894 0.073466115 0.07632417 -0.08801673
000080 d4 0b b2 3c 42 27 08 bd 8a 95 ec bd 75 e8 01 bb
       0.021734156 -0.033240564 -0.1155196 -0.0019822393
000090 95 59 a4 3d 44 7b f3 3b 82 b6 2f bd 54 07 c7 bd
       0.08024899 0.007430466 -0.042898662 -0.097181946
0000a0 3d a4 a2 bd 3e 65 d6 bd d3 e9 0f 3d 17 f3 d5 3c
       -0.07941482 -0.10468529 0.0351351 0.02611689
0000b0 1d c7 4d 3d 32 48 90 3d e4 f5 a1 3d 1e 54 91 3d
       0.050238717 0.0704502 0.07908228 0.07096122
0000c0 fe 14 99 bd 3d 14 da bd 50 e1 8a bd a8 94 9f bd
       -0.07474707 -0.106483914 -0.06781256 -0.07792026
0000d0 1f 6b 62 3d 08 a3 83 bc ef d5 f4 bd de 0c 07 bd
       0.05527794 -0.01606895 -0.11954867 -0.032971255
0000e0 ce bb 06 3b 98 d7 4e bd 06 7d ef 3b 92 35 c9 bd
       0.0020558718 -0.050498575 0.007308605 -0.09824671
0000f0 7e 25 cb bd c8 5c d0 bd 3e 4d a6 bd ec 2b 65 3d
       -0.099192604 -0.101739466 -0.081202015 0.05595009
000100 27 36 07 bd 0f d3 87 bd e1 a2 c3 3d f1 24 cd bd
       -0.033010628 -0.06632053 0.09552551 -0.10016812
000110 a5 37 b9 bd 73 f4 28 3c 9f 67 15 bd b5 d0 ba bd
       -0.090438165 0.0103121875 -0.036475774 -0.09121839
000120 a2 71 cf bc a8 60 d4 bd 62 9c 77 bc 4e bf bc bc
       -0.025322739 -0.10369998 -0.015112968 -0.02304044
000130 16 f5 bc bd 0b cb 24 3d 7a 4d f1 bd 54 a2 bb bd
       -0.09226434 0.0402327 -0.117823556 -0.09161821
000140 a3 95 0f bd 96 76 f2 bd 0f 4a 76 bd dc 24 8e bd
       -0.035054814 -0.11839025 -0.06012922 -0.06940624
000150 50 7a d9 bd fb f6 75 bd 18 3f f8 3c 9b e5 f7 bc
       -0.106190324 -0.060049992 0.030303523 -0.030260852
000160 70 a6 b6 bc 1e d2 81 bd 77 d3 99 bd cf f5 e5 bd
       -0.02229616 -0.06338905 -0.07511037 -0.11228525
000170 05 cf d4 bb 2b 13 80 bd 00 66 46 bd 70 90 cc bd
       -0.006494405 -0.06253656 -0.04843712 -0.09988487
000180 8b 3d 67 bd 75 c9 84 bd 50 50 6e bd 1e d4 ab bd
       -0.056455176 -0.064837374 -0.05818206 -0.083900675
000190 25 0d 20 3d 4f 7b f6 bc 0e de 84 bd b2 5a 01 be
       0.039075036 -0.030088095 -0.06487666 -0.12632254
0001a0 66 1b b1 3c 2c ed bd 3d 30 90 99 bc ab 7e 5c bd
       0.02161951 0.092737526 -0.018745512 -0.053831737
0001b0 25 ea 71 bd ec f8 1b bc 3e cd 40 3d cf 72 c2 3d
       -0.05906119 -0.009519797 0.047070734 0.09494554
0001c0 67 9f 07 bd 46 71 02 bc 5f b9 78 bd 4e 2b 3f 3d
       -0.033111002 -0.007961577 -0.06072366 0.046672158
0001d0 cf 7c 47 3c 49 d9 0c bd c4 7a da bd 4a d4 8f bd
       0.012175753 -0.034386907 -0.10667947 -0.07022913
0001e0 36 e6 a6 3c 84 78 8e bd bf 09 b2 3c 7f ad cd 3d
       0.020373445 -0.0695658 0.021733163 0.100428574
0001f0 c9 bb 29 3c a2 26 43 3d 4d 43 51 3d 60 d5 35 bc
       0.010359713 0.047644265 0.051089574 -0.011098236
000200 2d c7 ac bd b5 ac af bd cd 16 78 3c b1 b5 10 bd
       -0.08436427 -0.08577863 0.015142155 -0.035329524
000210 1e af 25 3d 39 34 9f bd ef 9b b3 3d 2b 56 94 bc
       0.040450208 -0.077736326 0.08769976 -0.018107494
000220 41 ab ad bc cf 34 86 bd ea c6 e6 bd 67 38 9e bd
       -0.021199824 -0.06553041 -0.112684086 -0.07725602
000230 5f 63 ea bd 80 65 b5 bd 8c 96 95 3d 9c f0 37 3c
       -0.11444735 -0.0885725 0.07304105 0.011226799
000240 b3 13 7f bd e5 6d 81 3c 17 ac f4 bd 0f 13 8b 3d
       -0.062274646 0.015799472 -0.11946886 0.067907445
000250 e0 ef c1 3b 09 12 a5 bd 12 ab 8c bd 75 99 37 3d
       0.005918488 -0.080600806 -0.068685666 0.044824082
000260 fc 78 b9 bd 5c a8 7e 3d 80 41 97 3d 15 c8 d8 bd
       -0.09056279 0.06217228 0.0738554 -0.105850376
000270 c3 c9 35 bd 06 29 0b 3d 3d 60 de bd bd f1 3f bc
       -0.044381868 0.03397467 -0.108582 -0.01171535
000280 ab 56 83 bd 14 60 c1 bd 3a 90 6d bd f3 2b b3 bd
       -0.06413015 -0.094421536 -0.057998873 -0.08748617
000290 05 05 c9 bc a8 f2 1f 3d 9a 64 bf bd 0f c6 e2 3d
       -0.024538526 0.039049774 -0.0934536 0.11072933
0002a0 e5 8e 9b bd 8a e9 7d 3d a5 51 be bd de 65 93 bd
       -0.07595614 0.0619903 -0.09292916 -0.07197164
0002b0 8a 72 59 3d e5 00 8d 3d c0 8b d4 3c aa 38 9f 3d
       0.05308775 0.06884936 0.025945544 0.0777448
0002c0 61 f1 9f bd 06 0e ae bb ec f3 c1 3c 1b 25 60 3d
       -0.07809711 -0.0053117303 0.023675881 0.054722887
0002d0 97 ef 9a 3d 3d 29 b5 3d 74 52 2a bd 2a 50 5d bd
       0.075652294 0.08845756 -0.04158254 -0.05403153
0002e0 6c d3 bd 39 41 ce c6 bc 35 56 28 bd 21 e2 c5 bd
       0.0003620641 -0.024268271 -0.04109784 -0.09662271
0002f0 94 21 bb bd c6 31 ad bd 20 59 b2 3d 45 7f a7 bd
       -0.09137264 -0.08456759 0.087084055 -0.081785716
000300 65 9e 7e 3d e2 7d 8b bd 28 85 a3 3c 61 ca 80 3d
       0.062162776 -0.068111196 0.019960955 0.06288601
000310 14 15 9c 3c 79 0a ac 3d 53 a5 33 bd c1 de 02 bc
       0.01905302 0.08400435 -0.043858837 -0.007987679
000320 83 20 86 bc d4 38 cc 3c 1d fc 9a bd e7 7a 99 bd
       -0.016372925 0.024929442 -0.07567618 -0.07494145
000330 b6 82 41 3d ef 71 85 3d 69 2e 40 3d 16 ff c1 bc
       0.047243796 0.06515872 0.04691926 -0.023681205
000340 81 e7 8c bd e0 a6 c2 bd 0d c2 67 3d 0b 35 ab bd
       -0.06880093 -0.09504485 0.056581546 -0.083597265
000350 80 56 04 3d f9 9c 8a bb b6 85 22 bd f3 c5 3c ba
       0.032309055 -0.0042301384 -0.039678298 -0.00072011276
000360 e7 96 ea 3c 47 21 8a 3d dd d3 95 3d 18 d6 a0 3d
       0.028636409 0.067446284 0.073158 0.07853335
000370 22 93 c4 bd 33 ef d7 3b 26 ef a2 3d 28 7d cb bd
       -0.09598376 0.006589794 0.0795577 -0.09935981
000380 1a 24 6f bd d7 b2 4b bd 8b da a3 3b 41 34 2e bd
       -0.05838404 -0.0497311 0.0050004176 -0.042530302
000390 17 0b ab 3d 66 b0 a0 3d 32 28 e9 3c bd cd 36 3c
       0.083517246 0.07846145 0.02846155 0.01115745
0003a0 6f d4 78 bd eb e4 ca bc f7 43 9f 3a de 9e a0 bd
       -0.060749467 -0.02476736 0.0012150992 -0.078428015
0003b0 c9 00 3e bd c1 b7 c6 bd 36 98 16 bd 07 f8 85 3c
       -0.046387468 -0.09703017 -0.036766253 0.01635362
0003c0 e0 f2 10 bd 33 13 b1 bd 37 4c e2 bd d7 5c b7 bd
       -0.035387874 -0.0864624 -0.11049693 -0.08953255
0003d0 cb e4 c6 bd 98 92 c4 3d 5c cb 9b bd 8d 6c 5a bd
       -0.097116075 0.09598273 -0.07607147 -0.05332618
0003e0 45 79 90 bd c7 ba c5 3d af 5f a4 bc 89 36 8f 3d
       -0.0705438 0.096547656 -0.020065157 0.06992824
0003f0 a3 50 a1 3d 79 48 8a bd 6d 04 5a 3d 66 6f 72 3d
       0.07876708 -0.06752104 0.053226877 0.05918827

shared_fc2.bias f4 [256]
000000 f5 1f 12 bc 6f 1b 5a 3c d9 d9 bc bc 7d a0 55 bd
       -0.008918752 0.013312205 -0.023053097 -0.052155007
000010 8b 8e c6 3d c0 8c 90 3d 42 93 b9 3d 69 8e 47 3d
       0.09695157 0.07058096 0.0906129 0.048719797
000020 af 18 2f 3d cc 97 9b bc 36 a2 8c bc a1 ef c9 bc
       0.04274815 -0.01899328 -0.017167192 -0.024650397
000030 36 84 3b 3d 6b 41 25 3d c9 fa 94 3d 8b 57 37 3d
       0.045780383 0.04034559 0.07274396 0.04476122
000040 9c 85 0c bc 04 d1 a4 bb 64 fc b6 bc be e6 1d 3d
       -0.008576777 -0.0050297994 -0.022337146 0.03855013
000050 77 f8 b0 bc a6 49 cf bc 8a 88 d3 3d 25 7a be 3c
       -0.021602852 -0.025303673 0.10328777 0.023251602
000060 0b b6 35 bd 43 40 91 3d 9f 61 80 3d a3 cc 44 bd
       -0.044363063 0.07092335 0.0626862 -0.04804672
000070 e3 46 89 bd 14 9b d6 3b 3a 2a d5 3d c2 ca b7 3c
       -0.06702974 0.0065492485 0.10408445 0.02243555
000080 4a 01 35 3d 72 99 cb 3d 6e 7c cd 3c 0d fd b9 3a
       0.044190682 0.09941377 0.025083747 0.0014189795
000090 32 7a 2e bd 49 3d f0 3c 2b bb 0e bd 6b 63 cc 3d
       -0.042597003 0.029326098 -0.034846466 0.099799
0000a0 3b 11 cb bc b6 10 dc 3c 39 72 05 bd a7 98 96 3d
       -0.02478849 0.026863437 -0.032579634 0.07353335
0000b0 a9 83 29 bd 56 56 9c 3d af 8a e1 3c 4f 53 19 bc
       -0.041385327 0.07633655 0.02753195 -0.009358241
0000c0 e1 fe 16 bc a0 c5 5e 3d 84 14 07 3d e3 74 ec bc
       -0.009216041 0.05438769 0.03297855 -0.02886433
0000d0 ad b7 76 bc 1c 71 00 bd bf 97 c3 3c 81 d8 9c ba
       -0.01505844 -0.03135787 0.02387607 -0.0011966379
0000e0 b4 1e 36 bd 38 d2 5e 3c f9 9e c8 3d a2 08 de 3d
       -0.044462875 0.013599925 0.09795947 0.1084149
0000f0 71 13 80 bd 73 91 06 bd a1 76 80 bb f3 20 52 3d
       -0.06253708 -0.032853555 -0.0039203917 0.051300954
000100 82 aa 96 3d 4d 34 e6 bd e8 ee a0 3c d5 3c a2 3d
       0.073567405 -0.11240444 0.01964517 0.07921759
000110 ef 93 ba 3c 37 96 d0 bc 3c 35 59 3d 0d c9 97 bd
       0.022775618 -0.025462253 0.053029284 -0.07411394
000120 c6 70 14 3d 46 41 7f 3d f4 7c 44 3d 93 84 d5 bc
       0.03624036 0.06231811 0.047970727 -0.026064193
000130 3e 03 fc 3c fd 92 de 3d 9c 28 b6 bd 5d 5b 95 3d
       0.030763265 0.108678795 -0.088944644 0.07292817
000140 2a 4a be bc b4 fd 86 bb 5e 4a 88 bc d5 8d d0 3d
       -0.023228724 -0.0041195992 -0.016637024 0.10183302
000150 22 3c b6 3b 59 6f e1 bc 1a bc 61 bd 50 a9 17 3d
       0.0055613676 -0.027518915 -0.05511103 0.037026703
000160 7c 7c cd 3d 89 75 3f bd 19 b1 fc bc 5b 1b 82 3d
       0.10033509 -0.04674295 -0.030846165 0.06352874
000170 09 9b c0 bc 38 8c 76 bd 36 52 44 3d 98 06 84 3c
       -0.023511427 -0.060192317 0.047929965 0.016116425
000180 dc 7f 4b 3c 68 b8 a0 3d 98 11 d5 3c 44 43 39 bc
       0.012420621 0.07847673 0.026009366 -0.011307541
000190 ba 6a 39 bd eb b9 09 3d ee df a1 3c dc ec a4 3d
       -0.045267798 0.03362457 0.019760098 0.0805299
0001a0 28 76 4f bd 54 db b0 bd 81 7d f1 bc c0 d5 fd 3d
       -0.050649792 -0.086355835 -0.02947879 0.12394285
0001b0 6e 89 41 3d 44 f2 a6 3d fa 9c 4b 3d e2 d1 82 3d
       0.047250204 0.08151677 0.04971025 0.06387688
0001c0 ae 0c 92 bc 24 cd 25 3c c9 28 8e 3d c9 c3 01 3d
       -0.017828312 0.01011971 0.06941373 0.031680856
0001d0 40 5d d5 3c 75 c5 97 3d 88 e3 ef bb 07 91 0b bd
       0.026045442 0.07410709 -0.007320825 -0.034073856
0001e0 69 3a 4a 3d fc 21 c0 bc 77 42 62 3d 5d af 82 3d
       0.04937211 -0.023453705 0.055239167 0.06381104
0001f0 12 3a 8d 3c b4 69 3b 3d f6 6f 4b 3c ee 00 1c bc
       0.017239604 0.045755103 0.01241683 -0.009521706
000200 95 90 8c 3d 86 b7 8a bc 2b 09 d2 3d e7 15 d8 bc
       0.06863514 -0.016933214 0.10255655 -0.026377631
000210 94 e3 85 bd ae ca 45 3c bf e2 be bb 0c c7 e2 bc
       -0.06537548 0.012072248 -0.00582537 -0.027682804
000220 d1 78 5c 3d bb 4c 53 3d d3 4c ef bc ce 66 1c bd
       0.053826157 0.051586848 -0.029211437 -0.03818398
000230 0a 8f 6b 3d 68 fc a4 3c c9 ae 1a bd 18 ea 3a 3d
       0.05750946 0.020139888 -0.037764344 0.045633405
000240 b3 69 1b bd 1f fa 20 bd 8b 57 48 3d 0f 22 b4 bd
       -0.0379426 -0.039301034 0.048911612 -0.08795559
000250 12 bf 85 bd b6 15 80 bd c9 2e 84 bc 59 cc 3b 3d
       -0.065305844 -0.06254141 -0.01613559 0.045849178
000260 9f f2 81 3d 6b 66 d3 bd b8 a4 03 bd 2b e4 0d 3d
       0.063451044 -0.10322269 -0.03213951 0.034641426
000270 d6 ec 2b bd a4 d8 03 bc 77 8a a8 3d e0 c7 d9 3d
       -0.04197391 -0.008047257 0.08229535 0.10633826
000280 5a 50 fc bb 34 15 66 3d 54 48 ec bc 39 d6 21 3d
       -0.0077000083 0.056172565 -0.028843082 0.03951094
000290 38 f1 10 bd d4 d9 2b 3d e4 15 08 bd bf 05 5f bc
       -0.035386294 0.041955784 -0.033224 -0.01361221
0002a0 d3 8e 02 3d a6 a2 ac 3d 30 63 ca bc 41 67 10 3c
       0.03187449 0.0842946 -0.0247055 0.00881368
0002b0 5f 3f c2 3d a9 4d fe bc a8 6e 86 bc 28 07 48 bc
       0.09484743 -0.03104289 -0.016410187 -0.012208737
0002c0 35 53 eb bc 04 da 79 3d 0a 11 c0 3c 28 22 28 3d
       -0.0287262 0.06099893 0.023445625 0.0410482
0002d0 4b a3 82 3c b0 bb 1e bd b2 c9 72 3d 31 4e 33 bd
       0.015947005 -0.03875321 0.059274383 -0.04377574
0002e0 f7 da 99 3d d5 be c4 bc 37 86 ac 3d 2e 49 8f 3d
       0.07512467 -0.024016777 0.08424037 0.0699638
0002f0 83 88 86 3d 84 84 1c 3c f1 f6 25 bd 70 2c 0f 3e
       0.06569006 0.009553079 -0.040518705 0.13981795
000300 85 ca 20 bd 35 d0 6d 3d 20 f9 dd bc d0 2e 9e bc
       -0.039255638 0.05805989 -0.027096331 -0.019309431
000310 39 03 cb bd 58 5a b4 bc 61 7c 1e 3c fb d8 dc bb
       -0.09912724 -0.022015736 0.009673209 -0.0067397333
000320 02 a9 e6 bc 6a 9a a7 bc 81 c6 f3 bc ed bc 06 bc
       -0.028156761 -0.020459373 -0.02975774 -0.008223754
000330 05 a4 c4 bd a4 8e b7 bc 0d a7 bf 3c d7 e5 cc 3b
       -0.09601597 -0.022406884 0.023395086 0.006252985
000340 f8 13 36 3c ba 1e 29 3d 5b bc 7f 3d da 5e c6 3d
       0.011113159 0.04128907 0.06243549 0.0968606
000350 7a 80 d5 bd 00 45 d3 3c 24 f4 d5 bc ca 19 5f bb
       -0.104248956 0.025789738 -0.026117392 -0.003404247
000360 c4 2a ee 3c ed 19 06 3d eb fc 51 bd 11 b5 fc bc
       0.029073127 0.03273957 -0.051266592 -0.030848058
000370 22 46 9f bb 97 96 f0 3b 52 46 98 3d 14 a6 a3 bc
       -0.0048606554 0.0073421705 0.074352875 -0.019976653
000380 00 dc aa bc d6 d1 1a bd 92 c2 5b 3d 3f b7 50 bd
       -0.020856857 -0.03779777 0.053652354 -0.050956007
000390 19 a3 14 3d bc 04 21 bd 08 ca 29 3d a0 bb a4 3d
       0.036288355 -0.039311156 0.041452438 0.08043599
0003a0 a0 01 fd 3d ea 31 a7 bc d0 c7 23 3d ab f5 60 3d
       0.123538256 -0.020409543 0.039985478 0.054921787
0003b0 ef b4 54 bc d3 2e b6 3d e9 aa 24 3d ec e7 08 bd
       -0.012982591 0.0889565 0.040202055 -0.033424303
0003c0 e1 4d 1c bc 42 09 c9 bd ee 81 3d 3d a7 22 82 3c
       -0.009540052 -0.09816219 0.04626649 0.015885664
0003d0 96 51 39 bc ae 20 cd 3b 25 a4 10 3b 00 a9 0b 3d
       -0.0113109555 0.0062599992 0.0022070494 0.034096718
0003e0 75 a9 3a 3d 74 20 8e bd 0c 32 80 bd ed 7a e0 3d
       0.045571763 -0.06939784 -0.06259546 0.10960946
0003f0 3e c2 83 3d ed e7 20 3d 38 47 c4 3d a8 32 84 3d
       0.06433533 0.03928368 0.095838964 0.064549744

actor_fc.weight f4 [256, 256]
000000 b4 58 fc 3d 0e 36 0c 3d d0 f5 e8 bd 34 c1 9d 3d
       0.12321606 0.034231238 -0.1137501 0.07702866
000010 6f 12 3f be 83 34 dc 3c 5f 5b d6 bc c3 d0 21 be
       -0.18659376 0.026880508 -0.026166616 -0.15802293
000020 95 ea 86 be ad 57 c8 bd b6 0e f9 bc 07 c2 c3 bb
       -0.26350847 -0.09782348 -0.030402523 -0.0059740576
000030 9f 72 ea bd db 44 e6 bd e7 36 4e bd 86 65 58 3d
       -0.114476435 -0.11243602 -0.050345328 0.052831195
000040 b4 9a 10 3e de 46 dc 3d c7 d6 6e bb 4c f3 5e bd
       0.14121515 0.10755704 -0.0036443935 -0.054431245
000050 d3 c2 b3 bd 48 0b a5 bd 62 fd 23 be 33 35 1d bd
       -0.08777394 -0.08058792 -0.16014627 -0.038380813
000060 c1 f4 51 be 0f 85 75 3c 9a 81 05 3e ec de ce 3d
       -0.20503522 0.014985337 0.1303772 0.10101113
000070 a3 60 89 bd 35 cd ae 3e 3b 8c 57 3d 8a 90 99 be
       -0.06707885 0.34140936 0.05262397 -0.29993087
000080 4a 25 38 bd 69 83 5a 3c ac 84 54 bc 1d 50 08 3e
       -0.044957437 0.013336995 -0.012971085 0.13311811
000090 e5 62 41 bd 8e 1d dd be 37 71 68 be 56 d6 ba be
       -0.047213454 -0.4318661 -0.22699438 -0.3649165
0000a0 a4 ad d9 bc 24 60 06 3d 53 9a 09 3d 9d b7 bf bd
       -0.026572056 0.03280653 0.03359444 -0.09361193
0000b0 60 f1 3f 3e 5e b3 a7 bd 9c 0e 01 3e 71 a9 a1 be
       0.18744421 -0.081885085 0.1260323 -0.31574586
0000c0 62 63 a7 be 81 57 85 3e 2b 8b d0 bd 80 41 89 bc
       -0.3269301 0.26043323 -0.10182794 -0.016754866
0000d0 8d 21 96 bd 0b d3 03 3e 11 94 93 bd e2 81 70 be
       -0.07330618 0.12873475 -0.07205976 -0.23487046
0000e0 fb 33 92 3d 39 df 1c 3d a3 a0 6f be 30 fd 92 bd
       0.07138821 0.03829882 -0.23401122 -0.07177198
0000f0 05 83 4a 3d 81 b1 f5 3d fd 43 ce bc b1 ad 1c be
       0.049441356 0.11996747 -0.025178904 -0.15300633
000100 6e ab 86 3c f0 cf 25 3e 03 4b b9 bd b7 8c 86 bd
       0.016439166 0.16192603 -0.090475105 -0.06569808
000110 bb 1d 27 bd ae e7 0c 3e a1 cf ec 3d 18 ab e1 3e
       -0.040799838 0.13760254 0.115630396 0.44075847
000120 86 3c 0a bd 59 27 aa bd fb 16 ad bc 93 17 c3 bd
       -0.033749126 -0.08308286 -0.021129122 -0.09525981
000130 6e 14 c0 be 44 67 56 be 1a 7d 9e 3d c7 77 5f bd
       -0.37515587 -0.2093783 0.07738705 -0.054557588
000140 e1 82 33 bd 4f 1f 16 3d 02 94 9d 3d a5 de 91 3c
       -0.043825988 0.036650952 0.07694246 0.01780636
000150 be 3c e5 bd 69 6e 1a be 3a c4 2e bd 7f cf ac be
       -0.11193226 -0.1508118 -0.042667605 -0.33752057
000160 06 01 ae 3d 4e af ad 3c 3e ee d4 bc c7 d8 b4 bd
       0.08496289 0.021201756 -0.025992509 -0.088304095
000170 98 e3 08 bd 4b 64 f0 bc 7b aa 47 be 17 0b 94 be
       -0.033420175 -0.029344698 -0.19498627 -0.2891471
000180 3c c2 88 3e 14 6b 13 be 26 75 04 3d e7 04 bf 3c
       0.2671069 -0.14396316 0.032338284 0.023317767
000190 3e 16 b9 3c 24 64 a6 bd fa 12 9c bd 39 e9 21 be
       0.022593614 -0.08124569 -0.07620807 -0.15811624
0001a0 d0 f6 1b be 6a 1d 97 be f2 c9 74 3e 2f 37 3d be
       -0.1523087 -0.2951463 0.23905161 -0.18478082
0001b0 b3 02 45 be 70 fc 3b 3e 79 b8 50 be 8d 06 80 3c
       -0.19239311 0.18358016 -0.2038287 0.015628124
0001c0 69 c9 ca 3e 11 66 25 3e c6 81 dc be f1 a3 19 bd
       0.3960679 0.16152216 -0.4306776 -0.037509862
0001d0 19 e0 a4 be 4b c8 54 3c 01 0c 0d be 6e 80 f7 3e
       -0.32202223 0.012987207 -0.1377411 0.48340172
0001e0 51 7a 90 be eb 6e 57 bd b5 5b 82 bc a5 18 66 3e
       -0.2821832 -0.052596014 -0.01591287 0.22470339
0001f0 15 8b 24 3e d9 04 0c 3d 1a f2 43 be c9 95 63 3d
       0.1606868 0.03418431 -0.19135323 0.055562768
000200 e6 71 25 3e 26 d0 29 bc bb 9a 61 be fe e4 19 be
       0.1615673 -0.010364568 -0.22031681 -0.1502876
000210 61 c7 09 be da d9 4b be 6f be 22 be 4b e6 f7 3d
       -0.13454963 -0.19907323 -0.15892957 0.12104472
000220 89 44 50 3d 41 bd 93 3e fd 7c 86 bd 9b 02 88 3d
       0.05084661 0.28855327 -0.065668084 0.06641122
000230 66 04 60 bc ca 86 33 3d 39 8a 07 3c dd bb fa bd
       -0.013672924 0.043829717 0.008272701 -0.12242863
000240 11 ad b3 bd 83 d0 45 bd 8d dc 90 3e 6a ab e9 3d
       -0.08773244 -0.048294555 0.28293267 0.11409648
000250 7d 8b 9f 3d f5 b0 15 be fc 04 ae bd 4f 07 d4 bb
       0.07790277 -0.14618285 -0.084970444 -0.006470598
000260 c1 26 a1 3e 4f 3e f2 3a f0 d0 1f 3b 22 78 da 3d
       0.3147488 0.0018481704 0.002438601 0.10667445
000270 b7 a0 33 3e 30 a7 49 bd 1d 83 8c be 61 aa 8f 3d
       0.17541777 -0.049231708 -0.27443781 0.07014919
000280 ef e9 d0 bd c7 93 ba 3b 9c 00 71 3e c5 b1 ba bb
       -0.10200869 0.005693886 0.23535389 -0.0056974613
000290 8f 13 ad bc c0 fa af 3e 19 73 a0 be 7f 25 ff bd
       -0.02112749 0.34370995 -0.31337813 -0.12458324
0002a0 95 d1 98 3d d5 c9 5b bb 7e 28 c1 bb 1e 8d b1 3e
       0.074618496 -0.003353705 -0.0058947196 0.34677976
0002b0 df 54 a9 bc 3a ef 91 3d 84 e5 9e bb 3a 0b 26 bd
       -0.020670353 0.07125707 -0.0048491377 -0.04053805
0002c0 2f 2f 33 3d 0e c5 a9 be 59 1e f2 3d 1d 13 a7 be
       0.04374617 -0.33158153 0.118221946 -0.3263177
0002d0 86 05 da bd bd e3 33 3e 8b 17 f7 bc 51 36 8c bc
       -0.10645585 0.17567344 -0.030162593 -0.017115744
0002e0 cd 90 9a bd cc c5 05 bd 60 b2 ca 3d 6b ef 9d be
       -0.0754715 -0.032659337 0.098973036 -0.30846724
0002f0 8e 38 12 3d 34 85 5a bc 00 5d af 3e f5 b1 10 be
       0.035698466 -0.013337422 0.3425064 -0.14130385
000300 a6 39 cd bd e1 a8 0d be 77 23 aa bc 0f 97 76 3d
       -0.10020761 -0.13833953 -0.020768864 0.060202654
000310 a2 ed 7d bd 97 d5 88 bc 49 3e 6a 3e 4c 56 09 3c
       -0.061994202 -0.01670341 0.22875322 0.008382391
000320 ec 54 cf 3d f6 49 1e bf 13 3a 4b bb ed 7f b2 3d
       0.101236194 -0.61831605 -0.0031009957 0.08715806
000330 ec 79 83 be 0f 03 b8 3b 2c b0 50 3e 6a f7 9c 3d
       -0.25678957 0.005615599 0.20379704 0.07664378
000340 f0 d6 df bc ce a3 4d 3e 84 bd 98 be df 74 56 3d
       -0.02732417 0.20082018 -0.2983209 0.05235755
000350 3b a6 f1 3e 2a d0 31 3e 26 46 07 bd 89 b1 49 3e
       0.47197136 0.17364565 -0.033025883 0.1969663
000360 ef 16 8d be f7 7e cd 3c 16 c2 49 be 6f 2e 49 bd
       -0.2755656 0.025084956 -0.19702944 -0.04911655
000370 71 78 e5 3c 89 1a 0a 3e b8 c3 68 bc b1 d5 ca 3d
       0.028011533 0.13486685 -0.014206819 0.0990404
000380 c9 ba 3c bd 49 92 15 be ba c4 34 3e 29 cf ff 3b
       -0.04607657 -0.14606585 0.1765317 0.007806678
000390 66 ad 83 bd 59 84 36 be 02 4b 44 3e c7 16 bc 3e
       -0.064295575 -0.17823924 0.19169238 0.36736128
0003a0 74 ec 37 bd 09 c4 e7 3d f7 14 29 be 45 23 eb 3d
       -0.044903234 0.113166876 -0.16511904 0.114813365
0003b0 ae ec 77 be 43 82 a7 3d 8f 21 92 bd 0e 4e 90 be
       -0.2421138 0.08179142 -0.07135307 -0.2818455
0003c0 ee 2d 72 bd e3 1d b8 3d 00 23 09 3e e3 08 9d b8
       -0.059125833 0.089900754 0.13392258 -7.487999e-05
0003d0 c8 0d 4b be 07 ad 74 3d c4 a0 ae 3e c0 af 08 be
       -0.19829476 0.059735324 0.3410703 -0.13348293
0003e0 75 1d 9f bc 43 1e 88 3e e4 d5 ae bc 6c aa 5a be
       -0.019423226 0.26585588 -0.021342225 -0.21354073
0003f0 f3 9f 9e 3e ec 23 d8 bd 8f 9a 73 be a2 c1 2e 3d
       0.30981407 -0.105537266 -0.23789428 0.04266513

actor_fc.bias f4 [256]
000000 de 1f f7 3c 0b 7e 12 bd 27 1e 2e 3a ab 23 42 bd
       0.030166563 -0.035764735 0.00066420663 -0.047397297
000010 bb b9 64 3c 90 05 67 bd aa 23 1d bd be ab 93 3d
       0.013960297 -0.05640179 -0.03836409 0.072104916
000020 43 55 39 3d 7f 44 d6 bb 70 69 3e 3d 1b 9b 89 3d
       0.045247328 -0.006538927 0.04648727 0.06719037
000030 7c 01 0a bd 52 e0 0e bd cd b5 09 bd 05 b3 22 3d
       -0.03369282 -0.034881897 -0.033620644 0.039721508
000040 d1 91 37 bc 44 d3 12 bd f7 5e b2 3c 54 18 f3 3b
       -0.011204199 -0.03584601 0.021773798 0.0074186716
000050 9a 36 97 bd d8 ce 4a bd ae a8 9d 3b a4 47 56 3d
       -0.07383461 -0.049513668 0.004811368 0.052314416
000060 83 46 51 bc 94 05 f2 ba 14 35 c8 bc 85 f5 27 bd
       -0.012773159 -0.0018464797 -0.024439372 -0.04100563
000070 ee f9 24 3c 38 67 a3 bd cc 73 28 bd 0c 3e 80 ba
       0.0100693535 -0.07978672 -0.041126058 -0.0009784116
000080 2d 5a 48 bd 66 0d 51 3c 6c 89 f3 bb c5 c5 08 3d
       -0.048914123 0.012759542 -0.0074321534 0.033391733
000090 dc ed c6 bc a1 92 d4 bb a6 20 c4 bd 58 f6 d9 3c
       -0.024283342 -0.006487206 -0.0957654 0.026606724
0000a0 96 12 ea bb 0a 79 81 bc 8f ca 81 bc 8f de 04 bd
       -0.007143329 -0.015804786 -0.015843658 -0.03243881
0000b0 72 5d 20 bd de ee 34 bd 6a 58 28 3c ab 31 53 3b
       -0.039151616 -0.044173114 0.010274986 0.003222565
0000c0 33 ba 9d 3b 27 01 9c 3c b3 6e 60 3d 5d 4a c8 39
       0.0048134564 0.019043518 0.05479307 0.00038202378
0000d0 e3 02 b3 3d 8c b0 9d bc 87 fa 18 bd e9 0a 8b 3d
       0.08740785 -0.019249223 -0.037348296 0.0678919
0000e0 ed b8 ff 3c ea 62 22 bd cb 58 63 3d 22 fe 12 bc
       0.03121611 -0.039645113 0.0555046 -0.008971723
0000f0 9b 11 51 3d fb 68 80 bd fb 38 5f 3d d8 f8 4a 3d
       0.05104218 -0.062700234 0.0544977 0.049553722
000100 d5 48 6f bd fc da 4e 3c 7f f6 aa 3c 36 80 42 3d
       -0.058419067 0.012625452 0.020869492 0.047485553
000110 b0 04 89 bd 7a 2c d2 bc ed f7 d7 3b e4 c6 47 bd
       -0.06690347 -0.025655974 0.0065908344 -0.04877366
000120 04 60 00 bd 8f 4c 4c 3d f4 6d 1f bd 87 c3 ce bd
       -0.031341568 0.0498777 -0.03892322 -0.10095888
000130 b1 85 36 be c7 1a 3c 3c ad 32 91 3d 81 e7 10 3d
       -0.17824437 0.011480994 0.07089744 0.03537703
000140 c9 5c 45 bd f2 ec 74 3c 5e cf 0d 3d 57 2b a3 bc
       -0.04818419 0.01494907 0.03462159 -0.019918127
000150 ae 05 63 be 77 75 c4 3c 0c db 4f bd 66 72 06 bd
       -0.22170135 0.023981793 -0.05074601 -0.032823943
000160 fc 8c b6 3c 50 e9 ae bd 2a 8b ee 3c ac cc 44 3d
       0.022284023 -0.085405946 0.029119093 0.048046753
000170 20 94 9b 3c f4 8b a9 bd 70 62 5d bd 6d 0f 04 be
       0.01899153 -0.08278647 -0.054048955 -0.1289651
000180 64 b0 54 3d b6 d5 2b bd 69 c3 b4 3d d0 48 b0 bd
       0.05192603 -0.041951858 0.08826334 -0.08607638
000190 78 7d 00 3d 98 82 78 bd 18 13 4b bc e3 bd a4 3b
       0.031369656 -0.06067142 -0.012394689 0.005027519
0001a0 89 e1 75 bd 2a 40 41 3d 94 05 94 3c 5a 01 2f bc
       -0.06002954 0.047180332 0.018069066 -0.010681475
0001b0 33 f4 84 3d 91 72 45 bc 38 cd 3b 3d 5e c7 ff bc
       0.0649189 -0.012051241 0.04585001 -0.031222995
0001c0 2b c0 75 bd a1 76 23 bd 90 ff 00 3d ca 0c 01 bd
       -0.05999772 -0.039908055 0.031493723 -0.031506337
0001d0 b4 4c 87 bd c0 de 4c bd 19 c2 53 3d 3c 5d 68 bd
       -0.06606427 -0.05001712 0.051698778 -0.05672954
0001e0 b1 ba f2 bd 7b 4d ab bd 1f 8d cd 3b 38 11 1b bd
       -0.11852015 -0.083643876 0.0062729265 -0.037858218
0001f0 55 7a ef 3c da 36 7a bb bf 3d 40 3d 7a b5 4a bd
       0.029233137 -0.0038179667 0.046933886 -0.049489476
000200 dc be 1e 3d 15 fc b4 3c ec c7 a5 3b 54 59 12 3d
       0.038756236 0.022092858 0.005059233 0.03572972
000210 2f cd 6e 3c e4 61 2c 3c a6 44 44 3c de 67 0b bc
       0.014575287 0.010521386 0.011979258 -0.008508651
000220 07 d3 ee 3b f0 2a 8b 3d 3d 99 81 bc 75 b4 64 3c
       0.00728834 0.06795299 -0.01582014 0.01395904
000230 c3 2b 39 3d bb b3 b2 bc b8 81 48 bd 01 47 ef bc
       0.04520775 -0.021814218 -0.048951834 -0.029208662
000240 93 59 3c bd 61 a3 4d bd d9 71 2a bc 79 5c d2 bc
       -0.045983862 -0.05020464 -0.01040312 -0.02567886
000250 29 98 c5 3c 72 40 ab 3c 14 fd 7c bd 0a 22 38 bd
       0.024120407 0.020904753 -0.06176479 -0.044954337
000260 dc b1 18 3d 8d bd 0d 3d 86 5a cf bd a6 c8 d3 3b
       0.037278995 0.034604598 -0.10124688 0.006463128
000270 56 fb 11 bd 25 d2 c6 bc 96 6a 6f 3c f3 94 e4 3c
       -0.035640083 -0.024270127 0.014612814 0.027903056
000280 8d 6f ec bc 0a c7 21 3d 2f b3 db bc c0 94 de bc
       -0.028861785 0.03949646 -0.02681884 -0.027170539
000290 1c 56 a3 3d e8 e1 0d bd a0 b0 15 bd 31 34 66 bd
       0.079754084 -0.03463927 -0.036545396 -0.056202117
0002a0 f8 2a 5a 3c 38 04 5b bd 24 48 8a bd 71 fd 4d 3c
       0.013315909 -0.05347082 -0.06752041 0.012572632
0002b0 0f d1 9e bc 28 36 a8 3d eb ad 07 b9 0f 76 32 3d
       -0.019386796 0.082134545 -0.00012939393 0.04356962
0002c0 29 0f 77 3c 98 02 d5 3d 4c 4a 1e bd f6 93 79 ba
       0.015079298 0.10400885 -0.038645074 -0.0009520644
0002d0 bd 99 6d 3c 6e 60 16 bd c0 42 e8 3c 2f 4c 83 3d
       0.014501986 -0.036713056 0.028352141 0.06411015
0002e0 d9 05 aa bd ee d3 a6 39 f2 ca 3f bd 55 fa 0c bc
       -0.083018966 0.00031819887 -0.046824403 -0.008604606
0002f0 be 75 22 bd 47 cd 83 bd 36 6d 8b bc 62 f1 45 bc
       -0.03966307 -0.06435638 -0.01701985 -0.012081476
000300 dd e5 83 bd c1 52 f1 3c 1c a2 20 3d 77 35 e8 bc
       -0.06440327 0.029458405 0.0392171 -0.028345807
000310 7c c0 f9 bc 03 21 12 3d 77 80 06 3d ff 78 b1 3c
       -0.030487292 0.035676014 0.032837357 0.02166414
000320 3e 28 4e bd bc 6b 09 3d 5e c5 1f bd 97 f9 87 bd
       -0.050331347 0.03355001 -0.039006583 -0.06639402
000330 b7 6c 0b bd 57 6c 21 bd cd e9 67 3d 36 7d a0 3c
       -0.034039225 -0.03940996 0.056619454 0.019590955
000340 d6 a6 ff 38 4f d1 d2 bd 9e fb 0a bd 08 0b 77 3d
       0.00012190423 -0.10293829 -0.033931367 0.060313255
000350 23 7c f6 bc 1b 6e 62 bd 65 0f 70 3d a2 d0 88 bc
       -0.03008849 -0.055280786 0.05860843 -0.016701046
000360 06 7e 6c 3d ff ef 94 3d c1 99 79 bc e5 e6 86 3c
       0.057737373 0.07272338 -0.015234412 0.016467521
000370 a4 ed dc 3b c0 f3 ac bd d8 2a 23 3d 32 ff aa 3c
       0.006742196 -0.08444929 0.03983578 0.02087364
000380 11 01 3d 3d 38 d7 d6 bd c1 40 12 3d 5f ba b1 3d
       0.046143595 -0.104902685 0.035706285 0.086781256
000390 ba b6 25 bb 04 4b ea bd b5 53 1e bd 15 bf 89 3d
       -0.0025285915 -0.11440089 -0.038654048 0.06725899
0003a0 b6 2e 81 3d 73 3e 52 3d 4b cf bd 3b af 11 0c bd
       0.063077375 0.051329087 0.0057925335 -0.034196552
0003b0 22 95 24 3c b7 56 37 3c 10 a4 07 bd f6 dd 46 bd
       0.010045322 0.011190108 -0.033115447 -0.048551522
0003c0 b8 ab e0 bd 21 8f b5 bd 13 8e 20 bd b0 de c5 bc
       -0.10970253 -0.0886519 -0.039197993 -0.024154037
0003d0 a3 dd 16 3d e6 43 0e bd 49 9a 0b bd 9e 6c eb bc
       0.036832463 -0.03473272 -0.034082685 -0.028738316
0003e0 d2 12 fa ba 79 a5 dd bc ff 1b 7d bd 21 8a 52 bd
       -0.0019079095 -0.027056443 -0.061794277 -0.05140126
0003f0 32 46 e1 3c 07 d4 cc bc 34 95 2f 3d f7 48 5a bd
       0.027499292 -0.025003446 0.0428669 -0.05329224

actor_out.weight f4 [12, 256]
000000 bf db 83 bd b5 39 ab 3d 7e 94 95 3d dc f0 bd be
       -0.064383976 0.08360616 0.07303713 -0.37097824
000010 56 30 1d bd 7c 92 30 3e e7 17 f7 3c c9 17 cc bd
       -0.038376175 0.1724338 0.030162765 -0.09965474
000020 e9 ee 8d be 39 40 9b 3e 83 b1 3e 3e a7 0b 2e 3d
       -0.27721336 0.30322435 0.18622403 0.04249158
000030 bc ba 4a be f3 f9 05 3c a1 cc 19 be 20 86 94 be
       -0.19797796 0.008177268 -0.15019466 -0.2900858
000040 e5 03 85 3d 38 6b 5c bc 4c d9 61 3d 24 d2 bb 3d
       0.064948834 -0.013453297 0.05513887 0.091709405
000050 5f d7 f2 3c b5 e4 b2 3e 3e 3a 46 3e 5d 0d 9e 3e
       0.029643713 0.34940115 0.19358155 0.3086957
000060 a2 df be 3e 95 2b 82 3e 01 61 c1 bd e5 b7 5b 3e
       0.37279993 0.25423875 -0.0944233 0.21456869
000070 e2 54 10 3f 29 88 94 3e 6b ec d4 3d 2a 37 f8 bd
       0.5637952 0.29010132 0.10396656 -0.12119897
000080 2e 2a 8a be fe 5d 02 3c b9 c9 0f be cd 72 6b be
       -0.26985306 0.00795698 -0.14041795 -0.22993012
000090 b1 3f 59 3c db 72 dc bd 39 ba 4e be 65 cf b9 3d
       0.013259814 -0.107640944 -0.20188226 0.090727605
0000a0 eb 73 11 3e ee 9a aa be 52 a6 71 3e 21 e7 08 3e
       0.14204375 -0.33321327 0.23598602 0.13369419
0000b0 09 75 c3 bd dc a1 b3 3c 31 dd 69 3d 30 07 bb 3d
       -0.09543807 0.021927767 0.05709571 0.0913223
0000c0 e1 dd df bd ca 40 0b be 0d 0c 8d 3f 08 61 f7 3c
       -0.10930992 -0.13598934 1.1019303 0.030197635
0000d0 37 08 c1 bd f2 35 b5 3e ae 6c 75 be d2 22 9c 3e
       -0.09425395 0.3539272 -0.2396724 0.30495316
0000e0 36 6f a1 be 6a 1c 33 3e 6e 62 d9 bd f4 e9 f7 bc
       -0.3153016 0.17491308 -0.10614477 -0.030262925
0000f0 5a 55 0d 3e 87 4d 95 3e 47 58 b5 be 27 04 8f bd
       0.1380209 0.2916071 -0.35418913 -0.06983214
000100 bc 1b 1d 3e 38 38 b6 bb f0 16 0b be 0d a8 df 3e
       0.15342611 -0.005560901 -0.13582969 0.436829
000110 9c f8 1f 3e 6e e2 a1 3d 72 af bd 3d a3 65 cf 3d
       0.1562218 0.07904516 0.09261979 0.101268075
000120 c4 56 f5 3c 1e aa 2c 3d ce 9f 75 bd 63 24 10 be
       0.0299486 0.042154424 -0.059966855 -0.1407638
000130 37 99 c9 bc d7 e9 2c bc e3 80 c9 be fc 51 6e 3e
       -0.024609191 -0.010553799 -0.39356145 0.23273462
000140 55 83 39 3e ab 72 f7 bd 2c e6 17 3e fe ba 24 3e
       0.18116505 -0.12082418 0.14833897 0.16086957
000150 37 13 b6 bb 12 d3 63 bd 8d 2a 93 3c 6d 84 67 3d
       -0.00555649 -0.055621214 0.017964626 0.056522775
000160 26 de 5e 3e 23 fb 99 3c 9f f3 c1 3b f9 bf 52 3d
       0.2176443 0.01879651 0.0059189345 0.05145261
000170 44 fc 5d bc d7 ab 15 3e d4 ef 5f be a7 a6 e2 3d
       -0.013548914 0.14616333 -0.21868831 0.11066943
000180 31 6b a3 3c a0 4c 9d bc 0a bb a8 3c e0 00 9c be
       0.019948574 -0.019201577 0.020597 -0.30469418
000190 d2 33 40 3e 5b a1 35 bd 17 d9 9d 3e 07 14 22 3e
       0.18769768 -0.044343334 0.3082969 0.15827952
0001a0 f4 f8 d9 be fc da ed 3c bf c0 42 3e 04 fd 10 3f
       -0.4257275 0.029035084 0.1901884 0.5663607
0001b0 8e 5e 6c bb cd 23 a6 3d 64 09 c9 bc fb ec 3c 3d
       -0.0036067101 0.08112297 -0.02454061 0.04612444
0001c0 bc ac c3 3d 6c 72 92 3c 21 c1 d8 be cf e8 2a 3e
       0.09554431 0.017876826 -0.42334846 0.16690372
0001d0 23 de d2 3d df be cf 3d e5 18 f8 bd 86 f2 b9 be
       0.102962755 0.10143828 -0.12114123 -0.36317843
0001e0 e3 92 f6 3c 5c b6 99 bd 64 c7 96 be c7 c7 80 be
       0.030099338 -0.075054854 -0.29448998 -0.25152418
0001f0 62 1b 73 be c8 87 28 3e 86 4f 0a bd d8 30 10 3d
       -0.23740914 0.16458046 -0.033767246 0.03520283
000200 31 26 ad be cf 34 37 bf 74 ad fd bc 20 74 5b be
       -0.338182 -0.71564955 -0.030966498 -0.21431017
000210 ce 2b 37 bc 75 ab 71 3e 0f 9d a2 bd 87 5d 7e be
       -0.011179877 0.23600562 -0.07940113 -0.24840365
000220 62 4a 52 3d 56 e6 ad bd 38 21 60 be 7f f7 85 bd
       0.05134047 -0.08491199 -0.21887672 -0.06541347
000230 0f 76 9d be de b4 a8 3d 0f e8 4e be d5 bf d9 be
       -0.30754134 0.08237623 -0.20205711 -0.4252917
000240 fe 81 4e be e2 c5 8b bd 93 8a 96 bd ca 5a 0c be
       -0.20166776 -0.068248525 -0.0735065 -0.13706508
000250 6a bb bd 3d 2d 78 c7 3d 06 60 0f bc d6 d1 92 bd
       0.09264262 0.097397186 -0.008750921 -0.07168929
000260 01 ff df 3c 19 97 a4 3d 6c 11 0e bf 2d ac 24 be
       0.027343275 0.08036632 -0.55495334 -0.16081305
000270 22 da 15 3d ac 4d 2d 3b 6c c8 dd 3d 74 a7 5f be
       0.03658498 0.0026444 0.10829243 -0.21841222
000280 2d a8 bc 3d 4a 1c 80 be d9 a3 72 bd da e5 81 3e
       0.092117645 -0.25021583 -0.05923829 0.25370675
000290 10 81 17 3e 18 54 f9 3d 4e 3e b6 bd 38 5a 9e bc
       0.14795327 0.12174243 -0.088986024 -0.019330129
0002a0 a1 8a 8c 3e d2 f4 72 3e 1d 8b f6 bd 45 d0 5d 3e
       0.27449515 0.23726204 -0.120382525 0.2166148
0002b0 a4 fb 4c bd 02 9a 6c be c5 26 96 3e 77 4c d3 bd
       -0.05004467 -0.23105624 0.29326454 -0.10317319
0002c0 1e df 1b bf ff 4e 8a 3e 06 b9 d1 be 5e 96 00 3d
       -0.60887325 0.27013394 -0.40961474 0.0313934
0002d0 d0 32 40 be 7d 83 b8 bd c3 21 b0 3e c4 fd 98 3e
       -0.18769383 -0.090094544 0.34400758 0.29881108
0002e0 96 40 8a bd ac ef 92 3e a7 20 6f 3d 69 fb 06 3e
       -0.067506 0.2869848 0.05838075 0.13181843
0002f0 3e f7 4b 3b 32 72 0a be 70 16 ac 3e 6a 19 bb 3d
       0.003112271 -0.13520125 0.33610868 0.09135707
000300 67 7e 2b 3e d8 76 89 3e 0d 4d 13 3e 1f 32 07 3d
       0.16747437 0.26848483 0.14384861 0.033006784
000310 b3 5f 5b 3e 71 d4 4d 3c 15 14 95 3e 72 8e 64 be
       0.21423225 0.012562857 0.29116884 -0.22319964
000320 f8 47 e0 3d cd 1a 51 3d 4d 2d e6 3e c5 1c ae 3d
       0.10951227 0.05105095 0.44956437 0.08501581
000330 27 7a d1 3b 84 e4 b3 be 2e 6d 91 3e c5 cc 6c be
       0.0063927355 -0.3513528 0.2840361 -0.23124988
000340 8b a3 17 bf db 02 bd 3e 0d 65 4d 3c 0e 52 9f 3e
       -0.5923392 0.3691624 0.012536299 0.3111729
000350 91 f8 5f be 2f 55 80 be 87 db 32 be 06 34 b2 bd
       -0.21872164 -0.2506499 -0.17466556 -0.08701329
000360 21 18 4b be f2 87 d0 bc ff 8f 9c 3c 9a ff ad 3e
       -0.19833423 -0.025455449 0.019111631 0.3398407
000370 74 27 c7 3d df 8a 8a 3d 11 64 23 be c4 95 3a 3e
       0.09724322 0.06764769 -0.15956141 0.18221194
000380 4e 42 0c 3d f1 24 43 be 4a ff b0 3e d0 27 a0 3d
       0.03424292 -0.19057061 0.3456977 0.07820094
000390 63 03 cf 3c 35 91 a4 bd 01 e1 99 bd 3e 06 e7 3d
       0.02527017 -0.080355085 -0.07513619 0.112804875
0003a0 f9 1d 0f be fc 45 13 3e 8b 1e 13 bf 02 87 dd bc
       -0.13976277 0.14382166 -0.5746848 -0.027041916
0003b0 6d 22 ad 3e e5 49 c5 be d9 cc 17 3e 87 8e 5a bd
       0.33815327 -0.3853294 0.14824237 -0.05335858
0003c0 73 09 6f bb 8b 78 b2 3e dc 63 5d bc 6a 9c fe be
       -0.0036474138 0.34857592 -0.013512578 -0.4972871
0003d0 19 bd f1 bd d3 ea bf be d6 fc e4 3d 0b a6 47 bc
       -0.11803646 -0.37483844 0.11181037 -0.012185584
0003e0 41 37 5d be ee f1 b9 3d b4 a6 eb bd 19 22 0e 3e
       -0.21603109 0.090793476 -0.115064055 0.13880195
0003f0 35 b1 09 3f da 2a c1 3c 4b cf 24 3e 62 bb b5 3d
       0.5378602 0.023580004 0.16094701 0.08873631

actor_out.bias f4 [12]
000000 53 5f ae 3d 03 8b 8e bd 82 38 a7 bb f7 da f8 3c
       0.085142754 -0.06960108 -0.005103172 0.030377848
000010 9b 7a d2 bd 96 c6 21 bd 45 34 29 3d 40 f8 27 bc
       -0.102772914 -0.039496027 0.041309614 -0.0102520585
000020 0c 61 40 bd f4 5e e0 3c 22 b8 b9 3a a2 d0 59 3d
       -0.04696755 0.027389027 0.0014169256 0.053177483
