networks/saved_model/ppo_model_ep600.pth (torch, 840050 bytes, 11 tensors)

shared_fc1.weight f4 [256, 31]
000000 99 19 8e be d4 49 64 3e a2 c8 6c 3e ef 99 f6 3c
       -0.27753904 0.22293788 0.2312341 0.030102698
000010 69 6f c5 3b a7 fb 14 3d 3d 33 1c 3c 36 12 53 bd
       0.006025244 0.036372807 0.0095337005 -0.05153104
000020 f3 b2 0e 3e da 76 43 3d 4d 14 ac 3d bb 10 94 3d
       0.13935451 0.047720768 0.084023096 0.072297536
000030 b2 cd 10 be eb f6 09 3e e2 4b 84 3c eb 4f 01 bd
       -0.14140967 0.13473098 0.016149465 -0.031570356
000040 ae f1 f6 bb 92 51 e5 be 2d 68 98 3d 8e 78 eb 3f
       -0.0075361347 -0.44788796 0.07441745 1.8396165
000050 25 cf 49 be 39 0e 23 bf a6 cf ca bd 47 fd ce 3d
       -0.19707926 -0.6369358 -0.09902887 0.101069026
000060 9e 58 85 3b 1d 78 f0 bd 1c 8c 61 3b 8b 4d 5f 3d
       0.004069402 -0.1174166 0.0034415787 0.05451731
000070 fe dd 8f bd e2 53 c1 bc 13 11 fe 3d 5e 2d a6 3d
       -0.070247635 -0.023599569 0.124056004 0.08114122
000080 a5 68 dc 3d 64 35 ee 3b e2 26 0c 3e d1 75 99 3d
       0.10762147 0.0072695483 0.13686708 0.07493175
000090 00 4d 84 bd 60 40 ca 3d 04 83 be bd 52 94 17 3e
       -0.06459999 0.0987556 -0.09302333 0.14802673
0000a0 1b 7f 83 bd 7e 95 67 bc 7a 1c 08 3e 0a e4 26 bd
       -0.06420728 -0.014134763 0.13292113 -0.04074482
0000b0 51 40 07 bd 58 93 2a 3d b9 9b 99 3d 57 e7 9b bc
       -0.03302032 0.041644424 0.07500405 -0.01903121
0000c0 34 3f 06 3e 61 08 81 3e 22 24 30 be 5e ee 36 bf
       0.13110048 0.25201705 -0.17201284 -0.7145747
0000d0 23 84 c6 3d 0b ab 1b 3e c6 8c ea 3d 3e 33 8e bd
       0.09693172 0.15201966 0.11452632 -0.069433674
0000e0 33 4b c2 3d 1d 58 c9 bd dd 26 89 3c 83 42 46 3d
       0.09486999 -0.098312594 0.016742164 0.048403274
0000f0 2b 04 61 bd c8 c7 25 3d d4 45 bd 3d 92 d4 8d bc
       -0.054935616 0.04047373 0.09241834 -0.017313275
000100 9b a8 80 bd 3a 44 ee bc 7b 22 a8 be 4d f0 95 3c
       -0.06282159 -0.029085267 -0.32838807 0.01830306
000110 a6 da d7 bd 5a 40 ee bd 14 64 81 3d c1 66 c8 bc
       -0.10539751 -0.11633368 0.063179165 -0.02446306
000120 ba b6 5e be 1d b1 69 3e 5d bf 74 3d 14 5b 2c be
       -0.21749392 0.2282147 0.05975281 -0.16831619
000130 40 51 70 3d 5c 8d 9e 3d 7d 58 6c 3d 58 ac 85 3e
       0.058671236 0.07741806 0.057701577 0.2610805
000140 c3 8e bf bd d5 42 87 be 8f 0e cc bd 7f 27 90 3c
       -0.093534015 -0.26418176 -0.09963714 0.017596958
000150 b3 c2 23 3c f8 b4 2b be 92 1b a3 3c 84 e0 41 be
       0.00999515 -0.16768253 0.019910607 -0.18933302
000160 9a a5 5b 3d da 91 23 bc 34 be 06 3e 38 3e 09 3e
       0.053624727 -0.009983504 0.13158494 0.13402641
000170 2d 89 55 bd af ee 5c 3e 28 e1 0e 3d ca c4 7e bd
       -0.052132774 0.21575426 0.034882694 -0.06219939
000180 ef bf a0 bd c7 df 19 be 0b d7 e9 bd 8f 82 f7 bd
       -0.078491084 -0.1502677 -0.11417969 -0.12085449
000190 c6 de e4 bc f0 aa 63 be 0a b5 b2 3e 44 41 fb be
       -0.027938258 -0.22233176 0.34903747 -0.4907323
0001a0 f7 7f 8b 3e 5a 98 53 3d 96 86 b7 3d 66 fb 6f 3e
       0.27246067 0.051658966 0.08961217 0.23435745
0001b0 de 0a 21 3e 3e 11 25 bd 6a c3 1b 3e 1a 85 81 bc
       0.15726802 -0.040299647 0.15211263 -0.015810538
0001c0 92 48 da 3e 45 59 cd bd be bc 22 3f 58 0f 4c be
       0.42633492 -0.100267924 0.6356925 -0.19927728
0001d0 19 88 6c 3d 57 8f e6 bb bc 9b d6 bd c8 41 15 3d
       0.05774698 -0.0070361304 -0.10478923 0.036439687
0001e0 b6 75 d4 3d ef 43 db 3d 9a 32 92 3d 8e 96 8a 3d
       0.10374014 0.10706317 0.07138558 0.06766997
0001f0 5c f2 c2 be 4d a7 5b 3e ad 91 0b 3d 45 96 11 bc
       -0.3807553 0.21450539 0.034074474 -0.008885925
000200 bd 67 1a be bf c3 69 3e 1a f8 7a be f5 79 c4 3d
       -0.15078636 0.22828577 -0.24508706 0.09593574
000210 01 38 36 3e 31 86 9b 3d 17 11 41 3e 6a 05 de 3d
       0.17794801 0.07593954 0.18854176 0.108408764
000220 6a 60 72 bd d4 66 cb 3c f3 7c 1f 3d 56 28 9a bd
       -0.05917398 0.024829306 0.03893752 -0.07527225
000230 1f fa c8 bd f6 1a 82 3c b4 fc b8 bd 57 7a 85 3e
       -0.09813332 0.015881997 -0.09032574 0.260699
000240 2b b4 71 bf 5c 1d 19 3f 1e 9e d4 bd 85 a5 e2 3d
       -0.9441554 0.59810424 -0.10381721 0.110667266
000250 8f 21 94 3c 09 4b 7d bd 88 5d 14 bd d1 0c 6b 3d
       0.018082408 -0.061839137 -0.03622201 0.05738527
000260 a7 ce 4d 3d f4 06 fe 3d 10 70 1e bd 3c 30 97 3d
       0.050245907 0.1240367 -0.03868109 0.07382247
000270 06 fe 73 3c d9 28 09 3d 81 0c 82 be f8 d4 08 3e
       0.014892107 0.03348622 -0.25400165 0.13362491
000280 f9 fb 15 be da 8d c9 bd 93 93 97 be e8 dc 3b be
       -0.14646901 -0.09841509 -0.29604778 -0.18345988
000290 1f 5e e1 bd 88 62 58 be c9 30 c8 3d 74 3c 3e be
       -0.1100428 -0.21131337 0.0977493 -0.18577749
0002a0 5d 7e 0e bb 1c a6 c2 3c 4f e0 81 3b ad 4e 21 3e
       -0.00217428 0.023760848 0.0039635072 0.15752669
0002b0 9a 1e b3 3d db df 4e be bf a7 bf be f5 38 01 be
       0.08746071 -0.20202582 -0.37432668 -0.12619384
0002c0 d0 31 ed be 53 21 4e bc 6e 2c 18 3e 45 1c 64 3e
       -0.46327066 -0.012581187 0.14860699 0.22276409
0002d0 d5 61 93 bd 4a 32 d7 3d 8a b9 be 3d 11 27 22 3d
       -0.07196394 0.10507639 0.093127325 0.039588038
0002e0 7e 4e 3a 3c 6b 03 01 3e f6 a1 11 bf 75 9d a2 bd
       0.011371253 0.1259896 -0.5688776 -0.07940189
0002f0 4c 22 1c 3e 5c c1 8a bc 52 93 70 bd 30 07 53 3e
       0.15247458 -0.016937904 -0.058734246 0.2060821
000300 cc 3e a1 bd 2a 79 2e 3e 71 73 8e 3e 46 24 4f 3d
       -0.07873306 0.17038408 0.2782245 0.050571702
000310 18 88 16 bd b6 ee cd bd a6 bd a2 3d db 3b 0c 3e
       -0.036750883 -0.10055296 0.07946329 0.13694708
000320 b5 b6 51 3e 0e 32 c9 3d 40 ed 81 bd 9d 35 3a 3e
       0.20479853 0.09824 -0.0634408 0.18184514
000330 88 46 b8 bc f6 61 c7 be 4b 1c 92 be 9e cc 32 3d
       -0.02249457 -0.38941926 -0.2853721 0.04365217
000340 1b 4a 7e 3c ad 1e 04 3c f5 9c a4 3e 29 8a ae be
       0.015520598 0.008063954 0.32151 -0.34089783
000350 29 b2 eb bd 4b 2b 2a bd 0f e3 0d 3e db c1 27 3e
       -0.11508591 -0.041545194 0.13856147 0.16382544
000360 42 ac 86 3d fe 5b ed 3d 2f 46 2c be b0 ef 91 bc
       0.06575824 0.11589812 -0.16823648 -0.017814487
000370 64 52 9c bd 39 b6 cd bb b6 23 5f be 76 a0 33 be
       -0.07632902 -0.006277826 -0.21790966 -0.1754168
000380 d8 cd 32 be d2 41 4f be 07 a3 4b 3c 9a d6 e3 bd
       -0.17461336 -0.20239952 0.0124290055 -0.111249164
000390 a5 36 99 3d 9c 09 dd 3c 75 5d 9f bc 2a 08 4b bd
       0.07481126 0.026982121 -0.019453743 -0.049568333
0003a0 45 96 94 bd 4c 11 30 3e 39 9b 02 be 38 6e 62 be
       -0.07255224 0.17194098 -0.12754525 -0.22112358
0003b0 af bd 22 3f ff e0 22 3d c5 0e 80 bf 9d 74 14 3d
       0.63570684 0.039765354 -1.0004507 0.036244024
0003c0 98 b3 56 3e 39 67 44 3e b9 b9 44 be c7 cd 65 bd
       0.20966947 0.19180001 -0.19211473 -0.056104448
0003d0 bf 61 2b 3e 5e 11 88 bd 7d 89 dc bc 3a ff ba bd
       0.16736506 -0.066439375 -0.026921028 -0.09130712
0003e0 bb 36 88 be d5 7e 41 3d 0f 27 f2 3d 73 ea 7d 3e
       -0.26604256 0.047240097 0.11823856 0.24796467
0003f0 02 7f 50 be c9 07 8e 3d 16 0b af 3d 62 a7 98 bc
       -0.2036095 0.06935079 0.08547036 -0.018634502

shared_fc1.bias f4 [256]
000000 37 b1 2e bd e0 d1 6b 3d 25 71 01 be 2a 46 89 bd
       -0.042649474 0.0575732 -0.12640817 -0.06702836
000010 99 fd 5b bd 6f 7f 9f bc f7 56 8a 3d 18 68 a4 bb
       -0.053708646 -0.019469945 0.067548685 -0.0050172918
000020 23 f2 f7 3c 50 b3 e6 3b bb 9b 97 3c 20 7a c1 bd
       0.030266827 0.0070404187 0.018506875 -0.094471216
000030 ad c1 17 bc 7c 1a 9e 3b 10 a5 31 3d e7 ad 72 3c
       -0.0092624845 0.0048249345 0.043370306 0.014811969
000040 84 4b 45 bc 84 0b 6a 3d 83 3b 29 3c 21 f7 7d 3c
       -0.01204193 0.05713989 0.01032913 0.015500815
000050 7d 5a 99 bc 28 6a 51 3c 21 0c 49 be 9e f0 b2 be
       -0.018719906 0.012781657 -0.19633533 -0.349492
000060 9b e0 88 bd 43 c1 5b bd f4 bb 85 bd 23 06 f1 3b
       -0.06683465 -0.053651106 -0.0652999 0.007355468
000070 6a e5 56 bd a1 a4 83 3d 09 92 fe bd fc 34 c2 3b
       -0.05246488 0.06427885 -0.12430198 0.0059267264
000080 a1 8d 17 3d 96 0c 22 bd 8b 3f 2a bc 91 52 ac bc
       0.037000302 -0.039562784 -0.010391126 -0.021035464
000090 ae e3 79 bc 6a 17 73 bc 05 9f 6f bd 8b 7d df 3d
       -0.015252037 -0.014837125 -0.058501262 0.10912617
0000a0 3e 3d bd bd 9e e6 86 ba 06 51 2d 3d b2 ef 39 3d
       -0.09240197 -0.0010292118 0.042313598 0.045394607
0000b0 83 ba 14 bd 3f 3e 72 bc bc 51 73 3d 20 12 4b 3d
       -0.036310684 -0.014785348 0.05940412 0.049577832
0000c0 43 8e 55 3d 15 8d 11 bc 87 41 40 3d 09 3c 6d 3d
       0.052137624 -0.008883734 0.04693749 0.057918582
0000d0 07 3f 87 bc 8e f6 82 3b f0 09 95 3d e8 db 47 bd
       -0.016509546 0.0039966768 0.07277286 -0.048793703
0000e0 50 08 53 3c 47 a6 20 bd 3e c1 3a 3d be 4e 1d 3d
       0.0128804 -0.039221074 0.045594446 0.038405173
0000f0 8e 24 01 bd d0 11 93 3c 23 6b 16 3d 01 6a 06 bd
       -0.031529002 0.01795283 0.036723267 -0.032815937
000100 5c fa 07 3d aa 28 c7 3c de 3f 22 3d 2e f0 b8 bd
       0.033197746 0.024311382 0.03961169 -0.09030186
000110 96 56 1c 3d 6e 4c 1f 3d ce 4c 60 3c 69 2b 01 3d
       0.038168512 0.03889125 0.013690187 0.03153554
000120 88 8d 29 3d bc f6 56 bc 36 de 05 be 56 ee cc 3c
       0.04139474 -0.0131203495 -0.13073048 0.025015991
000130 85 28 23 bc 62 a9 aa 3d 68 c0 51 bd 69 7b 01 3b
       -0.009958391 0.083330885 -0.051208884 0.0019757396
000140 db fa e1 bc b3 95 db 3c b1 ab 15 3d 24 ee 83 3d
       -0.027585438 0.02680478 0.03654069 0.06441906
000150 ac 15 80 bc 55 fc 47 bc 69 5a 38 bd 41 33 14 3d
       -0.015635334 -0.012206157 -0.045008097 0.036181692
000160 af 4c b1 3c 35 70 0c 3d 66 0f 14 be 16 28 b4 3d
       0.02164301 0.034286696 -0.14458999 0.08796708
000170 61 af 5d 3d 2c 59 aa bc f9 65 7d 3c ba 0f f8 bc
       0.054122332 -0.020794474 0.015466207 -0.030280937
000180 ee 1d b3 bb e3 69 32 bd 9b 61 11 bd e6 34 ce 3d
       -0.0054662144 -0.043558013 -0.035493474 0.10068683
000190 28 bd 97 bc 86 d6 4e 3d c8 f0 89 3b 41 d6 b4 3b
       -0.018522814 0.050497554 0.0042096116 0.005518705
0001a0 f1 bc 08 bd 46 1e 00 3d ea 83 55 3c 40 5b fd bd
       -0.033383314 0.03127887 0.013031939 -0.1237092
0001b0 12 17 68 bc cc 60 00 3d 3e 11 eb bb d9 93 28 3d
       -0.014165657 0.031342313 -0.0071736863 0.041156624
0001c0 6b 47 88 3c 42 95 08 3d 33 7c 69 be 52 93 31 3d
       0.016635617 0.03334547 -0.22801284 0.043353386
0001d0 3e 8d 05 bc 99 f9 05 bd 76 e8 15 bc 3d 17 99 3d
       -0.008151351 -0.032708738 -0.009149661 0.074751355
0001e0 7a bc 24 3c a3 c9 9e bb f5 08 9d 3c ce 41 5f 3b
       0.010054702 -0.0048458143 0.01916931 0.0034066322
0001f0 2c 9e ad 3c 3d 53 d0 3b b6 5f 39 bc 1c 0b 5f 3c
       0.021193586 0.006357579 -0.011314323 0.0136134885
000200 d9 de f2 3b 39 e1 c5 bd d2 f1 37 3c 3a dc c0 3b
       0.0074118194 -0.096620984 0.011227088 0.005885628
000210 c4 72 8e 3d a3 e1 d3 3d 4f fa 71 3d 24 94 ce 3c
       0.069554836 0.10345771 0.059076604 0.025217123
000220 de b5 3c be 1c f4 45 3b 95 74 5a bc b2 37 a1 3c
       -0.18428752 0.0030205315 -0.013333459 0.019679878
000230 f8 90 f3 3c 77 f4 16 bb 69 11 18 3d 5b ad 3e 3d
       0.029732212 -0.0023033896 0.03712598 0.046552043
000240 9d c5 54 3c a3 79 f2 3c 74 9d 0d bd 7d 13 f4 bc
       0.012986568 0.029599017 -0.034573987 -0.029794449
000250 da 02 ec 3b ca 6a a6 3d af fa 6f bc 08 22 ac 3c
       0.0072024884 0.08125837 -0.01464717 0.021012321
000260 b7 f8 b3 3d 07 38 1b be 2b c3 00 3d 1c 99 07 3c
       0.08787673 -0.15158091 0.031436127 0.00827625
000270 5e 9e 87 bd 20 54 5e 3c e2 f0 72 3d a8 61 14 3e
       -0.06622003 0.013569862 0.059311755 0.14490378
000280 3e 56 2a bd aa 71 3d 3d 35 49 8e 3d c9 7e 75 be
       -0.041586153 0.046250977 0.06947557 -0.23974146
000290 49 ae 1c 3d a8 3e be 3c cb 71 02 3d c1 26 5c bc
       0.03825215 0.023223236 0.031846803 -0.013436974
0002a0 48 24 4c 3c 8b 17 b5 bc e2 11 ec bc 09 d5 15 bd
       0.012459822 -0.022105953 -0.028817121 -0.03658012
0002b0 96 f4 6e bb fd bc 61 3d 4d f3 dc 3a 55 78 8b 3c
       -0.0036461703 0.055111874 0.0016857177 0.017025152
0002c0 c2 6a 83 39 fb 50 70 39 ff e3 a1 bd f8 c4 92 3c
       0.00025065808 0.00022918351 -0.07904815 0.017916188
0002d0 ec 33 8c 3b ea a1 72 3d ae 52 1d be 3a 1c 4d bc
       0.0042786505 0.059236445 -0.15363571 -0.012518937
0002e0 fa ba f6 3c 0c 80 16 3d 71 ee f5 ba 51 37 c6 3c
       0.030118454 0.03674321 -0.0018763078 0.024196299
0002f0 7e 78 ba 3a 6c 08 4e 3d 94 3a 67 ba e3 3f 0c bd
       0.0014226583 0.050301 -0.00088206795 -0.034240615
000300 70 f9 e7 3c a7 ae 40 3c 14 56 29 bd 2f 9c 01 be
       0.028317183 0.01176039 -0.041341856 -0.12657236
000310 a9 90 84 bd 63 36 3d bd af d7 cb bd de 47 68 bd
       -0.06472904 -0.046194445 -0.09953248 -0.056709163
000320 b9 34 22 3c f9 ea 1a 3d e3 c6 04 bd 68 29 ed bc
       0.009900265 0.037821744 -0.032416236 -0.028950408
000330 06 cf 13 be e6 d4 de 3b ab 78 bd 3b 87 61 b1 bc
       -0.14434442 0.006800282 0.005782207 -0.02165295
000340 1c b3 a1 3b a7 d5 3d 3c a3 cb a7 3c a9 bf 6f 3c
       0.0049346816 0.011586583 0.020482844 0.014633098
000350 18 05 37 bd 64 62 66 3d 6a 5d 81 bc 79 da 39 bc
       -0.044682592 0.056246176 -0.015791614 -0.011343592
000360 7c 22 e1 bc 89 eb 21 3d 5c c4 2f be d0 78 69 3c
       -0.027482264 0.039531264 -0.17164749 0.014249995
000370 16 a8 89 bc 41 15 94 bd 99 fa 01 be b6 c3 87 3d
       -0.016803782 -0.07230616 -0.12693252 0.06629126
000380 ed 5f 9b bc 21 83 1e 3d fa 12 d8 3c 7e b2 f5 3c
       -0.01896664 0.038699273 0.026376236 0.029992338
000390 96 dd c9 3c 0e 51 2a be 3e 9a 13 bd 0a a9 78 3c
       0.024641793 -0.16632482 -0.03603577 0.015177021
0003a0 68 7b 4e bc 06 65 91 3c 25 21 1a 3c d6 00 bc 3c
       -0.0126026645 0.017748367 0.009407316 0.022949617
0003b0 76 1d af 3b b8 04 77 3d 57 e3 67 3d c0 06 8a be
       0.005344088 0.060307235 0.056613293 -0.26958275
0003c0 85 5c e1 bd a6 64 9d bd a3 c4 92 3c 7b 39 a1 bb
       -0.11003975 -0.07685213 0.01791603 -0.0049201823
0003d0 d1 8e 16 3d d0 bb 2d be 39 ec be 3c aa 72 36 bd
       0.036757294 -0.16966176 0.023306 -0.044542946
0003e0 ca 17 00 3d 53 f0 98 3d 25 86 1f bc c4 42 cf 3c
       0.031272687 0.07467713 -0.009736572 0.025300391
0003f0 eb ef 6c 3c 3a bb fa bc 15 03 81 3d f4 6f 56 3b
       0.014461498 -0.030606855 0.06299416 0.0032720538

shared_fc2.weight f4 [256, 256]
000000 58 3e 8e 3c 6d b1 a8 bc 4a 46 b0 bd 8e 44 3b 3d
       0.017363712 -0.020592416 -0.086071566 0.045719676
000010 30 07 b8 bd 39 ab 4b 3d 75 17 d7 bd 83 40 f1 bd
       -0.08985746 0.049723838 -0.10502521 -0.11779883
000020 a9 f2 e2 bd d7 e9 17 bd 81 4b 8a 3d 94 59 ae bd
       -0.1108144 -0.03708824 0.067526825 -0.085131794
000030 eb 26 e4 bd 13 55 24 3d 47 e0 5f 3d c4 5b 4d bd
       -0.111402355 0.040120196 0.054657247 -0.050136343
000040 89 a1 c2 3d 54 28 bb 3d bd 42 e2 bd 71 79 ca bd
       0.09503467 0.09138551 -0.110478856 -0.09886444
000050 44 3c ef bc bd e5 ba 3d 26 a5 41 bd fa 9b b9 3d
       -0.029203542 0.0912585 -0.04727664 0.09062953
000060 c7 40 b3 bb a0 31 15 bd 0c 07 2b 3d 73 f6 8a 3c
       -0.0054703685 -0.03642428 0.041754767 0.01696322
000070 2d df dd bb 67 75 96 3d d9 4f 9c 3d 1e 42 b4 bd
       -0.0067709894 0.073466115 0.07632417 -0.08801673
000080 d4 0b b2 3c 42 27 08 bd 8a 95 ec bd 75 e8 01 bb
       0.021734156 -0.033240564 -0.1155196 -0.0019822393
000090 95 59 a4 3d 44 7b f3 3b 82 b6 2f bd 54 07 c7 bd
       0.08024899 0.007430466 -0.042898662 -0.097181946
0000a0 3d a4 a2 bd 3e 65 d6 bd d3 e9 0f 3d 17 f3 d5 3c
       -0.07941482 -0.10468529 0.0351351 0.02611689
0000b0 1d c7 4d 3d 32 48 90 3d e4 f5 a1 3d 1e 54 91 3d
       0.050238717 0.0704502 0.07908228 0.07096122
0000c0 fe 14 99 bd 3d 14 da bd 50 e1 8a bd a8 94 9f bd
       -0.07474707 -0.106483914 -0.06781256 -0.07792026
0000d0 1f 6b 62 3d 08 a3 83 bc ef d5 f4 bd de 0c 07 bd
       0.05527794 -0.01606895 -0.11954867 -0.032971255
0000e0 ce bb 06 3b 98 d7 4e bd 06 7d ef 3b 92 35 c9 bd
       0.0020558718 -0.050498575 0.007308605 -0.09824671
0000f0 7e 25 cb bd c8 5c d0 bd 3e 4d a6 bd ec 2b 65 3d
       -0.099192604 -0.101739466 -0.081202015 0.05595009
000100 27 36 07 bd 0f d3 87 bd e1 a2 c3 3d f1 24 cd bd
       -0.033010628 -0.06632053 0.09552551 -0.10016812
000110 a5 37 b9 bd 73 f4 28 3c 9f 67 15 bd b5 d0 ba bd
       -0.090438165 0.0103121875 -0.036475774 -0.09121839
000120 a2 71 cf bc a8 60 d4 bd 62 9c 77 bc 4e bf bc bc
       -0.025322739 -0.10369998 -0.015112968 -0.02304044
000130 16 f5 bc bd 0b cb 24 3d 7a 4d f1 bd 54 a2 bb bd
       -0.09226434 0.0402327 -0.117823556 -0.09161821
000140 a3 95 0f bd 96 76 f2 bd 0f 4a 76 bd dc 24 8e bd
       -0.035054814 -0.11839025 -0.06012922 -0.06940624
000150 50 7a d9 bd fb f6 75 bd 18 3f f8 3c 9b e5 f7 bc
       -0.106190324 -0.060049992 0.030303523 -0.030260852
000160 70 a6 b6 bc 1e d2 81 bd 77 d3 99 bd cf f5 e5 bd
       -0.02229616 -0.06338905 -0.07511037 -0.11228525
000170 05 cf d4 bb 2b 13 80 bd 00 66 46 bd 70 90 cc bd
       -0.006494405 -0.06253656 -0.04843712 -0.09988487
000180 8b 3d 67 bd 75 c9 84 bd 50 50 6e bd 1e d4 ab bd
       -0.056455176 -0.064837374 -0.05818206 -0.083900675
000190 25 0d 20 3d 4f 7b f6 bc 0e de 84 bd b2 5a 01 be
       0.039075036 -0.030088095 -0.06487666 -0.12632254
0001a0 66 1b b1 3c 2c ed bd 3d 30 90 99 bc ab 7e 5c bd
       0.02161951 0.092737526 -0.018745512 -0.053831737
0001b0 25 ea 71 bd ec f8 1b bc 3e cd 40 3d cf 72 c2 3d
       -0.05906119 -0.009519797 0.047070734 0.09494554
0001c0 67 9f 07 bd 46 71 02 bc 5f b9 78 bd 4e 2b 3f 3d
       -0.033111002 -0.007961577 -0.06072366 0.046672158
0001d0 cf 7c 47 3c 49 d9 0c bd c4 7a da bd 4a d4 8f bd
       0.012175753 -0.034386907 -0.10667947 -0.07022913
0001e0 36 e6 a6 3c 84 78 8e bd bf 09 b2 3c 7f ad cd 3d
       0.020373445 -0.0695658 0.021733163 0.100428574
0001f0 c9 bb 29 3c a2 26 43 3d 4d 43 51 3d 60 d5 35 bc
       0.010359713 0.047644265 0.051089574 -0.011098236
000200 2d c7 ac bd b5 ac af bd cd 16 78 3c b1 b5 10 bd
       -0.08436427 -0.08577863 0.015142155 -0.035329524
000210 1e af 25 3d 39 34 9f bd ef 9b b3 3d 2b 56 94 bc
       0.040450208 -0.077736326 0.08769976 -0.018107494
000220 41 ab ad bc cf 34 86 bd ea c6 e6 bd 67 38 9e bd
       -0.021199824 -0.06553041 -0.112684086 -0.07725602
000230 5f 63 ea bd 80 65 b5 bd 8c 96 95 3d 9c f0 37 3c
       -0.11444735 -0.0885725 0.07304105 0.011226799
000240 b3 13 7f bd e5 6d 81 3c 17 ac f4 bd 0f 13 8b 3d
       -0.062274646 0.015799472 -0.11946886 0.067907445
000250 e0 ef c1 3b 09 12 a5 bd 12 ab 8c bd 75 99 37 3d
       0.005918488 -0.080600806 -0.068685666 0.044824082
000260 fc 78 b9 bd 5c a8 7e 3d 80 41 97 3d 15 c8 d8 bd
       -0.09056279 0.06217228 0.0738554 -0.105850376
000270 c3 c9 35 bd 06 29 0b 3d 3d 60 de bd bd f1 3f bc
       -0.044381868 0.03397467 -0.108582 -0.01171535
000280 ab 56 83 bd 14 60 c1 bd 3a 90 6d bd f3 2b b3 bd
       -0.06413015 -0.094421536 -0.057998873 -0.08748617
000290 05 05 c9 bc a8 f2 1f 3d 9a 64 bf bd 0f c6 e2 3d
       -0.024538526 0.039049774 -0.0934536 0.11072933
0002a0 e5 8e 9b bd 8a e9 7d 3d a5 51 be bd de 65 93 bd
       -0.07595614 0.0619903 -0.09292916 -0.07197164
0002b0 8a 72 59 3d e5 00 8d 3d c0 8b d4 3c aa 38 9f 3d
       0.05308775 0.06884936 0.025945544 0.0777448
0002c0 61 f1 9f bd 06 0e ae bb ec f3 c1 3c 1b 25 60 3d
       -0.07809711 -0.0053117303 0.023675881 0.054722887
0002d0 97 ef 9a 3d 3d 29 b5 3d 74 52 2a bd 2a 50 5d bd
       0.075652294 0.08845756 -0.04158254 -0.05403153
0002e0 6c d3 bd 39 41 ce c6 bc 35 56 28 bd 21 e2 c5 bd
       0.0003620641 -0.024268271 -0.04109784 -0.09662271
0002f0 94 21 bb bd c6 31 ad bd 20 59 b2 3d 45 7f a7 bd
       -0.09137264 -0.08456759 0.087084055 -0.081785716
000300 65 9e 7e 3d e2 7d 8b bd 28 85 a3 3c 61 ca 80 3d
       0.062162776 -0.068111196 0.019960955 0.06288601
000310 14 15 9c 3c 79 0a ac 3d 53 a5 33 bd c1 de 02 bc
       0.01905302 0.08400435 -0.043858837 -0.007987679
000320 83 20 86 bc d4 38 cc 3c 1d fc 9a bd e7 7a 99 bd
       -0.016372925 0.024929442 -0.07567618 -0.07494145
000330 b6 82 41 3d ef 71 85 3d 69 2e 40 3d 16 ff c1 bc
       0.047243796 0.06515872 0.04691926 -0.023681205
000340 81 e7 8c bd e0 a6 c2 bd 0d c2 67 3d 0b 35 ab bd
       -0.06880093 -0.09504485 0.056581546 -0.083597265
000350 80 56 04 3d f9 9c 8a bb b6 85 22 bd f3 c5 3c ba
       0.032309055 -0.0042301384 -0.039678298 -0.00072011276
000360 e7 96 ea 3c 47 21 8a 3d dd d3 95 3d 18 d6 a0 3d
       0.028636409 0.067446284 0.073158 0.07853335
000370 22 93 c4 bd 33 ef d7 3b 26 ef a2 3d 28 7d cb bd
       -0.09598376 0.006589794 0.0795577 -0.09935981
000380 1a 24 6f bd d7 b2 4b bd 8b da a3 3b 41 34 2e bd
       -0.05838404 -0.0497311 0.0050004176 -0.042530302
000390 17 0b ab 3d 66 b0 a0 3d 32 28 e9 3c bd cd 36 3c
       0.083517246 0.07846145 0.02846155 0.01115745
0003a0 6f d4 78 bd eb e4 ca bc f7 43 9f 3a de 9e a0 bd
       -0.060749467 -0.02476736 0.0012150992 -0.078428015
0003b0 c9 00 3e bd c1 b7 c6 bd 36 98 16 bd 07 f8 85 3c
       -0.046387468 -0.09703017 -0.036766253 0.01635362
0003c0 e0 f2 10 bd 33 13 b1 bd 37 4c e2 bd d7 5c b7 bd
       -0.035387874 -0.0864624 -0.11049693 -0.08953255
0003d0 cb e4 c6 bd 98 92 c4 3d 5c cb 9b bd 8d 6c 5a bd
       -0.097116075 0.09598273 -0.07607147 -0.05332618
0003e0 45 79 90 bd c7 ba c5 3d af 5f a4 bc 89 36 8f 3d
       -0.0705438 0.096547656 -0.020065157 0.06992824
0003f0 a3 50 a1 3d 79 48 8a bd 6d 04 5a 3d 66 6f 72 3d
       0.07876708 -0.06752104 0.053226877 0.05918827

shared_fc2.bias f4 [256]
000000 f5 1f 12 bc 41 86 fb 3c d9 d9 bc bc 7d a0 55 bd
       -0.008918752 0.030703666 -0.023053097 -0.052155007
000010 05 9c 08 3e 54 a4 be 3d 55 fc ce 3d b0 d6 4c 3d
       0.13340767 0.09308687 0.10106722 0.05000943
000020 7a cb 91 3d cc 97 9b bc 36 a2 8c bc a1 ef c9 bc
       0.07118888 -0.01899328 -0.017167192 -0.024650397
000030 bc 0b 80 3d 1a 04 2b 3d 4a 82 9b 3d 15 46 c3 3d
       0.06252238 0.04175196 0.0759321 0.095348515
000040 01 9e 85 3c 04 d1 a4 bb 22 05 f5 bc 4d 7b fb 3c
       0.016310694 -0.0050297994 -0.029909674 0.030698443
000050 77 f8 b0 bc a6 49 cf bc 77 c9 f7 3d 79 5d c0 3c
       -0.021602852 -0.025303673 0.12098973 0.023482071
000060 0b b6 35 bd 17 5b b8 3d f4 55 c6 3d a3 cc 44 bd
       -0.044363063 0.09001749 0.09684363 -0.04804672
000070 e3 46 89 bd 22 32 f1 3c fe ee 06 3e c8 28 04 3d
       -0.06702974 0.02944285 0.13177106 0.032265455
000080 b3 50 2f 3c fc f7 e9 3d 26 d0 f6 3c dd 90 12 3d
       0.010700393 0.114242524 0.03012855 0.035782684
000090 32 7a 2e bd 61 1d 08 3d 2b bb 0e bd 61 13 ee 3d
       -0.042597003 0.033231143 -0.034846466 0.1162479
0000a0 3b 11 cb bc ba 24 f9 3c cf 7a 2c bd 30 3e db 3d
       -0.02478849 0.03041302 -0.042109307 0.10705221
0000b0 bb 31 7d bd 89 af 9c 3d f7 9f 4c 3c 02 f5 08 bb
       -0.061815005 0.07650668 0.0124893105 -0.002089799
0000c0 03 69 2c 3b 7c 20 98 3d d1 0a 7c 3d e3 74 ec bc
       0.002630771 0.07428071 0.061533753 -0.02886433
0000d0 ad b7 76 bc 5d 5e e1 39 bf 97 c3 3c 6c 89 47 3c
       -0.01505844 0.0004298565 0.02387607 0.01217876
0000e0 b4 1e 36 bd d7 fc 17 3d 88 79 cb 3d fa 40 ed 3d
       -0.044462875 0.03710636 0.099352896 0.11584659
0000f0 71 13 80 bd 73 91 06 bd 0a 44 84 bc a1 5f 3b 3d
       -0.06253708 -0.032853555 -0.016145725 0.045745496
000100 56 4a 9c 3d 4d 34 e6 bd 73 9d cf 3c 51 0f c2 3d
       0.07631366 -0.11240444 0.025343632 0.094755776
000110 be 02 2e 3d 37 96 d0 bc 55 a9 90 3d 4b 3c 4f bd
       0.042483084 -0.025462253 0.070635475 -0.05059461
000120 ad bd 0c 3d e8 77 b0 3d 89 f0 a1 3d 93 84 d5 bc
       0.034360576 0.0861662 0.079072066 -0.026064193
000130 d0 78 20 3d 04 b0 f1 3d e7 ac c9 bd ab 95 bb 3d
       0.039177716 0.118011504 -0.09847432 0.09159406
000140 3a 1d 06 bd b4 fd 86 bb 5e 4a 88 bc 8c 8c ed 3d
       -0.032742716 -0.0041195992 -0.016637024 0.11599073
000150 80 f4 12 bc 59 6f e1 bc 1a bc 61 bd 70 48 83 3d
       -0.008969426 -0.027518915 -0.05511103 0.06410301
000160 3f c8 c0 3d 89 75 3f bd 19 b1 fc bc 50 7a 8d 3d
       0.09413194 -0.04674295 -0.030846165 0.06908095
000170 09 9b c0 bc 38 8c 76 bd a1 99 8e 3d cd 44 9e 3c
       -0.023511427 -0.060192317 0.06962896 0.019319916
000180 be 37 26 3c dd 4a 03 3d 95 1b 03 3d 44 43 39 bc
       0.010145126 0.032053817 0.032008726 -0.011307541
000190 ba 6a 39 bd 11 91 3e 3d e0 af be 3c 40 94 e5 3d
       -0.045267798 0.046525065 0.023277223 0.11209917
0001a0 28 76 4f bd 54 db b0 bd 09 ea 46 bd bc cb 16 3e
       -0.050649792 -0.086355835 -0.048563037 0.14726156
0001b0 b8 03 a4 3d cc fa 5e 3d 05 fa 4a 3d 7a e8 7c 3d
       0.08008522 0.054438397 0.049554843 0.061745144
0001c0 ae 0c 92 bc 24 cd 25 3c 0e 31 83 3d e2 46 26 3d
       -0.017828312 0.01011971 0.06405841 0.040594943
0001d0 d9 e4 10 3d 54 86 ce 3d 88 e3 ef bb a9 bb 31 bd
       0.035374496 0.10084215 -0.007320825 -0.043391857
0001e0 9c 2a 87 3d fc 21 c0 bc d3 46 f8 3c 53 e6 b5 3d
       0.06599924 -0.023453705 0.03030721 0.088818215
0001f0 c3 c6 ff 3c dc 90 83 3d a5 02 84 3c ee 00 1c bc
       0.031222707 0.06424114 0.016114542 -0.009521706
000200 86 1d a7 3d 86 b7 8a bc 04 16 eb 3d e7 15 d8 bc
       0.08159928 -0.016933214 0.114788085 -0.026377631
000210 d0 ef 91 bd 75 a4 ba 3c bf e2 be bb 0c c7 e2 bc
       -0.07125819 0.022783497 -0.00582537 -0.027682804
000220 b2 86 b3 3d 25 5b 8a 3d 9f 35 d1 bc ce 66 1c bd
       0.087659255 0.06755666 -0.025538264 -0.03818398
000230 21 83 1f 3d 93 17 06 3d c9 ae 1a bd 13 83 23 3d
       0.038943414 0.032737326 -0.037764344 0.039919924
000240 b3 69 1b bd 5d e6 29 bd 4b 0a 08 3d 4a 87 e1 bd
       -0.0379426 -0.041479457 0.03321294 -0.110121325
000250 69 75 8e bd b3 c5 a7 bd c9 2e 84 bc c9 b1 67 3d
       -0.06955988 -0.08192005 -0.01613559 0.056566034
000260 93 33 9d 3d 6b 66 d3 bd b8 a4 03 bd 1d fe 88 3d
       0.076758526 -0.10322269 -0.03213951 0.06689093
000270 fd a5 05 bc ab 56 14 bc 11 35 d0 3d 98 87 11 3e
       -0.0081572505 -0.009053866 0.101663716 0.14211881
000280 5a 50 fc bb 83 17 90 3d d7 ff 5f bc 87 93 44 3d
       -0.0077000083 0.070357345 -0.013671837 0.047992256
000290 38 f1 10 bd 18 b0 35 3d e4 15 08 bd bf 05 5f bc
       -0.035386294 0.04435739 -0.033224 -0.01361221
0002a0 7b 21 3b 3d ac 0b a0 3d 30 63 ca bc b1 10 f3 3c
       0.045686226 0.07814726 -0.0247055 0.029671045
0002b0 58 76 db 3d 58 71 49 bd b4 e7 38 bd 28 07 48 bc
       0.10715932 -0.04918036 -0.045142844 -0.012208737
0002c0 c8 a5 d3 bc aa 55 88 3d 6d e4 1c 3d a6 12 45 3d
       -0.025835887 0.06656964 0.03830378 0.048113488
0002d0 bb 93 fb 3c b0 bb 1e bd 1d 2d 96 3d 31 4e 33 bd
       0.030710092 -0.03875321 0.073328234 -0.04377574
0002e0 15 2d c8 3d d5 be c4 bc ff 65 97 3d da 28 c4 3d
       0.09774224 -0.024016777 0.07392501 0.09578104
0002f0 ee 3f b3 3d a0 41 e9 3c 4e 46 8c bd 99 94 22 3e
       0.08752428 0.028473675 -0.06849347 0.15876998
000300 85 ca 20 bd 4a 42 74 3d 28 51 3a bd d0 2e 9e bc
       -0.039255638 0.05963353 -0.045487553 -0.019309431
000310 70 b1 93 bd 58 5a b4 bc fc 16 8b 3c fb d8 dc bb
       -0.07211578 -0.022015736 0.016978733 -0.0067397333
000320 5a b4 80 bc b7 31 4e bd 81 c6 f3 bc c2 a3 87 bd
       -0.015710998 -0.05034038 -0.02975774 -0.06623031
000330 05 a4 c4 bd bd 24 cf bc cf 2b 23 3c 5a da 89 3c
       -0.09601597 -0.025286073 0.009959175 0.016827751
000340 b6 ed f8 3c bf 6d 69 3d a5 42 89 3c 8c 48 df 3d
       0.030386787 0.056989428 0.016755411 0.10902509
000350 74 49 ef bd af 11 dc 3d 24 f4 d5 bc ca 19 5f bb
       -0.11683932 0.107455604 -0.026117392 -0.003404247
000360 62 28 ef 3c 21 b9 71 3c eb fc 51 bd 35 65 ca 3c
       0.02919406 0.014753611 -0.051266592 0.024706462
000370 22 46 9f bb ba cc ae 3c c2 6b 8f 3d 14 a6 a3 bc
       -0.0048606554 0.021337856 0.07002975 -0.019976653
000380 00 dc aa bc d6 d1 1a bd 24 94 8d 3d 91 fb 6c bd
       -0.020856857 -0.03779777 0.06913021 -0.0578571
000390 ad 3e 0e 3d df 2f 20 bd 6c db 61 3d 36 36 94 3d
       0.03472774 -0.039108153 0.055140898 0.072369024
0003a0 7f 3f 15 3e c4 7b 02 bd 26 cb 81 3d 2e 73 5e 3d
       0.14575003 -0.031856313 0.063375756 0.054309063
0003b0 ef b4 54 bc ca 98 d0 3d 40 19 41 3d ec e7 08 bd
       -0.012982591 0.10185392 0.04714322 -0.033424303
0003c0 e1 4d 1c bc f0 c2 bb bd e5 ae 68 3d cb 43 94 3c
       -0.009540052 -0.09168041 0.056807417 0.018098732
0003d0 8b 79 b3 bc b9 3d 0d bc 9f 83 ee bc 64 3a 0b 3d
       -0.021908542 -0.008620673 -0.029115496 0.033991233
0003e0 79 e8 82 3d e3 06 49 bd 0c 32 80 bd 22 99 e9 3d
       0.06391997 -0.049078833 -0.06259546 0.11406161
0003f0 2b 5b 8f 3d ac 99 2b 3d 54 49 e3 3d 3c 6f d6 3d
       0.06999811 0.0418946 0.110979706 0.10470435

actor_fc.weight f4 [256, 256]
000000 b4 58 fc 3d 84 15 54 3d d0 f5 e8 bd 34 c1 9d 3d
       0.12321606 0.05177833 -0.1137501 0.07702866
000010 92 33 0d be 00 1e b3 3d 68 18 fb 3b d1 68 1b be
       -0.13789204 0.087459564 0.0076628216 -0.15176703
000020 8f 03 85 be ad 57 c8 bd b6 0e f9 bc 07 c2 c3 bb
       -0.25979277 -0.09782348 -0.030402523 -0.0059740576
000030 cf d9 d9 bd c7 ca 0b be ad ef 15 3d d4 93 b1 3d
       -0.10637247 -0.13651572 0.036605526 0.08670774
000040 3f c3 08 3e de 46 dc 3d d9 7c 97 bb 3d 6a 4f be
       0.1335573 0.10755704 -0.0046230373 -0.2025537
000050 d3 c2 b3 bd 48 0b a5 bd f3 ec f5 bd b5 e6 b3 bd
       -0.08777394 -0.08058792 -0.12008085 -0.08784238
000060 c1 f4 51 be 87 28 6a 3d 4e 72 e4 3d ec de ce 3d
       -0.20503522 0.057167556 0.111546144 0.10101113
000070 a3 60 89 bd c0 2a 4d 3e a1 69 d6 3d b2 b1 c7 be
       -0.06707885 0.20035839 0.10469366 -0.39002758
000080 9f 7d 6d bd a3 6c 11 3e 5f c7 a3 3c 24 13 8e 3d
       -0.05798113 0.14201598 0.019992528 0.069372445
000090 e5 62 41 bd 57 55 32 bf 37 71 68 be 08 30 a5 be
       -0.047213454 -0.6966147 -0.22699438 -0.32263207
0000a0 a4 ad d9 bc 3f b5 d1 3d 53 9a 09 3d 0a 5c d4 bc
       -0.026572056 0.10239648 0.03359444 -0.025922794
0000b0 db 84 6a 3e 81 89 00 be 3b 9a 1d 3e ab 4d d2 be
       0.22902243 -0.12552454 0.15390866 -0.4107488
0000c0 5e 03 90 be 9c 41 9e 3e 4e 4c 1a bd 80 41 89 bc
       -0.2812757 0.3090943 -0.037670426 -0.016754866
0000d0 8d 21 96 bd 11 1e b3 3d 11 94 93 bd 4b d6 62 be
       -0.07330618 0.08745969 -0.07205976 -0.22152059
0000e0 fb 33 92 3d 29 4c be bd 32 ce 50 be 2f 46 aa bd
       0.07138821 -0.0929187 -0.20391157 -0.08314168
0000f0 05 83 4a 3d 81 b1 f5 3d 85 63 02 be 40 d5 0e be
       0.049441356 0.11996747 -0.12733276 -0.13948536
000100 a9 1e 69 bc f0 cf 25 3e 3e 47 14 be c9 eb 2f bc
       -0.014228501 0.16192603 -0.14480302 -0.010737368
000110 ad ae cc 3c ae e7 0c 3e c0 58 14 3e ce a9 e9 3e
       0.024985636 0.13760254 0.1448698 0.45637363
000120 a4 b5 ab 3d 56 84 8e bd e7 40 83 bd 93 17 c3 bd
       0.083842546 -0.06958835 -0.064088635 -0.09525981
000130 a2 9d ca be 54 b2 2a be 36 62 a7 3d 2c c0 45 bb
       -0.3957339 -0.1666959 0.08173029 -0.0030174358
000140 e1 82 33 bd 4f 1f 16 3d 02 94 9d 3d d0 9c 25 3c
       -0.043825988 0.036650952 0.07694246 0.010108188
000150 70 92 c9 bd 69 6e 1a be 3a c4 2e bd 23 67 be be
       -0.09842384 -0.1508118 -0.042667605 -0.37188062
000160 f0 41 22 3e 4e af ad 3c 3e ee d4 bc 2d a4 13 be
       0.15845466 0.021201756 -0.025992509 -0.14418097
000170 98 e3 08 bd 4b 64 f0 bc 1c e4 78 be e3 1f 46 be
       -0.033420175 -0.029344698 -0.24305767 -0.19348101
000180 32 0c 95 3e 43 c2 88 bd e3 fe 7e 3e e7 04 bf 3c
       0.29110867 -0.066776775 0.24901919 0.023317767
000190 3e 16 b9 3c 21 0f 5f be 44 cb 31 be 2b 30 fb bd
       0.022593614 -0.21783115 -0.17362696 -0.12265047
0001a0 d0 f6 1b be 6a 1d 97 be 23 8a 0f 3e e1 78 38 be
       -0.1523087 -0.2951463 0.14017539 -0.18014862
0001b0 97 a6 13 be 4c 5b 9e 3e 49 ed 0b be 69 25 9a 3d
       -0.14419018 0.3092903 -0.13664736 0.07526667
0001c0 69 c9 ca 3e 11 66 25 3e d7 6a e3 be 7b ee 2c bc
       0.3960679 0.16152216 -0.4441745 -0.010554905
0001d0 28 55 a9 be af 4f a3 3d 01 0c 0d be 47 04 05 3f
       -0.33072782 0.07974183 -0.1377411 0.5195965
0001e0 90 ce 80 be eb 6e 57 bd 4f f0 a8 bd 77 f7 7a 3e
       -0.25157595 -0.052596014 -0.0824896 0.24508463
0001f0 fe 69 28 3e 78 df fd 3b 74 81 d2 bd c9 95 63 3d
       0.16446683 0.007747587 -0.102785975 0.055562768
000200 79 52 1d 3e 26 d0 29 bc d8 63 0b be fe e4 19 be
       0.15363492 -0.010364568 -0.13612306 -0.1502876
000210 7c 98 91 bd 68 f7 05 3d 6f be 22 be 4b e6 f7 3d
       -0.07109162 0.032706648 -0.15892957 0.12104472
000220 b8 5f cb 3d 4b af a0 3e 93 d6 ec bd 9b 02 88 3d
       0.09930366 0.31383738 -0.11564364 0.06641122
000230 c4 14 28 bd ef c5 32 bd 39 8a 07 3c 56 2a 31 be
       -0.04103543 -0.043645795 0.008272701 -0.17301306
000240 11 ad b3 bd 68 64 29 bd e2 2a 3c 3e 51 2f 2a 3e
       -0.08773244 -0.04135552 0.18375733 0.16619612
000250 29 2e 5a 3d dc 77 86 be fc 04 ae bd 6e 4a a8 3d
       0.053266678 -0.2626332 -0.084970444 0.08217321
000260 81 32 9e 3e 4f 3e f2 3a f0 d0 1f 3b ff 8c 00 3e
       0.30897906 0.0018481704 0.002438601 0.12553786
000270 5b e8 8f 3d 20 10 3b 3c e6 bf 82 be 38 b3 fc 3d
       0.0702674 0.011417419 -0.25537032 0.12338871
000280 ef e9 d0 bd 89 6d 3a 3c fb 41 9f 3e 40 1b 9b bd
       -0.10200869 0.011378654 0.31105027 -0.07573557
000290 8f 13 ad bc b1 b1 a7 3e 19 73 a0 be 7f 25 ff bd
       -0.02112749 0.32752755 -0.31337813 -0.12458324
0002a0 18 d0 ec 3a a6 c2 b2 3d 7e 28 c1 bb 56 ab c7 3e
       0.0018067388 0.087285325 -0.0058947196 0.38997906
0002b0 ee f1 68 bd a0 0f 1e 3c 7a eb 6a bc 3a 0b 26 bd
       -0.056871347 0.00964728 -0.014338369 -0.04053805
0002c0 0a 5a 14 3e 22 06 d2 be b4 40 a4 3e 69 73 dc be
       0.14487472 -0.41020304 0.32080615 -0.430568
0002d0 29 0d 63 bc bd e3 33 3e 0d 4b ac bd 51 36 8c bc
       -0.013858118 0.17567344 -0.08412752 -0.017115744
0002e0 f8 6e 3a bd cc c5 05 bd c5 58 1a bc 04 2a 72 be
       -0.045515984 -0.032659337 -0.009420578 -0.2364884
0002f0 65 56 0f 3e 93 f2 d6 bd d9 85 b7 3e 0c a9 09 be
       0.139978 -0.10495486 0.35844305 -0.13443393
000300 a6 39 cd bd 66 32 eb bd 77 23 aa bc 0f 97 76 3d
       -0.10020761 -0.11484222 -0.020768864 0.060202654
000310 e9 73 93 3c 97 d5 88 bc f2 d3 ba 3e 4c 56 09 3c
       0.017999606 -0.01670341 0.36489826 0.008382391
000320 05 60 bf bd 35 14 25 bf 13 3a 4b bb d8 7c 26 3e
       -0.09344486 -0.6448396 -0.0031009957 0.16258562
000330 ec 79 83 be eb c5 31 be c3 0a 15 3e d2 c1 86 3d
       -0.25678957 -0.17360656 0.14554887 0.06579937
000340 1c 95 9f bd 1b 16 3f bc 61 9f 6f be 7f 54 c6 3d
       -0.07792112 -0.011662985 -0.23400642 0.09684085
000350 a7 4e ff 3e 8b 0e 2c 3e 26 46 07 bd 89 b1 49 3e
       0.49864694 0.16802423 -0.033025883 0.1969663
000360 54 a3 97 be 13 94 48 3d 16 c2 49 be f4 2c 4c 3d
       -0.29616797 0.04896934 -0.19702944 0.04984756
000370 71 78 e5 3c 34 c3 97 3e 2c ce 8c 3d b1 d5 ca 3d
       0.028011533 0.29641116 0.06875262 0.0990404
000380 c9 ba 3c bd 49 92 15 be dc 91 70 3e da ae 32 bd
       -0.04607657 -0.14606585 0.23493141 -0.043623783
000390 a6 71 1e 3d f3 28 e7 bd 71 ff 54 3e f3 49 c4 3e
       0.038682602 -0.11287107 0.20800568 0.3833767
0003a0 ca 55 a8 bd ec ba 17 3e 76 55 44 be f7 2c ab 3d
       -0.08219488 0.14817399 -0.19173226 0.08358186
0003b0 ae ec 77 be 46 14 e3 3d d1 50 09 bd 0e 4e 90 be
       -0.2421138 0.11087851 -0.03352434 -0.2818455
0003c0 ee 2d 72 bd 35 f1 4f 3d 89 fe 13 3e 14 59 ec 3b
       -0.059125833 0.050767142 0.14452566 0.0072127674
0003d0 96 6b 80 be df af 8f bd 5c fb cb 3e c6 0b 49 be
       -0.25082082 -0.070159666 0.3984021 -0.19633397
0003e0 82 cb 94 bc ed b3 96 3e e4 d5 ae bc d4 39 85 be
       -0.018163446 0.29434147 -0.021342225 -0.26020682
0003f0 8e 2f a9 3e 02 5f a3 bc 73 4f 74 be 96 0e 0d 3e
       0.33044094 -0.019942764 -0.23858432 0.13775095

actor_fc.bias f4 [256]
000000 f3 10 93 3d 0b 7e 12 bd 41 0c 0e 3d a3 87 58 bd
       0.07180967 -0.035764735 0.034679655 -0.05286373
000010 ec 09 de bc 1c 7b 12 bd aa 23 1d bd 4e 3c 1d 3d
       -0.02710434 -0.035761937 -0.03836409 0.03838759
000020 78 7f f7 3c 7b 3c 27 bc d3 be 2d 3c d5 69 41 3d
       0.030212149 -0.010207291 0.010604578 0.04722007
000030 48 81 37 bd dc 82 61 bd cd b5 09 bd 0d 15 5b 3d
       -0.044801027 -0.055056438 -0.033620644 0.053486872
000040 d3 a2 2a bd 44 d3 12 bd 4c de 3b bd fb 3a 4f bb
       -0.041659188 -0.03584601 -0.045866296 -0.0031620848
000050 9a 36 97 bd f7 bb 03 bd a3 10 0a 3c 87 cf 8f 3c
       -0.07383461 -0.03216168 0.008426818 0.017555011
000060 63 6c 2f bd 36 ec 84 bd 14 35 c8 bc 27 4b 70 3b
       -0.042827975 -0.06490366 -0.024439372 0.0036665888
000070 a8 10 66 bc 02 3b 2f bd 8d 45 52 bd 84 b4 09 bc
       -0.014042057 -0.042780884 -0.05133586 -0.008404855
000080 2d 5a 48 bd 89 b2 3d 3c d1 1f f9 bc a5 81 4e 3c
       -0.048914123 0.011578211 -0.030410679 0.012604152
000090 50 54 da bc a2 ed 61 3c 8e 25 9e bd dd 69 7f ba
       -0.026651531 0.013789566 -0.07722007 -0.0009743253
0000a0 11 a5 de 3c 7e 5a 8f bc d0 95 44 bd 5f 95 42 bc
       0.02717832 -0.017499205 -0.047994435 -0.011876433
0000b0 72 5d 20 bd 4a d1 c4 bd dd 13 e2 3c 1a a2 2e bc
       -0.039151616 -0.09610231 0.027597362 -0.010658765
0000c0 05 dd bb 3c a3 50 fc 3b c7 12 97 39 28 03 46 bb
       0.022932539 0.0077000423 0.00028814955 -0.0030214284
0000d0 1e 00 dc 3d 67 da 7c bc e3 2a b1 3b 6f 4d 38 3d
       0.1074221 -0.015432931 0.005406724 0.04499572
0000e0 f0 60 38 3d c2 23 19 bd 6c 11 31 3d 16 1a 5c bc
       0.04501432 -0.037387617 0.043229505 -0.013433954
0000f0 2e 5a b0 3c 40 75 56 bd 2c 1a 68 3d d9 6e 2e 3d
       0.021527376 -0.052357912 0.056665584 0.04258618
000100 80 f1 80 bd 15 cc 32 bd 75 55 92 bc 5c 6a 93 3d
       -0.062960625 -0.04365166 -0.017863015 0.07198021
000110 e4 ee a4 bd ac b3 2e bd c5 15 e1 bc 96 fb 2c bd
       -0.08053377 -0.042651817 -0.0274762 -0.04223212
000120 04 60 00 bd 5a 64 ed 3c f4 6d 1f bd c8 2d b7 bd
       -0.031341568 0.028978515 -0.03892322 -0.08944279
000130 b1 85 36 be c9 e0 aa bc 3a ce 91 3d 61 f9 79 3c
       -0.17824437 -0.020859139 0.07119413 0.0152572105
000140 f6 1f 59 bd d8 33 0d bc e0 47 5c 3d 6b 5b 4d bd
       -0.053008996 -0.008618318 0.053779483 -0.05013601
000150 ae 05 63 be 6b b6 5a 3c 95 65 e1 bb bd 7f 94 bd
       -0.22170135 0.013349156 -0.0068785646 -0.07250927
000160 88 de b7 3c 6c 51 d4 39 ae dd c4 bc f6 39 63 3d
       0.022444978 0.00040496455 -0.024031486 0.055475198
000170 d5 10 6e bb 18 f9 94 bd 6d 3d ab bc 6d 0f 04 be
       -0.003632595 -0.07274073 -0.020903314 -0.1289651
000180 07 e7 05 3c 8c f8 8e bd ae 9b ce 3d 97 8a 94 bd
       0.008172757 -0.06981 0.10088287 -0.072529964
000190 5c 4d 63 3d 98 82 78 bd b5 85 60 bc 63 f8 d8 bb
       0.055493698 -0.06067142 -0.013703753 -0.006621407
0001a0 06 d9 95 bc 88 2c 87 3d f8 29 1a 3c ea a6 09 3c
       -0.018291961 0.066002905 0.00940942 0.008401612
0001b0 7f 82 93 3d d9 dc e2 bc 38 50 29 bc 5e c7 ff bc
       0.072026245 -0.027693199 -0.010334067 -0.031222995
0001c0 2b c0 75 bd f0 0a a1 bd 79 71 d5 bb ca 0c 01 bd
       -0.05999772 -0.07863414 -0.006513771 -0.031506337
0001d0 b4 4c 87 bd b3 ef 2b bd 1e 55 06 3d 25 bd 2c bb
       -0.06606427 -0.041976642 0.032796018 -0.0026357856
0001e0 b1 ba f2 bd bb 98 a7 bd b1 33 dc 3b 64 15 c2 bc
       -0.11852015 -0.08183428 0.0067200293 -0.02369184
0001f0 98 b6 73 bd dd b1 33 bd 3e 5e cf 3b 7a b5 4a bd
       -0.059500307 -0.043870796 0.006328373 -0.049489476
000200 39 24 88 3d 6d 7e 62 3c 4b b6 16 3d 27 db 1a 3d
       0.06647534 0.013824088 0.036794942 0.037806656
000210 c5 d4 4a 3b d8 ec 0f bd 49 88 ed 3b 0f 1d 78 bc
       0.0030949574 -0.03513798 0.0072489125 -0.015143647
000220 2d 8a 1b bd 52 8a 37 3d fc bf 88 bc 7a 13 21 ba
       -0.03797357 0.044809647 -0.016693108 -0.0006144565
000230 88 36 4b bd f0 ca ff bc b8 81 48 bd 19 a5 84 38
       -0.049612552 -0.031224698 -0.048951834 6.325002e-05
000240 42 35 49 3c 61 a3 4d bd aa 04 8c bc 79 5c d2 bc
       0.012280764 -0.05020464 -0.017092068 -0.02567886
000250 4f eb 33 3c fd 38 8d 3b 7e 8d 98 bd 0a 22 38 bd
       0.010981395 0.004309772 -0.074488625 -0.044954337
000260 6b 18 42 3d 52 55 2e 3c fb 7b 98 bd 7d 74 53 3c
       0.047386568 0.010640459 -0.074455224 0.012906191
000270 56 fb 11 bd bd 7e d2 bc 7b 96 da bc d3 01 bb 3c
       -0.035640083 -0.0256952 -0.026683083 0.022828018
000280 8d 6f ec bc da c9 1c 3c 2f b3 db bc bd 78 53 bd
       -0.028861785 0.00956961 -0.02681884 -0.051628817
000290 b3 91 96 3d e8 e1 0d bd 33 60 9d bd 31 34 66 bd
       0.07352009 -0.03463927 -0.07684364 -0.056202117
0002a0 34 c8 78 bd b6 a3 eb bc 24 48 8a bd 13 16 57 3b
       -0.060737804 -0.028764587 -0.06752041 0.0032819554
0002b0 0f d1 9e bc 42 a6 ad 3d cb 3a 71 3b 95 be 0e 3d
       -0.019386796 0.08478977 0.0036808725 0.034849722
0002c0 8f 0f 8b 3d 06 08 b5 3d 83 d6 30 bd 8c 91 b8 bc
       0.06790077 0.08839421 -0.043173324 -0.02253034
0002d0 76 56 1d 3d 6e 60 16 bd 13 4b 13 3d ce f9 86 3d
       0.038412534 -0.036713056 0.03596027 0.06590615
0002e0 1e 2d c1 bc 4f a9 10 3c a7 85 a5 bc ee 0d 11 bd
       -0.023581084 0.008829429 -0.020205332 -0.035413675
0002f0 be 75 22 bd ff 3a 84 bd ab f3 a5 3c d5 62 6c 3c
       -0.03966307 -0.06456565 0.020257792 0.01442786
000300 dd e5 83 bd 23 08 a0 3c 82 83 22 3d 77 35 e8 bc
       -0.06440327 0.01953513 0.039676197 -0.028345807
000310 7c c0 f9 bc 04 e8 c0 3d 5e ce fe bb 46 4d 7e bc
       -0.030487292 0.094192535 -0.0077760657 -0.015521353
000320 3c 30 75 bd ae 4e 98 3d 99 fd d4 bb 97 f9 87 bd
       -0.059860453 0.07436882 -0.0064999578 -0.06639402
000330 0e e9 7c bd 65 f9 61 bd 59 54 23 3c 4d 94 78 ba
       -0.061745696 -0.05516948 0.0099688405 -0.0009482548
000340 5a 93 95 bd 4f d1 d2 bd 9e fb 0a bd 92 37 1f 3d
       -0.07303496 -0.10293829 -0.033931367 0.038871355
000350 ff 25 27 bd 5e ca a0 bd 2c 57 7c bb c6 f8 9b 3c
       -0.04080772 -0.078510985 -0.0038504107 0.019039523
000360 23 c3 53 3d a9 38 b4 3d c1 99 79 bc a0 ba 25 3b
       0.05169977 0.087998696 -0.015234412 0.002528824
000370 94 d6 1c 3d c0 f3 ac bd 0c 1f 53 3d 8b 3d 03 bd
       0.038290575 -0.08444929 0.05154328 -0.032041114
000380 cc 46 28 3d 41 70 b1 bd e9 16 c4 39 bf ed 51 3d
       0.041083142 -0.08663989 0.00037401103 0.051252123
000390 aa f3 22 bd 8c 67 24 be b5 53 1e bd 13 47 25 3d
       -0.039783157 -0.16055125 -0.038654048 0.040350985
0003a0 78 da 82 3d 14 89 cd 3c 5c 36 2c 3c 8b 7f bc bb
       0.06389326 0.025089778 0.010511007 -0.005752509
0003b0 58 c5 c7 bb 4c 6f 4f 3c 3e 04 2f bd f6 dd 46 bd
       -0.0060965233 0.012660813 -0.042728655 -0.048551522
0003c0 b8 ab e0 bd 21 8f b5 bd 13 8e 20 bd 58 f8 b2 bc
       -0.10970253 -0.0886519 -0.039197993 -0.021846935
0003d0 25 52 16 3d 26 d0 0f bd 49 9a 0b bd 9e 6c eb bc
       0.036699433 -0.035110615 -0.034082685 -0.028738316
0003e0 75 97 70 3d e5 a4 0c bd ff 1b 7d bd 21 8a 52 bd
       0.05873819 -0.034336943 -0.061794277 -0.05140126
0003f0 10 10 f9 3c d5 01 70 bd f9 6d 99 bb 21 40 60 bc
       0.030403167 -0.058595497 -0.004682299 -0.0136871645

actor_out.weight f4 [12, 256]
000000 66 31 a8 bc b5 39 ab 3d d4 5f 06 3e 29 fc 61 be
       -0.020531368 0.08360616 0.13122493 -0.22068848
000010 fa d1 ce 3c 9f 90 9e 3e e7 17 f7 3c c1 52 06 be
       0.025246609 0.30969712 0.030162765 -0.13117506
000020 90 6a 4f be 02 c4 a2 3e 9d 15 74 3e 6b 37 bb 3d
       -0.20255494 0.31790167 0.2383637 0.091414295
000030 18 95 40 be df 22 e9 3c a1 cc 19 be d9 db 8b be
       -0.18806875 0.02845901 -0.15019466 -0.27316168
000040 55 27 b6 3d 38 6b 5c bc d3 60 03 3e 22 6f b9 3d
       0.08894221 -0.013453297 0.12829904 0.090544
000050 5f d7 f2 3c 96 9e 91 3e a9 66 7d 3e 47 4f 84 3e
       0.029643713 0.28441304 0.24746193 0.25841734
000060 04 c7 87 3e 41 55 cd 3e 01 61 c1 bd d0 2f a2 3e
       0.26519024 0.40104106 -0.0944233 0.31677103
000070 74 2c 14 3f 8a 2c 73 3d e4 7e 8c 3d 5c c8 2f bc
       0.5788033 0.059368648 0.0686014 -0.010728922
000080 2e 2a 8a be 2e 24 07 be dc d6 04 be 6c b7 72 be
       -0.26985306 -0.13197395 -0.12972587 -0.23702782
000090 18 b2 85 3c 8c 06 c0 bd 9d 3e c3 bd df 40 bc bc
       0.016320273 -0.09376249 -0.09533427 -0.022980152
0000a0 07 32 b4 3e 49 96 86 be 3c 27 54 3e 8e d9 5d 3e
       0.35194418 -0.26286533 0.20718092 0.21665022
0000b0 09 75 c3 bd 98 b0 26 3d fd 67 d6 3d 78 e6 cd 3d
       -0.09543807 0.040695757 0.10469053 0.10053724
0000c0 55 be a5 bd 46 06 8a be 9d 4f 87 3f b0 cb 42 3c
       -0.080929436 -0.2695791 1.0571171 0.011889383
0000d0 f0 2b 42 bd 52 21 8f 3e e0 31 52 be fd 0b 92 3e
       -0.047405183 0.2795511 -0.20526838 0.2852477
0000e0 93 3a aa be 03 d3 8a 3e 08 3f 06 be fe 3a 70 bd
       -0.33247814 0.27114114 -0.13109982 -0.05865001
0000f0 65 ef c7 3d 12 3f 8b 3e 5c 7b ae be da 44 0f be
       0.09762458 0.27196556 -0.3407849 -0.13991109
000100 bc 1b 1d 3e c1 f0 80 bd bf de 08 be 5b 50 cf 3e
       0.15342611 -0.0629592 -0.13366221 0.40490994
000110 08 0c 19 3e 0d f5 c8 3d 0e f6 42 3e 9d 75 08 3e
       0.14945996 0.09812365 0.19039175 0.13326116
000120 c4 56 f5 3c 6c f8 cf 3d ce 9f 75 bd e5 60 19 be
       0.0299486 0.101548046 -0.059966855 -0.14978369
000130 37 99 c9 bc 99 aa aa bb d0 39 d9 be fe 93 73 3e
       -0.024609191 -0.005208325 -0.4242692 0.23786923
000140 11 78 94 3e 6c 21 90 bd 9c 61 33 3e 2d 6c 62 3e
       0.28997853 -0.07037625 0.17517704 0.22111578
000150 37 13 b6 bb be 1c 6b bc 0a 17 5f 3d 80 0b 7a 3c
       -0.00555649 -0.014350114 0.05446533 0.015261531
000160 58 e7 48 3e 1c e7 4e bd 5d 90 7b bc 7b 7e b8 3d
       0.196195 -0.05051337 -0.015354243 0.09008499
000170 8d 27 a4 bd ed 6d 1f 3e 61 99 3e be a7 a6 e2 3d
       -0.08015356 0.15569277 -0.18613197 0.11066943
000180 e7 03 a6 bc 62 54 7f bd db 61 33 3d d9 2b 86 be
       -0.020265533 -0.062336333 0.043794494 -0.26205328
000190 55 50 84 bd 5b a1 35 bd dd 2e bc 3e fa 8e 47 3e
       -0.064606346 -0.044343334 0.36754504 0.19488135
0001a0 d5 7d b0 be 74 be 8c 3d 4c 25 0d 3e 0f 74 12 3f
       -0.34471002 0.068722636 0.13783759 0.5720834
0001b0 5e 2d cc 3d 36 d8 fc 3d 24 ae b7 3a fb ec 3c 3d
       0.099695906 0.123459265 0.001401369 0.04612444
0001c0 bc ac c3 3d 95 af 07 3d 1c 68 d3 be cf e8 2a 3e
       0.09554431 0.033126432 -0.41290367 0.16690372
0001d0 23 de d2 3d 82 c4 5a 3e 3a ac a1 bd 53 8e 66 be
       0.102962755 0.21364024 -0.07894178 -0.2251523
0001e0 e3 92 f6 3c dd 51 63 3c 1e 62 9a be 03 b6 ae be
       0.030099338 0.013874498 -0.30152982 -0.3412324
0001f0 8b 28 57 be 36 01 fb 3d ce 70 43 bd d8 30 10 3d
       -0.2101156 0.1225609 -0.047715 0.03520283
000200 cf bd 9b be 62 a5 3e bf f7 1f 07 bc f2 9f 61 be
       -0.3041825 -0.74471104 -0.008247367 -0.2203367
000210 f8 75 99 bd 00 bd b8 3e cb 16 9c bd 45 7d c1 be
       -0.07493204 0.36081696 -0.07621535 -0.37790886
000220 95 b9 93 bb 50 e6 bf bd fa 9c 83 be c5 0c ef 3c
       -0.004508207 -0.093701005 -0.257057 0.029180894
000230 3a 70 91 be 67 8c a9 3d 0f e8 4e be 6c c4 d8 be
       -0.28405935 0.08278733 -0.20205711 -0.42337358
000240 73 23 4f be e2 c5 8b bd cc b2 03 be ca 5a 0c be
       -0.20228367 -0.068248525 -0.12861174 -0.13706508
000250 e8 be 00 3e 0f 08 0f 3e 55 c1 6b bc d6 d1 92 bd
       0.12572825 0.13967918 -0.014389356 -0.07168929
000260 50 d0 ec 3d 19 5a 89 3d 5e 95 31 bf 47 f3 6e be
       0.1156317 0.06706638 -0.6936854 -0.2333499
000270 22 da 15 3d 06 52 3f bd d2 b0 1a 3e 9d b3 94 be
       0.03658498 -0.046709083 0.15106514 -0.29043284
000280 2d a8 bc 3d 00 f4 7b be d9 a3 72 bd 85 6c 8f 3e
       0.092117645 -0.24604797 -0.05923829 0.2801248
000290 b0 63 80 3e 18 54 f9 3d b5 97 e9 bd 38 5a 9e bc
       0.25076056 0.12174243 -0.11405889 -0.019330129
0002a0 54 c2 67 3e 49 17 19 3e 1d 8b f6 bd 9f 60 71 3e
       0.22632724 0.14950289 -0.120382525 0.23572014
0002b0 a4 fb 4c bd a0 f9 77 bd 3b fd c3 3e 15 bf 7c bd
       -0.05004467 -0.060540795 0.38279137 -0.061705668
0002c0 a2 be 0e bf 06 19 8f 3e 95 97 fa be cd ef d4 bc
       -0.5575963 0.2794878 -0.48943773 -0.025993252
0002d0 11 3c 81 bd 7d 83 b8 bd 18 1a d1 3e f7 b9 77 3e
       -0.06310285 -0.090094544 0.4084022 0.24192034
0002e0 15 2d 5c be 87 db 95 3e f3 77 89 bd d3 44 ca 3d
       -0.21501572 0.2926905 -0.067123316 0.098764084
0002f0 3e f7 4b 3b c8 7b 87 bd 8b 6a 8e 3e ba 00 7d 3e
       0.003112271 -0.06615406 0.2781566 0.24707308
000300 67 7e 2b 3e 00 7c aa 3e d7 f8 57 3e 1f 32 07 3d
       0.16747437 0.3329773 0.21091019 0.033006784
000310 b3 5f 5b 3e 6f f0 23 bd 63 97 bb 3e c8 4e 68 be
       0.21423225 -0.040024217 0.36638936 -0.22686303
000320 ea d0 cc 3d 22 b4 4d 3d d4 31 e3 3e c5 1c ae 3d
       0.10000785 0.050220616 0.44373953 0.08501581
000330 0c 00 96 3d 77 a6 a5 be f8 16 ad 3e 11 ad 43 be
       0.07324228 -0.32353565 0.33806586 -0.19108988
000340 9e b4 20 bf db 02 bd 3e 0d 65 4d 3c 0f 95 98 3e
       -0.627756 0.3691624 0.012536299 0.29801223
000350 af 56 57 be d9 c2 66 be 1a 7e 0c be 3e 12 cd 3d
       -0.21029161 -0.22535266 -0.13719979 0.10013245
000360 57 7e 5d be 6d 3a f9 bc ff 8f 9c 3c 48 72 cf 3e
       -0.21630226 -0.030423367 0.019111631 0.40516877
000370 bc d9 f8 3d df 8a 8a 3d 31 7b 1d be 97 d9 00 3e
       0.121509045 0.06764769 -0.15379025 0.12583004
000380 cf 19 c3 bc 13 a4 3e be 9a f0 ad 3e 96 1f b1 3d
       -0.023816017 -0.18617277 0.33972627 0.08648603
000390 c5 55 91 3a 71 3a bc bd 01 e1 99 bd d7 75 09 bc
       0.0011088183 -0.09190834 -0.07513619 -0.008389912
0003a0 dd f9 25 be 2e 7e 81 3e 78 7c 12 bf fc f7 a5 bc
       -0.16208597 0.2529158 -0.57221174 -0.02025985
0003b0 63 a5 a8 3e a3 78 c3 be 6d e6 12 3e 87 8e 5a bd
       0.3293868 -0.38177976 0.14345713 -0.05335858
0003c0 73 09 6f bb 8b 78 b2 3e dc 63 5d bc fb e1 e7 be
       -0.0036474138 0.34857592 -0.013512578 -0.45289597
0003d0 87 23 8c bd 27 05 b0 be d6 fc e4 3d 0b a6 47 bc
       -0.06842714 -0.3437893 0.11181037 -0.012185584
0003e0 d4 06 14 be 10 a6 9d 3e b4 a6 eb bd 19 22 0e 3e
       -0.1445573 0.30790758 -0.115064055 0.13880195
0003f0 99 98 07 3f 7f 99 1a 3d f3 b2 2e 3e 57 4e 8d bc
       0.5296722 0.03774404 0.17060451 -0.01724927

actor_out.bias f4 [12]
000000 98 0b 8a 3d 53 5d 8e bd a5 58 bc 3b e7 82 17 3d
       0.067404926 -0.06951394 0.005747872 0.036990073
000010 0a 3f d2 bd 2c 46 fd bc e0 7d 3e 3c aa ff 7b bc
       -0.1026593 -0.03091725 0.011626691 -0.015380779
000020 33 6e 97 bd d3 04 9d 3c c3 31 3a 3c ae 18 7a 3d
       -0.07394066 0.01916734 0.011364403 0.061058693
