networks/saved_model_3/ppo_model_ep100.pth (torch, 842098 bytes, 11 tensors)

shared_fc1.weight f4 [256, 33]
0	0xbe01be5e	-0.12670276
1	0xbe068fb0	-0.1314075
2	0x3e72231c	0.23646206
3	0xbe261ff5	-0.16223128
4	0x3e5b1fef	0.213989
5	0xbe15388a	-0.14572349
6	0x3cc95425	0.024576256
7	0xbe899710	-0.26873064
8	0x3e35be9d	0.17748494
9	0xbe661e7e	-0.2247257
10	0x3d06a796	0.032874666
11	0xbe1095fb	-0.14119713
12	0xbdf2710c	-0.11837968
13	0xbde07650	-0.10960066
14	0xbb4325bd	-0.0029777132
15	0x3d95e773	0.07319536
16	0x3e33a217	0.17542301
17	0x3f134fb7	0.5754351
18	0xbe372c71	-0.17888047
19	0xbfed9e47	-1.8563927
20	0x3ed23a38	0.41060042
21	0x3ee9209e	0.45532697
22	0xbde06b17	-0.10957926
23	0xbe0c5500	-0.137043
24	0xbe1f86f0	-0.15578818
25	0xbe77b311	-0.24189402
26	0xbd667f01	-0.056273464
27	0xbed25b0f	-0.41085097
28	0xbe1c244d	-0.15248223
29	0x3d057527	0.03258243
30	0xbdfcc11d	-0.12341521
31	0x3d21dacf	0.039515313
32	0xbc862afb	-0.016377917
33	0xbdd22df8	-0.10262674
34	0x3e5c9b57	0.21543632
35	0xbe97e8e2	-0.29669863
36	0xbe05fe98	-0.13085401
37	0xbe5d6ffe	-0.21624753
38	0x3e6b4e51	0.22979094
39	0x3d307032	0.043075748
40	0xbd65a265	-0.056063075
41	0xbda5f9f9	-0.08104319
42	0x3ddbf658	0.10740346
43	0xbebbccef	-0.3667979
44	0xbdb4ba95	-0.0882465
45	0x3d622807	0.055213954
46	0x3c760715	0.015016337
47	0xbcafc328	-0.021455362
48	0xbc160b53	-0.009157973
49	0xbc80047e	-0.015627142
50	0xbd9cd7b8	-0.076583326
51	0x3d5fadda	0.054609157
52	0xbe9a4559	-0.30131033
53	0xbf688907	-0.9083409
54	0x3c98c16d	0.01864692
55	0xbd337071	-0.043808404
56	0x3ba38a4c	0.0049908515
57	0x3e871ae9	0.26387718
58	0xbe47de3a	-0.19518366
59	0x3d5cdc79	0.053921197
60	0xbdcb5132	-0.09927596
61	0xbe83c116	-0.2573325
62	0xba86356d	-0.0010239311
63	0xbd89c416	-0.067268535
64	0x3dce6416	0.10077684
65	0xbc55a025	-0.01303867
66	0xbea17abc	-0.3153895
67	0x3e1a5468	0.15071261
68	0xbe688299	-0.22706069
69	0xbdd84eb2	-0.10561885
70	0x3d5f9c8a	0.054592647
71	0xbe9bc6f3	-0.30425224
72	0xbd8bd869	-0.06828386
73	0xbda0c9b0	-0.07850969
74	0x3e32834f	0.17432903
75	0x3dc4ed94	0.09615627
76	0x3d95537d	0.07291315
77	0xbe700cd6	-0.23442397
78	0xbe14cec4	-0.14532
79	0x3d4bc632	0.04974956
80	0xbc808dd2	-0.015692625
81	0x3e873b7b	0.26412567
82	0xbd5baafb	-0.053629857
83	0x3f299d7d	0.66255933
84	0xbde25bdb	-0.11052676
85	0xbeeb8e15	-0.46006837
86	0xbd9b9273	-0.07596292
87	0xbfc68e4e	-1.5512178
88	0xbce8ffa2	-0.028442208
89	0xbddbeb5b	-0.1073825
90	0x3cfe8910	0.031071216
91	0xbe3dbccd	-0.18529053
92	0xbd32ee70	-0.043684423
93	0x393c6ffa	0.00017970792
94	0xbd150a5f	-0.036386844
95	0xbec44670	-0.3833499
96	0x3d86071f	0.06544327
97	0x3cc73343	0.024316436
98	0xbe64016e	-0.2226617
99	0xbe082873	-0.1329668
100	0xbe3e0661	-0.18557121
101	0xbe055463	-0.13020472
102	0xbe12a51e	-0.143208
103	0xbe134e54	-0.14385349
104	0xbe3ee9fa	-0.18643942
105	0xbb85952e	-0.0040766215
106	0xbe12ba34	-0.14328843
107	0x3d3bde07	0.04586604
108	0xbd85f862	-0.06541516
109	0x3d097604	0.033559814
110	0xbca71de1	-0.02039999
111	0xbdb0029c	-0.08594248
112	0xbbe3fa30	-0.006957315
113	0x3db84901	0.089982994
114	0x3dd2bbd3	0.10289731
115	0x3d4f3770	0.05058998
116	0xbe0b8921	-0.1362653
117	0xbdbae2d1	-0.09125293
118	0x3d475f76	0.048675023
119	0x3e030ab6	0.12797055
120	0x3dab8a22	0.08375956
121	0xbda8cdaa	-0.08242352
122	0x3d8e4696	0.06947057
123	0xbdce8e83	-0.10085776
124	0xbd13cecf	-0.0360859
125	0xbe393c9e	-0.1808953
126	0xbd00fcb2	-0.03149099
127	0xbdcb777a	-0.09934898
128	0xbdc4cc90	-0.0960933
129	0x3db5a3a7	0.08869105
130	0xbe16dd1b	-0.14732783
131	0xbe1d3e83	-0.15355878
132	0xbe729df5	-0.23693068
133	0xbe720947	-0.23636352
134	0xbd4dcdd1	-0.05024511
135	0xbe0f15a6	-0.13973102
136	0xbd1c0a72	-0.0380959
137	0xbe4820ce	-0.19543764
138	0xbe3b2afb	-0.18278114
139	0xbe019aaf	-0.12656663
140	0xbd89abcb	-0.0672222
141	0xbcbd0d1c	-0.02307754
142	0xbd1d294f	-0.038369473
143	0xbd8ed4c0	-0.069741726
144	0xbc218cc2	-0.009860219
145	0x3e67217e	0.2257137
146	0x3dc52969	0.09627039
147	0xbd4526e4	-0.048132792
148	0xbc3bc943	-0.011461559
149	0xbe8158a2	-0.25262934
150	0xbe71bf3f	-0.23608111
151	0x3e787769	0.24264301
152	0x3e73abd8	0.23796022
153	0x3f485740	0.7825813
154	0xbe115ca2	-0.14195493
155	0xbd339634	-0.043844417
156	0xbdcd6288	-0.10028559
157	0x3da496d2	0.08036579
158	0xbd1a27b2	-0.037635513
159	0x3dae1f1e	0.08502029
160	0xbe644cd0	-0.22294927
161	0xbe841ac4	-0.2580167
162	0xbe3ecc2b	-0.18632571
163	0xbe3ee8af	-0.18643449
164	0xbe38bb3e	-0.18040177
165	0x3e178466	0.147966
166	0xbe11fddf	-0.14257
167	0xba4b98a9	-0.00077665836
168	0xbe2cb944	-0.16867548
169	0x3daf2975	0.08552829
170	0x3de15d5f	0.11004137
171	0xbd9d2007	-0.07672124
172	0xbd8527c2	-0.06501724
173	0xbc858955	-0.016300837
174	0xbda77555	-0.08176676
175	0xbdd1b8e6	-0.10240345
176	0xbe850a97	-0.25984642
177	0xbd12b86f	-0.03582042
178	0xbd84416b	-0.0645779
179	0x3d91513c	0.07095572
180	0x3cfa25ca	0.030535597
181	0x3e37a4dc	0.17933983
182	0x3e3dd72a	0.1853911
183	0xbd6637c0	-0.05620551
184	0xbf0597af	-0.52184576
185	0x3f542212	0.8286449
186	0x3e5b8b97	0.21439968
187	0x3bb1751b	0.0054155714
188	0xbe532c6b	-0.20622413
189	0xbed2395d	-0.4105939
190	0xbc23fad4	-0.010008533
191	0x3d3fa2f6	0.04678627
192	0xbc8f4b6a	-0.017492015
193	0x3da72dbd	0.08163021
194	0xbce9c38f	-0.028535632
195	0xb9096d72	-0.0001310611
196	0xbc4ce966	-0.012506818
197	0xbd4671dd	-0.048448432
198	0x3e4f8c93	0.20268469
199	0x3d8fabd5	0.07015196
200	0x3ee7ff5a	0.45312005
201	0xbdf41c7f	-0.11919498
202	0x3e2e81dd	0.17041726
203	0x3d620da0	0.055188775
204	0x3dc015f4	0.09379187
205	0x3e074972	0.13211611
206	0xbea21c35	-0.31662145
207	0xbd6d33ad	-0.05791061
208	0x3a4656ad	0.0007566016
209	0xbc566213	-0.013084906
210	0x3d51111f	0.05104172
211	0xbd9ea53c	-0.0774636
212	0x3d1ec1fe	0.038759224
213	0x3d3ab098	0.04557857
214	0x3e91b99c	0.2846192
215	0xbce93d42	-0.028471593
216	0xbe0324a4	-0.12806946
217	0xbce8b1f6	-0.02840517
218	0x3f998c50	1.1995945
219	0xbd90b91d	-0.070665576
220	0x3e08332a	0.13300768
221	0xbe180a47	-0.1484767
222	0xbc11a97d	-0.008890507
223	0x3e0d0985	0.13773163
224	0x3e15018a	0.14551368
225	0x3dc32496	0.095284626
226	0x3d7ecc66	0.06220665
227	0xbd16de2a	-0.036832966
228	0xbd6dbeff	-0.058043476
229	0x3ce0cd1e	0.027441557
230	0x3c09a763	0.0084017245
231	0xbd510f37	-0.0510399
232	0xbdd130a8	-0.102143586
233	0xbd9b3f4a	-0.07580431
234	0x3cb3e3d9	0.021959232
235	0x3ddbc297	0.107304744
236	0xbd819bcd	-0.06328545
237	0x3d920e1b	0.07131597
238	0xbded26ab	-0.11579641
239	0x3defabfe	0.11702727
240	0x3c93f8d6	0.01806299
241	0xbdc57a92	-0.09642519
242	0xbc9a17ea	-0.018810231
243	0x3db21a3c	0.0869641
244	0xbbb875a9	-0.0056292606
245	0xbc6ee09d	-0.014579919
246	0x3d25fb7f	0.04052305
247	0x3d3e78e5	0.046502013
248	0x3de3d42a	0.111244515
249	0x3ca36374	0.019944884
250	0x3ce4d842	0.027935151
251	0xbd2eb2dc	-0.042651042
252	0x3de17602	0.11008836
253	0x3df526fe	0.11970328
254	0x3d575a28	0.052576214
255	0xbe00f1db	-0.1259226

shared_fc1.bias f4 [256]
0	0xbdfe4fe8	-0.12417585
1	0x3cfab34d	0.030603075
2	0xbde09d73	-0.10967531
3	0xbd81fc35	-0.06346933
4	0xbe0475d6	-0.12935576
5	0xbd4aace1	-0.049481276
6	0x3d5337a7	0.051566746
7	0xbcc54d83	-0.024084812
8	0xbdaf79ed	-0.08568177
9	0xbdb64491	-0.08899797
10	0xbdf45208	-0.11929709
11	0xbc58a8a0	-0.013223797
12	0xbe36402b	-0.17797916
13	0xbd1cdf4c	-0.03829889
14	0xbe03bc37	-0.12864767
15	0xbdc69bfb	-0.0969772
16	0x3c841359	0.016122507
17	0xb9c4eb79	-0.00037559474
18	0xbb8e2de2	-0.0043389658
19	0xbcbf44b6	-0.023348194
20	0x3b205a4a	0.002446788
21	0xbdc13489	-0.094338484
22	0xbd91d48e	-0.0712062
23	0xbc2ee574	-0.010674823
24	0xbe25d78d	-0.16195507
25	0xbe5b1ee3	-0.21398501
26	0xbb11c43e	-0.0022242214
27	0xbcedb6b7	-0.02901779
28	0x3a9c0170	0.0011902284
29	0xbd43c6db	-0.047797065
30	0xbdb74b8f	-0.089499585
31	0xbd71f686	-0.059072994
32	0xbd92de71	-0.071713336
33	0xbdb9730d	-0.09055147
34	0xbdfa2c76	-0.122155115
35	0xbdb7f773	-0.08982744
36	0xbdc4951f	-0.09598755
37	0xbd74a3bc	-0.05972646
38	0xbcd78021	-0.026306214
39	0xbd47689a	-0.04868374
40	0xbdf3e608	-0.11909109
41	0xbd8697f8	-0.065719545
42	0xbc8e86bb	-0.017398229
43	0xbcb2428a	-0.021760244
44	0xbd3bf7c9	-0.045890603
45	0xbdd78067	-0.10522538
46	0xbd3241df	-0.04351985
47	0xbdd1f027	-0.102508835
48	0xbe2a75af	-0.16646455
49	0xbb12d285	-0.0022403311
50	0xbd36235d	-0.04446732
51	0xbc8e8320	-0.01739651
52	0xbd87c917	-0.06630152
53	0xbe47688a	-0.19473472
54	0xbd38ebc6	-0.045146726
55	0xbd9c64af	-0.07636391
56	0xbd8f91fc	-0.07010266
57	0xbb8cb048	-0.0042934753
58	0xbd1f45b8	-0.03888485
59	0xbdfe30f0	-0.12411678
60	0x3cfabcc2	0.030607585
61	0xbe63d1be	-0.22247979
62	0xbe46b905	-0.19406517
63	0xbdcecfdb	-0.10098239
64	0xbd7972b8	-0.06090042
65	0xbd5cd686	-0.053915523
66	0xbd8e91e0	-0.06961417
67	0xbd4fbd80	-0.05071783
68	0xbd939aeb	-0.07207283
69	0xbe336e09	-0.17522444
70	0xbe88bf4a	-0.26708442
71	0x3cc24c12	0.023717914
72	0xbcfd1cff	-0.030897615
73	0xbd843f75	-0.06457416
74	0xbd732aef	-0.059367117
75	0xbde4928e	-0.111607656
76	0xbdba6fd6	-0.09103362
77	0x3c8f6dfc	0.0175085
78	0xbe30980a	-0.17245498
79	0x3c4cbc05	0.012495999
80	0xbc044ac9	-0.008074471
81	0xbd805d34	-0.06267777
82	0xbe102e69	-0.14080204
83	0x3bc63143	0.006048353
84	0xbd99b68f	-0.075055234
85	0xbe38b4fa	-0.18037787
86	0xbc9e250e	-0.019304778
87	0x3cca1440	0.02466786
88	0xbe0064a4	-0.12538391
89	0xbd83da30	-0.064381
90	0xbdae11ba	-0.08499475
91	0xbce780a9	-0.028259592
92	0xbdfba993	-0.12288203
93	0xbdb0680b	-0.086135946
94	0xbdef45f0	-0.116832614
95	0xbccb084b	-0.024784228
96	0xbd69f9d6	-0.057123028
97	0xbccabb96	-0.024747651
98	0xbdbcc7bd	-0.092177846
99	0xbd94e68d	-0.072705366
100	0xbc6d3b0d	-0.014479411
101	0xbd9f6ab5	-0.077840246
102	0xbdbb3e29	-0.091427155
103	0xbdd806b5	-0.10548154
104	0xbdc5c555	-0.09656779
105	0x3d09ecff	0.033673283
106	0xbd35e94e	-0.04441195
107	0xbc6d331c	-0.014477517
108	0xbe6a8e4b	-0.22905843
109	0xbd9cbffa	-0.07653804
110	0xbdb7a139	-0.08966298
111	0x3d060bd5	0.032726128
112	0xbccc0267	-0.02490349
113	0xbe2e8512	-0.1704295
114	0xbd5de137	-0.05416986
115	0xbcc99b9d	-0.024610335
116	0xbde5188d	-0.11186323
117	0xbdb31b95	-0.08745495
118	0xbcf86cd9	-0.03032534
119	0xbe4a19fc	-0.19736475
120	0xbd322f56	-0.043502174
121	0xbd1d13d2	-0.03834898
122	0xbd01f1d4	-0.031724766
123	0xbbc94437	-0.006142165
124	0xbd4635fa	-0.04839132
125	0xbdfcc1b4	-0.123416334
126	0xbbae1791	-0.005312868
127	0xbceddc5e	-0.029035743
128	0x3d02ef82	0.031966694
129	0x3ba3fe11	0.0050046523
130	0xbcb0285d	-0.021503622
131	0xbd55606d	-0.052093912
132	0xbe20346d	-0.15644999
133	0xbc10030e	-0.008789791
134	0x3b85450a	0.004067068
135	0x3c8bad82	0.017050508
136	0xbd371c20	-0.044704556
137	0xbe02c273	-0.12769489
138	0x3c9639f4	0.018338181
139	0xbc318ebd	-0.010837254
140	0xbdf3595a	-0.11882277
141	0xbc2c52d6	-0.0105177965
142	0xbbff4783	-0.0077905073
143	0xbd08a908	-0.033364326
144	0xbd93814b	-0.07202395
145	0x3cc33051	0.02382675
146	0xbdabea02	-0.08394243
147	0xbce8bf9f	-0.028411685
148	0xbe2b3ec9	-0.1672317
149	0xbdfd9e02	-0.12383653
150	0x3d53cf53	0.05171139
151	0xbd2736a5	-0.040823597
152	0xbe058a8d	-0.13041134
153	0xbd45c7cd	-0.048286248
154	0xbd12d101	-0.035843853
155	0x3cc5e03d	0.024154777
156	0xbdcb32d7	-0.09921806
157	0xbdc5119d	-0.096225
158	0xbe192c3c	-0.1495828
159	0xbdd29e8d	-0.102841474
160	0xbd9660c7	-0.073426776
161	0xbdbd4185	-0.092410125
162	0xbe49e7bc	-0.19717306
163	0xbd0a33f3	-0.03374095
164	0xbd1b7b80	-0.037959576
165	0xbb49e44a	-0.0030806237
166	0x3b9784d9	0.004623991
167	0xbd3615ab	-0.044454258
168	0xbe50a480	-0.20375252
169	0xbdc19a55	-0.094532646
170	0xbd874925	-0.06605748
171	0x3c8f3bb8	0.01748453
172	0xbe3c577e	-0.1839275
173	0xbd805cfe	-0.06267737
174	0xbe22cba4	-0.15897995
175	0xbd6d92a7	-0.058001187
176	0xbd9127a0	-0.07087636
177	0x3ceb05dc	0.028689317
178	0xbd23f9b9	-0.040033076
179	0x3b947f7b	0.0045317984
180	0xbe81582c	-0.25262582
181	0xbd336192	-0.043794222
182	0xbcb2a95e	-0.021809276
183	0xbdce36d1	-0.10069049
184	0xba8bfb31	-0.0010679719
185	0xbd3ba54d	-0.04581194
186	0xbbaf5bbd	-0.005351512
187	0xbd6b3ec8	-0.05743292
188	0xbdb8dcb4	-0.09026471
189	0xbdc19603	-0.094524406
190	0xbdbc15a0	-0.09183812
191	0xbcba2b74	-0.022725798
192	0xbcf7da3b	-0.030255428
193	0xbdee2beb	-0.116294704
194	0xbc0adfc3	-0.0084762005
195	0xbe0a6833	-0.13516311
196	0xbda12b64	-0.07869604
197	0xbde960eb	-0.11395439
198	0xbdd091cb	-0.10184058
199	0xbe002b24	-0.12516457
200	0xbd176204	-0.03695871
201	0xbdbbac5e	-0.09163736
202	0xbe1d0222	-0.15332845
203	0xbdbbe22c	-0.09173998
204	0x3c8b1804	0.016979225
205	0xbe7645dd	-0.24050088
206	0xbd73f1c2	-0.05955673
207	0xbe1f1a54	-0.15537387
208	0xbc8ae753	-0.016956007
209	0x3c8ace80	0.01694417
210	0xbd97f113	-0.07419028
211	0xbd7a1211	-0.061052386
212	0x3cb4f81d	0.022090966
213	0xbd8f8cb4	-0.07009259
214	0xbd978be9	-0.073997326
215	0x3c446f29	0.011989393
216	0xbe85a973	-0.26105842
217	0xbdeda7c2	-0.11604263
218	0xbcd9b4f9	-0.026575552
219	0x3d29816b	0.04138319
220	0x3d10e402	0.035373695
221	0xbdeab635	-0.114605345
222	0xbd926a41	-0.071491726
223	0xbdfdf5ae	-0.12400375
224	0xbe613f46	-0.21996793
225	0xbd968f34	-0.073515326
226	0xbe049d35	-0.12950595
227	0xbd9e000f	-0.07714855
228	0xbdc6036d	-0.09668622
229	0xbdd64f5e	-0.10464357
230	0x3cc3f2d3	0.023919499
231	0xbe6dca10	-0.23221612
232	0xbde21e39	-0.11040921
233	0xbdfced22	-0.12349917
234	0xbd8c0c6e	-0.06838308
235	0xbdbd89b5	-0.09254781
236	0xbd1fe59a	-0.039037324
237	0xbd1e2adc	-0.038615093
238	0xbae5e476	-0.00175394
239	0xbda44171	-0.080202945
240	0xbda92d51	-0.082605965
241	0xbd844eb7	-0.06460326
242	0x3cfde50d	0.030993009
243	0xbb714cfd	-0.003681957
244	0xbda9d578	-0.08292669
245	0x3cd1275c	0.025531463
246	0x3ca0218d	0.019547248
247	0xbdaa742e	-0.08322941
248	0x3d1efe0b	0.038816493
249	0xbbc5860c	-0.0060279425
250	0x3c9ba2ba	0.018998493
251	0xbd781a35	-0.060571868
252	0xbe24b977	-0.16086374
253	0xbdb7215e	-0.08941911
254	0xbe00b734	-0.12569886
255	0xbd9bb402	-0.07602693

shared_fc2.weight f4 [256, 256]
0	0x3a8c57d7	0.0010707331
1	0xbc3071df	-0.0107693365
2	0xbdaa6b10	-0.08321202
3	0x3d4b3810	0.049614012
4	0xbbe294c7	-0.0069147083
5	0xbe024ce5	-0.12724645
6	0xbd806421	-0.06269098
7	0x3cdba6f3	0.026813006
8	0x3d88877d	0.06666467
9	0xbd20ae65	-0.039228816
10	0xbc51f862	-0.012815567
11	0xbd7c7541	-0.06163526
12	0xbd1409d0	-0.03614217
13	0xbd9ed801	-0.07756043
14	0xbce7fec5	-0.028319726
15	0x3d7c86af	0.06165188
16	0x3b8b9bd6	0.0042605205
17	0xbd15bd84	-0.03655769
18	0x3d5cd5f3	0.053914975
19	0xbcd13191	-0.02553633
20	0xbc6fe908	-0.014642961
21	0xbccc5271	-0.024941655
22	0x3cc181a0	0.02362138
23	0x3d15573b	0.036460143
24	0xbe05a339	-0.13050546
25	0xbdf69eba	-0.120419934
26	0x3ce0f9fb	0.02746295
27	0xbb6c1b2e	-0.0036026943
28	0xbe2a413a	-0.16626444
29	0xbde1e1bd	-0.11029384
30	0xbc471a50	-0.0121522695
31	0x3d7d57df	0.06185138
32	0xbdc50385	-0.09619812
33	0xbdeb774c	-0.114973634
34	0x3b2a4685	0.0025981974
35	0x3de34e9b	0.11098977
36	0x3cb3ea9a	0.021962453
37	0xbc0522d1	-0.008125977
38	0xbe11eb57	-0.14249931
39	0x3daa0abf	0.08302831
40	0x3bf74956	0.007546584
41	0x3c83cd45	0.016089091
42	0x3d33b20b	0.043870967
43	0xbd7b4b8f	-0.061351355
44	0x3c04390b	0.008070241
45	0x3dc3eb94	0.09566417
46	0xbde2d630	-0.11076009
47	0xbd014a4e	-0.031565003
48	0x3d2a9d7a	0.041654088
49	0x3dba6b30	0.09102476
50	0x3ca314ad	0.01990732
51	0xbe0b954b	-0.1363117
52	0xb8f4e2da	-0.00011677081
53	0xbda62cb3	-0.081139944
54	0x3d8944c7	0.06702571
55	0x3cec8208	0.028870597
56	0x3d1a6091	0.03768975
57	0xbe10bdd7	-0.14134918
58	0xbd76a7ff	-0.060218807
59	0xbe10b4b9	-0.1413144
60	0x3e015938	0.1263169
61	0xbd2872cd	-0.041125108
62	0xbd2cff20	-0.042235494
63	0x3cce55aa	0.025187332
64	0xbd5a20c0	-0.05325389
65	0xbd6a7cbb	-0.05724786
66	0xbd93325c	-0.0718734
67	0xbbe8ad5c	-0.007100744
68	0xbcb171f6	-0.021660786
69	0x3d65ff86	0.05615189
70	0xbdff0550	-0.12452185
71	0xbccdaa25	-0.025105545
72	0xbe1a0b80	-0.1504345
73	0xbc957344	-0.01824344
74	0x3d6f93da	0.05849061
75	0x3d9b0888	0.075699866
76	0x3d923d1f	0.07140564
77	0x3e0a791d	0.13522764
78	0xbdf277f5	-0.11839286
79	0x3d6fe7dd	0.05857073
80	0x3ca78556	0.020449322
81	0x3d19550d	0.037434626
82	0x3d0f224b	0.034944814
83	0x3c8038cd	0.015652085
84	0xbc65f665	-0.014035796
85	0xbd8ebc59	-0.06969518
86	0xbd9d71f6	-0.07687752
87	0xbd3b56c1	-0.04573703
88	0xbcc8ae35	-0.02449713
89	0x3d5ab1da	0.05339227
90	0xbda8add9	-0.08236284
91	0xbb827a99	-0.0039819
92	0x3d8a0cec	0.06740746
93	0xbcd7b591	-0.026331695
94	0x3daa3595	0.08311001
95	0x3c15f8b3	0.009153533
96	0x3d7e5558	0.06209311
97	0xbd6a470e	-0.05719667
98	0xbce91039	-0.028450118
99	0x3d566e78	0.052351445
100	0xbc0aae1f	-0.008464365
101	0x3b51f83f	0.0032038835
102	0xbddb6ffe	-0.1071472
103	0xbd4245e8	-0.04742995
104	0xbdcd08bc	-0.100114316
105	0xbd539027	-0.051651146
106	0xbd893864	-0.06700209
107	0xbd832f30	-0.06405485
108	0xbd9fa004	-0.077941924
109	0x3d714073	0.058899354
110	0x3d333824	0.04375471
111	0xbd4772fc	-0.048693642
112	0xbda6e037	-0.08148234
113	0xbca604a8	-0.020265892
114	0xbd5fe20f	-0.054658946
115	0xbe01493a	-0.1262559
116	0xbc8f82ec	-0.017518483
117	0x3d7d1e18	0.061796278
118	0x3dc622db	0.09674617
119	0xbdcc230c	-0.09967622
120	0xbdb56a79	-0.08858199
121	0xbdb4428d	-0.08801756
122	0xbdc980a9	-0.09838993
123	0xbd966c95	-0.07344929
124	0x3bafaab8	0.0053609274
125	0xbd67416b	-0.05645887
126	0x3db2c980	0.08729839
127	0x3c8dd0d7	0.017311497
128	0xbd415b85	-0.04720642
129	0xbc6c09b7	-0.014406613
130	0x3c0c963e	0.008580742
131	0xbdf23751	-0.11826957
132	0xbd002033	-0.031280708
133	0xbca615b4	-0.02027402
134	0xbb37aa6c	-0.0028025163
135	0xbda7ba87	-0.08189874
136	0x3c88bb8c	0.016690992
137	0xbdd928f2	-0.10603513
138	0xbd93d181	-0.07217694
139	0xbe0fe1fc	-0.1405105
140	0xbddf952b	-0.109171234
141	0xbca405f5	-0.020022372
142	0x3d9bd95f	0.076098196
143	0xbd1d6198	-0.03842315
144	0xbdfe6f50	-0.12423575
145	0x3a8e2b31	0.0010846612
146	0xbd1c15c4	-0.038106695
147	0xbd569017	-0.05238351
148	0xba1fa988	-0.0006090631
149	0x3d4395d0	0.047750294
150	0xbcd0d4b3	-0.025492048
151	0xbcd12438	-0.025529966
152	0x3d84010b	0.064455114
153	0xbdef7e70	-0.11694038
154	0x3d10e52a	0.035374798
155	0x3baf9b7a	0.0053591104
156	0xbdf4eb24	-0.11958912
157	0x3d594eac	0.053053543
158	0xbd891520	-0.066934824
159	0xbdcb832d	-0.09937129
160	0xbd97738a	-0.07395084
161	0x3d07774b	0.03307275
162	0xbc9aaed3	-0.01888219
163	0xbd8f50df	-0.06997847
164	0x3d133ead	0.035948444
165	0x3d069b58	0.03286299
166	0xbe14a893	-0.14517431
167	0x3d7bfcef	0.061520513
168	0xbd8c1cfa	-0.06841464
169	0xbdb1759d	-0.08665011
170	0xbd3ddd31	-0.046353523
171	0xbdb835ea	-0.08994658
172	0x3d56772a	0.052359737
173	0xbd77770e	-0.060416274
174	0xbd01a57a	-0.03165195
175	0x3dd0f49c	0.102029055
176	0xbd73a431	-0.059482757
177	0x3cbec94f	0.02328935
178	0x3d9b8f25	0.07595662
179	0xbd14c11c	-0.036316976
180	0x3d433b10	0.04766375
181	0xbd207425	-0.039173264
182	0xbd13c74d	-0.03607874
183	0xbd9c668a	-0.07636745
184	0x3d8b914f	0.06814825
185	0x3d10a9a1	0.03531802
186	0x3d1190f5	0.035538632
187	0x3d809643	0.0627866
188	0xbd06bdff	-0.03289604
189	0xbd68a322	-0.0567962
190	0xbdd6271e	-0.1045668
191	0xbcb5b8bc	-0.022182815
192	0x3d8694e6	0.06571369
193	0xbc2c21db	-0.010506119
194	0xbdb1e281	-0.0868578
195	0xbda530c7	-0.08065944
196	0xbd3a1fe9	-0.04544059
197	0x3a675f10	0.0008826116
198	0xbdc88515	-0.097910084
199	0x3d6ca128	0.057770878
200	0xbd19e59f	-0.0375725
201	0x3d31a1ec	0.04336731
202	0x3bfca18c	0.0077096876
203	0x3d80a7d7	0.06282013
204	0x3c433314	0.011914033
205	0x3da47718	0.08030528
206	0xbda94d2b	-0.08266672
207	0xbccedf8b	-0.025253078
208	0xbdb6ac19	-0.08919544
209	0xbce39fac	-0.027786098
210	0xbc0128f5	-0.0078833
211	0x3e052d84	0.13005644
212	0xbe1ebe4e	-0.15502283
213	0xbd42275d	-0.04740082
214	0x3dc9d7eb	0.09855636
215	0x3c87c878	0.016575083
216	0x3d464c76	0.048412763
217	0x3c5a3ba2	0.013319882
218	0xbd0a543f	-0.03377175
219	0xbcac92e1	-0.021066131
220	0xbdcdaf7b	-0.10043236
221	0xbc0877ef	-0.008329376
222	0x3c40013c	0.011719044
223	0xbe339b83	-0.17539792
224	0xbdcb7b54	-0.09935632
225	0x3ce436ba	0.027858127
226	0xbd96c3b9	-0.0736155
227	0x3aaf23ca	0.0013362106
228	0xbdf85d05	-0.12127117
229	0x3d3b4e65	0.04572906
230	0xbdb0d354	-0.08634058
231	0x3d46f70a	0.04857544
232	0xbe0d88fb	-0.13821785
233	0x3d1c1928	0.03810993
234	0xbdc691ce	-0.09695779
235	0x3d5b715a	0.053574897
236	0xbe0aca79	-0.135538
237	0xbd731914	-0.05935009
238	0xbe5d0a61	-0.2158599
239	0xbc832dc9	-0.016013043
240	0xbdbad696	-0.0912296
241	0xbd48a671	-0.048986856
242	0x3ccdece8	0.02513738
243	0xbcec4ef6	-0.028846245
244	0xbcc7e17c	-0.024399512
245	0x3ca60c70	0.020269603
246	0x3d53ccdc	0.05170904
247	0x3dd382ac	0.10327658
248	0xbe2b6866	-0.16739044
249	0x3d613c41	0.054989103
250	0xbd9043f4	-0.07044211
251	0x3dc03924	0.09385899
252	0x3d40686c	0.046974584
253	0x3d20c15f	0.039246913
254	0xbd9d3e0e	-0.076778516
255	0xbd566a89	-0.052347694

shared_fc2.bias f4 [256]
0	0xbd46fb8d	-0.04857974
1	0xbb0436f3	-0.0020174354
2	0xbda241db	-0.07922717
3	0xbd8276f0	-0.06370342
4	0x3dd1fe65	0.102536
5	0xbd277d0d	-0.040890742
6	0xbd10667f	-0.035253998
7	0xbd4ef3eb	-0.050525587
8	0xbd6039e7	-0.05474272
9	0xbd4aaf60	-0.049483657
10	0xbd891cbf	-0.06694936
11	0xbd2fc2ca	-0.042910375
12	0xbced91dd	-0.029000217
13	0xbe8f5ce0	-0.28000546
14	0x3d8a15ec	0.067424625
15	0xbd3e85d7	-0.04651436
16	0xbcdfbc68	-0.027311519
17	0xbd0997d5	-0.033592064
18	0xbd825eac	-0.063657135
19	0xbcff8b9d	-0.031194502
20	0xbde472be	-0.11154698
21	0xbd413fa3	-0.04717983
22	0xbd9ab6e9	-0.075544186
23	0x3d2979e5	0.041376013
24	0xbd68940e	-0.05678182
25	0xbd8ff068	-0.07028276
26	0xbd4aa975	-0.049478013
27	0x3d13bd2a	0.036069073
28	0xbd2dc6fd	-0.0424261
29	0xbd2bdcdf	-0.041958686
30	0x3d3be4b6	0.045872413
31	0x3cac4421	0.02102858
32	0xbd38235d	-0.0449556
33	0xbd83229e	-0.06403087
34	0x3ba4a195	0.005024145
35	0xbd23d183	-0.039994728
36	0xbd94c10e	-0.07263385
37	0xbdab81e1	-0.08374382
38	0xbd794d64	-0.06086482
39	0xbc5e2844	-0.013559405
40	0xbd129164	-0.035783187
41	0x3d4f57c7	0.05062082
42	0xbcd63b31	-0.026151272
43	0x3c806c45	0.015676627
44	0xbd358b67	-0.044322398
45	0xbd84a449	-0.064766474
46	0xbd204fb0	-0.039138496
47	0xbdce18b1	-0.10063303
48	0xbd51244a	-0.05106
49	0xbd4b7909	-0.049675975
50	0xbd6557d2	-0.055991955
51	0xbb4021f4	-0.0029317113
52	0x3d6a45f8	0.057195634
53	0xbd55fe5f	-0.05224454
54	0xbd49581f	-0.049156304
55	0xbd5e84d5	-0.054325897
56	0xbcf2d6bb	-0.029643407
57	0xbd043a01	-0.03228188
58	0x3bfe3fb8	0.0077590607
59	0xbcea6a39	-0.028615104
60	0xbd16a2b3	-0.036776256
61	0xbce78981	-0.02826381
62	0x3d7e902c	0.06214921
63	0xbce311af	-0.027718393
64	0x3d5243f3	0.051334333
65	0xbd04ab96	-0.0323902
66	0xbcd8a8ad	-0.026447618
67	0xbd1f20c1	-0.038849596
68	0xbd6b86a0	-0.057501435
69	0xbd5e355d	-0.05425011
70	0x3d00f0db	0.031479698
71	0xbd099cf4	-0.033596948
72	0xbdbbf8de	-0.09178327
73	0x3db73004	0.08944705
74	0xbcb1fc04	-0.021726616
75	0xbcd6e774	-0.026233412
76	0xbd15f4fb	-0.036610585
77	0xbcfc961a	-0.030833293
78	0x3d3d2d94	0.046186045
79	0xbd598c5a	-0.053112365
80	0x3d9f8afc	0.07790181
81	0xbce0d1b2	-0.02744374
82	0xbcd262fc	-0.025681965
83	0xbd7b87fd	-0.061408985
84	0xbd3f7fb1	-0.046752635
85	0xbd19bec0	-0.03753543
86	0xbd37aaa4	-0.04484047
87	0x3daa34ec	0.08310875
88	0x3ddf3ed8	0.10900658
89	0x3d1fde8b	0.039030593
90	0xbd2bd593	-0.041951727
91	0x3d0211af	0.031755146
92	0x3c89ebb1	0.01683602
93	0x3d6f3945	0.058404226
94	0x3c1ad060	0.0094490945
95	0xbd26bdb5	-0.040708262
96	0xbd65c6ed	-0.056097914
97	0xbd4ca6b0	-0.049963653
98	0x3d4e78b7	0.05040809
99	0xbd335f82	-0.043792255
100	0xbdc5c034	-0.096558005
101	0xbd44c98c	-0.048043773
102	0xbb88aa99	-0.0041707275
103	0xbd2e2cc4	-0.04252316
104	0xbd6899ba	-0.05678723
105	0xbcc2adf5	-0.02376459
106	0xbc93cd48	-0.018042222
107	0xbda791ed	-0.0818213
108	0xbc7266cf	-0.014795019
109	0xbd874a0d	-0.06605921
110	0xbd40b4e8	-0.047047526
111	0xbcd44a87	-0.025914444
112	0xbd61c366	-0.055117987
113	0xbd3b500c	-0.045730636
114	0xbca83820	-0.020534575
115	0xbce3138f	-0.027719287
116	0xbdf8891e	-0.12135528
117	0x3dc916ff	0.09818839
118	0xbd2450c1	-0.040116075
119	0x3d9cf423	0.07663753
120	0x3d9d0031	0.07666052
121	0xbcfbafdc	-0.030723505
122	0xbcf1a63b	-0.02949821
123	0xbd6538cf	-0.05596238
124	0xbd834562	-0.06409718
125	0xbd45b491	-0.048267905
126	0xbce1fa85	-0.027585277
127	0x394d0993	0.0001955389
128	0xbd1ba277	-0.037996735
129	0xbd1c94d5	-0.038227875
130	0x3b95a89f	0.0045672203
131	0x3c6ab39e	0.014325051
132	0xbd80868a	-0.06275661
133	0xbdb19c82	-0.086724296
134	0xbcf11905	-0.029430876
135	0x3d227878	0.03966567
136	0xbd60cb40	-0.054881334
137	0xbd648bdf	-0.055797454
138	0xbd0263d8	-0.0318335
139	0xba70d2bb	-0.0009186675
140	0x3d93f326	0.07224111
141	0xbd4dff2d	-0.050292183
142	0xbcd41bee	-0.025892224
143	0xbdd9891d	-0.106218554
144	0xbd8b370c	-0.06797609
145	0x3c19123d	0.009342727
146	0xbd8735bc	-0.06602046
147	0xbd8b9a96	-0.06816594
148	0xbd03d689	-0.03218702
149	0xbd97f8fe	-0.07420538
150	0xbd83d27b	-0.0643663
151	0xbd767ae5	-0.060175795
152	0xbc4b81e6	-0.012421107
153	0xbd5be677	-0.053686585
154	0xbd6afe6e	-0.05737155
155	0xbdb8843d	-0.090095975
156	0xbd48e360	-0.049044967
157	0x3ccf55a9	0.0253094
158	0xbd29e801	-0.04148102
159	0xbcb7aa7f	-0.022420166
160	0xbd244e08	-0.04011348
161	0xbd69eae2	-0.057108767
162	0xbd4fb560	-0.050710082
163	0xbd2d2b7d	-0.0422778
164	0xbdac5a8b	-0.08415707
165	0xbc4895f5	-0.012242784
166	0xbd0da586	-0.034581684
167	0x3db423fb	0.08795925
168	0xbd745b25	-0.059657235
169	0x3cefce22	0.029273096
170	0xbd0fdd57	-0.035123195
171	0xbd8d0e09	-0.068874426
172	0x3c09ba03	0.008406165
173	0xbcf180d6	-0.02948038
174	0x3da7f90e	0.082018
175	0x3c37661a	0.0111937765
176	0xbd18a170	-0.037263334
177	0xbcfa3754	-0.03054396
178	0xbd694e2e	-0.056959324
179	0x3cb55c7d	0.022138828
180	0xbd8ba979	-0.06819434
181	0x3d240195	0.04004057
182	0xbd0c4c30	-0.034252346
183	0xbd6936b8	-0.05693695
184	0xbc8c16c3	-0.017100697
185	0x3cc9dc13	0.024641072
186	0x3d21096a	0.03931562
187	0xbd7bf6a6	-0.06151452
188	0x39a3fff4	0.00031280483
189	0xbc30a794	-0.010782141
190	0xbd4a2196	-0.049348436
191	0xbd8d3759	-0.06895322
192	0x3a7d0698	0.00096521666
193	0x3e06356b	0.13106315
194	0xbd873aa7	-0.06602984
195	0xbd873f4e	-0.06603871
196	0xbd6cb83b	-0.057792883
197	0xbd6d8a20	-0.057993054
198	0x3d04b6bd	0.032400835
199	0x3cfc1926	0.03077371
200	0xbd9b612d	-0.07586894
201	0xbd4a407e	-0.04937791
202	0xbd3a1332	-0.045428462
203	0x3d10be7c	0.03533791
204	0xbcc70802	-0.02429581
205	0xbdbf1fc2	-0.09332229
206	0xbd769ef8	-0.0602102
207	0xbcbdc9d3	-0.023167526
208	0xbe049128	-0.12945998
209	0xbdab672f	-0.0836929
210	0x3c4b1874	0.012395967
211	0xbd2ca1e5	-0.042146582
212	0xbc9cad6d	-0.019125665
213	0x3c67701a	0.014125848
214	0xbd9dc75c	-0.077040404
215	0xbd4f3538	-0.050587863
216	0xbd54f5d0	-0.051992238
217	0xbdaee0f7	-0.085390024
218	0xbd89917f	-0.06717204
219	0xbd43741b	-0.04771815
220	0xbcd7fd0c	-0.02636578
221	0xbd335004	-0.04377748
222	0xbd217aa5	-0.039423604
223	0xbd39b837	-0.045341697
224	0xba9c57b4	-0.0011927993
225	0xbd88712b	-0.0666221
226	0xbc6ca488	-0.014443524
227	0xbcc86033	-0.024459934
228	0xbd4df9eb	-0.05028717
229	0xbd011442	-0.03151346
230	0xbd25d670	-0.040487707
231	0xbc0c23c4	-0.008553449
232	0x3dc5ef3a	0.096647695
233	0x3d9b5721	0.07584978
234	0xbd007c4f	-0.03136855
235	0x3c6b6a73	0.014368641
236	0xbd1297a0	-0.035789132
237	0x3dbe3de0	0.092891455
238	0xbd770861	-0.060310725
239	0xbd810828	-0.06300384
240	0xbd6b29b1	-0.057412807
241	0xbd785751	-0.060630146
242	0xbdd436d7	-0.10362022
243	0xbd7a1431	-0.061054412
244	0xbcbf9e2c	-0.023390852
245	0xbcb83dad	-0.022490347
246	0x3d846f6b	0.06466564
247	0x3d9f20ee	0.07769953
248	0xbce90bd8	-0.02844803
249	0xbd42d9e8	-0.047571093
250	0xbd83e1a6	-0.064395234
251	0xbd039b22	-0.032130368
252	0xbc4542d9	-0.0120398635
253	0xbd6bfe90	-0.057615817
254	0xbd2052df	-0.039141532
255	0xbcac8f74	-0.021064498

actor_fc.weight f4 [256, 256]
0	0x3c408979	0.011751526
1	0x3e08059d	0.13283391
2	0x3d9b9d85	0.07598404
3	0xbdad3e1f	-0.08459114
4	0x3bf3a504	0.007435443
5	0xbcd13450	-0.02553764
6	0x3cc7521b	0.024331143
7	0x3bb44ac3	0.0055020764
8	0xbb81a7cb	-0.00395677
9	0x3c880b97	0.016607089
10	0xbde43035	-0.11142007
11	0xbd3e9a78	-0.04653403
12	0xbdf47425	-0.11936215
13	0xbec073b6	-0.3758828
14	0xbe5c92a0	-0.21540308
15	0xbd95a9ae	-0.073077545
16	0x3d100e9c	0.035170183
17	0xbd905428	-0.070473015
18	0xbd68d19b	-0.05684052
19	0xbdcca7e4	-0.0999296
20	0xbdba4f9b	-0.09097215
21	0x3d83d010	0.06436169
22	0x3b88b00c	0.004171377
23	0x3d855eaf	0.065122
24	0xbced588f	-0.028972892
25	0x3d836533	0.064157866
26	0xbd9a7ca9	-0.07543308
27	0xbf26a47b	-0.6509473
28	0xbdb543ed	-0.088508464
29	0xbde412ba	-0.11136384
30	0x3e5dc623	0.21657614
31	0xbe9fa5dd	-0.3118123
32	0x3d30becf	0.04315072
33	0xbcd32dd4	-0.025778688
34	0x3e36ed6c	0.17864007
35	0xbdf16cad	-0.117883064
36	0xbd36e275	-0.04464956
37	0xbdc9e62f	-0.09858357
38	0xbd0bfdee	-0.034177713
39	0xbc86c89a	-0.016453076
40	0x3d947a33	0.0724987
41	0x3de67eda	0.11254664
42	0xbd9bfd74	-0.07616702
43	0xbebbfa71	-0.3671451
44	0x3d58c40c	0.05292134
45	0xbdae778d	-0.08518896
46	0xbdbc81a4	-0.092044145
47	0x3e34a61b	0.17641489
48	0xbc8580cf	-0.016296772
49	0xbdd1a81e	-0.10237144
50	0xbccffd5f	-0.025389371
51	0x3e81a74c	0.2532295
52	0xbe84a07b	-0.25903687
53	0xbda6c3eb	-0.08142837
54	0x3deceac1	0.11568213
55	0x3d84cdee	0.064845905
56	0x3bef0967	0.007294822
57	0x3d34a482	0.0441022
58	0x3eea92a3	0.45815
59	0xbd9b4fd7	-0.075835876
60	0x3d92305a	0.071381286
61	0xbe77c706	-0.24197015
62	0xbf4b502f	-0.79419225
63	0xbdcfae90	-0.10140717
64	0x3e8f4d18	0.27988505
65	0x3d592e0f	0.05302244
66	0x3e623eb2	0.22094229
67	0x3b8d9b6f	0.0043215076
68	0xbd92516b	-0.071444355
69	0xbd86ec34	-0.06588021
70	0xbd4d6a05	-0.050149936
71	0xbe27cbfb	-0.16386406
72	0x3e9361d7	0.28785583
73	0xbe190876	-0.14944634
74	0xbe2c6b67	-0.16837846
75	0x3dce02db	0.100591384
76	0xbde0797d	-0.10960672
77	0xbdd30b18	-0.1030485
78	0xbdae6ee3	-0.08517244
79	0x3d95ff4f	0.07324087
80	0x3df6fd7f	0.12060069
81	0x3db903ed	0.09033952
82	0xbd7d21f9	-0.061799977
83	0x3ca5d9ca	0.020245451
84	0xbdcd45c7	-0.100230746
85	0xbcbc8cef	-0.023016421
86	0xbd98ab31	-0.07454527
87	0xbe13a51e	-0.14418456
88	0xbf4bdb6c	-0.79631686
89	0xbdf78373	-0.12085619
90	0x3cb25b54	0.021772064
91	0x3b11bbb6	0.0022237129
92	0x3e0f7fea	0.14013639
93	0xbf450e79	-0.7697521
94	0x3ea1821a	0.31544572
95	0xbdda4245	-0.10657171
96	0x3dabb5c4	0.083842784
97	0xbdbd7d74	-0.09252444
98	0xbea6f628	-0.32609677
99	0x3cb54c45	0.022131095
100	0xbdca2073	-0.098694704
101	0x3d59885a	0.05310855
102	0xbf15eb63	-0.58562297
103	0xbdb5a783	-0.08869841
104	0x3e12212a	0.14270464
105	0xbd4b4503	-0.04962636
106	0xbd0905e9	-0.033452902
107	0xbdaeaa92	-0.085286275
108	0x3e996d06	0.2996599
109	0xbda59cfe	-0.080865845
110	0xbe1d3aa8	-0.15354407
111	0xbd7d969e	-0.061911218
112	0xbddb1260	-0.10696864
113	0xbcb4b174	-0.022057272
114	0xbc8da8bb	-0.017292371
115	0x3dc61fea	0.09674056
116	0xbcd46c74	-0.02593062
117	0xbe90f1eb	-0.2830957
118	0xbd81551b	-0.06315061
119	0xbee2ce5e	-0.4429807
120	0xbc0c043a	-0.00854593
121	0x3d0d6416	0.034519278
122	0x3d9bea4c	0.07613048
123	0x3dbb901e	0.091583475
124	0x3e86f8ab	0.26361594
125	0x3b7a7399	0.0038215874
126	0x3cd4f722	0.025996748
127	0xbf066144	-0.52492166
128	0x3d9244cc	0.07142028
129	0xbdaba19e	-0.083804354
130	0xbf023387	-0.50859874
131	0x3e3303e5	0.17481954
132	0xbde80cfc	-0.113306016
133	0xbea88de2	-0.32920748
134	0xbc863d14	-0.016386546
135	0xbd563f1b	-0.052306276
136	0x3c5177c4	0.012784902
137	0x3ba48184	0.0050203223
138	0xbe2e39c6	-0.17014226
139	0xbe5a6d72	-0.21330813
140	0xbe65fd63	-0.2245994
141	0x3d56623f	0.05233979
142	0xbb6ae9a3	-0.0035844825
143	0x3db42893	0.087968014
144	0x3d9bf326	0.07614736
145	0xbe7d02ba	-0.24708071
146	0xbdcb3da8	-0.09923869
147	0x3ca735db	0.020411422
148	0xbeb72a48	-0.35774446
149	0x3dadb201	0.08481217
150	0xbd93a85f	-0.072098486
151	0xbd25e3c7	-0.04050043
152	0xbe8ab120	-0.2708826
153	0xbdb16a96	-0.08662908
154	0xbc3cc6b4	-0.011521984
155	0xbce6d367	-0.028176976
156	0xbd9b3ffd	-0.07580564
157	0x3ce14cca	0.027502436
158	0xbe7868bb	-0.24258702
159	0x3d9c30a2	0.076264635
160	0x3dbc8259	0.09204549
161	0xbd9a652f	-0.075388305
162	0x3d2c14ae	0.04201191
163	0x3db0261a	0.08601017
164	0xbd12ed2c	-0.035870716
165	0x3c435890	0.01192297
166	0x3d230027	0.039795067
167	0x3e115168	0.1419121
168	0xbcade6a8	-0.02122815
169	0x3e8ee929	0.27912262
170	0xbe320e9e	-0.17388389
171	0x3daad43b	0.08341261
172	0xbe7571c9	-0.23969187
173	0x3c0d9ae9	0.0086428905
174	0x3c5e5b73	0.013571608
175	0x3e3645a8	0.17800009
176	0xbd124978	-0.035714597
177	0x3dacb949	0.08433778
178	0xbc569d31	-0.013099001
179	0x3ec75820	0.38934422
180	0x3ec7c155	0.39014688
181	0x3ead3a12	0.33833367
182	0x3c8a9808	0.016918197
183	0xbd857560	-0.06516528
184	0x3db579dd	0.08861134
185	0x3de9675c	0.11396667
186	0xbe26fd96	-0.16307673
187	0xbd2fadca	-0.042890348
188	0x3e7524f2	0.23939875
189	0x3d882e7a	0.0664949
190	0xbdb8b55a	-0.09018965
191	0x3d9314d4	0.07181707
192	0xbe23c261	-0.15992118
193	0xbe592e91	-0.2120917
194	0xbd38d559	-0.04512534
195	0xbd8c6196	-0.068545505
196	0x3da6e930	0.08149946
197	0x3b8f26c3	0.0043686344
198	0xbf161af0	-0.58634853
199	0x3e83e8f4	0.25763667
200	0x3d61019d	0.05493318
201	0x3c9bd30e	0.019021537
202	0x3ecab243	0.39589128
203	0xbea5e2be	-0.32399553
204	0xbda506ca	-0.080579355
205	0xbcc24d9f	-0.023718653
206	0x3be4ccec	0.0069824364
207	0xbe4f3d75	-0.20238288
208	0xbed5a247	-0.4172537
209	0x3e6b19f6	0.22959122
210	0x3deb4bb7	0.11489051
211	0xbd7aa421	-0.06119168
212	0xbddb48c3	-0.107072376
213	0xbe5ab5c5	-0.21358402
214	0xbd89b8ea	-0.06724723
215	0xbd913a4b	-0.070911966
216	0xbcca3453	-0.024683153
217	0xbd1af40b	-0.037830394
218	0x3da742b0	0.081670165
219	0x3d9c5889	0.07634074
220	0x3e5dc003	0.21655278
221	0xbca3d406	-0.019998562
222	0xbcf80989	-0.030277984
223	0x3ce4394e	0.027859356
224	0x3f0a354d	0.5398758
225	0x3d6252e9	0.05525485
226	0xbeb52784	-0.3538171
227	0x3cc89c48	0.024488583
228	0xbd9d8bef	-0.07692706
229	0x3d6ebf06	0.058287643
230	0x3d9301b9	0.07178063
231	0xbe221ad1	-0.15830542
232	0xbf3204e6	-0.69538724
233	0x3c84e537	0.01622258
234	0xbd1c05c3	-0.038091432
235	0x3e7bbecd	0.24584503
236	0xbc9c5b2f	-0.019086448
237	0xbb6fd09e	-0.0036592851
238	0x3dbaec45	0.09127096
239	0x3d9e834e	0.07739888
240	0x3d75c932	0.060006328
241	0x3d049e02	0.03237725
242	0xbe3382fc	-0.17530435
243	0xbc20df7a	-0.009818906
244	0x3c6fb41a	0.014630342
245	0x3c4b5f56	0.012412867
246	0xbe33309d	-0.17499013
247	0xbe549212	-0.20758846
248	0x3d20966a	0.039205946
249	0xbd9b6091	-0.07586778
250	0x3c1605f3	0.009156692
251	0xbd2d1970	-0.042260587
252	0x3dd04870	0.10170066
253	0xbd641052	-0.055679627
254	0xbe07f105	-0.13275535
255	0xbdc01c9c	-0.09380457

actor_fc.bias f4 [256]
0	0xbd0d194a	-0.034447946
1	0xbd9fd9b8	-0.078051984
2	0xbd1e674a	-0.038672723
3	0xbd8c77d8	-0.06858796
4	0xbc1936a9	-0.009351411
5	0xbe20c0c2	-0.15698531
6	0xbc875281	-0.016518833
7	0xbd964789	-0.07337863
8	0x3d9e7cee	0.07738672
9	0xbdb5620e	-0.08856593
10	0xbd7ee54f	-0.062230404
11	0x3dd9b346	0.10629897
12	0xbe10f8b9	-0.1415738
13	0x3d03747f	0.03209352
14	0xbc8c0b02	-0.017095093
15	0xbda3b094	-0.07992664
16	0xbe272a84	-0.16324812
17	0xbddb2dcb	-0.10702094
18	0xbdc4b174	-0.09604159
19	0xbd6d18a9	-0.057884846
20	0xbcc058f9	-0.023479925
21	0x3dd7f77e	0.10545252
22	0xbd429921	-0.047509316
23	0xbd7cb5f2	-0.061696954
24	0xbd3d1e04	-0.046171203
25	0xbd3e71e1	-0.046495322
26	0x3cb1544b	0.02164664
27	0x3da403cf	0.08008539
28	0xbdb201d8	-0.08691758
29	0xbe2cdf94	-0.16882163
30	0xbda75bc7	-0.08171802
31	0xbe2c48b5	-0.1682461
32	0xbd018d92	-0.031629153
33	0x3e13af3c	0.14422315
34	0x3cc61759	0.024181055
35	0x3d995ada	0.07488032
36	0xbd16674e	-0.036719613
37	0xbdfd72f9	-0.12375445
38	0xbdc3ace2	-0.09554459
39	0xbe0f407a	-0.1398944
40	0xbdc49dca	-0.096004084
41	0x3d891f0e	0.06695376
42	0xbdf2ebc9	-0.11861379
43	0x3d97922e	0.074009284
44	0xbc6afe13	-0.014342803
45	0xbd0fa584	-0.035069957
46	0xbe24ff96	-0.16113123
47	0xbe07536f	-0.13215421
48	0xbc064c31	-0.008196876
49	0x3d68ae65	0.05680694
50	0xbddb6dd1	-0.10714305
51	0xbe1a4020	-0.15063524
52	0xbdeb83b5	-0.114997305
53	0xbdacd55d	-0.08439133
54	0xbe03f086	-0.12884721
55	0x3dde12f9	0.108434625
56	0xbda4450f	-0.080209844
57	0xbd9d485e	-0.076798186
58	0x3d1b1406	0.037860893
59	0xbe584cb8	-0.21123016
60	0x3e4c30cd	0.19940491
61	0x3da0e229	0.078556366
62	0xbe552caa	-0.20817819
63	0xbea3f324	-0.3202144
64	0x3c8320e2	0.01600689
65	0xbea7b157	-0.32752487
66	0xbe8b6eca	-0.27232963
67	0xbd534580	-0.051579952
68	0x3ced4d4b	0.02896752
69	0x3df96e3f	0.12179231
70	0x3d504300	0.050845146
71	0xbe18c289	-0.1491796
72	0xbdc0f945	-0.094225444
73	0x3d235ca8	0.039883286
74	0xbd35fd5e	-0.044431083
75	0xbe38a783	-0.1803265
76	0xbdf566bb	-0.11982485
77	0xbd70b888	-0.058769733
78	0xbc647034	-0.013942767
79	0xbcdc3231	-0.026879402
80	0xbe51a156	-0.20471701
81	0xbc9181cd	-0.01776209
82	0x3ddceddb	0.10787555
83	0xbdb30ac9	-0.087422915
84	0xbc73a3f8	-0.014870636
85	0xbdffe392	-0.124945775
86	0xbd30233e	-0.04300236
87	0x3bea2766	0.00714581
88	0xbd94e83a	-0.07270856
89	0x3e019d83	0.12657742
90	0xbe40f767	-0.18844377
91	0xbdbac744	-0.09120038
92	0xbda2885b	-0.07936164
93	0xbce2f2b2	-0.027703617
94	0x3cd41ecb	0.02589359
95	0x3a6aec98	0.0008961647
96	0xbd8e216b	-0.06939968
97	0x3dcfdf29	0.10149986
98	0xbe05ac4a	-0.13054004
99	0xbd43ea34	-0.047830775
100	0x3d98cb2a	0.074606255
101	0x388bf9b4	6.674547e-05
102	0xbd802982	-0.06257917
103	0xbd1b52ce	-0.037920766
104	0xbdde10be	-0.10843037
105	0xbe858155	-0.26075235
106	0xbdc2d497	-0.095132045
107	0xbdbafb7a	-0.091299966
108	0x3e01d9e6	0.12680778
109	0xbd99b0a5	-0.075043954
110	0xbcc742ab	-0.024323782
111	0xbdbe4dad	-0.09292159
112	0xbd1f5cb3	-0.038906764
113	0x3d1b2840	0.037880182
114	0xbe1a44e7	-0.15065347
115	0x3dd68cd7	0.10476082
116	0xbd65e21c	-0.056123838
117	0xbce54257	-0.027985735
118	0xbe46e29c	-0.19422382
119	0x3c10dfd3	0.008842426
120	0xbe0d78d8	-0.1381563
121	0xbdeb6331	-0.11493529
122	0x3db41a4e	0.0879408
123	0xbdd1c6d7	-0.10243004
124	0x3ce9e12b	0.028549751
125	0xbe162306	-0.14661798
126	0xbddf8f37	-0.10915988
127	0xbc6bd862	-0.014394851
128	0xbddf365e	-0.108990416
129	0xbdcff1a5	-0.10153512
130	0x3dbdd1a8	0.092685044
131	0xbd8cad01	-0.068689354
132	0xbd848e9b	-0.06472512
133	0xbd621004	-0.055191055
134	0x3d985f6a	0.07440074
135	0x3d42ecb2	0.04758901
136	0xbe676f09	-0.2260095
137	0xbe0e516d	-0.13898249
138	0xbdfd44fb	-0.123666726
139	0xbdd3521f	-0.10318398
140	0xbd4c112d	-0.049821068
141	0x3dd55f75	0.104185976
142	0xbe071828	-0.13192809
143	0xbe063cdd	-0.13109155
144	0xbde81156	-0.113314316
145	0xbe130622	-0.14357808
146	0xbd99b562	-0.07505299
147	0xbe0c49c0	-0.13700008
148	0xbaadf867	-0.0013272882
149	0x3e0c920c	0.13727587
150	0xbdd28a32	-0.10280265
151	0xbcdb63f8	-0.026781067
152	0xbdc05297	-0.09390753
153	0xbd3dcd67	-0.046338465
154	0x3cf23f08	0.029571071
155	0xbe6d6d71	-0.2318628
156	0x3db5aea2	0.08871199
157	0xbdd9f3e5	-0.10642222
158	0xbe1d6a06	-0.15372476
159	0x3d943a93	0.07237735
160	0xba1a20b6	-0.0005879508
161	0xbd8dc04e	-0.06921445
162	0xbceb26f7	-0.028705103
163	0xbdc7fd8f	-0.09765159
164	0xbe05cb70	-0.13065886
165	0xbdff9b08	-0.12480742
166	0xbdd8b89b	-0.10582086
167	0xbd06faaa	-0.032953896
168	0xbde22d89	-0.110438414
169	0xbd1c177f	-0.038108345
170	0x3d42f271	0.04759449
171	0x3c4d3f3d	0.012527284
172	0x3d64b2c0	0.05583453
173	0xbdfac894	-0.122452885
174	0x3e1681e2	0.14697984
175	0xbd3d6002	-0.04623414
176	0xbd929a66	-0.071583554
177	0xbcfac1c7	-0.030609978
178	0xbebf8154	-0.37403357
179	0xbdc44dfe	-0.09585188
180	0xbdc81490	-0.09769547
181	0xbe0c9b87	-0.13731204
182	0xbda450a1	-0.08023191
183	0xbe09c3e5	-0.13453634
184	0x3d2cafda	0.042159893
185	0xbdc4b8df	-0.09605574
186	0xbd86e2a6	-0.065861985
187	0xbd278974	-0.04090257
188	0x3d2218bf	0.03957438
189	0xbe08584f	-0.13314937
190	0xbe1570a1	-0.14593746
191	0xbd9a9cf3	-0.07549467
192	0xbdf09c9d	-0.117486216
193	0x3dd49c7e	0.10381411
194	0xbdc0d3e1	-0.09415413
195	0x3e384d08	0.17998135
196	0xbe0edef0	-0.13952231
197	0xbdf3c960	-0.119036436
198	0xbdd522c9	-0.10407025
199	0x3d6f83e0	0.058475375
200	0xbe7b9b3e	-0.24570939
201	0xbe1638d9	-0.14670123
202	0xbd0b2cc0	-0.033978224
203	0xbd92a106	-0.07159619
204	0xbdf0f7b5	-0.11765996
205	0xbe572cf9	-0.2101325
206	0xbc232040	-0.0099564195
207	0xbcaa2c91	-0.020773204
208	0xbe2dcf08	-0.16973507
209	0xbd51eb66	-0.051249884
210	0xbe1c901b	-0.15289347
211	0xbd54f6ef	-0.051993307
212	0x3d6226b9	0.05521271
213	0xbe301704	-0.1719628
214	0x3d7bb495	0.061451513
215	0xbdf5e606	-0.12006764
216	0xbd1996a0	-0.037497163
217	0xbe13a818	-0.14419591
218	0x3cde5a45	0.027142653
219	0xbdc18a09	-0.09450156
220	0xbd3332d0	-0.04374963
221	0xbd4fed90	-0.050763667
222	0xbbd609a5	-0.0065319114
223	0x3c5017e3	0.012701008
224	0x3ce9a0f9	0.02851914
225	0xbd2e4781	-0.04254866
226	0xbd884df2	-0.06655492
227	0xbd532b8c	-0.0515552
228	0x3dea4fd4	0.11441007
229	0xbdd19146	-0.10232787
230	0xbd2daf23	-0.04240335
231	0xbd8031b9	-0.06259484
232	0xbe210c70	-0.15727401
233	0xbe05485a	-0.13015881
234	0xbc57f6f0	-0.013181433
235	0xbda6e479	-0.081490465
236	0xbd3770dd	-0.04478537
237	0xbd83f0b8	-0.06442398
238	0xbe49be0b	-0.19701402
239	0x3bc6f894	0.0060721133
240	0xbd6478be	-0.05577921
241	0xbd4e041c	-0.050296888
242	0x3ab6165d	0.0013892163
243	0x3d96c79c	0.07362291
244	0x3d60d19f	0.05488741
245	0xbd7cdeb2	-0.061735816
246	0x3df9f7e1	0.12205482
247	0x3dc56910	0.0963918
248	0xbdfc0c2b	-0.12307008
249	0xbdbecd72	-0.09316529
250	0xbd8a67f8	-0.06758112
251	0xbd6564df	-0.0560044
252	0xbdf64141	-0.12024165
253	0xbe0a97d2	-0.13534477
254	0xbd83cae6	-0.06435184
255	0xbd21fdae	-0.03954857

actor_out.weight f4 [12, 256]
0	0x3e38f691	0.18062808
1	0x3df5e4ab	0.120065056
2	0x3c7d10aa	0.015445868
3	0xbdddc477	-0.10828488
4	0x3ef3d2f9	0.47621897
5	0x3e4732b8	0.19452941
6	0xbcc6b7ae	-0.024257507
7	0x3e6fcfaa	0.23419061
8	0xbe786baf	-0.24259828
9	0x3dd63645	0.1045957
10	0x3e63cbf7	0.22245775
11	0x3e1aa2a4	0.15101105
12	0x3a916aae	0.0011094415
13	0x3b8d8c0f	0.004319675
14	0xbe218afa	-0.15775672
15	0x3e7a2341	0.24427511
16	0xbe0ec95b	-0.13943999
17	0xbda86125	-0.08221654
18	0x3c18ff97	0.009338281
19	0xbcaa7c5f	-0.020811258
20	0x3e2fed05	0.1718026
21	0xbecb0bcd	-0.3965744
22	0x3ca2238a	0.019792337
23	0x3de3d589	0.11124713
24	0xbd86b6da	-0.06577845
25	0xbe270645	-0.16310985
26	0x3d3c1fab	0.04592864
27	0x3e92693b	0.2859591
28	0xbdd1ab38	-0.102377355
29	0x3ebc4292	0.3676954
30	0x3bdb8336	0.006698991
31	0x3e14b606	0.14522561
32	0xbe9c7531	-0.3055816
33	0xbeae5d06	-0.34055346
34	0x3d3b8f13	0.045790743
35	0x3ef4987a	0.4777258
36	0xbe3dcb84	-0.18534666
37	0x3e0a078b	0.1347944
38	0x3dafd167	0.08584862
39	0xbed89001	-0.42297366
40	0x3e200536	0.15626988
41	0xbe29145d	-0.16511674
42	0xbe52dfdf	-0.20593213
43	0x3dced44c	0.10099086
44	0xbf29d908	-0.6634679
45	0x3ec5401f	0.38525483
46	0xbe00ea38	-0.12589347
47	0xbe8bb7b2	-0.27288586
48	0x3d8e014c	0.06933841
49	0x3e5cb182	0.21552089
50	0x3dd73f05	0.10510067
51	0xbf3de3a0	-0.74175453
52	0xbd8752c6	-0.06607585
53	0xbd2eabb5	-0.04264422
54	0x3c51de16	0.012809297
55	0x3e9a6e8e	0.30162472
56	0x3e5e916f	0.21735166
57	0x3d7ce996	0.061746202
58	0x3e5d7239	0.21625604
59	0x3dd9271e	0.10603164
60	0x3e07848f	0.13234161
61	0x3eb83033	0.35974273
62	0xbe8a0bd0	-0.26962137
63	0xbdd7f26c	-0.10544285
64	0x3e041ac2	0.12900832
65	0xbed1cb56	-0.40975446
66	0xbe6b4542	-0.22975639
67	0xbe87afe1	-0.26501372
68	0xbf29dcf1	-0.66352755
69	0x3e6fc89a	0.23416367
70	0xbe994e76	-0.29942673
71	0xbc80cc9a	-0.015722562
72	0xbb821061	-0.0039692377
73	0x3eb9496b	0.36188826
74	0xbbd6b616	-0.006552468
75	0xbea02444	-0.31277668
76	0xbdba9667	-0.09110718
77	0xbd78b132	-0.06071586
78	0xbe3df1c1	-0.18549253
79	0xbe127816	-0.14303622
80	0xbe5097b8	-0.20370376
81	0xbeaf9ba3	-0.3429843
82	0x3ee265ea	0.4421838
83	0xbe5ef596	-0.21773371
84	0x3dd3c3f4	0.103401095
85	0xbd9de721	-0.077101
86	0xbcbdcf7a	-0.023170222
87	0xbd955da4	-0.07293251
88	0xbd930905	-0.07179455
89	0x3d8db8c7	0.06920009
90	0xbf1d3ff6	-0.6142572
91	0xbed7a13c	-0.421152
92	0xbf208c01	-0.6271363
93	0x3f1389cd	0.5763214
94	0xbe963d19	-0.2934349
95	0xbd99b4d7	-0.075051956
96	0xbf224420	-0.633852
97	0xbda1d107	-0.07901197
98	0x3d6c8955	0.057748158
99	0x3d69f4de	0.05711829
100	0x3ebf4bc2	0.37362486
101	0xbe0c2234	-0.13684922
102	0x3ea89013	0.3292242
103	0xbee90a45	-0.45515648
104	0xbcb8bcb4	-0.022550918
105	0x3acd4973	0.0015662148
106	0xbec86127	-0.3913662
107	0x3d201adf	0.039088126
108	0x3ea81fc9	0.3283675
109	0xbe032139	-0.12805642
110	0xbe31ef51	-0.17376448
111	0xbe003298	-0.125193
112	0x3c5e2ce5	0.013560508
113	0xbe0f3cd1	-0.13988043
114	0xbd94ef9c	-0.07272264
115	0x3e04fccd	0.12987061
116	0xbc8ebe4e	-0.017424729
117	0x3d5f9ec4	0.05459477
118	0xbebf672d	-0.37383404
119	0x3e260c55	0.16215642
120	0xbee8e717	-0.45488808
121	0xbd995c69	-0.07488329
122	0xbe3b73f7	-0.18305956
123	0xbe0e1f3b	-0.13879101
124	0x3d0cee70	0.03440708
125	0x3d8b28ca	0.06794889
126	0x3f101d8c	0.56295085
127	0x3ed4235d	0.4143323
128	0xbda58b1a	-0.08083172
129	0xbf0bfc60	-0.5468197
130	0xbe25196a	-0.16122976
131	0x3d83f9cf	0.064441316
132	0xbf00e6d7	-0.50352234
133	0x3ec121f5	0.3772122
134	0xbe44698b	-0.19180886
135	0xbf09c487	-0.538155
136	0xbec0633d	-0.37575713
137	0xbe113629	-0.14180817
138	0xbd0c70b4	-0.03428717
139	0x3ec5eb25	0.38655964
140	0xbe94de4e	-0.29075855
141	0x3ebee3e7	0.3728325
142	0x3d86f4b4	0.06589642
143	0xbe546653	-0.20742159
144	0xbe38933a	-0.18024912
145	0x3e35b0f9	0.17743291
146	0xbe683325	-0.2267576
147	0xbe0f9854	-0.14022952
148	0xbe16d3c5	-0.14729221
149	0xbdd5ebd9	-0.10445375
150	0xbdaace78	-0.08340162
151	0xbf3891bb	-0.7209737
152	0xbe6a4032	-0.22876051
153	0x3efe8874	0.4971348
154	0x3e9732ce	0.29530948
155	0x3cb665f6	0.022265416
156	0x3ea42cf4	0.32065547
157	0x3eabc472	0.33548313
158	0x3d53d2bd	0.051714648
159	0x3e81469a	0.25249177
160	0x3def27f6	0.11677544
161	0x3d8254ad	0.06363807
162	0xbe403c6c	-0.18773049
163	0xbdfc2136	-0.12311022
164	0x3e61f3de	0.22065684
165	0xbd895e4c	-0.06707439
166	0x3e2bea89	0.16788687
167	0xbc726591	-0.014794723
168	0xbe8f2c73	-0.279636
169	0xbe614337	-0.21998297
170	0x3dbdfabf	0.09276342
171	0x3e044e3e	0.12920472
172	0xbd90058f	-0.0703231
173	0xba1a5193	-0.00058867893
174	0xbc84824b	-0.01617541
175	0x3d77b5a7	0.06047597
176	0xbd91b2f4	-0.07114211
177	0xbe74c72d	-0.23904105
178	0xbd5830e2	-0.052780993
179	0xbb9c3b33	-0.0047677993
180	0x3e3419e2	0.17587999
181	0xbf2c4dcd	-0.67306215
182	0xbe003efe	-0.1252403
183	0xbec157b6	-0.3776223
184	0xbe2195be	-0.15779778
185	0x3d081fd3	0.033233475
186	0x3ccf0350	0.025270134
187	0x3f05de8d	0.5229271
188	0x3eed74a4	0.46378052
189	0x3deafc41	0.11473895
190	0xbc8fd2b8	-0.017556533
191	0xbeee71b5	-0.46571127
192	0xbe2888ba	-0.16458407
193	0x3e63bf9b	0.2224106
194	0xbd94dc4a	-0.07268579
195	0x3dc38a0d	0.095478155
196	0xbeeb72dd	-0.4598607
197	0xbe8a9310	-0.27065325
198	0xbd39a2b7	-0.045321193
199	0xbe11b231	-0.14228131
200	0x3e519fa4	0.20471054
201	0x3ecb1cb6	0.39670342
202	0x3dd3f6a5	0.10349778
203	0x3dc20d2c	0.094751686
204	0x3da6a4f9	0.08136935
205	0xbdbf6a58	-0.09346455
206	0xbd4ba055	-0.04971345
207	0x3f021af5	0.50822383
208	0xbeb99869	-0.36249092
209	0xbe5a892a	-0.21341386
210	0x3ec1d110	0.37854815
211	0xbe21a4c7	-0.15785514
212	0x3d34a4e8	0.04410258
213	0xbe6d45c1	-0.2317114
214	0xbb1e8fa9	-0.0024194515
215	0xbd965a54	-0.073414475
216	0xbd6a79a7	-0.057244923
217	0xbe9507c5	-0.2910749
218	0xbcd86ca7	-0.026418997
219	0xbd1224a4	-0.035679474
220	0x3e8c0c95	0.2735335
221	0x3e31a2e3	0.17347293
222	0x3c8da367	0.01728983
223	0x3ee95cdb	0.45578656
224	0xbe83e5b3	-0.25761184
225	0xbc69195d	-0.0142272385
226	0xbeb74db5	-0.35801473
227	0x3e4006b4	0.18752557
228	0x3e98a87f	0.29816052
229	0x3b1f3c78	0.0024297517
230	0xbe00e99b	-0.12589113
231	0xbf01ea62	-0.50748265
232	0x3e547831	0.20748974
233	0xbe42b620	-0.19014788
234	0x3e3e99e9	0.186134
235	0x3eae0794	0.33990157
236	0x3e4b27ff	0.19839476
237	0x3ba66f89	0.005079214
238	0xbe2e3d0a	-0.17015472
239	0xbe5787eb	-0.21047942
240	0x3f3a7c39	0.728458
241	0xbeae6140	-0.3405857
242	0xbefdec46	-0.49594325
243	0x3dd91586	0.105998084
244	0xbb22ae7e	-0.0024823244
245	0x3dcc5fe6	0.09979229
246	0x3ef2ef1d	0.47448054
247	0x3e51c77a	0.2048625
248	0xbe3005ff	-0.17189787
249	0x3d9fb4dd	0.07798169
250	0xbf08c326	-0.5342277
251	0x3f47ae9c	0.7800081
252	0x3e7a521b	0.24445383
253	0x3e8e4069	0.27783516
254	0xbd09616a	-0.033540167
255	0x3eb613d6	0.3556201

actor_out.bias f4 [12]
0	0x3eaa2f5f	0.33239266
1	0xbd7325d7	-0.05936226
2	0x3d62971a	0.055319883
3	0x3e7a70f3	0.24457149
4	0x3dbd6a22	0.09248759
5	0x3d3347d2	0.043769665
6	0xbe8f2768	-0.27959752
7	0xbdbe6d07	-0.09298139
8	0xbda208ed	-0.07911859
9	0xbccc298a	-0.024922151
10	0xbe453dea	-0.192619
11	0x3d51a423	0.051181924
