networks/saved_model_3/ppo_model_ep300.pth (torch, 842098 bytes, 11 tensors)

shared_fc1.weight f4 [256, 33]
00000000: f806 b7bd 682a 2dbe 6838 2e3e a841 84be
00000010: bfdf 203e 2067 79be dad3 84bd 40d1 afbe
00000020: 3cc6 a73e e38f 77be e28f 76be be42 28be
00000030: 6898 7abd 01b4 28be d0b1 4b3d eb05 563e
00000040: dc5c b33c 7937 dc3e cbff 97be b814 1ac0
00000050: 4854 fc3e 8266 2a3f 97bc 3dbe 36e8 02bf
00000060: 1faf aebe 1ada e0be 1bb1 e1bd 4563 e9be
00000070: ed49 c6be 837c 1bbe d3c7 88be 4194 2cbd
00000080: c566 e0bd eece c7be 66b9 cc3d 4a0a f9be
00000090: b580 6fbe 8b7a c0be c8f7 2c3e 1610 5fbd
000000a0: f3ff 1dbe 6b77 673c 809a b73d 2a28 7abe
000000b0: 2530 2a3c e2c5 403d 3cc0 c0bd b073 ddbc
000000c0: 6b07 d53d 7b5d 4abe c62a f5bd 9f2d 6ebd
000000d0: 8612 11bf 93bb 89bf f41c 4ebc 7d93 35be
000000e0: 9dd0 b1be f114 193d 4268 c9be 6fe3 41be
000000f0: 7c63 9abe 8045 90be 37e8 d8be b68f f83c
00000100: 222f 28bd 9ecb 57be 1320 0dbf e345 aabd
00000110: 875e efbe aa8c b6be 4a99 37be 9053 0abf
00000120: 9215 93be bca3 b3be e985 683e 6208 553e
00000130: 25e0 c5bc de7d ccbd 4c4f 113d 8c3a 22bd
00000140: f5b1 3b3e f7e8 683e 0eaa 96be 44b6 163f
00000150: 8967 b1be dfd8 e9be bf4c e0bd ebb6 c5bf
00000160: 5898 86be 9503 e0be 3ccb e9bd c48c dabe
00000170: b84d 70be e511 23be c042 83be 4a97 01bf
00000180: 12e8 6cbc 824a 58be 0ef6 ccbe 9dd9 2abe
00000190: 9ab7 60be 8705 28be 5d56 35be 74ff 35be
000001a0: 3c9b 61be 4577 1bbd 786b 35be e561 443c
000001b0: 1c2b 01bd 0672 a7b9 94d8 5c3c 7940 55bd
000001c0: ba42 27bd 81ab fd3d ac59 8d3d 0de4 883c
000001d0: 0a38 2ebe 8522 00be 1edd 743c bab8 c03d
000001e0: a3dc f03d 4730 eebd 99c7 113d d9f6 09be
000001f0: 2e49 8fbd a6ed 5bbe f2e0 85bd 0d6d 08be
00000200: 90cc c4bd a7a3 b53d 818e 39be e0ef 3fbe
00000210: de8d 89be cf45 89be dee0 a7bd a297 2fbe
00000220: a001 8fbd 769d 68be 2faa 5bbe d218 22be
00000230: 1f5f 11bd 72a1 60bd 5c9a 8fbd c194 1bbd
00000240: 4345 2abd 11ae 463e 661b 843d 5314 86bc
00000250: 3ca7 a03c 2d69 63be 6b1d 89be 2bd9 583e
00000260: fdd2 893e 876a 503f 3be0 31be c9d3 9abd
00000270: b82f 07be 0057 473d dd21 8ebd c82f 5a3d
00000280: d04c 64be c41a 84be c84f 5fbe 866f 5fbe
00000290: 1b42 59be b48f 873c 581c acbe 72c4 3dbe
000002a0: c547 b8be 8164 11be 3638 05be fe37 92be
000002b0: af36 4dbe c0a4 5dbd 3bff 4f3e 56ca 0abe
000002c0: 821e 78be 835a bf3b f7ff d8bd fb73 a93d
000002d0: 458c a23c b1f5 dc3d ecfa 743e 16ec 85be
000002e0: 3aad 6bbf ff3f 543f 639b bd3e ea8a 4bbe
000002f0: 2910 e2be 45fe 13bf 1e6a 51be cf4a 04be
00000300: 6bfb e0bd d065 3bbd d1e1 85be d716 9f3b
00000310: 8fbd 56be 60d8 67be 2335 eb3e a938 3b3e
00000320: c887 113f 7a9d d7bd e1c6 613e e069 e53c
00000330: 1cad 533e dad0 2d3e b8b1 87be b865 adbc
00000340: e98a 01bc 53b5 5abc 0a8b bd3d 3f56 8ebb
00000350: 9b38 aa3d 873c 693d 3379 a73e 2a06 bf3a
00000360: 5eb8 6fbe 4e84 643d fd66 be3f 9022 6abe
00000370: 6ff2 383e bc61 08be c672 8b3c 4c34 023e
00000380: 10c0 2c3e 1da3 fe3d 5e89 c43d 97bf c3bb
00000390: 6777 903c ff3e 963d adde 7c3d 7893 a9bd
000003a0: 351f 09be cd4a dcbd 5ca7 20bc 14b7 9a3d
000003b0: a5a9 c2bd be04 223d 411a 17be 989d ae3d
000003c0: 4419 4c3d 7344 03be 3c43 543c e217 623d
000003d0: 0f1c d63c d7d4 3dbd 210c 943d 05f3 713c
000003e0: 4d94 f53d a69b 41bc 8dad 693d b402 98bd
000003f0: 6f53 c23d 4619 b43d db7a aa3c d978 21be
-0.08936876 -0.16910708 0.17013705 -0.25831342 0.15710352 -0.24355745 -0.0648572 -0.34339333
0.32768428 -0.24175982 -0.24078324 -0.1643171 -0.061180502 -0.16474916 0.049730122 0.20900695
0.021894865 0.43011072 -0.29687342 -2.4075146 0.49283051 0.66562665 -0.18528973 -0.51135576
-0.34117982 -0.43916398 -0.11020108 -0.4558355 -0.38728276 -0.15184216 -0.26714954 -0.042133573
-0.10957102 -0.39025062 0.099962994 -0.48640662 -0.23388942 -0.37593493 0.16891396 -0.0544587
-0.15429668 0.014127593 0.089650154 -0.24429384 0.010387455 0.047063716 -0.09411666 -0.027032703
0.104018055 -0.19762222 -0.11971049 -0.058148976 -0.5666889 -1.0760368 -0.012580145 -0.17732044
-0.34729472 0.037373487 -0.39337355 -0.18934415 -0.30154026 -0.28178024 -0.42364666 0.030341964
-0.041060574 -0.21073768 -0.55127066 -0.08314111 -0.46751806 -0.35654193 -0.17929569 -0.54033756
-0.28727394 -0.35085857 0.22707333 0.20803979 -0.024154732 -0.09984945 0.035476014 -0.039606616
0.18329604 0.22745119 -0.29426616 0.58871865 -0.34649304 -0.45673272 -0.10952138 -1.5446447
-0.26288104 -0.43752733 -0.11415717 -0.4268552 -0.23467147 -0.15924795 -0.25636864 -0.50621474
-0.014459627 -0.21122172 -0.40031475 -0.16684575 -0.21945038 -0.16408359 -0.17708726 -0.17773229
-0.22031873 -0.03795554 -0.17716777 0.0119862305 -0.031535253 -0.00031937676 0.013479371 -0.05206344
-0.04083512 0.123862274 0.06901869 0.016710306 -0.17013565 -0.12513168 0.014945297 0.09410234
0.11760833 -0.11630302 0.03559074 -0.13473071 -0.0699638 -0.21477374 -0.065370455 -0.1332285
-0.0960933 0.08869105 -0.18120767 -0.18743849 -0.2686605 -0.26811072 -0.08197187 -0.17147687
-0.06982732 -0.22716317 -0.21451639 -0.1582978 -0.035491105 -0.054841466 -0.070118636 -0.03798366
-0.04156996 0.19402339 0.06450538 -0.016367113 0.019610994 -0.2220809 -0.26780257 0.21176593
0.26918784 0.8141255 -0.17370693 -0.07559926 -0.13201797 0.048666954 -0.06940053 0.053268224
-0.22294927 -0.2580167 -0.21807778 -0.21819887 -0.21216623 0.016548015 -0.33615375 -0.18531969
-0.35992256 -0.14198495 -0.13009724 -0.28558344 -0.20040391 -0.054112196 0.20312206 -0.13553748
-0.24230388 0.0058396473 -0.105956964 0.08274075 0.019842276 0.107890494 0.23923844 -0.26156682
-0.920612 0.8291015 0.37032613 -0.1987721 -0.44152954 -0.5780986 -0.20450637 -0.12919162
-0.10985454 -0.045751393 -0.26148847 0.0048550176 -0.20970748 -0.22641134 0.45938978 0.18283333
0.5684781 -0.10528083 0.22048523 0.028004587 0.20671505 0.16974202 -0.26502776 -0.021166667
-0.007906654 -0.013348895 0.09255035 -0.0043437774 0.08311578 0.05694249 0.32709655 0.0014573981
-0.23410174 0.055790238 1.487518 -0.22864747 0.18061231 -0.13318533 0.017022502 0.12715262
0.16870141 0.12433455 0.09596513 -0.005973767 0.01763506 0.07336234 0.061735798 -0.082800806
-0.13390811 -0.107564546 -0.009805527 0.07554451 -0.095050134 0.039555304 -0.14756109 0.08526152
0.049828783 -0.1281908 0.012955483 0.055198558 0.026136426 -0.046345558 0.07228876 0.014767413
0.11991177 -0.011816895 0.057050277 -0.074223906 0.0948857 0.08793883 0.020810535 -0.15768756

shared_fc1.bias f4 [256]
00000000: 4af1 45be 2dd6 eabd 7990 b0be cd5e c7bd
00000010: 73f9 24be 84f3 7fbe a90a dd3d 2bc2 64bd
00000020: ccf3 14be ad6e 11be d5f3 00be 8ee6 9e3d
00000030: 9600 37be 8a08 84bd e83e 25be 1e21 00be
00000040: e14c f1bd e043 0d3d c424 dd3c 3e42 d1bd
00000050: 3108 9cbd 8934 c1bd 03a5 21be 0224 b23b
00000060: 3d9c 7fbe 8206 51be 2a2d f83c 47b2 85be
00000070: c01e c3bd 4476 97bd c05c abbd 74e9 43be
00000080: 71de 92bd 50a5 cdbd 6042 32be 3505 f9bd
00000090: b2f2 b2be 1d73 88bd ca7a 95bc 79c0 a4bd
000000a0: 5d79 1abe ba4c c6bd ad0d 573c be13 3dbc
000000b0: 89a9 0bbe 36fa 4cbe d36a aebe 8595 9abe
000000c0: fc13 9dbe 3524 22be 587b f9bd a66d 4cbe
000000d0: 4ed6 31be ca9a 59be 6646 08bd 3f05 30be
000000e0: 830c d7bd 16a4 a33c 4b2f 5fbd c567 67be
000000f0: 60e0 843d 7aeb 63be 7bc3 7bbe 5c40 75be
00000100: dd09 3fbe 4175 17be f450 08be d85c 2cbe
00000110: a788 0ebe ba8d 61be 3440 bdbe 9e1b 043d
00000120: f385 0bbd 8e00 82be fbc6 b1bd d8e0 29be
00000130: 427d fbbd e17b 9ebd 6b38 b3be 67ef d2bc
00000140: 8148 18be 3599 5ebe f395 46be d7f4 f73c
00000150: 8fb6 99bd 42e7 7bbe 6aef cd3c 5331 8a3d
00000160: 185d b7be 3ce2 41be 01de 8bbe 043f 95bd
00000170: 0796 45be 8c86 d7bd f045 efbd 9a2c 83bc
00000180: 4e08 b6bd 8d65 c1bd 5dd6 15be 8de6 94bd
00000190: aa9a 1ebe b56a 9fbd 68ee 10be b506 d8bd
000001a0: c5c1 b9bd b2d2 893d f2c7 babd 4274 8dbe
000001b0: 6906 7dbe 298d d8bd 2cc1 d8bd 1ee2 bd3c
000001c0: 43be 14be 0fc5 53be 4ef9 4ebe dbd3 21bd
000001d0: c846 19be ea1a 22be feb3 44be 75dd 61be
000001e0: 562f 32bd d213 1dbd 33fa 90bd 8f26 ca3c
000001f0: 88ce d8bd c794 02be 2832 36be 809a e5bb
00000200: da65 9b3d fa17 ddbc fe50 813c fe30 2bbe
00000210: 9c5e 99be e2ae 0e3c 7b8b c33c efe3 1c3d
00000220: 27ce 95bc fac4 10be 28a8 e8bd a11f bcbb
00000230: 917b 31be 5e2b 1dbd 9925 5a3d b948 27be
00000240: 8640 3fbe 78aa 213d 4928 e1bd 18d0 09be
00000250: eb0a 4ebe d1d1 efbd dfd6 293d 919e 4bbe
00000260: dbe7 6fbe dc08 88bd bf8f 8abe 22f1 a23c
00000270: 0c83 e2bd 1077 e3bd 484b 47be e0d0 09be
00000280: c83e 8abe 9755 92be c725 b2be e18b a3bd
00000290: bc5d 573c df2e 30bd c2b5 393d 3a47 0cbd
000002a0: fb0e a1be 7a03 15be 761e d9bd f8b2 a13d
000002b0: 25dd 7abe fe5c 80bd f7fa 82be dc9b 9abd
000002c0: d6b7 efbd 8a2e 6fbe 5e27 763d e4c6 89bd
000002d0: 899b 91be 0cfa 0fbe 41ca c83c d136 cebd
000002e0: 7848 0fbe f0a7 62bd 52bd c8bc 52c2 bebd
000002f0: ddc7 29be ede4 f8bd 85d8 1abe ed75 ef3c
00000300: 51b1 0bbe 41d6 37be f6f8 4fbe 2389 42be
00000310: e311 17be eb60 e9bd cb91 d0bd 242b 00be
00000320: ebbd 7bbd cae3 1ebe 2689 3dbe b7ee fcbd
00000330: 254a 25bb 607c c3be 0e71 46be be8d 82be
00000340: d1d0 33be 7e7d 373d 2a47 afbd 6237 26be
00000350: a5e6 c93c 694c fbbd dc11 b2bd 3fa0 35be
00000360: 63a8 b2be c2a7 edbd 3e9e 61be a87d 783d
00000370: e459 853d bafe 0cbe 164b 14bc 58cc 50be
00000380: 7c10 c5be 7bc5 8bbe b73a 3fbe a001 2abe
00000390: 5392 49be 27f7 7fbd 5a7f 9c3d a196 85be
000003a0: 26e1 56be 575e 21be 9b20 4dbd 7b39 c5bd
000003b0: 9e97 59be c444 aabb c9c8 b03c 86c0 8ebe
000003c0: 512d a9bd a999 65be b880 31be 18e7 c53c
000003d0: cded a6bd b71b 163d 04db 4c3c 1537 0fbe
000003e0: 211a 723d 0c76 173c 30ca b93c 527d 0ebe
000003f0: c2cb 3cbe 5e21 b7bd 0349 48be 02b4 9bbd
-0.19330326 -0.11466632 -0.34485224 -0.09734879 -0.16110782 -0.24995238 0.10793049 -0.055849236
-0.14546126 -0.14202376 -0.12593015 0.077588186 -0.17871317 -0.06446941 -0.16137278 -0.12512633
-0.117822416 0.03448856 0.02699507 -0.10217713 -0.0761875 -0.094338484 -0.15785603 0.0054364214
-0.24961944 -0.20412639 0.030294973 -0.26112577 -0.095273495 -0.07395604 -0.083673 -0.19132024
-0.071713336 -0.100412965 -0.17408133 -0.12159196 -0.34950787 -0.06662581 -0.018247027 -0.08044524
-0.15085359 -0.09682603 0.013125819 -0.011540351 -0.13638891 -0.20017323 -0.34065875 -0.301922
-0.3067931 -0.15834124 -0.12181729 -0.19963703 -0.17366907 -0.21250454 -0.033270262 -0.17189501
-0.10500433 0.019975703 -0.05448846 -0.22598179 0.06488109 -0.22257796 -0.24586289 -0.23950332
-0.18656106 -0.14790823 -0.13312131 -0.16832292 -0.13919316 -0.2202672 -0.36963046 0.0322529
-0.03406329 -0.25391048 -0.08680531 -0.16589677 -0.122797504 -0.07738472 -0.3500398 -0.025748922
-0.14871408 -0.21738131 -0.19393139 0.030268116 -0.075055234 -0.24599937 0.025138576 0.06747689
-0.35813212 -0.18933958 -0.27317813 -0.0728741 -0.19295512 -0.1052371 -0.116832614 -0.016012479
-0.08888303 -0.094431974 -0.14632554 -0.072705366 -0.15488687 -0.077840246 -0.14153445 -0.10548154
-0.09070162 0.0672964 -0.09120168 -0.2762776 -0.24709477 -0.10573799 -0.105837196 0.02317911
-0.14525704 -0.2068064 -0.2021229 -0.03950868 -0.14968407 -0.1583058 -0.19209287 -0.22057135
-0.043502174 -0.03834898 -0.07078972 0.02467659 -0.10586268 -0.12752067 -0.1779257 -0.007006943
0.07587786 -0.026988972 0.01578569 -0.16717908 -0.29954994 0.0087086875 0.02387022 0.038303312
-0.018286778 -0.1413764 -0.11360198 -0.005741075 -0.17332293 -0.038371436 0.053258512 -0.16336335
-0.18676957 0.039469212 -0.10994012 -0.13458288 -0.20121352 -0.11709941 0.041464683 -0.19884707
-0.2342829 -0.06642315 -0.27062795 0.019890372 -0.110601515 -0.11106694 -0.19462311 -0.13458586
-0.27001023 -0.28580925 -0.34794447 -0.07985664 0.013144907 -0.04301345 0.045339353 -0.034247614
-0.31456742 -0.14552107 -0.10601513 0.07895464 -0.24498422 -0.06267737 -0.25582096 -0.07549259
-0.11704986 -0.23357597 0.060096137 -0.067273885 -0.28438976 -0.14060229 0.024510505 -0.10069049
-0.13992488 -0.05533594 -0.024504337 -0.093144074 -0.16580148 -0.12153039 -0.15121658 0.029231036
-0.1364186 -0.17952825 -0.20309815 -0.18997626 -0.14752917 -0.11395439 -0.10184058 -0.12516457
-0.061460417 -0.15516582 -0.18509349 -0.12350219 -0.0025221196 -0.38180828 -0.19379064 -0.25498766
-0.17560126 0.044797413 -0.08558495 -0.16232064 0.024646113 -0.122704335 -0.08694813 -0.1773691
-0.34894094 -0.11604263 -0.22033021 0.06066671 0.06511286 -0.13769045 -0.009051105 -0.20390451
-0.3848914 -0.27299103 -0.18674742 -0.16602182 -0.19684725 -0.062491562 0.07641478 -0.26091483
-0.20984325 -0.15758644 -0.050079923 -0.09630104 -0.21249244 -0.005196186 0.021580117 -0.2788126
-0.082605965 -0.22421898 -0.17334259 0.024158046 -0.08150826 0.036647525 0.012503389 -0.13985856
0.05910695 0.009244453 0.022679418 -0.13914993 -0.18437102 -0.08941911 -0.19559102 -0.07602693

shared_fc2.weight f4 [256, 256]
00000000: d757 8c3a df71 30bc 106b aabd 1038 4b3d
00000010: c794 e2bb e54c 02be 2164 80bd f3a6 db3c
00000020: 7d87 883d 65ae 20bd 62f8 51bc 4175 7cbd
00000030: d009 14bd 01d8 9ebd c5fe e7bc af86 7c3d
00000040: d69b 8b3b 84bd 15bd f3d5 5c3d 9131 d1bc
00000050: 08e9 6fbc 7152 ccbc a081 c13c 3b57 153d
00000060: 39a3 05be ba9e f6bd fbf9 e03c 2e1b 6cbb
00000070: 3a41 2abe bde1 e1bd 501a 47bc df57 7d3d
00000080: 8503 c5bd 4c77 ebbd 8546 2a3b 9b4e e33d
00000090: 9aea b33c d122 05bc 57eb 11be bf0a aa3d
000000a0: 5649 f73b 45cd 833c 0bb2 333d 8f4b 7bbd
000000b0: 0b39 043c 94eb c33d 30d6 e2bd 4e4a 01bd
000000c0: 7a9d 2a3d 306b ba3d ad14 a33c 4b95 0bbe
000000d0: dae2 f4b8 b32c a6bd c744 893d 0882 ec3c
000000e0: 9160 1a3d d7bd 10be ffa7 76bd b9b4 10be
000000f0: 3859 013e cd72 28bd 20ff 2cbd aa55 ce3c
00000100: c020 5abd bb7c 6abd 5c32 93bd 5cad e8bb
00000110: f671 b1bc 86ff 653d 5005 ffbd 25aa cdbc
00000120: 800b 1abe 4473 95bc da93 6f3d 8808 9b3d
00000130: 1f3d 923d 1d79 0a3e f577 f2bd dde7 6f3d
00000140: 5685 a73c 0d55 193d 4b22 0f3d cd38 803c
00000150: 65f6 65bc 59bc 8ebd f671 9dbd c156 3bbd
00000160: 35ae c8bc dab1 5a3d d9ad a8bd 997a 82bb
00000170: ec0c 8a3d 91b5 d7bc 9535 aa3d b3f8 153c
00000180: 5855 7e3d 0e47 6abd 3910 e9bc 786e 563d
00000190: 1fae 0abc 3ff8 513b fe6f dbbd e845 42bd
000001a0: bc08 cdbd 2790 53bd 6438 89bd 302f 83bd
000001b0: 04a0 9fbd 7340 713d 2438 333d fc72 47bd
000001c0: 37e0 a6bd a804 a6bc 0fe2 5fbd 3a49 01be
000001d0: ec82 8fbc 181e 7d3d db22 c63d 0c23 ccbd
000001e0: 796a b5bd 8d42 b4bd a980 c9bd 956c 96bd
000001f0: b8aa af3b 6b41 67bd 80c9 b23d d7d0 8d3c
00000200: 855b 41bd b709 6cbc 3e96 0c3c 5137 f2bd
00000210: 3320 00bd b415 a6bc 6caa 37bb 87ba a7bd
00000220: 8cbb 883c f228 d9bd 81d1 93bd fce1 0fbe
00000230: 2b95 dfbd f505 a4bc 5fd9 9b3d 9861 1dbd
00000240: 506f febd 312b 8e3a c415 1cbd 1790 56bd
00000250: 88a9 1fba d095 433d b3d4 d0bc 3824 d1bc
00000260: 0b01 843d 707e efbd 2ae5 103d 7a9b af3b
00000270: 24eb f4bd ac4e 593d 2015 89bd 2d83 cbbd
00000280: 8a73 97bd 4b77 073d d3ae 9abc df50 8fbd
00000290: ad3e 133d 589b 063d 93a8 14be effc 7b3d
000002a0: fa1c 8cbd 9d75 b1bd 31dd 3dbd ea35 b8bd
000002b0: 2a77 563d 0e77 77bd 7aa5 01bd 9cf4 d03d
000002c0: 31a4 73bd 4fc9 be3c 258f 9b3d 1cc1 14bd
000002d0: 103b 433d 2574 20bd 4dc7 13bd 8a66 9cbd
000002e0: 4f91 8b3d a1a9 103d f590 113d 4396 803d
000002f0: ffbd 06bd 22a3 68bd 1e27 d6bd bcb8 b5bc
00000300: e694 863d db21 2cbc 81e2 b1bd c730 a5bd
00000310: e91f 3abd 105f 673a 1585 c8bd 28a1 6c3d
00000320: 9fe5 19bd eca1 313d 8ca1 fc3b d7a7 803d
00000330: 1433 433c 1877 a43d 2b4d a9bd 8bdf cebc
00000340: 19ac b6bd ac9f e3bc f528 01bc 842d 053e
00000350: 4ebe 1ebe 5d27 42bd ebd7 c93d 78c8 873c
00000360: 764c 463d a23b 5a3c 3f54 0abd e192 acbc
00000370: 7baf cdbd ef77 08bc 3c01 403c 839b 33be
00000380: 547b cbbd ba36 e43c b9c3 96bd ca23 af3a
00000390: 055d f8bd 654e 3b3d 54d3 b0bd 0af7 463d
000003a0: fb88 0dbe 2819 1c3d ce91 c6bd 5a71 5b3d
000003b0: 79ca 0abe 1419 73bd 610a 5dbe c92d 83bc
000003c0: 96d6 babd 71a6 48bd e8ec cd3c f64e ecbc
000003d0: 7ce1 c7bc 700c a63c dccc 533d ac82 d33d
000003e0: 6668 2bbe 413c 613d f443 90bd 2439 c03d
000003f0: 6c68 403d 5fc1 203d 0e3e 9dbd 896a 56bd
0.0010707331 -0.0107693365 -0.08321202 0.049614012 -0.0069147083 -0.12724645 -0.06269098 0.026813006
0.06666467 -0.039228816 -0.012815567 -0.06163526 -0.03614217 -0.07756043 -0.028319726 0.06165188
0.0042605205 -0.03655769 0.053914975 -0.02553633 -0.014642961 -0.024941655 0.02362138 0.036460143
-0.13050546 -0.120419934 0.02746295 -0.0036026943 -0.16626444 -0.11029384 -0.0121522695 0.06185138
-0.09619812 -0.114973634 0.0025981974 0.11098977 0.021962453 -0.008125977 -0.14249931 0.08302831
0.007546584 0.016089091 0.043870967 -0.061351355 0.008070241 0.09566417 -0.11076009 -0.031565003
0.041654088 0.09102476 0.01990732 -0.1363117 -0.00011677081 -0.081139944 0.06702571 0.028870597
0.03768975 -0.14134918 -0.060218807 -0.1413144 0.1263169 -0.041125108 -0.042235494 0.025187332
-0.05325389 -0.05724786 -0.0718734 -0.007100744 -0.021660786 0.05615189 -0.12452185 -0.025105545
-0.1504345 -0.01824344 0.05849061 0.075699866 0.07140564 0.13522764 -0.11839286 0.05857073
0.020449322 0.037434626 0.034944814 0.015652085 -0.014035796 -0.06969518 -0.07687752 -0.04573703
-0.02449713 0.05339227 -0.08236284 -0.0039819 0.06740746 -0.026331695 0.08311001 0.009153533
0.06209311 -0.05719667 -0.028450118 0.052351445 -0.008464365 0.0032038835 -0.1071472 -0.04742995
-0.100114316 -0.051651146 -0.06700209 -0.06405485 -0.077941924 0.058899354 0.04375471 -0.048693642
-0.08148234 -0.020265892 -0.054658946 -0.1262559 -0.017518483 0.061796278 0.09674617 -0.09967622
-0.08858199 -0.08801756 -0.09838993 -0.07344929 0.0053609274 -0.05645887 0.08729839 0.017311497
-0.04720642 -0.014406613 0.008580742 -0.11826957 -0.031280708 -0.02027402 -0.0028025163 -0.08189874
0.016690992 -0.10603513 -0.07217694 -0.1405105 -0.109171234 -0.020022372 0.076098196 -0.03842315
-0.12423575 0.0010846612 -0.038106695 -0.05238351 -0.0006090631 0.047750294 -0.025492048 -0.025529966
0.064455114 -0.11694038 0.035374798 0.0053591104 -0.11958912 0.053053543 -0.066934824 -0.09937129
-0.07395084 0.03307275 -0.01888219 -0.06997847 0.035948444 0.03286299 -0.14517431 0.061520513
-0.06841464 -0.08665011 -0.046353523 -0.08994658 0.052359737 -0.060416274 -0.03165195 0.102029055
-0.059482757 0.02328935 0.07595662 -0.036316976 0.04766375 -0.039173264 -0.03607874 -0.07636745
0.06814825 0.03531802 0.035538632 0.0627866 -0.03289604 -0.0567962 -0.1045668 -0.022182815
0.06571369 -0.010506119 -0.0868578 -0.08065944 -0.04544059 0.0008826116 -0.097910084 0.057770878
-0.0375725 0.04336731 0.0077096876 0.06282013 0.011914033 0.08030528 -0.08266672 -0.025253078
-0.08919544 -0.027786098 -0.0078833 0.13005644 -0.15502283 -0.04740082 0.09855636 0.016575083
0.048412763 0.013319882 -0.03377175 -0.021066131 -0.10043236 -0.008329376 0.011719044 -0.17539792
-0.09935632 0.027858127 -0.0736155 0.0013362106 -0.12127117 0.04572906 -0.08634058 0.04857544
-0.13821785 0.03810993 -0.09695779 0.053574897 -0.135538 -0.05935009 -0.2158599 -0.016013043
-0.0912296 -0.048986856 0.02513738 -0.028846245 -0.024399512 0.020269603 0.05170904 0.10327658
-0.16739044 0.054989103 -0.07044211 0.09385899 0.046974584 0.039246913 -0.076778516 -0.052347694

shared_fc2.bias f4 [256]
00000000: 8dfb 46bd f336 04bb db41 a2bd f076 82bd
00000010: 6542 eebb 0d7d 27bd 7f66 10bd f5a3 a1bd
00000020: 53b2 87bd 60af 4abd bf1c 89bd d45a 53bd
00000030: dd91 edbc a17c abbe 776d 1a3e d785 3ebd
00000040: 68bc dfbc d597 09bd 8963 c3bd 9d8b ffbc
00000050: be72 e4bd a33f 41bd e9b6 9abd 2d8d b5bc
00000060: 0e94 68bd ddfb d0bd 75a9 4abd 757b c93d
00000070: fdc6 2dbd dfdc 2bbd 0fad 513e 3a8e dbbc
00000080: 5d23 38bd 5b6d 3dbd 73b0 d6bc 83d1 23bd
00000090: 0ec1 94bd e181 abbd 644d 79bd 4114 893d
000000a0: 6491 12bd 3366 ab3d 313b d6bc 9c61 3e3c
000000b0: 4fd2 9bbd 49a4 84bd f232 91bd 3b23 7abe
000000c0: 4a24 51bd 0979 4bbd d257 65bd 8947 a23d
000000d0: ee86 8f3d 5ffe 55bd 1f58 49bd d584 5ebd
000000e0: bbd6 f2bc 013a 04bd 5b22 053e 004d 77bd
000000f0: b3a2 16bd 6472 11be 0446 3a3e af11 e3bc
00000100: 9ea0 313e 96ab 04bd 2309 373d c120 1fbd
00000110: a086 6bbd 5d35 5ebd 75f8 ed3d bf49 19be
00000120: 8570 d0bd 6701 523e 8eb9 d6bd 74e7 d6bc
00000130: 6ab3 8bbd 7197 ddbd 133e a1bc 5a8c 59bd
00000140: 4d75 2e3e b2d1 e0bc c798 26bd fd87 7bbd
00000150: b17f 3fbd 828f 06bd a4aa 37bd 5444 463e
00000160: 50ec 823a 976f 0eba 93d5 2bbd d997 04bc
00000170: 1376 cd3d b7ce 153b a7ac 9f3d b5bd 26bd
00000180: edc6 65bd b0a6 4cbd 75e8 463d ca29 05bd
00000190: 20fc d7bd 8cc9 44bd 52ed a6bb c42c 2ebd
000001a0: ba99 68bd f5ad c2bc 75b6 4bbd ed91 a7bd
000001b0: ae69 d63d 668e bfbd e8b4 40bd a241 6cbd
000001c0: 66c3 61bd 0c50 3bbd 3ef7 f6bc 8f13 e3bc
000001d0: 1e89 f8bd 5d23 483e c150 24bd 5c52 513e
000001e0: f047 4a3e cced 7fbd 3ba6 f1bc cf38 65bd
000001f0: d2e0 36be 28e5 a3bd 9719 73bd 3f1f 8ebc
00000200: 77a2 1bbd d594 1cbd d16f 2cbc 5101 a83c
00000210: 8a86 80bd 829c b1bd 8682 7abd 2c35 593e
00000220: 40cb 60bd df8b 64bd d863 02bd be9d 2d3d
00000230: 9287 263e 2dff 4dbd ee1b d4bc 397b 42be
00000240: 0c37 8bbd bfff abbd bc35 87bd 6fe0 a9bd
00000250: f908 04be fef8 97bd 7bd2 83bd e57a 76bd
00000260: 3527 e7bd 77e6 5bbd 6efe 6abd 3d84 b8bd
00000270: 60e3 48bd 562c 73bd 01e8 29bd f96b 59bc
00000280: 084e 24bd e2ea 69bd d167 ee3d 7d2b 2dbd
00000290: 8b5a acbd 4bf2 6cbc f7df 87bd 25dc 483e
000002a0: 255b 74bd 6446 ef3d c171 a0bd 090e 8dbd
000002b0: 980c 34bb 9f0c 5cbd 886b 583d 0d83 5bbd
000002c0: a655 8dbd 95a3 75bd 92b3 b5bd 3978 953d
000002d0: 4bc5 34be c5c4 f03b 304c 0cbd b836 69bd
000002e0: c316 8cbc a8d1 b03d 9384 9f3d a6f6 7bbd
000002f0: a0fc 953d 94a7 30bc 9621 4abd 5937 8dbd
00000300: cf8d 4e3e 0d16 633e a73a 87bd 4e3f 87bd
00000310: 3bb8 6cbd 208a 6dbd 92df ef3d 866d 8b3d
00000320: 2d61 9bbd 7e40 4abd a004 393a 0cb6 38bc
00000330: 27ea 393c c21f bfbd f89e 76bd 19be 8a3c
00000340: fab2 81be 2f67 abbd 4ea1 afbd 00c0 a2bd
00000350: 6dad 9cbc db8b bf3c 5cc7 9dbd 3835 4fbd
00000360: b56d dabd f7e0 aebd e8e6 dbbd 1b74 43bd
00000370: 1ccb 96bd 0450 33bd a57a 21bd 37b8 39bd
00000380: 0eac 03be 2d69 c9bd e0e5 b2bd b8a7 64bd
00000390: ebf9 4dbd b7db cabd 70d6 25bd 3d30 e3bc
000003a0: fabe 563e 0513 463e 4f7c 00bd 77e9 393d
000003b0: a097 12bd b9bf 583e 6108 77bd 2808 81bd
000003c0: 469e b6bd 5157 78bd d736 d4bd 3114 7abd
000003d0: 2c9e bfbc ad3d b8bc cb3f 2c3e 87db de3d
000003e0: d80b e9bc e8d9 42bd a6e1 83bd 229b 03bd
000003f0: 6235 ea3d 6448 b6bd df52 20bd 5895 07bd
-0.04857974 -0.0020174354 -0.07922717 -0.06370342 -0.0072710984 -0.040890742 -0.035253998 -0.078926004
-0.066258095 -0.049483657 -0.06694936 -0.051600292 -0.029000217 -0.33493522 0.1508082 -0.04651436
-0.027311519 -0.033592064 -0.09540469 -0.031194502 -0.11154698 -0.04717983 -0.075544186 -0.022162044
-0.05678182 -0.10204289 -0.049478013 0.09838001 -0.0424261 -0.041958686 0.20476173 -0.026801217
-0.0449556 -0.046246868 -0.026207184 -0.039994728 -0.07263385 -0.08374382 -0.06086482 0.06693316
-0.035783187 0.08369102 -0.026151272 0.011619952 -0.076084726 -0.064766474 -0.07089795 -0.24427502
-0.05106 -0.049675975 -0.055991955 0.079238005 0.07008158 -0.05224454 -0.049156304 -0.054325897
-0.029643407 -0.03228188 0.13001387 -0.060376167 -0.036776256 -0.14203793 0.18190771 -0.027718393
0.17346427 -0.0323902 0.044686448 -0.038849596 -0.057501435 -0.05425011 0.11619655 -0.14969538
-0.101777114 0.20508347 -0.104846105 -0.026233412 -0.0682133 -0.10819901 -0.01968292 -0.053112365
0.17036934 -0.02744374 -0.040673044 -0.061408985 -0.046752635 -0.032851703 -0.04484047 0.19362003
0.000998864 -0.00054334983 -0.041951727 -0.008092844 0.100322865 0.0022858807 0.07796603 -0.040708262
-0.056097914 -0.049963653 0.048561532 -0.032510556 -0.10546136 -0.048043773 -0.0050942088 -0.04252316
-0.05678723 -0.02376459 -0.04973455 -0.0818213 0.104693756 -0.09353332 -0.047047526 -0.05767978
-0.055117987 -0.045730636 -0.030147191 -0.027719287 -0.12135528 0.1954474 -0.040116075 0.20441574
0.19754004 -0.06248264 -0.02949821 -0.05596238 -0.178592 -0.080026925 -0.059350576 -0.017348884
-0.037996735 -0.038227875 -0.010524706 0.02050844 -0.06275661 -0.086724296 -0.061159633 0.2121169
-0.054881334 -0.055797454 -0.0318335 0.042386763 0.16262653 -0.050292183 -0.025892224 -0.18992318
-0.06797609 -0.08398389 -0.06602046 -0.082947604 -0.12894048 -0.07420538 -0.0643663 -0.060175795
-0.11286775 -0.053686585 -0.05737155 -0.090095975 -0.049044967 -0.059368454 -0.04148102 -0.013270372
-0.04011348 -0.057108767 0.11640895 -0.0422778 -0.08415707 -0.014462064 -0.06634515 0.19615228
-0.059657235 0.11683348 -0.07834197 -0.068874426 -0.0027473327 -0.053722974 0.052836925 -0.053591777
-0.06901102 -0.059970457 -0.08872141 0.07298321 -0.17653386 0.0073476755 -0.034252346 -0.05693695
-0.017100697 0.08633739 0.077889584 -0.06151452 0.07323575 -0.010782141 -0.049348436 -0.06895322
0.20171283 0.2217638 -0.06602984 -0.06603871 -0.057792883 -0.057993054 0.117125645 0.06807999
-0.07586894 -0.04937791 0.0007057879 -0.011273872 0.01134733 -0.09332229 -0.0602102 0.016936349
-0.2533186 -0.0836929 -0.08575688 -0.07946777 -0.019125665 0.023382118 -0.077040404 -0.050587863
-0.10665456 -0.085390024 -0.10737401 -0.04771815 -0.07362959 -0.04377748 -0.039423604 -0.045341697
-0.12858602 -0.09834514 -0.087352514 -0.05582401 -0.05028717 -0.099051885 -0.040487707 -0.027732963
0.2097129 0.19343193 -0.03136855 0.045388665 -0.035789132 0.21166886 -0.060310725 -0.06300384
-0.08916907 -0.060630146 -0.10362022 -0.061054412 -0.023390852 -0.022490347 0.1682121 0.10881715
-0.02844803 -0.047571093 -0.064395234 -0.032130368 0.11435963 -0.08900526 -0.039141532 -0.03310141

actor_fc.weight f4 [256, 256]
00000000: 7989 403c 9d05 083e 859d 9b3d 1f3e adbd
00000010: aa54 a7bd 5034 d1bc 1b52 c73c 8c0f 863c
00000020: cba7 81bb 970b 883c 3530 e4bd e781 f5bd
00000030: 2574 f4bd bdfb e4be 9873 b5be aea9 95bd
00000040: 9c0e 103d 2854 90bd 9bd1 68bd e4a7 ccbd
00000050: 9b4f babd 10d0 833d 0cb0 883b 3edb a03d
00000060: 8f58 edbc d09d c13d a97c 9abd 289c 38bf
00000070: ed43 b5bd ba12 e4bd 0d4e 843e 03bc aabd
00000080: cfbe 303d c06a 12be 6ced 363e ad6c f1bd
00000090: 75e2 36bd 2fe6 c9bd eefd 0bbd 1c55 b9be
000000a0: 337a 943d e799 6bba 74fd 9bbd bf9a 90be
000000b0: 0cc4 583d 8d77 aebd a481 bcbd 709a 313e
000000c0: cf80 85bc 1ea8 d1bd 5ffd cfbc c5cd 103e
000000d0: a452 26bf ebc3 a6bd c1ea ec3d eecd 843d
000000e0: 6709 ef3b 82a4 343d 5b8d c33e d74f 9bbd
000000f0: 5a30 923d b83a a8be 9bea 4abf 90ae cfbd
00000100: 1342 843e 0f2e 593d 791a 8a3e 6f9b 8d3b
00000110: 6b51 92bd 34ec 86bd e756 a4be 648e 69be
00000120: 766e 913e 267e a9be 62e4 0bbe db02 ce3d
00000130: 7d79 e0bd c4e5 52be 846a c73d 4fff 953d
00000140: 5c80 943b ed03 b93d 696c 7cbd cad9 a53c
00000150: c745 cdbd 0e3c 16be 31ab 98bd 9e9e 07be
00000160: 6b8e 11bf c809 d5be 545b b23c 9016 9d3c
00000170: 029d 463e 5980 6fbf 17fe e13e 4542 dabd
00000180: c4b5 ab3d 747d bdbd 9780 eebe 454c b53c
00000190: 7320 cabd 5a88 593d 42b0 14bf 83a7 b5bd
000001a0: 2a21 123e 0345 4bbd e905 09bd 92aa aebd
000001b0: 0d82 d93e fe9c a5bd a83a 1dbe 2980 7dbd
000001c0: 6012 dbbd 74b1 b4bc bba8 8dbc ea1f c63d
000001d0: 746c d4bc 4219 f2be 1b55 81bd d74f 04bf
000001e0: bd36 fabd 1664 0d3d 4cea 9b3d 1e90 bb3d
000001f0: abf8 863e 9973 7a3b 22f7 d43c 4434 febe
00000200: cc44 923d 9ea1 abbd eaa3 25bf 76fb 993e
00000210: fc0c e8bd e28d a8be 143d 86bc 015a ea3e
00000220: c477 513c 8481 a43b c639 2ebe 0f52 d0be
00000230: 2eb8 94be 3f62 563d a3e9 6abb 4af9 ad3d
00000240: 26f3 9b3d 6314 c83c a83d cbbd db35 a73c
00000250: 684e b7be 01b2 ad3d 5fa8 93bd c7e3 25bd
00000260: 02d9 95be 966a b1bd b4c6 3cbc 67d3 e6bc
00000270: fd3f 9bbd 0ff6 8cbd bb68 78be a230 9c3d
00000280: 5982 bc3d 2f65 9abd 01b2 8a3d 1a26 b03d
00000290: 2ced 12bd 0b93 01bf 2700 233d 980a 21bc
000002a0: a8e6 adbc 305f 673e bdbf d1bd 3bd4 aa3d
000002b0: 159e 17bf a243 60bd 1e87 243e a845 363e
000002c0: 7849 12bd 49b9 ac3d 319d 56bc 1d41 ad3e
000002d0: b950 fa3e 2faa 8dbc 0898 8a3c 6075 85bd
000002e0: dd79 b53d f17e 8abc 4c82 85be caad 2fbd
000002f0: 9a16 3a3e 7a2e 883d 5ab5 b8bd d414 933d
00000300: 81c6 93be 2205 3fbe 59d5 38bd 9661 8cbd
00000310: 30e9 a63d c326 8f3b fa62 0ebf f2a0 573e
00000320: 9d01 613d 0ed3 9b3c f40f 6e3e 8bce 65be
00000330: 2dfc 89be 9f4d c2bc eccc e43b 7f72 113e
00000340: c478 e7be f619 6b3e ff23 a73e 21a4 7abd
00000350: c348 dbbd f123 fabe eab8 89bd 4b3a 91bd
00000360: f7f3 33bd 0bf4 1abd b042 a73d 8958 9c3d
00000370: 7ebe b43d 06d4 a3bc 8909 f8bc 4e39 e43c
00000380: d4c9 3d3f e952 623d 1cad 50be 489c c83c
00000390: ef8b 9dbd 1524 b23d b901 933d d11a 22be
000003a0: 3393 25bf 8987 f8bd c305 1cbd a8f7 c13e
000003b0: 2f5b 9cbc eaa9 8ebe 45ec ba3d 4e83 9e3d
000003c0: 32c9 753d 029e 043d fc82 33be 7adf 20bc
000003d0: 1ab4 6f3c 565f 4b3c eca4 d8be 22d0 a9bd
000003e0: 6a96 203d 9160 9bbd f305 163c 7019 2dbd
000003f0: 239d b93e 5210 64bd 05f1 07be 9c1c c0bd
0.011751526 0.13283391 0.07598404 -0.08459114 -0.08170445 -0.02553764 0.024331143 0.016364835
-0.00395677 0.016607089 -0.11142007 -0.119876675 -0.11936215 -0.4472331 -0.35439754 -0.073077545
0.035170183 -0.070473015 -0.05684052 -0.0999296 -0.09097215 0.06436169 0.004171377 0.07854317
-0.028972892 0.094539285 -0.07543308 -0.72113276 -0.088508464 -0.11136384 0.25840798 -0.08336642
0.04315072 -0.14298534 0.17864007 -0.117883064 -0.04464956 -0.09858357 -0.034177713 -0.36197746
0.0724987 -0.0008987472 -0.07616702 -0.28243062 0.05292134 -0.08518896 -0.092044145 0.1734407
-0.016296772 -0.10237144 -0.025389371 0.14140995 -0.6496985 -0.08142837 0.11568213 0.064845905
0.007294822 0.0441022 0.38193783 -0.075835876 0.071381286 -0.328573 -0.7926423 -0.10140717
0.2583166 0.05302244 0.26973322 0.0043215076 -0.071444355 -0.06588021 -0.3209755 -0.22808224
0.28404588 -0.33104056 -0.1366134 0.100591384 -0.10960672 -0.20595461 0.09737113 0.07324087
0.004531903 0.09033952 -0.061626825 0.020245451 -0.100230746 -0.14671347 -0.07454527 -0.13244101
-0.5685794 -0.41609025 0.021772064 0.019175798 0.19395831 -0.9355522 0.44139168 -0.10657171
0.083842784 -0.09252444 -0.4658248 0.022131095 -0.098694704 0.05310855 -0.5808145 -0.08869841
0.14270464 -0.04962636 -0.033452902 -0.085286275 0.42482033 -0.080865845 -0.15354407 -0.0618898
-0.10696864 -0.022057272 -0.017292371 0.09674056 -0.02593062 -0.47284895 -0.06315061 -0.51684326
-0.12217472 0.034519278 0.07613048 0.091583475 0.26361594 0.0038215874 0.025996748 -0.4964925
0.07142028 -0.083804354 -0.6470324 0.30074662 -0.113306016 -0.32920748 -0.016386546 0.45771793
0.012784902 0.0050203223 -0.17014226 -0.40687606 -0.29046768 0.05233979 -0.0035844825 0.08494814
0.07614736 0.024423784 -0.09923869 0.020411422 -0.35802007 0.08481217 -0.072098486 -0.04050043
-0.29267126 -0.08662908 -0.011521984 -0.028176976 -0.07580564 -0.068828695 -0.24258702 0.076264635
0.09204549 -0.075388305 0.06772233 0.08601017 -0.035870716 -0.50614995 0.039795067 -0.009829186
-0.02122815 0.22594905 -0.10241649 0.08341261 -0.5922559 -0.054752 0.16067168 0.17800009
-0.035714597 0.08433778 -0.013099001 0.3383874 0.48889711 -0.017293064 0.016918197 -0.06516528
0.08861134 -0.016906234 -0.2607597 -0.042890348 0.18172684 0.0664949 -0.09018965 0.07181707
-0.28862384 -0.18654302 -0.04512534 -0.068545505 0.08149946 0.0043686344 -0.55619776 0.2105749
0.05493318 0.019021537 0.23248273 -0.22442071 -0.26950207 -0.023718653 0.0069824364 0.14203833
-0.45209324 0.22959122 0.3264465 -0.06119168 -0.107072376 -0.48855546 -0.06724723 -0.070911966
-0.043933835 -0.037830394 0.081670165 0.07634074 0.08825396 -0.019998562 -0.030277984 0.027859356
0.7413609 0.05525485 -0.20378536 0.024488583 -0.07692706 0.08698288 0.07178063 -0.15830542
-0.64677733 -0.12135226 -0.038091432 0.3788426 -0.019086448 -0.2786401 0.09127096 0.07739888
0.060006328 0.03237725 -0.17530435 -0.009818906 0.014630342 0.012412867 -0.42313325 -0.08291651
0.039205946 -0.07586778 0.009156692 -0.042260587 0.36252698 -0.055679627 -0.13275535 -0.09380457

actor_fc.bias f4 [256]
00000000: 3bee 1cbe 63b1 59be 7709 54bc dc16 00be
00000010: 63a6 f63c 9e51 77be a87a 70bd 077e 143e
00000020: c7af 80bc 5c55 67be 9339 c6bd 8241 283d
00000030: b9f8 10be 53da fb3c 4a84 93bd 94b0 a3bd
00000040: 0429 aebe cb2d dbbd 74b1 c4bd c13d 47be
00000050: 73ad f3bd 3a93 b23d 7b9c 1dbe f2b5 7cbd
00000060: f91e 16be e171 3ebd 2b57 09be 5d91 e3bc
00000070: d801 b2bd 94df 2cbe c75b a7bd b548 2cbe
00000080: 5f12 12be d5a7 733d ea29 c03d a382 d53d
00000090: ce95 aebd 59e4 c7bd e2ac c3bd fb70 39be
000000a0: 64c2 c0bd e39f 5c3e ecc6 98be dce8 0b3c
000000b0: f7e2 2cbd eab6 97be 96ff 24be 6f53 07be
000000c0: 1a9b 063e 875b f03c 4832 80be 2cb8 bebe
000000d0: 3e4a 80be 82a2 f9bd e7f2 98be 8a88 04be
000000e0: 2082 8ebd 6472 1ebe b123 b33d b84c 58be
000000f0: e4be d03d d4d7 82bd aa2c 55be e646 a6be
00000100: 17ba 003e cfae 9abe 666a b5be cd9a 0fbe
00000110: 907b 8abd acf3 c73d 9573 ea3d f54f 0abe
00000120: 45f9 c0bd 85eb 9fbd e213 3ebe 9917 8cbe
00000130: bb66 f5bd 88b8 70bd 300c b5bd 2e63 59bd
00000140: d4ae 91be 22c6 50be 8c80 86bd 3bb3 34bd
00000150: 6ed7 33bd afd2 6fbd 3e23 30bd 7a5a 5d3e
00000160: 3ae8 94bd 6e54 b03d 64b8 83be 44c7 babd
00000170: 69c1 9e3b 12c0 4ebe ef8f 8cbd bc30 0abe
00000180: 2dcd a0be 03fe 363d 4aac 05be 34ea 43bd
00000190: 58bf 01bc c63e 0cbe 8229 80bd ea29 ac3d
000001a0: be3a 9cbd d2f0 9dbe 97d4 c2bd d7cd 1ebe
000001b0: e6d9 013e a5b0 99bd 3b6b 9fbd ad4d bebd
000001c0: b35c 1fbd 4028 1b3d 2b1c 1bbe 2a80 7b3d
000001d0: aacd 89bd 5f8d d9bd 203c 21be d3df 103c
000001e0: e322 25be 3163 ebbd b44e 213d 68bd 4cbe
000001f0: c9de 163d 3528 6cbe a307 62be 1a40 3dbe
00000200: 397a ebbd a5f1 cfbd 24a1 b63c 01ad 8cbd
00000210: ee64 eebd 6560 4fbc 78f4 083d 95d5 3a3e
00000220: 6516 85be 6112 95be fb44 fdbd 54a2 ccbd
00000230: 3ea5 6cbd 974d 523d ebe6 e9bd af41 86be
00000240: 833d 2abe 2206 13be 059f a4bd 7f6d a1be
00000250: a445 b4bd c3be be3d 328a d2bd b27b 86bd
00000260: fb67 84bd 238f b1bd c5a8 653d 75dd 79be
00000270: ed64 143d b37e 35be f543 5dbe 6028 9cbc
00000280: 7e3b 4cbc 4ec0 8dbd ad73 0ebe 8ffd c7bd
00000290: 5169 2ebe 45a2 9bbe 02fb 1ebe 1a2d 513c
000002a0: c0a1 0ebe f412 fdbd c6ed 2e3e 5871 4d3a
000002b0: 8a1a 123e 94c8 fabd e83d a43d be20 14bc
000002c0: 8d45 86bd 0c58 98bd a2cf 59be fe4d c4bd
000002d0: 7f64 9c3d 9d0e 4abe a150 a4bd 3036 47be
000002e0: d2ac dbbd 8ce0 92be a6e2 86bd eab7 12be
000002f0: 004c cebd 4f58 08be ac9e 8ebe 6c2d d7bd
00000300: e415 19be 41b6 ac3d e1d3 c0bd 05c6 66bd
00000310: d112 12be aad3 7ebe 848d 17be 5b37 043e
00000320: 67fc a1be d938 16be a612 6ebd 058f 4abe
00000330: d6bb 21be e094 60be d6af 483b 912c aabc
00000340: 23bc b9be 71ed 60be cd3f 9abe ed72 0ebe
00000350: b67d b3bb 0417 30be becc 93bd 26e4 8ebe
00000360: a096 19bd bf61 8bbd 2b4c 86bd 6df0 923d
00000370: fd55 f3bd 90ed 4fbd 4d09 a0bd f6da c4bc
00000380: 3dfb 94bd 825f 3cbe 749c 21be 702c a1bd
00000390: 7c32 9f3d 4691 d1bd 23af 2dbd b931 80bd
000003a0: 700c 21be 4a30 2abe 6605 84bd 27d2 ffbd
000003b0: e42c cebd 29a3 16be 1899 04be 1248 dcbd
000003c0: a410 91bd a6f8 1ebe 2be8 babd b1d0 8a3b
000003d0: c7cf a23d a01b 21be 1540 a73c 3b5a 293d
000003e0: 02cd ef3d 72cd bebd 69ec 97bd 7f0e 31be
000003f0: 81a7 1bbe a9c6 0bbe de71 2ebe 4729 fdbd
-0.15325253 -0.21259074 -0.01294171 -0.1250872 0.030108636 -0.24152228 -0.058710724 0.145012
-0.015708817 -0.22591156 -0.0967895 0.041078098 -0.1415738 0.030743754 -0.072029665 -0.07992664
-0.34015667 -0.10702094 -0.09604159 -0.19457151 -0.11898317 0.087194875 -0.15391724 -0.061696954
-0.14660253 -0.046495322 -0.13412158 -0.027779276 -0.08691758 -0.16882163 -0.08171802 -0.1682461
-0.1426482 0.05948623 0.093829945 0.104253076 -0.08524667 -0.09760351 -0.09554459 -0.18109505
-0.09412077 0.21545367 -0.29839265 0.008539405 -0.042208638 -0.2963174 -0.16113123 -0.13215421
0.13145104 0.029340519 -0.25038362 -0.37249887 -0.25056642 -0.12189199 -0.2987282 -0.1294271
-0.06958413 -0.15473324 0.08747042 -0.21123016 0.101926595 -0.06388822 -0.20817819 -0.32475966
0.12570988 -0.30211493 -0.35432738 -0.14023896 -0.06761849 0.097632736 0.11447827 -0.13507064
-0.094225444 -0.07808594 -0.18562272 -0.27361754 -0.11982485 -0.058769733 -0.08840215 -0.0530731
-0.28453696 -0.20388082 -0.06567487 -0.04411624 -0.04390662 -0.058550533 -0.04300236 0.21616545
-0.07270856 0.08609854 -0.25726616 -0.09120038 0.0048448336 -0.20190457 -0.06863391 -0.13495153
-0.31406537 0.04467584 -0.13054004 -0.047830775 -0.007919155 -0.13695821 -0.06257917 0.08406432
-0.07628392 -0.30847794 -0.095132045 -0.15508209 0.12680778 -0.075043954 -0.077841245 -0.09292159
-0.038906764 0.037880182 -0.15147464 0.061401524 -0.067286804 -0.106226675 -0.15745592 0.008842426
-0.1612659 -0.11493529 0.039381698 -0.19994128 0.03683356 -0.23062213 -0.22073226 -0.18481484
-0.114979215 -0.10153512 0.022293635 -0.068689354 -0.116403446 -0.01265726 0.03343627 0.18245538
-0.25993648 -0.29115584 -0.123666726 -0.09991899 -0.057774775 0.051343527 -0.11420997 -0.26221988
-0.16625027 -0.14357808 -0.08038143 -0.3152885 -0.088023454 0.09313729 -0.10280265 -0.06566562
-0.06465145 -0.08669879 0.056069154 -0.24400885 0.036229063 -0.17724113 -0.21607955 -0.019062221
-0.012465356 -0.06921445 -0.13911314 -0.09765159 -0.17032363 -0.3039724 -0.1552544 0.012767101
-0.1392889 -0.12357131 0.17082891 0.0007837019 0.14267936 -0.122452885 0.0801962 -0.0090410095
-0.065562345 -0.074386686 -0.21270612 -0.09585188 0.076363556 -0.19732137 -0.08023191 -0.19454265
-0.10726322 -0.2868694 -0.065861985 -0.1432797 -0.100730896 -0.13314937 -0.27855432 -0.105067104
-0.14949757 0.084332 -0.09415413 -0.05634119 -0.1426499 -0.24885431 -0.14800078 0.12911741
-0.3163788 -0.14670123 -0.058123253 -0.1978112 -0.1579431 -0.21931791 0.0030622385 -0.020773204
-0.3627635 -0.21965577 -0.301268 -0.13911028 -0.0054776324 -0.1719628 -0.07216786 -0.27908438
-0.037497163 -0.06805753 -0.06557497 0.07174764 -0.11881635 -0.050763667 -0.07814274 -0.02403019
-0.072744824 -0.18395808 -0.15782338 -0.07869804 0.07773301 -0.10232787 -0.04240335 -0.06259484
-0.15727401 -0.16619983 -0.06446342 -0.12491255 -0.10067156 -0.14710678 -0.12949026 -0.10755934
-0.07083252 -0.1552454 -0.09126314 0.0042363037 0.07949787 -0.15733194 0.020416299 0.041345816
0.11709024 -0.09316529 -0.074181385 -0.17290686 -0.15200616 -0.13650002 -0.17035624 -0.12361389

actor_out.weight f4 [12, 256]
00000000: 4ab4 a53d 5889 493d b94f 7e3d 70a1 b5bd
00000010: f455 df3e 68ff 0c3e 4dde 7a3d 136e 113e
00000020: 3bec 0cbf aeee 6b3e aa0f 1b3e c7c0 743e
00000030: ae6a 913a 6319 b4bc 0d54 1bbe 4123 7a3e
00000040: e961 e8bd 2561 a8bd 97ff 183c b173 c5bd
00000050: 1f5d 60be ad99 cdbe 4615 e1be 89d5 e33d
00000060: ff3f 85be 4506 27be 5537 363d 9c66 903e
00000070: 38ab d1bd 9242 bc3e 3683 db3b 06b6 143e
00000080: c453 7bbd f2a9 76be 242c 46be 66e3 533e
00000090: 30bd 6bbe 5171 16bf 67d1 af3d 8ab4 02bf
000000a0: f207 0c3f a0a3 35be 460b 80bd 1051 b63e
000000b0: 4eb6 27bf 4b42 a33e 38ea 00be b2b7 8bbe
000000c0: 8df2 1a3b 70e1 063e 2e20 c73d a182 cabf
000000d0: 58f2 47be a848 9fbe 7e5a 7b3e 83b8 243e
000000e0: bb1f b43e 6859 8e3d e4df b03e 1e27 d93d
000000f0: 5005 af3e b76e 0b3e d00b 8abe 6768 e0bd
00000100: 8bb5 8e3e da39 48bf a5c0 2bbe 5795 5ebf
00000110: f8f5 49bf d2a2 263e beb6 6cbd 3600 233f
00000120: 6110 82bb a2c4 493e eea3 2f3e d083 88be
00000130: 6796 babd 32b1 78bd c1f1 3dbe 49bc 0dbe
00000140: 1151 1dbe 431a 71be 612e b53e 9b6d 97be
00000150: 5888 243f 6226 873e 7acf bdbc 700a afbf
00000160: 0509 93bd 9e40 4cbe c7b5 12bf 3ca1 d7be
00000170: 7414 53bc f264 303f 4a4a 5bbe df76 c3be
00000180: bb95 2cbf 28aa 0e3e 5589 6c3d def4 693d
00000190: f49a 803e 9ccf cabe 1390 a83e 1001 aaba
000001a0: 142c 79be 68d2 913a 2761 c8be 036c 83be
000001b0: c91f a83e 3921 03be 68e2 31be 9832 00be
000001c0: e52c 5e3c d13c 0fbe 9cef 94bd 39f7 21bd
000001d0: adbb 11be 8509 d83e 942d 7ebe 550c 263e
000001e0: cf98 dbbe 695c 99bd a16f b6be 4c42 c3bd
000001f0: a1f3 823e b154 2d3d eb9e 0f3f bf99 913e
00000200: ee73 8dbc 60fc 0bbf 701b 23be cff9 833d
00000210: 779a 92bc 46e0 afbd a7ea 54be dc6c 9abe
00000220: dde4 d8be b192 243e b470 0cbd 35ab 863e
00000230: 254c 88be de1e 9b3e cdfa c73d 9a67 54be
00000240: cfd8 0fbd f9b0 353e 1317 9e3b de04 d83d
00000250: 0c16 983e 5cf9 37be 78ce aabd 48c0 d1be
00000260: 15b0 cc3e bd16 bd3d 9e5f dd3e 4216 acbe
00000270: 2c5f f73e 9437 943e a64e b93d 9198 b83e
00000280: 5778 043f ad54 823d 4aca e8bb 3621 fcbd
00000290: 15c4 313e 4e9a 2bbe efe0 2e3e 40bf 9dbd
000002a0: 732c 8fbe 8e00 48be 1098 2e3e 8084 973d
000002b0: 3c1d 86bd 9351 1aba c7ea 1abe deb5 773d
000002c0: cd5d 8dbd fb39 8fbe 9341 7bbf 333b 9cbb
000002d0: 3dd1 a13e d9aa 1fbf fe3e 00be 2dbe f4be
000002e0: 6d16 b83d e9ad 10be 5003 cf3c 13ff 223f
000002f0: aea4 c63e 41fc ea3d 4a8d b63d 4511 83be
00000300: f255 d03d eda8 2a3d 4adc 94bd 7200 9fbe
00000310: 7fe3 99be 96cf 5ebe 8c06 ea3c 2ddd 4bbe
00000320: 2a17 213e b61c cb3e 297d 303d 3d39 b83d
00000330: 1ec7 a43d 586a bfbd f48a 16be f51a 023f
00000340: 6701 c3be c31f f2be 0cae 1b3f 54a5 21be
00000350: d09f 9dbc c145 6dbe b02c 7c3c e03a 7bbc
00000360: a779 6abd ce77 51bc 8bda 74bd ba88 c0bd
00000370: ec2c 953e e3a2 313e 86a8 3a3e d20a 6d3f
00000380: da10 b4be dfba d6bb 1c20 c9be a553 483f
00000390: 7093 39bd 783c 1f3b 9be9 00be 62ea 01bf
000003a0: 3178 543e c78a 44be cc82 4b3b 004f 0e3e
000003b0: f186 7d3e 6c67 c3bd 61df bcbe a708 513e
000003c0: cdaa 3a3f b434 28bf fb78 f5be 5b0d 4b3e
000003d0: 8bf7 233f 53e8 443e 442d f83c aa52 3b3f
000003e0: f078 81bd ddb4 9f3d f36d 05bf ad48 f03e
000003f0: 92d3 593e 6940 8e3e 7fd6 9cbc 346c 443e
0.08091028 0.049203247 0.06208775 -0.088686824 0.43620265 0.13769305 0.06124716 0.14202146
-0.5504796 0.23040268 0.15142694 0.23901664 0.0011094415 -0.021984762 -0.15168782 0.24427511
-0.113468 -0.08221654 0.009338281 -0.09641207 -0.21910523 -0.40156308 -0.43961543 0.11124713
-0.26025388 -0.16310985 0.044486362 0.28203285 -0.102377355 0.3676954 0.006698991 0.14522561
-0.061359182 -0.24088266 -0.19352776 0.20692214 -0.23021388 -0.5876666 0.08584862 -0.5105673
0.54699624 -0.17738199 -0.0625215 0.3560872 -0.6551255 0.31886515 -0.12589347 -0.27288586
0.0023643107 0.13171935 0.09722935 -1.5821115 -0.1952604 -0.3111012 0.24546239 0.1608601
0.35180458 0.06950647 0.34545815 0.10603164 0.3418374 0.13616453 -0.26962137 -0.10957413
0.2787288 -0.78213274 -0.16772707 -0.86946625 -0.78890944 0.16273049 -0.057791464 0.63672197
-0.0039692377 0.19703916 0.17152378 -0.26663065 -0.09110718 -0.06071586 -0.18549253 -0.13841356
-0.15362956 -0.23545174 0.35386947 -0.2957581 0.64270544 0.2639647 -0.023170222 -1.367506
-0.07179455 -0.19946525 -0.5730862 -0.421152 -0.012883294 0.6890403 -0.21415058 -0.3817663
-0.6741597 0.13932097 0.057748158 0.05711829 0.2511822 -0.39611518 0.3292242 -0.0012970287
-0.2433322 0.0011125328 -0.3913662 -0.25668344 0.3283675 -0.12805642 -0.17371523 -0.125193
0.013560508 -0.13988043 -0.07272264 -0.03954241 -0.14231749 0.42194763 -0.24822074 0.16215642
-0.4289002 -0.07488329 -0.3563204 -0.095341295 0.255765 0.042317096 0.56101865 0.2843761
-0.017267194 -0.5468197 -0.15928435 0.064441316 -0.01789592 -0.08587699 -0.20792638 -0.30161178
-0.4236211 0.16071583 -0.03428717 0.26302496 -0.26620594 0.30296987 0.09764633 -0.20742646
-0.035118874 0.17743291 0.004824528 0.10547803 0.2970432 -0.17966217 -0.08340162 -0.4096701
0.3997809 0.092328526 0.43237013 -0.3361073 0.48314798 0.28948653 0.09048204 0.360539
0.51746124 0.06363807 -0.007104193 -0.12311022 0.17359956 -0.16758081 0.17077993 -0.07702494
-0.279636 -0.19531462 0.17050195 0.07398319 -0.06548545 -0.00058867893 -0.15128623 0.060476176
-0.06902657 -0.27973923 -0.98146933 -0.0047677993 0.3160495 -0.6237007 -0.1252403 -0.47801343
0.089886524 -0.14128841 0.025270134 0.6367046 0.38797516 0.11473895 0.089136675 -0.25599113
0.10172643 0.041665006 -0.07268579 -0.31055027 -0.30056378 -0.21758875 0.028567575 -0.1990859
0.15731493 0.39670342 0.043088112 0.08995292 0.08045791 -0.09346455 -0.14701444 0.50822383
-0.38087007 -0.47289857 0.6081245 -0.15785724 -0.019241244 -0.2317114 0.015391514 -0.015333861
-0.057244923 -0.012784911 -0.05977873 -0.094010785 0.29135835 0.17347293 0.18228349 0.92594635
-0.35169107 -0.0065530385 -0.3928231 0.7825263 -0.045306623 0.0024297517 -0.12589113 -0.50748265
0.20748974 -0.19193564 0.0031053303 0.13897324 0.24758507 -0.095412105 -0.36889175 0.20413457
0.7291687 -0.6570542 -0.47943863 0.19829313 0.64049596 0.1922925 0.030295022 0.7317301
-0.06321895 0.07798169 -0.52120894 0.46930447 0.21272114 0.27783516 -0.019145248 0.19181901

actor_out.bias f4 [12]
00000000: 24b9 253f 13d9 00be 8190 363e 0902 ea3d
00000010: 0765 713e 8b6d cb3d 2e31 dfbe 1463 523e
00000020: 30fa 353d 1499 073e 619c bcbd 6d8a d93d
0.6473563 -0.12582807 0.17828561 0.114261694 0.23573695 0.09933003 -0.4359221 0.20545608
0.04442805 0.13241988 -0.092095144 0.10622106
