networks/saved_model_3/ppo_model_ep200.pth (torch, 842098 bytes, 11 tensors)

shared_fc1.weight f4 [256, 33]
-0.016470203 -0.13555537 0.27298135 -0.16779597 0.21927299 -0.18529247 -0.0031084802 -0.2935677
0.30156076 -0.22814688 -0.07288384 -0.20358478 -0.27862954 -0.0848695 -0.031508368 0.23288913
0.19912823 0.5921305 -0.24451217 -2.2903519 0.4599592 0.5841833 -0.124612615 -0.46935558
-0.2222175 -0.45741418 -0.10185591 -0.41797873 -0.19764231 -0.13365477 -0.25836957 0.017927008
-0.050197553 -0.20953709 0.21249858 -0.31705803 -0.1527 -0.22328278 0.2650187 0.056412686
-0.09795322 -0.15065709 0.24141988 -0.2788341 -0.06551748 -0.055667963 -0.02402504 -0.23798153
-0.082209855 -0.015309982 -0.050874557 0.09748336 -0.35080466 -1.0286402 -0.11758197 -0.033909135
-0.11874371 0.2602895 -0.16564536 0.03850707 -0.11096716 -0.23647052 -0.07202127 -0.09379916
0.10528242 -0.042700984 -0.47148526 -0.003104306 -0.38754928 -0.27673325 -0.09935856 -0.4618622
-0.2071835 -0.27098235 0.20539263 0.12740049 0.055576142 -0.17951386 -0.044146486 0.03028973
0.10192661 0.19418748 -0.21154824 0.59777784 -0.26658556 -0.34644115 -0.14877626 -1.6232033
-0.18292716 -0.3571278 -0.03446655 -0.348087 -0.15676899 -0.079298615 -0.17641933 -0.46961537
-0.014459627 -0.1311757 -0.32232863 -0.16684575 -0.21945038 -0.16408359 -0.17708726 -0.17773229
-0.22031873 -0.03795554 -0.17716777 0.0119862305 -0.031535253 -0.00031937676 0.013479371 -0.05206344
-0.04083512 0.123862274 0.06901869 0.016710306 -0.17013565 -0.12513168 0.014945297 0.09410234
0.11760833 -0.11630302 0.03559074 -0.13473071 -0.0699638 -0.21477374 -0.065370455 -0.1332285
-0.0960933 0.08869105 -0.18120767 -0.18743849 -0.23693068 -0.23636352 -0.05024511 -0.13973102
-0.0380959 -0.19543764 -0.18278114 -0.12656663 -0.0672222 -0.02307754 -0.038369473 -0.069741726
-0.009860219 0.2257137 0.09627039 -0.048132792 -0.011461559 -0.25262934 -0.23608111 0.24264301
0.23796022 0.7825813 -0.14195493 -0.043844417 -0.10028559 0.08036579 -0.037635513 0.08502029
-0.22294927 -0.2580167 -0.18632571 -0.18643449 -0.18040177 0.16684522 -0.1641268 -0.030800937
-0.19498731 0.031254016 0.043852393 -0.110413864 -0.029399255 0.040884405 0.018237371 0.028703831
-0.32819328 -0.0062370156 -0.13133375 0.09414913 -0.10603247 0.19595502 0.2096696 -0.08806617
-0.8873888 0.93378687 0.33209246 -0.03213582 -0.26422444 -0.49537808 -0.043168914 0.028209534
-0.031198688 0.102994815 -0.25962514 0.075536706 -0.038722657 -0.07354268 0.35009408 0.12785566
0.562377 -0.08955635 0.15185794 0.029732356 0.19407268 0.13973464 -0.27585652 -0.04853132
0.008823304 -0.020105164 0.07890424 -0.047807306 0.0765336 0.061120275 0.29982778 -0.0020508019
-0.1904489 -0.045885164 1.3643601 -0.026795803 0.1500873 -0.14538875 -0.0074942103 0.14590637
0.1321238 0.10585343 0.0752316 -0.024315724 0.0026383062 0.048718587 0.034888834 -0.082800806
-0.13390811 -0.107564546 -0.009805527 0.07554451 -0.095050134 0.039555304 -0.14756109 0.08526152
0.049828783 -0.1281908 0.012955483 0.055198558 0.026136426 -0.046345558 0.07228876 0.014767413
0.11991177 -0.011816895 0.057050277 -0.074223906 0.0948857 0.08793883 0.020810535 -0.15768756
00000000: 85ec 86bc 07cf 0abe 36c4 8b3e b5d2 2bbe
00000010: 1989 603e 4fbd 3dbe a5b7 4bbb 814e 96be
00000020: 2c66 9a3e 569f 69be 1f44 95bd 8778 50be
00000030: 88a8 8ebe 0fd0 adbd eb0e 01bd 7d7a 6e3e
00000040: 45e8 4b3e dd95 173f 6661 7abe 2095 12c0
00000050: c67f eb3e 098d 153f e634 ffbd 604f f0be
00000060: fc8c 63be 3132 eabe d599 d0bd 4f01 d6be
00000070: bf62 4abe ccdc 08be 0449 84be a9db 923c
00000080: f39b 4dbd e490 56be 3a99 593e 6e55 a2be
00000090: 645d 1cbe 3ea4 64be 88b0 873e fd10 673d
000000a0: b39b c8bd da45 1abe c636 773e 58c3 8ebe
000000b0: 072e 86bd 1704 64bd 29d0 c4bc 6eb1 73be
000000c0: a45d a8bd b8d6 7abc d761 50bd 5ba5 c73d
000000d0: ab9c b3be 7baa 83bf d1ce f0bd 4ee4 0abd
000000e0: e72f f3bd aa44 853e f09e 29be 97b9 1d3d
000000f0: c042 e3bd 5425 72be e37f 93bd c619 c0bd
00000100: 4f9e d73d 3ae7 2ebd 8466 f1be 9d71 4bbb
00000110: dc6c c6be fbaf 8dbe 807c cbbd 3479 ecbe
00000120: e927 54be 33be 8abe 7252 523e 4675 023e
00000130: cfa3 633d 7bd2 37be f2d2 34bd 2b22 f83c
00000140: e6be d03d 15d9 463e 1aa0 58be f807 193f
00000150: e77d 88be bc60 b1be ce58 18be 20c5 cfbf
00000160: 4251 3bbe 74d9 b6be cc2c 0dbd 7638 b2be
00000170: 0d88 20be 5067 a2bd 45a7 34be 6d71 f0be
00000180: 12e8 6cbc ec52 06be 4208 a5be 9dd9 2abe
00000190: 9ab7 60be 8705 28be 5d56 35be 74ff 35be
000001a0: 3c9b 61be 4577 1bbd 786b 35be e561 443c
000001b0: 1c2b 01bd 0672 a7b9 94d8 5c3c 7940 55bd
000001c0: ba42 27bd 81ab fd3d ac59 8d3d 0de4 883c
000001d0: 0a38 2ebe 8522 00be 1edd 743c bab8 c03d
000001e0: a3dc f03d 4730 eebd 99c7 113d d9f6 09be
000001f0: 2e49 8fbd a6ed 5bbe f2e0 85bd 0d6d 08be
00000200: 90cc c4bd a7a3 b53d 818e 39be e0ef 3fbe
00000210: f59d 72be 4709 72be d1cd 4dbd a615 0fbe
00000220: 720a 1cbd ce20 48be fb2a 3bbe af9a 01be
00000230: cbab 89bd 1c0d bdbc 4f29 1dbd c0d4 8ebd
00000240: c28c 21bc 7e21 673e 6929 c53d e426 45bd
00000250: 43c9 3bbc a258 81be 3fbf 71be 6977 783e
00000260: d8ab 733e 4057 483f a25c 11be 3496 33bd
00000270: 8862 cdbd d296 a43d b227 1abd 1e1f ae3d
00000280: d04c 64be c41a 84be 2bcc 3ebe afe8 3ebe
00000290: 3ebb 38be 79d9 2a3e db10 28be 3f52 fcbc
000002a0: c1aa 47be 3604 003d 919e 333d aa20 e2bd
000002b0: b5d6 f0bc 6876 273d 8a66 953c 4c24 eb3c
000002c0: f308 a8be e15f ccbb 5b7c 06be 42d1 c03d
000002d0: 8d27 d9bd 6fa8 483e a1b3 563e 095c b4bd
000002e0: ea2b 63bf a80c 6f3f 0608 aa3e d9a0 03bd
000002f0: 6d48 87be 32a2 fdbe e3d1 30bd ae17 e73c
00000300: 6494 ffbc f2ee d23d 96ed 84be fdb2 9a3d
00000310: a69b 1ebd 8b9d 96bd 883f b33e 98ec 023e
00000320: f0f7 0f3f 5269 b7bd a680 1b3e 4591 f33c
00000330: fdba 463e 9916 0f3e 113d 8dbe c7c8 46bd
00000340: 9f8f 103c 96b3 a4bc 8c98 a13d 98d1 43bd
00000350: a6bd 9c3d 4159 7a3d 0783 993e bf66 06bb
00000360: 0905 43be 15f2 3bbd 5aa3 ae3f df82 dbbc
00000370: 7cb0 193e cae0 14be fe91 f5bb 7b68 153e
00000380: 764b 073e afc9 d83d 0613 9a3d c531 c7bc
00000390: 6fe7 2c3b 248d 473d 98e7 0e3d 7893 a9bd
000003a0: 351f 09be cd4a dcbd 5ca7 20bc 14b7 9a3d
000003b0: a5a9 c2bd be04 223d 411a 17be 989d ae3d
000003c0: 4419 4c3d 7344 03be 3c43 543c e217 623d
000003d0: 0f1c d63c d7d4 3dbd 210c 943d 05f3 713c
000003e0: 4d94 f53d a69b 41bc 8dad 693d b402 98bd
000003f0: 6f53 c23d 4619 b43d db7a aa3c d978 21be

shared_fc1.bias f4 [256]
-0.13615985 0.034564175 -0.26490313 -0.09734879 -0.12935576 -0.082344994 0.07538701 -0.055849236
-0.11370124 -0.12076206 -0.11929709 0.04706904 -0.17797916 -0.06446941 -0.16137278 -0.10630323
-0.00519779 0.024279296 0.02676619 -0.022865428 0.009123812 -0.094338484 -0.09196434 -0.01974384
-0.18123221 -0.2816847 0.010413489 -0.14071323 -0.09184003 -0.010364649 -0.082728714 -0.15955462
-0.071713336 -0.100412965 -0.17806295 -0.08982744 -0.31817654 -0.10941851 -0.00938468 -0.08044524
-0.15085359 -0.09682603 -0.00587219 -0.020440418 -0.1565797 -0.16717868 -0.12560192 -0.27651754
-0.20443021 0.002095694 -0.09005344 -0.20986018 -0.055914633 -0.22091378 -0.037286352 -0.17189501
-0.07010266 -0.0022173445 -0.05448846 -0.1942164 0.043086056 -0.20321502 -0.24586289 -0.17600933
-0.11250203 -0.063895844 -0.13312131 -0.11232025 -0.13919316 -0.2202672 -0.27459607 0.025204765
-0.028837157 -0.22214624 -0.0766607 -0.17162585 -0.122797504 0.06864833 -0.3128893 0.011044511
-0.1189404 -0.18541084 -0.1837496 0.04473855 -0.075055234 -0.2570517 -0.004950774 0.03457203
-0.24816702 -0.18378066 -0.20368034 -0.035792653 -0.16119255 -0.1052371 -0.116832614 -0.021903073
-0.057123028 0.0036186222 -0.092177846 -0.072705366 -0.15144944 -0.077840246 -0.11023219 -0.10548154
-0.087732814 0.039026186 -0.059436217 -0.16610456 -0.24709477 -0.10573799 -0.08966298 0.035650715
-0.061514817 -0.2068064 -0.09136102 -0.02357735 -0.14968407 -0.17692578 -0.1587678 -0.19097172
-0.043502174 -0.03834898 -0.031724766 0.004562478 -0.09114782 -0.12752067 -0.01366039 -0.03414891
0.049470793 0.03159065 -0.0060186214 -0.14213578 -0.28750387 -0.005031504 0.008967293 0.023480937
-0.014004922 -0.1413764 0.041433647 -0.0026715444 -0.14155725 -0.020149995 0.058080044 -0.1702854
-0.07769788 0.030433876 -0.10994012 -0.0054706126 -0.20121352 -0.12383653 0.022614457 -0.16996114
-0.31198975 -0.060377005 -0.11221831 0.019474745 -0.09921806 -0.11106694 -0.21882178 -0.13458586
-0.19271894 -0.20924993 -0.28071988 -0.07903287 -0.0020697908 -0.032118496 0.050008103 -0.063640304
-0.26061112 -0.14552107 -0.08224127 -0.0008319399 -0.24498422 -0.06267737 -0.25117984 -0.07549259
-0.080671124 -0.20695956 -0.0044568228 0.013687091 -0.25262582 -0.11266915 0.0047627147 -0.10069049
-0.07488465 -0.05533594 -0.027645094 -0.09655994 -0.16580148 -0.094524406 -0.123583935 -0.016115593
-0.10530837 -0.16773868 -0.16520864 -0.18997626 -0.06788029 -0.11395439 -0.10184058 -0.12516457
-0.026522279 -0.15516582 -0.15332845 -0.12350219 0.0025365402 -0.36740243 -0.20140156 -0.22322223
-0.1413661 0.02685657 -0.07419028 -0.11633708 0.030928306 -0.122704335 -0.08694813 -0.03297129
-0.28047797 -0.11604263 -0.19960369 0.040755264 0.06990393 -0.13769045 -0.0121521605 -0.1721406
-0.304384 -0.09356812 -0.13187438 -0.15450592 -0.10273261 -0.046296105 0.035686526 -0.23543423
-0.2257984 -0.12061511 -0.020231025 -0.09254781 -0.038471445 0.0027599318 0.0076898574 -0.20029032
-0.082605965 -0.16332865 0.016963525 -0.0086995745 -0.06681902 0.026032485 0.032804426 -0.13985856
0.04092198 0.0009852409 0.028471544 -0.08740232 -0.18437102 -0.08941911 -0.14417689 -0.07602693
00000000: 7d6d 0bbe 2a93 0d3d 62a1 87be cd5e c7bd
00000010: d675 04be 7ea4 a8bd 8164 9a3d 2bc2 64bd
00000020: 32dc e8bd 1952 f7bd 0852 f4bd 77cb 403d
00000030: 2b40 36be 8a08 84bd e83e 25be 82b5 d9bd
00000040: 3952 aabb 60e5 c63c c544 db3c 4750 bbbc
00000050: 0b7c 153c 8934 c1bd cd57 bcbd d5bd a1bc
00000060: f094 39be fa38 90be 579d 2a3c 2117 10be
00000070: a016 bcbd 7dd0 29bc ac6d a9bd 4962 23be
00000080: 71de 92bd 50a5 cdbd 2256 36be 73f7 b7bd
00000090: 09e8 a2be d016 e0bd 33c2 19bc 79c0 a4bd
000000a0: 5d79 1abe ba4c c6bd 806b c0bb aa72 a7bc
000000b0: 6e56 20be e330 2bbe ca9d 00be b593 8dbe
000000c0: 2756 51be e957 093b f06d b8bd 96e5 56be
000000d0: be06 65bd 3937 62be 93b9 18bd 3f05 30be
000000e0: fc91 8fbd de50 11bb 4b2f 5fbd aae0 46be
000000f0: 017b 303d 9917 50be 7bc3 7bbe ca3b 34be
00000100: 7767 e6bd d3db 82bd f450 08be 2908 e6bd
00000110: a788 0ebe ba8d 61be db97 8cbe 397a ce3c
00000120: e73b ecbc 4e7a 63be 4900 9dbd b0be 2fbe
00000130: 427d fbbd 7f97 8c3d 0733 a0be 09f4 343c
00000140: 0697 f3bd 57dc 3dbe db28 3cbe c53f 373d
00000150: 8fb6 99bd 489c 83be 1a3a a2bb 679b 0d3d
00000160: 7f1f 7ebe ff30 3cbe 9491 50be 519b 12bd
00000170: a90f 25be 8c86 d7bd f045 efbd 136e b3bc
00000180: d6f9 69bd 6826 6d3b bdc7 bcbd 8de6 94bd
00000190: 9015 1bbe b56a 9fbd 6ac1 e1bd b506 d8bd
000001a0: 43ad b3bd ecd9 1f3d 6473 73bd 5017 2abe
000001b0: 6906 7dbe 298d d8bd 39a1 b7bd 7c06 123d
000001c0: f6f6 7bbd 0fc5 53be 7d1b bbbd 4925 c1bc
000001d0: c846 19be 082c 35be 0794 22be 178e 43be
000001e0: 562f 32bd d213 1dbd d4f1 01bd d780 953b
000001f0: b5ab babd c794 02be d4cf 5fbc badf 0bbd
00000200: e3a1 4a3d 3365 013d db37 c5bb 0b8c 11be
00000210: b533 93be 51df a4bb 8eeb 123c 185b c03c
00000220: e674 65bc fac4 10be 54b6 293d 1415 2fbb
00000230: 62f4 10be 9a11 a5bc 57e5 6d3d 4c5f 2ebe
00000240: 1120 9fbd 7750 f93c 4928 e1bd d342 b3bb
00000250: eb0a 4ebe 029e fdbd f441 b93c 4b0a 2ebe
00000260: 1fbd 9fbe e14d 77bd b7d2 e5bd 8089 9f3c
00000270: d732 cbbd 1077 e3bd d112 60be e0d0 09be
00000280: 1d58 45be 9d45 56be 84ba 8fbe fcdb a1bd
00000290: 54a5 07bb af8e 03bd 4cd5 4c3d d955 82bd
000002a0: d26e 85be 7a03 15be 1c6e a8bd 8b16 5aba
000002b0: 25dd 7abe fe5c 80bd a59a 80be dc9b 9abd
000002c0: e736 a5bd 35ed 53be 8a0a 92bb d23f 603c
000002d0: 2c58 81be 15bf e6bd 8c10 9c3b d136 cebd
000002e0: 205d 99bd f0a7 62bd f777 e2bc 38c1 c5bd
000002f0: ddc7 29be 0396 c1bd 9319 fdbd d904 84bc
00000300: eaab d7bd b0c3 2bbe 742c 29be 2389 42be
00000310: d204 8bbd eb60 e9bd cb91 d0bd 242b 00be
00000320: 4045 d9bc cae3 1ebe 2202 1dbe b7ee fcbd
00000330: 153c 263b 2c1c bcbe 363c 4ebe 5e94 64be
00000340: 46c2 10be 4f02 dc3c 13f1 97bd 2342 eebd
00000350: 5c5d fd3c 694c fbbd dc11 b2bd e70c 07bd
00000360: cf9a 8fbe c2a7 edbd e964 4cbe feee 263d
00000370: cb29 8f3d bafe 0cbe db19 47bc a045 30be
00000380: 38d8 9bbe a4a0 bfbd 140a 07be cd36 1ebe
00000390: 7a65 d2bd fca0 3dbd 092c 123d ac15 71be
000003a0: b237 67be 0e05 f7bd 89bb a5bc b589 bdbd
000003b0: 3c94 1dbd f9df 343b 33fb fb3b e818 4dbe
000003c0: 512d a9bd a03f 27be 17f7 8a3c a988 0ebc
000003d0: 69d8 88bd 1442 d53c ef5d 063d 1537 0fbe
000003e0: ce9d 273d 3323 813a 283d e93c fdff b2bd
000003f0: c2cb 3cbe 5e21 b7bd 1ba3 13be 02b4 9bbd

shared_fc2.weight f4 [256, 256]
0.0010707331 -0.0107693365 -0.08321202 0.049614012 -0.0069147083 -0.12724645 -0.06269098 0.026813006
0.06666467 -0.039228816 -0.012815567 -0.06163526 -0.03614217 -0.07756043 -0.028319726 0.06165188
0.0042605205 -0.03655769 0.053914975 -0.02553633 -0.014642961 -0.024941655 0.02362138 0.036460143
-0.13050546 -0.120419934 0.02746295 -0.0036026943 -0.16626444 -0.11029384 -0.0121522695 0.06185138
-0.09619812 -0.114973634 0.0025981974 0.11098977 0.021962453 -0.008125977 -0.14249931 0.08302831
0.007546584 0.016089091 0.043870967 -0.061351355 0.008070241 0.09566417 -0.11076009 -0.031565003
0.041654088 0.09102476 0.01990732 -0.1363117 -0.00011677081 -0.081139944 0.06702571 0.028870597
0.03768975 -0.14134918 -0.060218807 -0.1413144 0.1263169 -0.041125108 -0.042235494 0.025187332
-0.05325389 -0.05724786 -0.0718734 -0.007100744 -0.021660786 0.05615189 -0.12452185 -0.025105545
-0.1504345 -0.01824344 0.05849061 0.075699866 0.07140564 0.13522764 -0.11839286 0.05857073
0.020449322 0.037434626 0.034944814 0.015652085 -0.014035796 -0.06969518 -0.07687752 -0.04573703
-0.02449713 0.05339227 -0.08236284 -0.0039819 0.06740746 -0.026331695 0.08311001 0.009153533
0.06209311 -0.05719667 -0.028450118 0.052351445 -0.008464365 0.0032038835 -0.1071472 -0.04742995
-0.100114316 -0.051651146 -0.06700209 -0.06405485 -0.077941924 0.058899354 0.04375471 -0.048693642
-0.08148234 -0.020265892 -0.054658946 -0.1262559 -0.017518483 0.061796278 0.09674617 -0.09967622
-0.08858199 -0.08801756 -0.09838993 -0.07344929 0.0053609274 -0.05645887 0.08729839 0.017311497
-0.04720642 -0.014406613 0.008580742 -0.11826957 -0.031280708 -0.02027402 -0.0028025163 -0.08189874
0.016690992 -0.10603513 -0.07217694 -0.1405105 -0.109171234 -0.020022372 0.076098196 -0.03842315
-0.12423575 0.0010846612 -0.038106695 -0.05238351 -0.0006090631 0.047750294 -0.025492048 -0.025529966
0.064455114 -0.11694038 0.035374798 0.0053591104 -0.11958912 0.053053543 -0.066934824 -0.09937129
-0.07395084 0.03307275 -0.01888219 -0.06997847 0.035948444 0.03286299 -0.14517431 0.061520513
-0.06841464 -0.08665011 -0.046353523 -0.08994658 0.052359737 -0.060416274 -0.03165195 0.102029055
-0.059482757 0.02328935 0.07595662 -0.036316976 0.04766375 -0.039173264 -0.03607874 -0.07636745
0.06814825 0.03531802 0.035538632 0.0627866 -0.03289604 -0.0567962 -0.1045668 -0.022182815
0.06571369 -0.010506119 -0.0868578 -0.08065944 -0.04544059 0.0008826116 -0.097910084 0.057770878
-0.0375725 0.04336731 0.0077096876 0.06282013 0.011914033 0.08030528 -0.08266672 -0.025253078
-0.08919544 -0.027786098 -0.0078833 0.13005644 -0.15502283 -0.04740082 0.09855636 0.016575083
0.048412763 0.013319882 -0.03377175 -0.021066131 -0.10043236 -0.008329376 0.011719044 -0.17539792
-0.09935632 0.027858127 -0.0736155 0.0013362106 -0.12127117 0.04572906 -0.08634058 0.04857544
-0.13821785 0.03810993 -0.09695779 0.053574897 -0.135538 -0.05935009 -0.2158599 -0.016013043
-0.0912296 -0.048986856 0.02513738 -0.028846245 -0.024399512 0.020269603 0.05170904 0.10327658
-0.16739044 0.054989103 -0.07044211 0.09385899 0.046974584 0.039246913 -0.076778516 -0.052347694
00000000: d757 8c3a df71 30bc 106b aabd 1038 4b3d
00000010: c794 e2bb e54c 02be 2164 80bd f3a6 db3c
00000020: 7d87 883d 65ae 20bd 62f8 51bc 4175 7cbd
00000030: d009 14bd 01d8 9ebd c5fe e7bc af86 7c3d
00000040: d69b 8b3b 84bd 15bd f3d5 5c3d 9131 d1bc
00000050: 08e9 6fbc 7152 ccbc a081 c13c 3b57 153d
00000060: 39a3 05be ba9e f6bd fbf9 e03c 2e1b 6cbb
00000070: 3a41 2abe bde1 e1bd 501a 47bc df57 7d3d
00000080: 8503 c5bd 4c77 ebbd 8546 2a3b 9b4e e33d
00000090: 9aea b33c d122 05bc 57eb 11be bf0a aa3d
000000a0: 5649 f73b 45cd 833c 0bb2 333d 8f4b 7bbd
000000b0: 0b39 043c 94eb c33d 30d6 e2bd 4e4a 01bd
000000c0: 7a9d 2a3d 306b ba3d ad14 a33c 4b95 0bbe
000000d0: dae2 f4b8 b32c a6bd c744 893d 0882 ec3c
000000e0: 9160 1a3d d7bd 10be ffa7 76bd b9b4 10be
000000f0: 3859 013e cd72 28bd 20ff 2cbd aa55 ce3c
00000100: c020 5abd bb7c 6abd 5c32 93bd 5cad e8bb
00000110: f671 b1bc 86ff 653d 5005 ffbd 25aa cdbc
00000120: 800b 1abe 4473 95bc da93 6f3d 8808 9b3d
00000130: 1f3d 923d 1d79 0a3e f577 f2bd dde7 6f3d
00000140: 5685 a73c 0d55 193d 4b22 0f3d cd38 803c
00000150: 65f6 65bc 59bc 8ebd f671 9dbd c156 3bbd
00000160: 35ae c8bc dab1 5a3d d9ad a8bd 997a 82bb
00000170: ec0c 8a3d 91b5 d7bc 9535 aa3d b3f8 153c
00000180: 5855 7e3d 0e47 6abd 3910 e9bc 786e 563d
00000190: 1fae 0abc 3ff8 513b fe6f dbbd e845 42bd
000001a0: bc08 cdbd 2790 53bd 6438 89bd 302f 83bd
000001b0: 04a0 9fbd 7340 713d 2438 333d fc72 47bd
000001c0: 37e0 a6bd a804 a6bc 0fe2 5fbd 3a49 01be
000001d0: ec82 8fbc 181e 7d3d db22 c63d 0c23 ccbd
000001e0: 796a b5bd 8d42 b4bd a980 c9bd 956c 96bd
000001f0: b8aa af3b 6b41 67bd 80c9 b23d d7d0 8d3c
00000200: 855b 41bd b709 6cbc 3e96 0c3c 5137 f2bd
00000210: 3320 00bd b415 a6bc 6caa 37bb 87ba a7bd
00000220: 8cbb 883c f228 d9bd 81d1 93bd fce1 0fbe
00000230: 2b95 dfbd f505 a4bc 5fd9 9b3d 9861 1dbd
00000240: 506f febd 312b 8e3a c415 1cbd 1790 56bd
00000250: 88a9 1fba d095 433d b3d4 d0bc 3824 d1bc
00000260: 0b01 843d 707e efbd 2ae5 103d 7a9b af3b
00000270: 24eb f4bd ac4e 593d 2015 89bd 2d83 cbbd
00000280: 8a73 97bd 4b77 073d d3ae 9abc df50 8fbd
00000290: ad3e 133d 589b 063d 93a8 14be effc 7b3d
000002a0: fa1c 8cbd 9d75 b1bd 31dd 3dbd ea35 b8bd
000002b0: 2a77 563d 0e77 77bd 7aa5 01bd 9cf4 d03d
000002c0: 31a4 73bd 4fc9 be3c 258f 9b3d 1cc1 14bd
000002d0: 103b 433d 2574 20bd 4dc7 13bd 8a66 9cbd
000002e0: 4f91 8b3d a1a9 103d f590 113d 4396 803d
000002f0: ffbd 06bd 22a3 68bd 1e27 d6bd bcb8 b5bc
00000300: e694 863d db21 2cbc 81e2 b1bd c730 a5bd
00000310: e91f 3abd 105f 673a 1585 c8bd 28a1 6c3d
00000320: 9fe5 19bd eca1 313d 8ca1 fc3b d7a7 803d
00000330: 1433 433c 1877 a43d 2b4d a9bd 8bdf cebc
00000340: 19ac b6bd ac9f e3bc f528 01bc 842d 053e
00000350: 4ebe 1ebe 5d27 42bd ebd7 c93d 78c8 873c
00000360: 764c 463d a23b 5a3c 3f54 0abd e192 acbc
00000370: 7baf cdbd ef77 08bc 3c01 403c 839b 33be
00000380: 547b cbbd ba36 e43c b9c3 96bd ca23 af3a
00000390: 055d f8bd 654e 3b3d 54d3 b0bd 0af7 463d
000003a0: fb88 0dbe 2819 1c3d ce91 c6bd 5a71 5b3d
000003b0: 79ca 0abe 1419 73bd 610a 5dbe c92d 83bc
000003c0: 96d6 babd 71a6 48bd e8ec cd3c f64e ecbc
000003d0: 7ce1 c7bc 700c a63c dccc 533d ac82 d33d
000003e0: 6668 2bbe 413c 613d f443 90bd 2439 c03d
000003f0: 6c68 403d 5fc1 203d 0e3e 9dbd 896a 56bd

shared_fc2.bias f4 [256]
-0.04857974 -0.0020174354 -0.07922717 -0.06370342 0.11685078 -0.040890742 -0.035253998 -0.078926004
-0.066258095 -0.049483657 -0.06694936 -0.051600292 -0.029000217 -0.3368124 0.1075635 -0.04651436
-0.027311519 -0.033592064 -0.063657135 -0.031194502 -0.11154698 -0.04717983 -0.075544186 -0.012427658
-0.05678182 -0.10204289 -0.049478013 0.062481873 -0.0424261 -0.041958686 0.089242995 0.025216391
-0.0449556 -0.04972915 -0.026207184 -0.039994728 -0.07263385 -0.08374382 -0.06086482 0.0032824653
-0.035783187 0.072121985 -0.026151272 -0.0059682643 -0.076084726 -0.064766474 -0.07089795 -0.17747787
-0.05106 -0.049675975 -0.055991955 0.04457663 0.10029282 -0.05224454 -0.049156304 -0.054325897
-0.029643407 -0.03228188 0.04518702 -0.060376167 -0.036776256 -0.103672765 0.20613855 -0.027718393
0.092344396 -0.0323902 0.024496656 -0.038849596 -0.057501435 -0.05425011 0.058742344 -0.053657506
-0.05092991 0.15026155 -0.104846105 -0.026233412 -0.0682133 -0.10819901 -0.01968292 -0.053112365
0.12720166 -0.02744374 -0.040673044 -0.061408985 -0.046752635 -0.014170991 -0.04484047 0.115770794
0.1097845 0.06458832 -0.041951727 0.038009144 0.07025867 0.07031639 0.027650148 -0.040708262
-0.056097914 -0.049963653 0.0567792 -0.043792255 -0.10546136 -0.048043773 -0.01459328 -0.04252316
-0.05678723 -0.02376459 -0.04973455 -0.0818213 0.03281091 -0.06605921 -0.047047526 -0.05767978
-0.055117987 -0.045730636 -0.020534575 -0.027719287 -0.12135528 0.15099856 -0.040116075 0.1522445
0.13083507 -0.030723505 -0.02949821 -0.05596238 -0.178592 -0.048267905 -0.027585277 0.013691787
-0.037996735 -0.038227875 0.013994739 0.05847731 -0.06275661 -0.086724296 -0.061159633 0.1389761
-0.054881334 -0.055797454 -0.0318335 0.006326372 0.11448947 -0.050292183 -0.025892224 -0.17847012
-0.06797609 -0.03182467 -0.06602046 -0.082947604 -0.097174704 -0.07420538 -0.0643663 -0.060175795
-0.11286775 -0.053686585 -0.05737155 -0.090095975 -0.049044967 -0.0014009778 -0.04148102 -0.022420166
-0.04011348 -0.057108767 0.04099089 -0.0422778 -0.08415707 -0.029883435 -0.034581684 0.14876643
-0.059657235 0.07509267 -0.07834197 -0.068874426 -0.01733974 -0.053722974 0.11198707 -0.053591777
-0.037263334 -0.059970457 -0.056959324 0.0061718435 -0.07904102 0.061494485 -0.034252346 -0.05693695
-0.017100697 0.048879128 0.04793068 -0.06151452 0.07331247 -0.010782141 -0.049348436 -0.06895322
0.15467188 0.17839918 -0.06602984 -0.06603871 -0.057792883 -0.057993054 0.1142722 0.034828838
-0.07586894 -0.04937791 -0.044296913 -0.05070922 -0.008184873 -0.09332229 -0.0602102 0.002889865
-0.21457532 -0.0836929 -0.08575688 -0.07946777 -0.019125665 0.017528437 -0.077040404 -0.050587863
-0.10665456 -0.085390024 -0.10737401 -0.04771815 -0.045098215 -0.04377748 -0.039423604 -0.045341697
-0.065679416 -0.0666221 -0.05558714 -0.024459934 -0.05028717 -0.030948292 -0.040487707 -0.027732963
0.17586577 0.1360728 -0.03136855 0.034924768 -0.035789132 0.1509645 -0.060310725 -0.06300384
-0.08916907 -0.060630146 -0.10362022 -0.061054412 -0.023390852 -0.022490347 0.116573654 0.11497932
-0.02844803 -0.047571093 -0.064395234 -0.032130368 -0.008167077 -0.08900526 -0.039141532 -0.03310141
00000000: 8dfb 46bd f336 04bb db41 a2bd f076 82bd
00000010: 764f ef3d 0d7d 27bd 7f66 10bd f5a3 a1bd
00000020: 53b2 87bd 60af 4abd bf1c 89bd d45a 53bd
00000030: dd91 edbc ad72 acbe 414a dc3d d785 3ebd
00000040: 68bc dfbc d597 09bd ac5e 82bd 9d8b ffbc
00000050: be72 e4bd a33f 41bd e9b6 9abd 609d 4bbc
00000060: 0e94 68bd ddfb d0bd 75a9 4abd feec 7f3d
00000070: fdc6 2dbd dfdc 2bbd 08c5 b63d 9b92 ce3c
00000080: 5d23 38bd cbb0 4bbd 73b0 d6bc 83d1 23bd
00000090: 0ec1 94bd e181 abbd 644d 79bd a11e 573b
000000a0: 6491 12bd b1b4 933d 313b d6bc 6e91 c3bb
000000b0: 4fd2 9bbd 49a4 84bd f232 91bd c2bc 35be
000000c0: 4a24 51bd 0979 4bbd d257 65bd fc95 363d
000000d0: 5266 cd3d 5ffe 55bd 1f58 49bd d584 5ebd
000000e0: bbd6 f2bc 013a 04bd 0616 393d 004d 77bd
000000f0: b3a2 16bd 6352 d4bd fc15 533e af11 e3bc
00000100: 0f1f bd3d 96ab 04bd 36ad c83c c120 1fbd
00000110: a086 6bbd 5d35 5ebd d09b 703d f9c7 5bbd
00000120: e29b 50bd 2ade 193e 8eb9 d6bd 74e7 d6bc
00000130: 6ab3 8bbd 7197 ddbd 133e a1bc 5a8c 59bd
00000140: 2741 023e b2d1 e0bc c798 26bd fd87 7bbd
00000150: b17f 3fbd 722d 68bc a4aa 37bd 3d19 ed3d
00000160: b2d6 e03d e246 843d 93d5 2bbd 7aaf 1b3d
00000170: c7e3 8f3d 0a02 903d 9082 e23c b5bd 26bd
00000180: edc6 65bd b0a6 4cbd 4e91 683d 825f 33bd
00000190: 20fc d7bd 8cc9 44bd a718 6fbc c42c 2ebd
000001a0: ba99 68bd f5ad c2bc 75b6 4bbd ed91 a7bd
000001b0: bc64 063d 0d4a 87bd e8b4 40bd a241 6cbd
000001c0: 66c3 61bd 0c50 3bbd 2038 a8bc 8f13 e3bc
000001d0: 1e89 f8bd 5e9f 1a3e c150 24bd fbe5 1b3e
000001e0: a1f9 053e dcaf fbbc 3ba6 f1bc cf38 65bd
000001f0: d2e0 36be 91b4 45bd 85fa e1bc 8453 603c
00000200: 77a2 1bbd d594 1cbd 314a 653c e785 6f3d
00000210: 8a86 80bd 829c b1bd 8682 7abd c04f 0e3e
00000220: 40cb 60bd df8b 64bd d863 02bd 744d cf3b
00000230: 7579 ea3d 2dff 4dbd ee1b d4bc dfc0 36be
00000240: 0c37 8bbd 965a 02bd bc35 87bd 6fe0 a9bd
00000250: 8803 c7bd fef8 97bd 7bd2 83bd e57a 76bd
00000260: 3527 e7bd 77e6 5bbd 6efe 6abd 3d84 b8bd
00000270: 60e3 48bd 04a1 b7ba 01e8 29bd 7faa b7bc
00000280: 084e 24bd e2ea 69bd 10e6 273d 7d2b 2dbd
00000290: 8b5a acbd 1bce f4bc 86a5 0dbd 3a56 183e
000002a0: 255b 74bd 30ca 993d c171 a0bd 090e 8dbd
000002b0: 120c 8ebc 9f0c 5cbd 7a59 e53d 0d83 5bbd
000002c0: 70a1 18bd 95a3 75bd 2e4e 69bd 2d3d ca3b
000002d0: 42e0 a1bd a4e1 7b3d 304c 0cbd b836 69bd
000002e0: c316 8cbc 7b35 483d f652 443d a6f6 7bbd
000002f0: d924 963d 94a7 30bc 9621 4abd 5937 8dbd
00000300: 4e62 1e3e 46ae 363e a73a 87bd 4e3f 87bd
00000310: 3bb8 6cbd 208a 6dbd 8b07 ea3d afa8 0e3d
00000320: 2d61 9bbd 7e40 4abd ae70 35bd 79b4 4fbd
00000330: d819 06bc c21f bfbd f89e 76bd e463 3d3b
00000340: a2b9 5bbe 2f67 abbd 4ea1 afbd 00c0 a2bd
00000350: 6dad 9cbc cc97 8f3c 5cc7 9dbd 3835 4fbd
00000360: b56d dabd f7e0 aebd e8e6 dbbd 1b74 43bd
00000370: e8b8 38bd 0450 33bd a57a 21bd 37b8 39bd
00000380: ee82 86bd 2b71 88bd 57af 63bd 3360 c8bc
00000390: ebf9 4dbd 4687 fdbc 70d6 25bd 3d30 e3bc
000003a0: 2816 343e ab56 0b3e 4f7c 00bd 460d 0f3d
000003b0: a097 12bd 7096 1a3e 6108 77bd 2808 81bd
000003c0: 469e b6bd 5157 78bd d736 d4bd 3114 7abd
000003d0: 2c9e bfbc ad3d b8bc 2bbe ee3d 477a eb3d
000003e0: d80b e9bc e8d9 42bd a6e1 83bd 229b 03bd
000003f0: 34cf 05bc 6448 b6bd df52 20bd 5895 07bd

actor_fc.weight f4 [256, 256]
0.011751526 0.13283391 0.07598404 -0.08459114 -0.08073267 -0.02553764 0.024331143 0.016364835
-0.00395677 0.016607089 -0.11142007 -0.119876675 -0.11936215 -0.33685878 -0.34782368 -0.073077545
0.035170183 -0.070473015 -0.05684052 -0.0999296 -0.09097215 0.06436169 0.004171377 0.07854317
-0.028972892 0.094539285 -0.07543308 -0.72113276 -0.088508464 -0.11136384 0.29375064 -0.055672325
0.04315072 -0.14298534 0.17864007 -0.117883064 -0.04464956 -0.09858357 -0.034177713 -0.36197746
0.0724987 -0.001859369 -0.07616702 -0.22214699 0.05292134 -0.08518896 -0.092044145 0.30112118
-0.016296772 -0.10237144 -0.025389371 0.14150603 -0.6496985 -0.08142837 0.11568213 0.064845905
0.007294822 0.0441022 0.4653367 -0.075835876 0.071381286 -0.328573 -0.72386056 -0.10140717
0.27315485 0.05302244 0.27662805 0.0043215076 -0.071444355 -0.06588021 -0.3209755 -0.22808224
0.3960666 -0.21606867 -0.1366134 0.100591384 -0.10960672 -0.20595461 0.09737113 0.07324087
0.10233834 0.09033952 -0.061626825 0.020245451 -0.100230746 -0.11553617 -0.07454527 -0.10016147
-0.5685794 -0.38402975 0.021772064 0.019175798 0.27629647 -0.9355522 0.4775321 -0.10657171
0.083842784 -0.09252444 -0.4361855 0.022131095 -0.098694704 0.05310855 -0.5808145 -0.08869841
0.14270464 -0.04962636 -0.033452902 -0.085286275 0.56513804 -0.080865845 -0.15354407 -0.0618898
-0.10696864 -0.022057272 -0.017292371 0.09674056 -0.02593062 -0.3988518 -0.06315061 -0.5334075
-0.08152394 0.034519278 0.07613048 0.091583475 0.26361594 0.0038215874 0.025996748 -0.47865918
0.07142028 -0.083804354 -0.6298689 0.43434373 -0.113306016 -0.32920748 -0.016386546 0.47457662
0.012784902 0.0050203223 -0.17014226 -0.40687606 -0.2701019 0.05233979 -0.0035844825 0.08494814
0.07614736 0.013844582 -0.09923869 0.020411422 -0.35802007 0.08481217 -0.072098486 -0.04050043
-0.29267126 -0.08662908 -0.011521984 -0.028176976 -0.07580564 0.024406342 -0.24258702 0.076264635
0.09204549 -0.075388305 0.14547576 0.08601017 -0.035870716 -0.49877357 0.039795067 0.13407564
-0.02122815 0.30523264 -0.10241649 0.08341261 -0.5922559 -0.054752 0.16067168 0.17800009
-0.035714597 0.08433778 -0.013099001 0.33839452 0.48769128 -0.017293064 0.016918197 -0.06516528
0.08861134 -0.016906234 -0.2231049 -0.042890348 0.22620635 0.0664949 -0.09018965 0.07181707
-0.2894813 -0.15876453 -0.04512534 -0.068545505 0.08149946 0.0043686344 -0.55619776 0.23546267
0.05493318 0.019021537 0.23248273 -0.22442071 -0.13668759 -0.023718653 0.0069824364 0.14204066
-0.34580344 0.22959122 0.3264465 -0.06119168 -0.107072376 -0.48855546 -0.06724723 -0.070911966
-0.043933835 -0.037830394 0.081670165 0.07634074 0.08825396 -0.019998562 -0.030277984 0.027859356
0.7413609 0.05525485 -0.20378536 0.024488583 -0.07692706 0.092594765 0.07178063 -0.15830542
-0.59388566 -0.062935755 -0.038091432 0.37986296 -0.019086448 -0.19877467 0.09127096 0.07739888
0.060006328 0.03237725 -0.17530435 -0.009818906 0.014630342 0.012412867 -0.28258833 0.0022862155
0.039205946 -0.07586778 0.009156692 -0.042260587 0.36252698 -0.055679627 -0.13275535 -0.09380457
00000000: 7989 403c 9d05 083e 859d 9b3d 1f3e adbd
00000010: 2c57 a5bd 5034 d1bc 1b52 c73c 8c0f 863c
00000020: cba7 81bb 970b 883c 3530 e4bd e781 f5bd
00000030: 2574 f4bd c178 acbe f215 b2be aea9 95bd
00000040: 9c0e 103d 2854 90bd 9bd1 68bd e4a7 ccbd
00000050: 9b4f babd 10d0 833d 0cb0 883b 3edb a03d
00000060: 8f58 edbc d09d c13d a97c 9abd 289c 38bf
00000070: ed43 b5bd ba12 e4bd 7c66 963e aa08 64bd
00000080: cfbe 303d c06a 12be 6ced 363e ad6c f1bd
00000090: 75e2 36bd 2fe6 c9bd eefd 0bbd 1c55 b9be
000000a0: 337a 943d 12b6 f3ba 74fd 9bbd 807a 63be
000000b0: 0cc4 583d 8d77 aebd a481 bcbd 8e2c 9a3e
000000c0: cf80 85bc 1ea8 d1bd 5ffd cfbc f5e6 103e
000000d0: a452 26bf ebc3 a6bd c1ea ec3d eecd 843d
000000e0: 6709 ef3b 82a4 343d 9d40 ee3e d74f 9bbd
000000f0: 5a30 923d b83a a8be ed4e 39bf 90ae cfbd
00000100: f4da 8b3e 0f2e 593d 31a2 8d3e 6f9b 8d3b
00000110: 6b51 92bd 34ec 86bd e756 a4be 648e 69be
00000120: 3ec9 ca3e 1b41 5dbe 62e4 0bbe db02 ce3d
00000130: 7d79 e0bd c4e5 52be 846a c73d 4fff 953d
00000140: c396 d13d ed03 b93d 696c 7cbd cad9 a53c
00000150: c745 cdbd 3a9e ecbd 31ab 98bd 7521 cdbd
00000160: 6b8e 11bf 8c9f c4be 545b b23c 9016 9d3c
00000170: bb76 8d3e 5980 6fbf 167f f43e 4542 dabd
00000180: c4b5 ab3d 747d bdbd b553 dfbe 454c b53c
00000190: 7320 cabd 5a88 593d 42b0 14bf 83a7 b5bd
000001a0: 2a21 123e 0345 4bbd e905 09bd 92aa aebd
000001b0: e3ac 103f fe9c a5bd a83a 1dbe 2980 7dbd
000001c0: 6012 dbbd 74b1 b4bc bba8 8dbc ea1f c63d
000001d0: 746c d4bc 4e36 ccbe 1b55 81bd 658d 08bf
000001e0: 06f6 a6bd 1664 0d3d 4cea 9b3d 1e90 bb3d
000001f0: abf8 863e 9973 7a3b 22f7 d43c d112 f5be
00000200: cc44 923d 9ea1 abbd 173f 21bf 4d62 de3e
00000210: fc0c e8bd e28d a8be 143d 86bc b5fb f23e
00000220: c477 513c 8481 a43b c639 2ebe 0f52 d0be
00000230: cc4a 8abe 3f62 563d a3e9 6abb 4af9 ad3d
00000240: 26f3 9b3d 63d4 623c a83d cbbd db35 a73c
00000250: 684e b7be 01b2 ad3d 5fa8 93bd c7e3 25bd
00000260: 02d9 95be 966a b1bd b4c6 3cbc 67d3 e6bc
00000270: fd3f 9bbd cfef c73c bb68 78be a230 9c3d
00000280: 5982 bc3d 2f65 9abd 99f7 143e 1a26 b03d
00000290: 2ced 12bd 405f ffbe 2700 233d 204b 093e
000002a0: a8e6 adbc 7447 9c3e bdbf d1bd 3bd4 aa3d
000002b0: 159e 17bf a243 60bd 1e87 243e a845 363e
000002c0: 7849 12bd 49b9 ac3d 319d 56bc 0c42 ad3e
000002d0: acb2 f93e 2faa 8dbc 0898 8a3c 6075 85bd
000002e0: dd79 b53d f17e 8abc 9c75 64be caad 2fbd
000002f0: a3a2 673e 7a2e 883d 5ab5 b8bd d414 933d
00000300: e536 94be 2b93 22be 59d5 38bd 9661 8cbd
00000310: 30e9 a63d c326 8f3b fa62 0ebf 201d 713e
00000320: 9d01 613d 0ed3 9b3c f40f 6e3e 8bce 65be
00000330: d5f7 0bbe 9f4d c2bc eccc e43b 1b73 113e
00000340: 260d b1be f619 6b3e ff23 a73e 21a4 7abd
00000350: c348 dbbd f123 fabe eab8 89bd 4b3a 91bd
00000360: f7f3 33bd 0bf4 1abd b042 a73d 8958 9c3d
00000370: 7ebe b43d 06d4 a3bc 8909 f8bc 4e39 e43c
00000380: d4c9 3d3f e952 623d 1cad 50be 489c c83c
00000390: ef8b 9dbd 53a2 bd3d b901 933d d11a 22be
000003a0: e408 18bf 76e4 80bd c305 1cbd 667d c23e
000003b0: 2f5b 9cbc 968b 4bbe 45ec ba3d 4e83 9e3d
000003c0: 32c9 753d 029e 043d fc82 33be 7adf 20bc
000003d0: 1ab4 6f3c 565f 4b3c 6baf 90be 55d4 153b
000003e0: 6a96 203d 9160 9bbd f305 163c 7019 2dbd
000003f0: 239d b93e 5210 64bd 05f1 07be 9c1c c0bd

actor_fc.bias f4 [256]
-0.038777713 -0.010624794 -0.0627883 -0.1250872 -0.117998876 -0.22750321 -0.058710724 0.09320037
-0.052746724 -0.13993785 -0.11176117 0.041078098 -0.1415738 0.023398742 -0.072029665 -0.07992664
-0.30839175 -0.10702094 -0.09604159 -0.19457151 0.06119221 0.087194875 -0.09962389 -0.061696954
-0.13308221 -0.046495322 -0.11931544 -0.027779276 -0.08691758 -0.16882163 -0.08171802 -0.1682461
-0.11242537 0.15033206 0.068913504 0.07538862 -0.08524667 -0.13147819 -0.09554459 -0.18109505
-0.0117330775 0.16619901 -0.12618522 -0.014637396 -0.0057675224 -0.124160424 -0.16113123 -0.13215421
-0.030643046 0.061012972 -0.25081336 -0.20220149 -0.2474598 -0.090320915 -0.2113386 -0.08347253
-0.0379646 -0.15473324 0.06677906 -0.21123016 0.12705633 -0.05129304 -0.20817819 -0.32475966
0.04856838 -0.16484345 -0.35432738 -0.05799273 -0.06761849 0.12589405 0.032018036 -0.06669789
-0.094225444 0.034727924 -0.09754747 -0.27361754 -0.11982485 -0.058769733 -0.07390226 -0.06116557
-0.22836332 -0.20388082 -0.039070833 -0.012822002 0.0062559033 -0.05345461 -0.04300236 0.03949092
-0.07270856 0.08609854 -0.2252862 -0.09120038 0.04546294 -0.05981433 -0.06863391 0.0515013
-0.14586806 0.04467584 -0.13054004 -0.047830775 0.009078401 -0.037561953 -0.06257917 0.054345626
-0.10843037 -0.30754486 -0.095132045 -0.1471361 0.12680778 -0.075043954 -0.06925088 -0.09292159
-0.038906764 0.037880182 -0.15147464 0.061401524 -0.08302349 -0.042974584 -0.21747458 0.008842426
-0.1612659 -0.11493529 0.07792207 -0.12401961 0.02477182 -0.19943535 -0.22073226 0.004446346
-0.06179643 -0.10153512 0.022198651 -0.068689354 -0.08214207 0.09733062 0.03343627 0.13317318
-0.25993648 -0.15951326 -0.123666726 -0.07974477 -0.057774775 0.09617082 -0.14490153 -0.20488967
-0.16625027 -0.14357808 0.060704574 -0.25190175 -0.069416784 0.09313729 -0.10280265 -0.06566562
-0.036494043 -0.056330547 0.095201984 -0.169869 0.036031593 -0.17724113 -0.21607955 -0.019062221
-0.012465356 -0.06921445 -0.0015216809 -0.09765159 -0.13872632 -0.12537679 -0.1552544 0.027005566
-0.1392889 -0.12357131 0.050580945 -0.0018713799 0.12518804 -0.122452885 0.12711512 -0.0090410095
-0.065562345 -0.07398802 -0.4126693 -0.09585188 -0.014982257 -0.06738214 -0.08023191 -0.16207881
0.022090564 -0.22660622 -0.065861985 -0.09021737 0.015646309 -0.13314937 -0.27855432 -0.105067104
-0.13955256 0.14811718 -0.09415413 0.104692504 -0.048330422 -0.14376788 -0.14800078 0.064968586
-0.3163788 -0.14670123 -0.022074886 -0.20361629 -0.1579431 -0.2101325 0.06211174 -0.020773204
-0.15586288 -0.14368236 -0.2470233 -0.13911028 0.026953615 -0.1719628 0.017226005 -0.12422329
-0.037497163 -0.046149515 -0.044780914 -0.014887698 -0.11881635 -0.050763667 -0.034976885 0.01796251
-0.0409945 -0.1594887 -0.15782338 0.013537793 0.06306198 -0.10232787 -0.04240335 -0.06259484
-0.15727401 -0.13596201 0.023546677 -0.12491255 -0.10069025 -0.10569918 -0.16776097 -0.015663773
-0.0585376 0.062454686 -0.09619889 0.11734627 0.14348781 -0.1230908 0.0839367 0.07191542
0.14718679 -0.09316529 -0.074181385 -0.12312552 -0.15200616 -0.13650002 -0.17035624 -0.05067192
00000000: 61d5 1ebd 9e13 2ebc 2797 80bd dc16 00be
00000010: 65a9 f1bd 9af6 68be a87a 70bd d6df be3d
00000020: f30c 58bd de4b 0fbe 0ae3 e4bd 8241 283d
00000030: b9f8 10be b8ae bf3c 4a84 93bd 94b0 a3bd
00000040: 86e5 9dbe cb2d dbbd 74b1 c4bd c13d 47be
00000050: afa4 7a3d 3a93 b23d 9c07 ccbd f2b5 7cbd
00000060: b446 08be e171 3ebd a75b f4bd 5d91 e3bc
00000070: d801 b2bd 94df 2cbe c75b a7bd b548 2cbe
00000080: 463f e6bd a6f0 193e 8622 8d3d 5965 9a3d
00000090: ce95 aebd 38a2 06be e2ac c3bd fb70 39be
000000a0: 183c 40bc 1330 2a3e b336 01be b0d1 6fbc
000000b0: 7cfd bcbb d247 febd 96ff 24be 6f53 07be
000000c0: 2007 fbbc bde8 793d 9c6a 80be e80d 4fbe
000000d0: 1a66 7dbe 2cfa b8bd 2569 58be a5f3 aabd
000000e0: c580 1bbd 6472 1ebe 76c3 883d b84c 58be
000000f0: 0e1b 023e a718 52bd aa2c 55be e646 a6be
00000100: a3ef 463d b9cc 28be 666a b5be c989 6dbd
00000110: 907b 8abd 5fea 003e 5825 033d e798 88bd
00000120: 45f9 c0bd de3e 0e3d f8c6 c7bd 9917 8cbe
00000130: bb66 f5bd 88b8 70bd 115a 97bd c088 7abd
00000140: 13d8 69be 22c6 50be bd08 20bd 6013 52bc
00000150: 52fe cc3b 39f3 5abd 3e23 30bd 3bc1 213d
00000160: 3ae8 94bd 6e54 b03d 6db1 66be 44c7 babd
00000170: 5937 3a3d dfff 74bd ef8f 8cbd 07f3 523d
00000180: 705e 15be 03fe 363d 4aac 05be 34ea 43bd
00000190: 93bd 143c 90da 19bd 8229 80bd 8599 5e3d
000001a0: be10 debd 8576 9dbe 97d4 c2bd d9aa 16be
000001b0: e6d9 013e a5b0 99bd 68d3 8dbd ad4d bebd
000001c0: b35c 1fbd 4028 1b3d 2b1c 1bbe 2a80 7b3d
000001d0: 3808 aabd 1e06 30bd a8b1 5ebe d3df 103c
000001e0: e322 25be 3163 ebbd 9b95 9f3d fefd fdbd
000001f0: 46ee ca3c c838 4cbe a307 62be a7b2 913b
00000200: 411e 7dbd a5f1 cfbd f2d9 b53c 01ad 8cbd
00000210: 1a3a a8bd 4755 c73d 78f4 083d 8d5e 083e
00000220: 6516 85be 7257 23be fb44 fdbd 3a51 a3bd
00000230: 3ea5 6cbd 35f5 c43d 1161 14be 99ce 51be
00000240: 833d 2abe 2206 13be 5ca5 783d 44f9 80be
00000250: 632a 8ebd c3be be3d 328a d2bd b27b 86bd
00000260: c77a 15bd dcba 66bd 42f9 c23d 24f2 2dbe
00000270: dd95 133d b37e 35be f543 5dbe 6028 9cbc
00000280: 7e3b 4cbc 4ec0 8dbd 2373 c7ba 8ffd c7bd
00000290: 460e 0ebe c662 00be 02fb 1ebe c73a dd3c
000002a0: c0a1 0ebe f412 fdbd f72d 4f3d 1749 f5ba
000002b0: 4b31 003e 94c8 fabd 772a 023e be20 14bc
000002c0: 8d45 86bd 0887 97bd 6449 d3be fe4d c4bd
000002d0: 2478 75bc a6ff 89bd a150 a4bd fdf7 25be
000002e0: 45f7 b43c 760b 68be a6e2 86bd e2c3 b8bd
000002f0: b02c 803c 4f58 08be ac9e 8ebe 6c2d d7bd
00000300: dee6 0ebe 08ac 173e e1d3 c0bd 0669 d63d
00000310: 1ff6 45bd e337 13be 848d 17be 400e 853d
00000320: 67fc a1be d938 16be 64d6 b4bc ca80 50be
00000330: d6bb 21be f92c 57be e168 7e3d 912c aabc
00000340: 859a 1fbe 7821 13be adf3 7cbe ed72 0ebe
00000350: d4cd dc3c 0417 30be 8d1d 8d3c c868 febd
00000360: a096 19bd 4607 3dbd 316c 37bd 88eb 73bc
00000370: fd55 f3bd 90ed 4fbd ec43 0fbd 1d26 933c
00000380: d9e9 27bd 0151 23be 749c 21be 9fcd 5d3c
00000390: a426 813d 4691 d1bd 23af 2dbd b931 80bd
000003a0: 700c 21be a039 0bbe f6e4 c03c 27d2 ffbd
000003b0: b136 cebd d078 d8bd 88c9 2bbe 5051 80bc
000003c0: 1fc5 6fbd 7cd0 7f3d ec03 c5bd 3e53 f03d
000003d0: 78ee 123e 0817 fcbd 01e7 ab3d 6448 933d
000003e0: 22b8 163e 72cd bebd 69ec 97bd 3c29 fcbd
000003f0: 81a7 1bbe a9c6 0bbe de71 2ebe 5c8d 4fbd

actor_out.weight f4 [12, 256]
0.11565687 0.09287579 -0.18700261 -0.088686824 0.28766775 0.13769305 0.06124716 0.17480856
-0.47595766 0.15381774 0.18400843 0.23901664 0.0011094415 -0.08862272 -0.15168782 0.24427511
-0.113468 -0.08221654 0.009338281 -0.09641207 0.11370296 -0.40156308 -0.28927746 0.11124713
-0.15465373 -0.16310985 0.044486362 0.28203285 -0.102377355 0.3676954 0.006698991 0.14522561
-0.2882155 -0.2610628 0.2848688 0.5636982 -0.23021388 0.13745642 0.08584862 -0.5105673
0.23497711 -0.25296402 -0.17939949 0.631481 -0.5805968 0.2925873 -0.12589347 -0.27288586
0.03516692 0.15640312 0.09722935 -1.3930392 -0.28416783 -0.27461922 -0.029753141 0.1608601
0.35180458 0.06950647 0.34772882 0.10603164 0.46259132 0.23909767 -0.26962137 -0.10957413
0.18913586 -0.6034774 -0.16772707 -0.547592 -0.78890944 0.2257099 -0.32397202 0.4223026
-0.0039692377 0.19961768 0.14266104 -0.26663065 -0.09110718 -0.06071586 -0.18549253 -0.13841356
-0.107734084 -0.23545174 0.45433074 -0.2957581 -0.024599263 0.2503111 -0.023170222 -0.84237313
-0.07179455 -0.19946525 -0.5730862 -0.421152 -0.35355163 0.69259936 -0.21415058 -0.13848871
-0.7310413 0.13932097 0.057748158 0.05711829 0.2511822 0.091106355 0.3292242 -0.62925506
-0.022550918 0.0011125328 -0.3913662 -0.3250422 0.3283675 -0.12805642 -0.17371523 -0.125193
0.013560508 -0.13988043 -0.07272264 -0.03954241 -0.12445872 0.41452056 -0.24822074 0.16215642
-0.4289002 -0.07488329 -0.19276993 -0.13884299 0.3305539 0.042317096 0.56101865 0.51832986
0.09809472 -0.5468197 -0.15928435 0.064441316 -0.21027216 0.00018236051 -0.20792638 -0.2672218
-0.4236211 0.057414677 -0.03428717 0.064258516 -0.26620594 0.061340883 0.06589642 -0.20742646
-0.035118874 0.17743291 -0.1107322 0.10547803 -0.012300286 -0.17966217 -0.08340162 -0.4096701
0.35629994 0.12086914 0.43237013 -0.092988305 0.48314798 0.28948653 0.09048204 0.360539
0.51746124 0.06363807 0.10457408 -0.12311022 0.17359956 -0.03939206 0.17077993 -0.016310316
-0.279636 -0.19531462 0.10868331 0.17556567 -0.25184405 -0.00058867893 -0.065357804 0.060476176
-0.06902657 -0.27973923 -0.6484854 -0.0047677993 0.61848295 -0.53092915 -0.1252403 -0.4782709
0.1312823 -0.14128841 0.025270134 0.47809067 0.5504722 0.11473895 0.089136675 -0.25599113
-0.058719628 -0.0008200273 -0.07268579 -0.07068711 -0.20612632 -0.0007232061 0.028567575 -0.2113005
0.15731493 0.39670342 -0.041299533 0.08995292 0.08045791 -0.09346455 -0.19765276 0.50822383
-0.39080906 -0.095291846 0.46485406 -0.15785724 0.085376464 -0.2317114 -0.25346982 -0.092325486
-0.057244923 -0.051775817 0.031427007 -0.18910871 0.29135835 0.17347293 0.18228328 1.2039068
-0.37863398 -0.23873203 -0.3928231 0.84090066 0.14667279 0.0024297517 -0.12589113 -0.50748265
0.20748974 -0.19193564 0.4958361 0.13897324 0.24758507 -0.095412105 -0.5886202 0.05459326
0.73144925 -0.6812048 -0.47943863 0.1661282 0.4366295 0.1922285 0.030277256 0.5888607
0.072827995 0.07798169 -0.52120894 0.501799 0.21272114 0.27783516 -0.019145248 0.26500434
00000000: 82dd ec3d aa35 be3d 9d7d 3fbe 70a1 b5bd
00000010: 3049 933e 68ff 0c3e 4dde 7a3d 0401 333e
00000020: b9b0 f3be 6682 1d3e b56c 3c3e c7c0 743e
00000030: ae6a 913a d47f b5bd 0d54 1bbe 4123 7a3e
00000040: e961 e8bd 2561 a8bd 97ff 183c b173 c5bd
00000050: 19dd e83d ad99 cdbe 2d1c 94be 89d5 e33d
00000060: 8c5d 1ebe 4506 27be 5537 363d 9c66 903e
00000070: 38ab d1bd 9242 bc3e 3683 db3b 06b6 143e
00000080: fb90 93be 06aa 85be 53da 913e 864e 103f
00000090: 30bd 6bbe 60c1 0c3e 67d1 af3d 8ab4 02bf
000000a0: d79d 703e 8084 81be 80b4 37be bda8 213f
000000b0: fea1 14bf 01ce 953e 38ea 00be b2b7 8bbe
000000c0: 300b 103d 2428 203e 2e20 c73d 1c4f b2bf
000000d0: 727e 91be e49a 8cbe dcbc f3bc 83b8 243e
000000e0: bb1f b43e 6859 8e3d 8309 b23e 1e27 d93d
000000f0: c5d8 ec3e 05d6 743e d00b 8abe 6768 e0bd
00000100: d5ac 413e 7f7d 1abf a5c0 2bbe fd2e 0cbf
00000110: f8f5 49bf 7f20 673e a9df a5be 0c38 d83e
00000120: 6110 82bb 9468 4c3e bc15 123e d083 88be
00000130: 6796 babd 32b1 78bd c1f1 3dbe 49bc 0dbe
00000140: b0a3 dcbd 431a 71be 0a9e e83e 9b6d 97be
00000150: 6584 c9bc c728 803e 7acf bdbc c4a5 57bf
00000160: 0509 93bd 9e40 4cbe c7b5 12bf 3ca1 d7be
00000170: b804 b5be 314e 313f 4a4a 5bbe fccf 0dbe
00000180: 8625 3bbf 28aa 0e3e 5589 6c3d def4 693d
00000190: f49a 803e f895 ba3d 1390 a83e dc16 21bf
000001a0: b4bc b8bc 68d2 913a 2761 c8be ee6b a6be
000001b0: c91f a83e 3921 03be 68e2 31be 9832 00be
000001c0: e52c 5e3c d13c 0fbe 9cef 94bd 39f7 21bd
000001d0: 37e4 febd 0a3c d43e 942d 7ebe 550c 263e
000001e0: cf98 dbbe 695c 99bd 7b65 45be db2c 0ebe
000001f0: 5c3e a93e b154 2d3d eb9e 0f3f 44b1 043f
00000200: e2e5 c83d 60fc 0bbf 701b 23be cff9 833d
00000210: 9651 57be 0738 3f39 a7ea 54be 4cd1 88be
00000220: dde4 d8be a72b 6b3d b470 0cbd f899 833d
00000230: 254c 88be 9440 7b3d b4f4 863d 9a67 54be
00000240: cfd8 0fbd f9b0 353e 90c7 e2bd de04 d83d
00000250: 2487 49bc 5cf9 37be 78ce aabd 48c0 d1be
00000260: f26c b63e 3d8a f73d 9e5f dd3e a770 bebd
00000270: 2c5f f73e 9437 943e a64e b93d 9198 b83e
00000280: 5778 043f ad54 823d ef2a d63d 3621 fcbd
00000290: 15c4 313e 9259 21bd efe0 2e3e 369d 85bc
000002a0: 732c 8fbe 8e00 48be 5b95 de3d 7dc7 333e
000002b0: b4f1 80be 9351 1aba 50da 85bd deb5 773d
000002c0: cd5d 8dbd fb39 8fbe 2403 26bf 333b 9cbb
000002d0: e654 1e3f f9ea 07bf fe3e 00be ecdf f4be
000002e0: de6e 063e e9ad 10be 5003 cf3c 4dc8 f43e
000002f0: bfeb 0c3f 41fc ea3d 4a8d b63d 4511 83be
00000300: fe83 70bd 1af7 56ba 4adc 94bd 67c4 90bd
00000310: c712 53be 8a95 3dba 8c06 ea3c 295f 58be
00000320: 2a17 213e b61c cb3e b329 29bd 3d39 b83d
00000330: 1ec7 a43d 586a bfbd 7c65 4abe f51a 023f
00000340: 2018 c8be 5f28 c3bd 5a01 ee3e 54a5 21be
00000350: dbd9 ae3d c145 6dbe ccc6 81be 2515 bdbd
00000360: a779 6abd e112 54bd 9bb9 003d b7a5 41be
00000370: ec2c 953e e3a2 313e 78a8 3a3e 9e19 9a3f
00000380: 50dc c1be 2b76 74be 1c20 c9be 4445 573f
00000390: 6431 163e 783c 1f3b 9be9 00be 62ea 01bf
000003a0: 3178 543e c78a 44be 3bde fd3e 004f 0e3e
000003b0: f186 7d3e 6c67 c3bd d0af 16bf 2f9d 5f3d
000003c0: 4240 3b3f 7063 2ebf fb78 f5be 831d 2a3e
000003d0: e78d df3e 8cd7 443e 0208 f83c 93bf 163f
000003e0: d826 953d ddb4 9f3d f36d 05bf e675 003f
000003f0: 92d3 593e 6940 8e3e 7fd6 9cbc a6ae 873e

actor_out.bias f4 [12]
0.4835477 -0.11841255 -0.022316676 0.24528112 0.14319678 -0.11627791 -0.35863814 0.11894488
-0.14155631 0.16021068 -0.07367035 -0.019526362
00000000: 9093 f73e 4782 f2bd 76d1 b6bc f92a 7b3e
00000010: 2da2 123e 1d23 eebd 6b9f b7be 6099 f33d
00000020: 23f4 10be 450e 243e 7be0 96bd c0f5 9fbc
