networks/saved_model_2/ppo_model_ep300.pth (torch, 842098 bytes, 11 tensors)

shared_fc1.weight f4 [256, 33]
000000 30 34 9d 3b f9 bc 93 bb e9 59 6b bd 12 11 43 bd
       0.004797481 -0.0045086113 -0.057458792 -0.0476237
000010 6a 80 12 be 5e 40 d0 bd 80 95 a7 bd a4 d3 94 bd
       -0.14306799 -0.10168527 -0.08182812 -0.0726693
000020 9d cc 3f be 1d 08 cd 3d 6c 0e 06 be e3 7c 07 bd
       -0.18730398 0.10011313 -0.13091439 -0.033078086
000030 07 7f 4e bd 0a 77 5e 3b d0 e8 6d bd ee 0f ef 3d
       -0.05041411 0.0033945465 -0.058083355 0.1167296
000040 19 9f 68 bd 64 27 1e bd ab 2a 4d bc 31 88 4c bc
       -0.056792352 -0.038611785 -0.01252238 -0.012483642
000050 65 fe bf 3d c8 78 3c 3d 4e 4e 79 be 88 46 1e bd
       0.09374694 0.046013623 -0.24346277 -0.038641483
000060 1f 8f 27 be 2f 70 4a be ba d5 73 be 6c 00 77 be
       -0.1636319 -0.19769357 -0.23811999 -0.24121255
000070 63 d1 7b be 20 3e 06 bc 6d dc 47 be c8 27 77 be
       -0.24591593 -0.008193523 -0.1951768 -0.24136269
000080 77 cd 22 be c8 37 54 be d5 b0 46 be 21 ab 03 bf
       -0.15898691 -0.20724404 -0.19403394 -0.51432997
000090 cf 0b ae bc e0 c1 ea bd 41 34 12 bf 23 2b 04 bf
       -0.021245865 -0.1146276 -0.57110983 -0.5162832
0000a0 af e0 8a 3d db bd 24 bf b3 b8 13 bc 9d de 38 bd
       0.06781136 -0.64352196 -0.009016204 -0.045134176
0000b0 4e be 96 3e 56 2b 90 be 94 93 0e be 7b b9 2a be
       0.29442066 -0.28158063 -0.13923484 -0.16672318
0000c0 e0 f8 b0 3e f4 7f 13 3e 0e c5 d2 3e e7 0f 15 3e
       0.34564877 0.14404279 0.41165966 0.14556848
0000d0 92 7a 42 c0 37 19 6a bf 27 bd 23 40 65 13 25 be
       -3.038731 -0.91444725 2.55842 -0.1612068
0000e0 bc b1 77 3e 6e f2 e0 bc b2 12 d0 3c fc 98 31 bf
       0.24188894 -0.02745935 0.02539954 -0.6937406
0000f0 d5 f3 5e be 38 66 00 bf b4 b5 15 be f5 b8 ad 3e
       -0.21772702 -0.50155973 -0.14620095 0.33930174
000100 1e b7 08 be d5 48 20 bd 1e 44 e7 bc 56 95 34 be
       -0.13351104 -0.039131958 -0.028230723 -0.17635092
000110 bb 25 2e be 43 c6 c4 bd 1c 74 21 be a5 89 1c be
       -0.1700658 -0.09608128 -0.15766948 -0.15286882
000120 3c 3d 67 be 00 93 ac bb 6c 9f 05 3e 41 38 f9 3d
       -0.22581953 -0.005266547 0.13049096 0.12168933
000130 df a7 f2 3c 49 1f 85 3c 6e 4a b3 3d de b0 08 3e
       0.029621063 0.01625027 0.08754431 0.1334872
000140 6f 19 ab 3c f9 a3 93 3b 77 8c 99 3c f0 23 3b bd
       0.020886151 0.004505631 0.018743737 -0.04568857
000150 aa d1 4e be 30 f2 a9 bd 27 50 8f bd c9 10 8e bd
       -0.20197168 -0.08298147 -0.0699771 -0.06936795
000160 ad 8d 61 be 3b 60 4a bd bc 92 e7 bd 4d d6 5d be
       -0.22026701 -0.04940818 -0.11307284 -0.2166378
000170 51 ab 7d be d8 39 5e bd a5 2d 9f bd c3 4a 3a be
       -0.24772383 -0.054254383 -0.07772378 -0.18192582
000180 56 ef 52 3d 15 2e 09 be 6b 15 38 be 31 cf 37 be
       0.05149778 -0.13396485 -0.1797692 -0.17950131
000190 23 05 17 be 00 d6 b8 be bc 60 80 bd a1 57 67 be
       -0.14748053 -0.3610077 -0.062684506 -0.22592022
0001a0 ca bf 18 3d 4f 57 80 be c3 9e 2c be 29 b5 c3 be
       0.03729228 -0.2506661 -0.16857438 -0.38224152
0001b0 ce a7 23 3e dc 84 0b 3d 51 8a 34 3e db fe 0b bd
       0.15981981 0.03406225 0.17630889 -0.034178596
0001c0 55 3e 9c bd 3b 36 6f 3d ea 1f 62 3d a8 58 bd be
       -0.076290764 0.058401328 0.055206217 -0.36981702
0001d0 a6 91 b7 bd bc 6f ea 3d 88 05 9e 3e a2 8e 84 bf
       -0.08963327 0.11447093 0.30863595 -1.0356028
0001e0 cf 22 19 3b 6d 66 fc bd fc c2 3b be 56 e7 21 be
       0.0023366695 -0.12324224 -0.183361 -0.15810904
0001f0 dd 9e ec be 4c 13 b4 be 80 d8 a4 be 91 51 74 be
       -0.46214953 -0.35170972 -0.32196426 -0.2385924
000200 0c 8d 8a be 55 d9 44 3e 8b b8 f1 bd 01 28 93 bc
       -0.27060735 0.1922353 -0.11802777 -0.017963411
000210 bd 06 df 3e 94 26 8a be 5c 45 01 3e 4e d4 3d bd
       0.43559828 -0.26982558 0.12624115 -0.046345048
000220 ee 73 cc 3c 5a ef 68 3d 58 ad 33 be c0 f5 0e 3d
       0.024957623 0.05686889 -0.17546594 0.034902334
000230 54 84 18 be df e7 97 3c 35 99 6a be 4d ce 61 bd
       -0.14894229 0.018543182 -0.22910006 -0.055128384
000240 93 86 4b be 8d 5b 0c be d8 6c 1f 3e 9f fe 14 be
       -0.19875555 -0.13706799 0.15568864 -0.14550255
000250 1e c5 38 3e 1d 27 31 3f fd bf b5 be 64 4b 6f c0
       0.18043944 0.6920031 -0.35498038 -3.7389765
000260 90 0a 6c 3f 48 3a 35 40 d1 46 de 3c 8d da dd bd
       0.9220362 2.8316822 0.027133377 -0.10832701
000270 0a 83 90 3c 0f 3a 6b bd 0c 3a 3a 3e 28 e2 88 be
       0.01764061 -0.057428416 0.18186206 -0.26735044
000280 e7 ca 32 3e 09 8b a7 ba 9f 03 be 3d 62 a5 75 3d
       0.17460214 -0.0012782525 0.092780344 0.059972174
000290 bc ea 91 3c 69 94 cd be c2 ff cc bd 8e e6 9e be
       0.017812125 -0.4015229 -0.100097194 -0.31035274
0002a0 a7 60 76 bc d1 61 4d be 89 0c 5f be 84 91 df be
       -0.015037692 -0.20056845 -0.21782126 -0.43665707
0002b0 5f d2 64 be 8b 85 24 bd 33 03 41 3e 78 7c 39 3e
       -0.22345875 -0.04016642 0.18848877 0.18113887
0002c0 c4 45 4a 3c b9 46 bf be eb 0f f9 bc 5f 65 25 3e
       0.012345735 -0.37358645 -0.030403098 0.16151951
0002d0 59 d9 36 bd bc 6d b8 be b5 50 c7 3e 03 f0 df 3d
       -0.044640873 -0.3602122 0.38928762 0.109344505
0002e0 ce 51 d2 be 94 d1 59 bf 4b ce b1 3d 2e 18 da bd
       -0.41078037 -0.85085416 0.086819254 -0.10649143
0002f0 d8 c6 0e bd cd 6c d7 bd 14 e3 f2 bd 32 d4 42 be
       -0.0348576 -0.10518799 -0.11859718 -0.19026259
000300 9a 41 2c be 75 06 8f be a0 46 0d be 22 0d 48 3e
       -0.168219 -0.27934614 -0.13796473 0.1953626
000310 41 13 2f be 79 ee 22 be ce fd cf be 6d 46 41 3e
       -0.17097189 -0.15911283 -0.40623325 0.18874522
000320 ce 37 e7 be 5b c9 02 be af 2e 18 bd 6c 25 51 bd
       -0.45159763 -0.12772124 -0.037153896 -0.05106108
000330 3a ae b8 be f4 3b 41 3e 6c 21 b6 bd 3c 8c 11 bc
       -0.36070424 0.18870527 -0.088930935 -0.008883532
000340 41 87 1b 3d 1d f6 42 be 1f 33 94 3c d0 4e a4 bc
       0.037970785 -0.19039197 0.018090783 -0.020057112
000350 35 a0 5a 3e a6 82 07 3e 86 ef 40 be 6c 28 08 be
       0.21350177 0.13233432 -0.18841371 -0.1329667
000360 68 39 fb 3e d9 b8 16 3f c3 d2 a6 bf a2 ba 5d 3c
       0.49067235 0.58875805 -1.3033069 0.013533266
000370 45 58 aa bd 51 88 53 3e 61 20 a5 3d ab a6 44 be
       -0.08317617 0.2065747 0.080628164 -0.19204204
000380 69 c0 9c 3d 31 b2 f7 3d 7c 63 08 be ee 0b 3d 3e
       0.07653887 0.12094534 -0.133192 0.18461582
000390 43 31 94 3d d9 df a4 3d 28 96 05 3d ba 56 56 be
       0.072359584 0.08050508 0.032613903 -0.20931521
0003a0 14 80 71 bd a5 8f 27 be 06 15 50 be 43 a8 75 bd
       -0.058960035 -0.1636339 -0.2032052 -0.05997492
0003b0 c4 66 0c be 89 37 26 bd 07 23 1b be 49 cf 9f bd
       -0.13711077 -0.040580306 -0.1515008 -0.078032084
0003c0 36 4a 5f bd 3b 9f 8c 3d f4 92 69 3d 30 61 e0 3d
       -0.054514132 0.06866308 0.05702491 0.10956037
0003d0 17 1e f8 bc f6 08 6f 3d 94 53 c7 3d 5a ca ac bd
       -0.030287785 0.058358155 0.09732738 -0.08437033
0003e0 8f e7 17 be eb 08 18 be f4 75 1d be 01 48 57 3d
       -0.14834426 -0.14847152 -0.15377027 0.052558903
0003f0 7e 05 0c bd f0 80 23 be a3 e8 fb bd 00 91 da bc
       -0.034184925 -0.15967155 -0.12300231 -0.02668047

shared_fc1.bias f4 [256]
000000 19 92 01 be cc 86 f8 bd 0d 14 e8 bd 3f 5a 03 be
       -0.12653388 -0.121350855 -0.113319494 -0.12827395
000010 84 b4 1d bd 08 c9 41 be 04 74 e0 3b 0e d2 ec bd
       -0.03850223 -0.18924344 0.0068497676 -0.11563502
000020 a0 c1 42 be 20 ba 37 be 14 5d 2d bd 09 79 24 be
       -0.19019175 -0.17942095 -0.042325094 -0.16061796
000030 c4 64 c8 bc 73 92 21 be 97 fc 49 be 5c c8 e0 bc
       -0.024462111 -0.15778522 -0.19725262 -0.027439289
000040 b5 17 10 be 86 2c 08 bd 5e 4f 4b 3d 36 bf d1 bd
       -0.14071544 -0.033245586 0.049636237 -0.10241549
000050 44 6a 71 bc cd ea 04 be d9 de 94 3b 24 2e f4 bd
       -0.014734808 -0.12980194 0.004543167 -0.11922863
000060 d0 a9 7d 3d f4 22 fe bd ec a2 f3 bd bc b6 55 bd
       0.061929524 -0.124090105 -0.11896309 -0.052176222
000070 db 4a 7d bd a6 49 77 be 44 cb ef bd d0 6e 28 be
       -0.061838966 -0.24149188 -0.11708692 -0.16448522
000080 78 b5 9c be 7b 26 d9 bd b9 b0 cc 3b df 1b 65 be
       -0.306072 -0.10603043 0.006246653 -0.22373913
000090 db 62 58 be ce 36 4c be 5d 54 eb bd f6 c2 80 be
       -0.2113146 -0.19942781 -0.114907004 -0.25148743
0000a0 67 8e 0c be d3 a5 42 be 7e 83 06 be a3 18 2d be
       -0.13726197 -0.1900857 -0.13136098 -0.1690393
0000b0 38 46 19 3b 18 0a 43 3d 60 f3 64 bc 93 4a b3 bd
       0.00233878 0.047617048 -0.013974041 -0.08754458
0000c0 48 58 a4 bd 4f c0 cd bd 31 80 97 bd c8 32 b2 bd
       -0.08024651 -0.100464456 -0.073974974 -0.08701092
0000d0 47 9c 80 be 71 82 c6 bc cc ef de bd d3 aa bf bc
       -0.2511923 -0.024232121 -0.108855814 -0.023396885
0000e0 fa d4 5a be cf 3f 9e bc 97 04 33 be cf ed 47 be
       -0.21370307 -0.019317536 -0.1748222 -0.1952431
0000f0 f0 25 26 bd 0f 03 b7 bd e6 95 e4 bd 1c 13 8c be
       -0.040563524 -0.0893613 -0.11161403 -0.2735833
000100 b8 b6 b5 bb 31 06 de bd 8b cb 36 be 50 d9 18 be
       -0.0055454634 -0.10841025 -0.17851083 -0.14926648
000110 5f 8c 4e be b4 52 58 3c d5 63 c1 bd 89 c1 64 be
       -0.20170735 0.013203312 -0.094428696 -0.22339453
000120 19 5b 34 be 04 67 27 be c0 1e 02 bc d8 30 3e be
       -0.17612876 -0.16347891 -0.007941902 -0.1857332
000130 ed 2a 88 be f0 ad 44 be 89 43 99 bd 1b d4 ee bb
       -0.2659525 -0.19206977 -0.074835844 -0.0072884685
000140 db 3d be 3c 42 57 df bd c7 26 90 3c dc 5d 28 be
       0.023222854 -0.10905315 0.017596615 -0.16442055
000150 64 9a 3d be b9 0f 13 be 3e aa ea be f3 01 09 be
       -0.18515927 -0.14361466 -0.4583301 -0.1337965
000160 dd f3 ac bd 93 83 11 be 16 a8 59 be 63 4e ad bd
       -0.08444951 -0.14210348 -0.21255526 -0.08462217
000170 77 d5 ff bb f1 66 e5 bd f7 f7 1f be bd c4 15 be
       -0.0078074294 -0.11201275 -0.15621935 -0.14625831
000180 e0 f9 36 be 2e 63 47 be 1b 6e 8b 3b 93 e7 cc bd
       -0.17868757 -0.19471428 0.004255069 -0.10005107
000190 30 05 20 be 27 f6 f2 bd d5 a8 03 be ef c0 09 be
       -0.15626979 -0.11863356 -0.12857373 -0.13452505
0001a0 f7 a3 10 be 89 78 4d be f2 e6 ba bd 28 89 01 be
       -0.14125048 -0.20065512 -0.091260806 -0.12649977
0001b0 d7 c9 a8 bd 14 90 95 bd ce 03 34 be 5e 6c 04 3c
       -0.08241623 -0.07302871 -0.17579576 0.008082477
0001c0 60 59 90 bd 1f 7b 69 be 4b 17 67 be ab 13 ca bd
       -0.07048297 -0.22800873 -0.2256748 -0.098670326
0001d0 f2 8b eb bd 23 97 9c be 99 ee b5 bd c8 90 e4 bd
       -0.11501302 -0.30584058 -0.088833995 -0.11160427
0001e0 b9 15 04 bd 81 c1 3d bb a3 f2 01 be 70 ac c4 3c
       -0.03224728 -0.0028954449 -0.12690215 0.024008006
0001f0 cb fb 9f bd 49 ea 98 bd 60 88 f5 bd db cc d1 bd
       -0.078116976 -0.07466561 -0.11988902 -0.10244151
000200 67 7a f8 bc 01 c8 32 be 88 40 11 bc 97 69 3a be
       -0.030331803 -0.17459108 -0.008865483 -0.18204342
000210 d1 3e f2 3b b5 ce d3 bd a7 da bb bc ea 7b ef bd
       0.007392742 -0.103421606 -0.02293141 -0.116935566
000220 1d fe cd be 4b 6b 34 bd a5 21 bf bd 75 c4 38 bc
       -0.40232936 -0.044047635 -0.09332589 -0.011277308
000230 5f a0 f7 bd d3 ca fb bd 69 c3 c5 bd 91 cf 0d be
       -0.12091135 -0.12294545 -0.09656412 -0.13848712
000240 be ba 47 be 42 85 0d 3d 93 16 ca bd 13 08 07 be
       -0.1950483 0.034550913 -0.09867587 -0.13186674
000250 71 c2 c8 bd 3f fe c0 bb 86 08 e4 bd f7 72 80 be
       -0.09802712 -0.0058896835 -0.11134438 -0.2508771
000260 17 73 75 bd 18 03 68 be bc bc 74 3d 70 65 c9 bd
       -0.05992421 -0.2265743 0.059750304 -0.09833801
000270 be 9a 6f be 19 67 4c be 59 76 d1 bd db c2 f2 bc
       -0.23398873 -0.19961204 -0.10227651 -0.02963393
000280 26 e7 5d 3d f1 95 19 3d 6f 23 00 bd 5f 2c 4b be
       0.05417552 0.03749651 -0.031283792 -0.19841145
000290 2b ee 24 be fc 0b 2a be 82 d0 83 be 1a 05 f5 bd
       -0.16106479 -0.16606134 -0.25745016 -0.11963864
0002a0 4a 97 5a be 55 a1 03 be 5f 8f af 3c 1a 9d 64 bd
       -0.21346775 -0.12854512 0.02143067 -0.055813886
0002b0 94 b4 99 bd fd 77 f7 3b 78 6e 20 be 6f cc 6d be
       -0.07505146 0.0075521455 -0.1566714 -0.23222516
0002c0 ca 90 0e be 17 ce 32 be 35 e6 a6 bd c3 b3 12 be
       -0.1392242 -0.1746143 -0.08149377 -0.14326386
0002d0 ab 38 3e 3c c2 f4 9e bd af ca 43 3d f2 ef 8d bb
       0.01161019 -0.077615276 0.047800716 -0.004331582
0002e0 84 1b 2f be 88 81 1c be 58 55 e9 bc 1d 68 23 bd
       -0.1710034 -0.15283787 -0.028483078 -0.039894212
0002f0 73 a4 dd ba 6a 51 8d 3c 26 fd b0 bc 59 b7 86 3c
       -0.0016909972 0.017250735 -0.021605086 0.016444849
000300 18 cd 08 be 56 52 32 be b6 67 62 bd 00 77 78 be
       -0.13359487 -0.17414221 -0.055274688 -0.24264145
000310 48 c4 21 be 4a d7 24 be 58 80 a0 bd 5f a6 06 be
       -0.15797532 -0.16097751 -0.0783698 -0.13149403
000320 00 80 47 be 6d 25 ae bb a7 a6 ad bd 50 a0 6a be
       -0.19482422 -0.00531452 -0.08479052 -0.22912717
000330 d6 96 46 3c fe ab de bd 3b 02 56 3d bb 6a ae bd
       0.012120923 -0.10872649 0.05224822 -0.08516451
000340 ba da d2 bd e8 c4 59 be cd 98 bd bd 74 06 3b bc
       -0.10295625 -0.2126652 -0.0925766 -0.011415113
000350 22 98 bd 3c fa 5f f8 3b f4 83 c9 bd 1c 60 c7 bc
       0.023143832 0.0075798007 -0.09839621 -0.02433782
000360 8f f7 2d bd 1c 3d 8f bd c9 d3 b8 bd cb 4a cf bd
       -0.04247242 -0.069940776 -0.0902477 -0.101216875
000370 c9 ed 56 be 7b 68 e5 bd c1 d2 0f bc 1f d3 4f bd
       -0.20989145 -0.11201569 -0.008778275 -0.05073845
000380 9b d3 45 be fa 36 74 b9 a4 0b 86 bd 4a 2d 90 bd
       -0.19319002 -0.00023290134 -0.06545189 -0.07039888
000390 1a 1a b4 3a e5 b8 8f 3d 8a cc 53 be 11 8d 72 be
       0.0013740689 0.07017688 -0.20683494 -0.23686625
0003a0 63 63 0f be 7c 2f 9a bd de 78 f1 bd 79 79 28 be
       -0.14002757 -0.07528588 -0.11790632 -0.16452588
0003b0 c6 f9 28 be f9 9e 1c 3c cf 9a 8d bd 4d 86 a8 bd
       -0.16501531 0.009559386 -0.06914293 -0.08228741
0003c0 b7 a4 21 be 3e 08 47 bd 2c ee f2 bd e4 68 9f bd
       -0.1578549 -0.048591845 -0.11861834 -0.07783678
0003d0 df 9b 65 be 2f 21 fc 3c b8 87 00 3b 27 d2 04 3d
       -0.22422741 0.030777542 0.0019612145 0.03242698
0003e0 b1 dc ac bd 63 9d f6 bd 9b 64 0d be b3 f1 4f 3d
       -0.08440531 -0.12041738 -0.13807909 0.05076761
0003f0 58 25 f8 bc ac 5f e9 3c 93 2f 1f be 87 e0 82 3c
       -0.030291244 0.028488003 -0.15545492 0.015976204

shared_fc2.weight f4 [256, 256]
000000 03 99 0e be 15 53 a6 3b 27 01 10 be 40 44 ad bd
       -0.13925557 0.005075822 -0.1406294 -0.08460283
000010 b2 8c 1d 3e a4 a9 9e 3d 48 8b 07 3d d8 ed 86 bd
       0.15385702 0.077472 0.033091813 -0.06588334
000020 64 3d 7b 3e 41 04 3d bd 31 81 86 3e 8e 33 e8 bd
       0.24535137 -0.046146635 0.2627044 -0.11337958
000030 c1 14 72 bc 43 1e 3e be b3 99 f5 bc 88 00 0c be
       -0.014775456 -0.18566231 -0.029980516 -0.13672078
000040 ba 22 10 3d 7e d6 d2 bb 43 67 fb 3c e0 0f c8 be
       0.035189368 -0.006434261 0.030688887 -0.39074612
000050 61 a9 f4 bd 07 9c 8a bd fa 2a b1 be 28 a6 32 bb
       -0.11946369 -0.06768041 -0.346031 -0.0027259681
000060 46 78 57 3d 0c a9 60 bd 1b 7b a7 bb 8d 4b ce 3c
       0.052604936 -0.054848716 -0.005111111 0.02518251
000070 6b 89 38 bd 35 7f 19 be ff 01 cb 3c 76 04 fa 3d
       -0.045052927 -0.14989932 0.024781225 0.12207882
000080 3f 1c 09 be 2a 4e 88 bd 64 69 97 3d 79 6b 11 3c
       -0.13389681 -0.066555336 0.073931485 0.008875721
000090 ae 6d 32 bd c3 67 fc bb 8a 0b a8 3c 47 b1 59 bd
       -0.04356163 -0.007702799 0.020513315 -0.05314758
0000a0 7a 46 77 be ac 87 e5 3d fc 97 23 3d 91 cd 5e bd
       -0.24147978 0.11207518 0.039939865 -0.054395262
0000b0 f4 9d 15 bd 58 89 fe bd 76 8c 0f be 6a ab b0 bd
       -0.03652759 -0.1242854 -0.14018425 -0.08626445
0000c0 34 ea 63 bd f6 17 dc 3c e6 d8 75 bd 32 5c dc 3d
       -0.055643275 0.026866894 -0.060021304 0.10759772
0000d0 3f b1 3f 3d cc 8f 87 3e ef b9 89 3c 23 5c 96 3d
       0.046799894 0.26476896 0.016812293 0.073417924
0000e0 93 b6 38 bc 34 29 68 3d bc f3 28 be c7 a1 22 bb
       -0.011273998 0.05667992 -0.16499227 -0.0024815665
0000f0 48 e6 14 3d 55 74 82 bb 72 62 3f bc 44 7b 41 bd
       0.036352426 -0.003981153 -0.011681186 -0.047236696
000100 e1 d1 49 3e a3 b2 ba 3c 55 80 b5 bd d0 27 cb bd
       0.19708969 0.022790259 -0.08862368 -0.09919703
000110 3e 2f a4 bd 7b e3 b1 be 47 f0 66 3d 47 6f 05 bf
       -0.08016823 -0.34743866 0.05638149 -0.5212292
000120 90 7f f3 bd 9c f0 9f 3c 86 15 bd 3d 4f ac 54 bb
       -0.11889565 0.019523911 0.09232621 -0.0032451337
000130 b3 48 8b bc 5a b9 eb 3b c7 5d 5a 3c f2 ce b8 be
       -0.01700244 0.0071937265 0.013328022 -0.36095387
000140 49 79 8a bd ba da 35 bc de fd 5c 3e a8 94 27 bd
       -0.067614146 -0.011099512 0.21581218 -0.040913254
000150 a7 2c b3 3c 84 75 d7 bd 66 2c 06 3e 30 e9 42 bd
       0.021871878 -0.10520461 0.13102874 -0.047585666
000160 99 2f 64 be 80 65 38 bc 90 d0 ec bd d2 00 ae bd
       -0.22283782 -0.011254668 -0.11563218 -0.0849625
000170 a7 d6 8f be dc 45 e1 bd 2e 78 d4 bd cd 3b 85 3c
       -0.28093454 -0.10999653 -0.10374485 0.016263867
000180 40 7b c3 bd 06 85 80 bd 65 55 0a bf 12 29 fd bd
       -0.095449924 -0.06275372 -0.5403655 -0.12361349
000190 05 9e 57 be 2d 52 51 3c 75 ef 89 3b a8 5e 6e be
       -0.21056373 0.01277594 0.0042094537 -0.23278296
0001a0 3d 83 5a 3d 16 ee cb 3c c0 3f 5f 3d d7 f9 24 be
       0.053347815 0.024893802 0.054504156 -0.16110931
0001b0 e4 fe 9a 3c e7 b4 93 3d 28 57 9e be f2 2e 96 be
       0.01892037 0.07212239 -0.3092587 -0.2933269
0001c0 a0 b6 e5 ba 68 53 94 bd dc d8 09 be a6 9b 86 3d
       -0.001752574 -0.07242471 -0.13461632 0.06572656
0001d0 fb 03 d9 bb 28 f7 5b be ba 3c e9 bc d9 06 e4 3e
       -0.006622789 -0.21481001 -0.02847134 0.44536474
0001e0 48 45 62 be 86 d7 d2 bd 09 78 c5 bd 0b 23 07 3d
       -0.22096741 -0.10295014 -0.096420355 0.032992404
0001f0 e2 f3 b0 bd 74 6a bd bd 38 32 a6 3c 76 75 e4 3c
       -0.08640267 -0.0924882 0.020287618 0.027888041
000200 7e fd 94 3d 87 d0 5c bd 89 5e 9c 3c eb d4 3c 3d
       0.07274912 -0.053909805 0.019088047 0.046101492
000210 1a 45 02 be b5 88 28 3c 13 b7 9e bd fe 71 79 be
       -0.12721673 0.0102865 -0.077497624 -0.24359891
000220 a3 cb f8 3d e1 ec 01 be 94 b6 d7 bd 34 01 1f be
       0.121482156 -0.12688018 -0.10532871 -0.15527803
000230 6c f9 be bd 74 e9 9a 3d 39 bb be 3d 30 82 3f 3d
       -0.09324917 0.07564059 0.09313054 0.046755016
000240 6d 08 b5 bd 96 b8 ec bd e5 7a bd bb a6 fe e3 3c
       -0.08839498 -0.115586445 -0.0057824724 0.027831387
000250 f2 87 13 3c 26 81 a4 be 4d f9 11 3d 59 00 ee bd
       0.00900458 -0.32129782 0.035638142 -0.1162116
000260 a5 b4 66 be c9 93 6f bc 6a dd 83 3d 32 94 58 be
       -0.22529848 -0.014622637 0.06438716 -0.21150282
000270 dc 0a 65 3e f7 de 01 3e 0c a9 c7 3d 85 d6 a8 be
       0.22367424 0.1268271 0.0974904 -0.32976165
000280 86 73 d4 be f8 e9 7e 3e cd c8 0e 3c af c6 04 be
       -0.41494387 0.2489394 0.008714867 -0.12966417
000290 6a b9 f0 bd c5 ad e0 3d f1 2a a1 be 7e be 05 be
       -0.11754115 0.10970644 -0.31478074 -0.13060948
0002a0 cc 34 76 bd 5c f7 31 3d 9f f2 4c bd 22 57 99 bd
       -0.060108945 0.04344879 -0.05003607 -0.074873224
0002b0 b6 3b 6e bd ef b5 56 be 4c 0f 0a be 01 53 4f be
       -0.058162414 -0.2096784 -0.13482398 -0.20246507
0002c0 08 12 bd ba 6d 3d 10 be ad 1d 98 3d e1 d9 3b 3b
       -0.0014424929 -0.14085932 0.07427535 0.0028663801
0002d0 91 b1 04 be 9d eb 09 be a7 d8 ce bd ef fa 83 be
       -0.12958361 -0.13468786 -0.10099917 -0.25777385
0002e0 64 28 d3 bc 6c 40 93 3d 79 8f ec 3c 7d e7 83 3b
       -0.025776096 0.07190022 0.028877007 0.0040253983
0002f0 2d 59 82 bd 98 83 ca be 36 15 7b be 56 f1 af be
       -0.06364665 -0.39553523 -0.2451981 -0.34363812
000300 8f 09 9a 3d 46 4e 3c bd 0b e5 d6 bb 04 33 43 bd
       0.075213544 -0.045973085 -0.006558066 -0.047656074
000310 06 3f a2 bd 7a 24 c8 3d 45 1c a1 3e b2 6d 3b bd
       -0.07922177 0.09772582 0.3146688 -0.04575891
000320 ed 31 6e 3d 63 97 68 be 6c b3 a7 3d 40 17 12 3d
       0.05815308 -0.22714 0.08188519 0.035666704
000330 2a 7f 4f 3d a9 98 4a 3d 41 ad b4 be 86 0f 1f be
       0.050658382 0.049461994 -0.35288432 -0.15533265
000340 ae 5c c3 bd b8 16 11 bd b6 33 05 be 76 5e f3 3c
       -0.095391616 -0.035422057 -0.13008007 0.029708128
000350 1b 55 72 be e8 a3 95 be f8 5c 90 bd 32 db 8a be
       -0.23665278 -0.29226613 -0.070489824 -0.27120358
000360 6b e8 09 bf e1 1a 0f bd aa 86 44 3b c4 8a c5 bd
       -0.53870267 -0.034937743 0.0029987493 -0.09645608
000370 4f 66 86 3e 41 49 c6 bd a3 1d 25 be c6 d7 85 3d
       0.2624993 -0.09681941 -0.16124587 0.06535296
000380 b3 8c 2a be 7d 62 e7 be e7 89 b1 bd c3 4d 54 be
       -0.16655235 -0.45192328 -0.08668881 -0.20732789
000390 1c 49 f3 bd b0 d8 f5 bd c0 f1 69 be 2e ee 26 bd
       -0.11879179 -0.120042205 -0.22846127 -0.04075449
0003a0 e2 96 56 bd eb b4 6e 3d 9d c8 88 be 57 24 2e 3d
       -0.052389987 0.058278006 -0.26715556 0.042515125
0003b0 2b b6 08 bd af c5 88 3d 03 b3 35 be 36 05 1d 3c
       -0.033376854 0.0667833 -0.17744069 0.009583762
0003c0 68 35 c2 3c 0e b1 b5 3c 37 f2 3f 3d 6d 1d fd bb
       0.023707107 0.022179153 0.046861853 -0.007724455
0003d0 5d 14 2e be a3 e4 2e bd c5 f3 ca be bf 36 46 3c
       -0.16999955 -0.042698514 -0.39639106 0.012098013
0003e0 e0 ac e8 3c c5 d6 15 bd 51 95 a7 bd 5f 08 c1 3d
       0.028402746 -0.036581773 -0.08182777 0.09425425
0003f0 bf 71 2b be 6f d9 96 be f6 a2 01 bd b3 fb 90 bd
       -0.1674261 -0.29462764 -0.031649552 -0.07079258

shared_fc2.bias f4 [256]
000000 1b b5 42 bd 57 b9 2b be ee 52 40 bd 5a cc 13 be
       -0.047535997 -0.1676992 -0.046954088 -0.14433423
000010 e7 89 35 bd 7f 76 33 bd 00 70 51 bd 4c 91 63 be
       -0.044320967 -0.04381418 -0.051132202 -0.22223395
000020 06 34 65 bd 4e f1 0b bd bf a3 97 bd 5e 55 5d 3d
       -0.055957817 -0.034165673 -0.07404279 0.05403649
000030 de 0d b4 bc 05 33 51 bc 60 a7 68 bd ab 14 ba 3d
       -0.021979269 -0.012768512 -0.056800246 0.09085973
000040 2f 37 80 bd e0 91 06 3e b9 fa 58 bd 46 85 8c bd
       -0.062605254 0.13141584 -0.052973483 -0.068613574
000050 dd 33 a9 bd 6b 2f 1f 3d eb c3 8a bd 5d 7d 4c bd
       -0.08261845 0.03886358 -0.0677565 -0.049924243
000060 55 db 8b bd de 98 d8 3d c9 b7 90 3c 0a 8d 28 bd
       -0.06828944 0.10576032 0.01766576 -0.04115013
000070 84 fb 37 bd 9f 03 5f bd 06 01 83 bd 9b 16 02 be
       -0.0449176 -0.054446813 -0.063966796 -0.12703936
000080 b3 ef 64 bd 02 2b 36 bd 7c 83 8e bd 83 f8 d3 3d
       -0.055892657 -0.04447461 -0.069586724 0.10350134
000090 17 be 6b 3d 5c fa 44 bd dd 56 26 bd 7f 3c a6 bd
       0.05755433 -0.048090324 -0.040610183 -0.081170075
0000a0 62 4f bb 3d 92 d1 1d bd f9 0b 68 bd ec 92 74 bb
       0.091460004 -0.03852994 -0.056652043 -0.0037319018
0000b0 50 9a 0e be 5d d4 3a be 6f 2f 84 3d 08 f2 c4 bd
       -0.13926053 -0.18245073 0.0645436 -0.09616476
0000c0 b7 3e 28 3c 2f 0d a4 bd 91 6b c1 bd 5f a7 24 3e
       0.010268859 -0.08010327 -0.09444345 0.16079472
0000d0 ec 8b a7 bd eb 49 0b bd d9 59 2a be 94 50 0a bd
       -0.08180985 -0.03400604 -0.16635837 -0.03376825
0000e0 9d 13 05 be db f2 b1 bd 0d 6f 70 bd 8c 73 0a be
       -0.12995763 -0.08688899 -0.058699656 -0.1352064
0000f0 e3 1e 8a bd 28 a8 63 bd a0 b2 5d bd d3 72 28 bd
       -0.067441724 -0.05558029 -0.05412543 -0.04112513
000100 49 ed 0f be 2e 61 d7 bd 1b 80 27 3d a1 18 00 3e
       -0.14055361 -0.105165824 0.040893655 0.12509395
000110 de 05 4d bd e9 52 6f bd 3e 3b 5f bd 2a b4 7b bd
       -0.050054424 -0.05842868 -0.054499857 -0.061451115
000120 19 5f 5b bd ee 77 5d bd b5 66 ea bc ec fb bc bb
       -0.05355749 -0.054069452 -0.028613428 -0.005767336
000130 54 19 c9 3d 36 48 75 3d 89 74 8d 3c 11 c2 6b bd
       0.09819284 0.05988332 0.017267482 -0.057558123
000140 07 1e 60 bd 36 e1 96 bd 3a 65 75 bd 64 76 32 bc
       -0.054716136 -0.07367174 -0.05991099 -0.010892484
000150 e9 96 22 bd 0b fe 01 3e 1d ab 8c bd 51 52 b5 bd
       -0.0396947 0.12694566 -0.06868575 -0.08853591
000160 e7 ea 18 3e 81 9d b0 3c b5 18 bd bc d5 38 3e bd
       0.14933358 0.021559479 -0.02308307 -0.046440918
000170 fc 20 ba bd aa 34 cf 3b af c4 b6 3d 21 f6 2d 3d
       -0.090883225 0.0063234167 0.08924233 0.042471055
000180 33 54 78 bd 2e b2 4e bd 88 61 0d 3c 3c e7 a3 bd
       -0.060627174 -0.050462894 0.00862921 -0.08003089
000190 a7 ee c7 3c d8 89 bb bc 2c 13 4a bd 07 2f ae bd
       0.02440579 -0.022892877 -0.04933469 -0.085050635
0001a0 98 7b 1d 3d 48 1f 10 bd f6 20 97 bd 50 5d 87 3b
       0.038447946 -0.035186082 -0.07379334 0.0041309968
0001b0 33 73 a0 3d 1b a8 b6 bd 44 74 9f bd 13 11 c2 bd
       0.078344725 -0.08918782 -0.07785848 -0.09475913
0001c0 53 77 b5 bd 88 07 82 bd a2 22 61 3d b5 2c 3f bd
       -0.0886065 -0.06349093 0.05496467 -0.046673495
0001d0 21 29 e4 3c ad 9d 7e bd 83 94 b9 bd 34 06 85 bd
       0.027851643 -0.06216209 -0.090615295 -0.06495324
0001e0 50 33 6b bd 54 67 06 bd 95 ad 8c bd c4 61 1e bd
       -0.057421982 -0.032813385 -0.06869046 -0.038667455
0001f0 2a 44 47 bd 0c 0b 90 bd 57 d0 af bd d9 f5 75 bd
       -0.04864899 -0.07033357 -0.085846595 -0.06004891
000200 5a 55 0b be 11 37 06 be ed bb a5 bd 12 64 08 3e
       -0.13606778 -0.13106944 -0.080924846 0.13319424
000210 21 cc 83 3d 2d 18 9f 3b c4 79 3e bd c0 70 cd bd
       0.06435419 0.004855177 -0.046502843 -0.10031271
000220 cf b0 ec bd cb 68 fb bd f9 53 0d 3d ca d8 2e bd
       -0.11557161 -0.12275847 0.03450391 -0.042687215
000230 65 45 8c bd 11 8c 28 bd 8e 70 25 bd e0 4b cd 3d
       -0.068491735 -0.041149203 -0.040390544 0.10024238
000240 c9 53 d7 bd ae 88 0b 3e 75 f7 de 3b 91 c4 95 bd
       -0.105140276 0.13626358 0.0068044015 -0.07312883
000250 1d f8 80 bd 9d e2 c8 bd 02 a6 20 3e e6 9e bb 3c
       -0.06297324 -0.09808848 0.15688327 0.022902917
000260 a5 a1 8e bd 24 f9 35 3e f9 20 30 bd 5e 77 b4 3d
       -0.06964425 0.17770821 -0.043000195 0.0881183
000270 c7 09 af 3d 3b 83 87 bd ee a9 01 3e b8 a5 3f 3d
       0.08546787 -0.06616827 0.1266248 0.0467889
000280 f6 75 cf 3d 7c d4 37 3e 2d 63 00 bd 15 f5 17 be
       0.10129921 0.1795215 -0.03134458 -0.14839585
000290 50 df 10 bd 6d 3d 77 bd a5 e3 d7 be 39 3b 82 bd
       -0.035369217 -0.060361315 -0.42165866 -0.06358952
0002a0 b7 bc 2c bd 28 43 6e 3d f1 00 a7 bd e5 e3 5b bd
       -0.04217216 0.058169514 -0.081544764 -0.053684134
0002b0 d5 b3 af bd 2c d2 3a bd 81 35 91 bd 56 c0 7c bd
       -0.08579222 -0.04561059 -0.07090283 -0.061706863
0002c0 fd e4 4c bd df df b3 bd 0d 1d 13 3e 09 e0 2d bd
       -0.050023068 -0.087829344 0.1436655 -0.042449985
0002d0 49 e2 0c 3e b8 74 96 bc 97 1d 4d bd 2e 9a 36 bd
       0.13758196 -0.018366203 -0.050077047 -0.04458063
0002e0 29 d5 91 be a9 3e cd 3d f9 e1 2f bd 85 b9 23 bd
       -0.2848294 0.10021717 -0.042940114 -0.039971847
0002f0 2d 14 10 3e 4f 0d a8 bd 8f b6 6f bd c1 12 5a 3d
       0.14070196 -0.082056634 -0.05852371 0.05324054
000300 55 13 5a bd ad c5 9c 3d ca 71 24 bc ae 71 9d bd
       -0.053241093 0.07654891 -0.010036895 -0.07687698
000310 c9 ed 97 bd 9d 8a a3 bd 35 69 66 bd 57 b8 34 bd
       -0.07418401 -0.07985423 -0.056252677 -0.044121113
000320 37 62 36 bd b3 41 98 3d cf 59 96 bd a5 83 b6 bd
       -0.04452726 0.07434406 -0.073413484 -0.08911828
000330 19 b4 52 bd c0 fe 95 bd 2f 17 ba bd de 5b 8b bd
       -0.051441286 -0.0732398 -0.09086453 -0.06804632
000340 fc b4 54 bc 2c 6d 5a bd a1 57 e0 3d 07 96 54 3c
       -0.012982603 -0.05332677 0.10954214 0.012975222
000350 97 50 4e bd d3 4b 66 3d de 0a 2c bd 8d cc 40 be
       -0.050369825 0.056224655 -0.04200255 -0.1882803
000360 f1 7a 14 bd 22 60 4c bd 2e f2 00 be 50 2a ba bc
       -0.03625006 -0.049896367 -0.12592384 -0.022725254
000370 f6 8c 4d bd 10 36 59 bd 49 c7 53 bd 31 2f eb bd
       -0.05018326 -0.053030074 -0.051703725 -0.114836104
000380 b4 ff d0 bd 35 9a 61 3d 1b ce ce 3d 01 b2 44 bd
       -0.102050215 0.055078704 0.10097905 -0.04802132
000390 ea 34 c4 bd ad 68 c5 bc d1 09 6d bd 0a 16 ea 3d
       -0.09580405 -0.024097765 -0.05787069 0.11429985
0003a0 e1 54 28 3e 56 89 ca bd a2 0b ca bd 79 7a 4a 3d
       0.16438629 -0.09889476 -0.098655 0.049433205
0003b0 53 5c b9 bd 26 ec 0a 3d 63 e5 08 be 95 12 22 3e
       -0.090508126 0.033916615 -0.13368754 0.15827401
0003c0 6b 9a 39 bd 1f 01 24 3d 66 4d 85 bd 47 5c f6 bc
       -0.04531328 0.04004013 -0.06508903 -0.030073298
0003d0 5a 67 57 bd 7d db 3c bd 4e 1e 2b 3d 8b df a6 bd
       -0.052588798 -0.046107758 0.041776948 -0.08148106
0003e0 41 f9 71 bd 46 48 9a bd 35 97 3f bd 96 d9 42 bd
       -0.059075598 -0.07533316 -0.04677506 -0.047570787
0003f0 d6 af 0d 3e e0 e8 0f be 8d 0d 02 bd 83 eb 4d bd
       0.13836607 -0.14053679 -0.031751204 -0.05027343

actor_fc.weight f4 [256, 256]
000000 4d 01 40 be 6b f6 f2 3e 83 d5 44 bd 65 09 26 3d
       -0.18750496 0.47453627 -0.048055183 0.040536303
000010 c6 10 a0 bc 42 39 07 3c 43 1e 31 bd 07 13 d1 3e
       -0.019539248 0.008253397 -0.04324175 0.4083483
000020 ec 7c e1 bb fe 07 88 3d de d6 cf bd bb f8 d3 be
       -0.006881347 0.066421494 -0.101484045 -0.41400704
000030 44 c3 ce be a4 22 95 bd 39 ad ac bd b4 02 b2 be
       -0.4038335 -0.07281998 -0.08431477 -0.34767687
000040 03 2b 5e 3d 12 01 05 be b1 d7 5b 3d 1e 37 26 3d
       0.054240238 -0.1298869 0.053672496 0.040579908
000050 5c d2 37 3c 50 bb 7d bf cb 81 89 bd 3b e0 bf bb
       0.011219587 -0.9911394 -0.06714209 -0.005855588
000060 ca c3 db bd 77 ac ee be 3f 9f 60 3e 72 2b af 3b
       -0.10730703 -0.46615955 0.21935748 0.0053457553
000070 b0 33 9c 3d 4c 67 d3 3c 5a 25 d9 3d 3b b9 df bd
       0.07627046 0.025806092 0.10602827 -0.10924002
000080 48 cc a2 bb 96 eb ac 3d 7a ea 33 be 47 d5 95 3e
       -0.0049682 0.08443372 -0.17569914 0.2926428
000090 33 be e0 be c0 ea 02 3d 90 46 db 3d 05 fc 39 bc
       -0.4389511 0.031962156 0.10706818 -0.01135159
0000a0 7e a2 2e be 54 0a 58 bb 60 0a d9 bd 98 7f 46 bd
       -0.17054173 -0.003296514 -0.10597682 -0.048461527
0000b0 0b 52 5e 3d 97 cd 89 bd 43 19 c3 bd c5 6a 28 bc
       0.05427746 -0.06728666 -0.09526303 -0.010279362
0000c0 13 28 c3 bd e6 1a 3e ba 6d 5b 7a bd 71 49 aa bd
       -0.09529128 -0.0007251933 -0.061122347 -0.08314789
0000d0 e0 d2 a3 bd 1b b8 49 3d ad 76 46 3d 0b 3e 14 3c
       -0.079992056 0.049247842 0.04845302 0.009047995
0000e0 ef 46 7d 3d 56 46 5f 3b 95 30 4f bb 98 6c d6 3b
       0.061835226 0.0034069023 -0.003161465 0.006543707
0000f0 56 11 21 bd b0 52 af 3d 8f 38 b1 bd 1f ce 5c 3e
       -0.039323173 0.08560693 -0.08653366 0.21563004
000100 89 30 5b 3e c6 fd 39 be d7 ca d1 3d ee ed d3 be
       0.21405233 -0.18163213 0.10243767 -0.41392463
000110 fc 92 8a bd 3b c2 0c 3e da 35 2f 3d 4b 4a 25 3d
       -0.06766316 0.13745968 0.042775966 0.040354054
000120 42 6f 64 bc c0 f5 5a 3d f0 25 d2 bd ea e5 35 3c
       -0.013942542 0.05345702 -0.10261142 0.011102179
000130 ba 5a d7 bd 49 36 ba bd ea 0a 28 bd 7d 50 57 be
       -0.105153516 -0.09092385 -0.041026033 -0.21026798
000140 c3 ba 3d 3c f2 7e 8a 3c af 03 a0 3d 7c fb 91 bd
       0.011580172 0.016906235 0.078132026 -0.07128045
000150 c6 3a af bd 91 b4 79 bf 13 41 10 bd b9 cb b9 3d
       -0.08556132 -0.9754115 -0.03521831 0.0907206
000160 c8 8b 3c 3e c8 9d 46 be 21 04 64 be c7 c6 20 3d
       0.18412697 -0.19396126 -0.222672 0.03925207
000170 33 5d af 3c d9 73 a9 3e 3d 84 12 bf 24 48 84 be
       0.021406746 0.33096197 -0.5723303 -0.2583629
000180 3c 25 8f bc 49 e7 11 3d cf bc d5 be e0 69 ce bd
       -0.01747381 0.03562096 -0.41745612 -0.10078788
000190 0b 5f ac 3d b6 3b cc be 95 9f 34 3d 6c 3c 30 be
       0.084165655 -0.39889306 0.0440975 -0.17210549
0001a0 cc 04 73 3e b9 22 cd 3d 4d d1 a6 3d ab cc d9 be
       0.23732299 0.100163884 0.0814539 -0.42538962
0001b0 a2 7b 66 3e a4 c1 09 3c c1 34 a0 3c 44 f7 fa 3b
       0.225081 0.008407984 0.019556405 0.007658871
0001c0 bf 75 49 3a f0 18 d4 bd 0e af 23 be ae 93 ad bc
       0.0007685087 -0.10356319 -0.15984747 -0.021188583
0001d0 68 f1 5f be ed d5 49 3d f4 ba e8 3d 8a a7 5d 3d
       -0.21869433 0.04927628 0.113637835 0.054114856
0001e0 4b 02 83 bd fc d5 fb be 30 08 ae 3d c0 dd bf bc
       -0.06396922 -0.49186695 0.084976554 -0.023421168
0001f0 41 e4 6c bd 24 79 c8 bd 96 dd f2 bb ad ea 18 3d
       -0.057834867 -0.09788731 -0.007411669 0.03733318
000200 1c ba 72 3d 84 dd 63 bd f4 05 a3 bc ff a3 1d bf
       0.05925952 -0.055631176 -0.0199003 -0.61578363
000210 14 d4 35 3e 94 c7 9f 3d 8a 08 dd 3d ec 43 3e bd
       0.17756683 0.078017384 0.10792644 -0.046451494
000220 d6 d6 6b 3d fb af a9 3c 35 6f cd 3e 73 16 a1 bc
       0.05757793 0.020713797 0.40123907 -0.019664025
000230 5b 00 12 be 33 8a 7b bb 91 86 5f bd 53 7e b0 be
       -0.14257948 -0.0038381934 -0.054571692 -0.34471378
000240 b8 93 88 be 1f 52 f5 be 56 53 1a bd f4 9c c3 3c
       -0.266752 -0.47914216 -0.03767713 0.023878552
000250 3a c5 15 3d e9 52 ba be 7c e7 39 bf 4f db 10 3e
       0.036565043 -0.3639138 -0.7261884 0.1414616
000260 84 82 8b bd 77 01 26 bf 99 5d a4 bd 35 23 14 3d
       -0.06812003 -0.64845985 -0.08025665 0.03616639
000270 d9 0b 12 be ea 97 ed bc 1f 34 97 bd 9f 3a de bd
       -0.14262332 -0.029003102 -0.07382988 -0.10851025
000280 63 4a b2 be 95 f1 06 be 96 b4 95 be 3e 62 a2 3d
       -0.34822378 -0.13178094 -0.2923934 0.079288945
000290 39 dd ee 3c 95 c6 80 3d 8b c1 df bd 72 77 76 3d
       0.029158222 0.062878765 -0.10925587 0.060172506
0002a0 66 c9 43 3d 80 bb 9b be bc 2e b2 3c e8 a2 66 bd
       0.04779949 -0.3041649 0.0217508 -0.056307703
0002b0 b6 77 3c bd c0 21 64 bd 80 e0 06 bf 4b b0 0f 3d
       -0.046012603 -0.05569625 -0.5268631 0.035080235
0002c0 22 5c cc 3c aa 4d a1 3c 1d 41 a4 be 42 3f 98 bc
       0.024946276 0.019690353 -0.32080927 -0.018584851
0002d0 8b 93 ff be 35 10 2f 3d c9 55 db bc fb 52 84 bd
       -0.49917254 0.042740066 -0.026774304 -0.0646114
0002e0 d4 e1 41 be 9f bf 07 3d 7c cb d5 3d ca c7 b2 3c
       -0.18933803 0.03314173 0.10439202 0.021823782
0002f0 52 cf 3e be bc b0 42 3d 94 74 d9 bd 63 0c b0 3e
       -0.18633774 0.04753183 -0.10617939 0.3438445
000300 0f 9e 86 3d 49 fb 11 3e 36 b7 b2 3e eb fb 54 bd
       0.06573116 0.14256014 0.34905404 -0.05199806
000310 d3 8a fc bc 68 97 7b 3d 93 71 d4 3d 6b 27 33 bd
       -0.030827915 0.06142369 0.10373225 -0.043738764
000320 b5 2d 86 bb 00 dd 2b bc 7c a8 c8 3d ea 3f 99 3d
       -0.004094804 -0.010489702 0.09797761 0.07482894
000330 d8 d8 8f bd e4 9e 6f 3b 0e a2 d0 3c db 04 b5 bd
       -0.070237815 0.0036563212 0.025467899 -0.08838817
000340 df 20 82 bc d7 06 b9 3d 21 f5 96 3d c6 84 49 bd
       -0.015884815 0.09034508 0.073709734 -0.04919889
000350 33 0a 78 3d c0 04 cc be 71 aa 96 bc ce b6 8d bd
       0.0605566 -0.39847374 -0.01839182 -0.06919633
000360 e7 d0 6e bd a9 8d 72 3d 50 d2 8a 3d fc 56 30 3d
       -0.058304694 0.05921713 0.06778395 0.043051705
000370 f2 fe 66 bd 5f 99 11 3e 67 5a 02 3b 11 36 ca 3c
       -0.05639548 0.14218663 0.001989031 0.024683984
000380 5e 96 82 3d 9a 47 2d be 08 99 2e bf b0 89 8a 3c
       0.063763365 -0.16921845 -0.6820226 0.016911358
000390 07 5a a0 3d 07 49 10 3e ae a7 86 bd 6b c4 97 bf
       0.07829671 0.14090358 -0.06574951 -1.1856817
0003a0 56 ca ee 3e 96 51 e2 ba 27 a2 9f 3d d6 04 23 be
       0.46638745 -0.0017266746 0.077946 -0.15919814
0003b0 df 3c 3f be 44 7b 06 be 17 c1 00 be 88 ce bf 3c
       -0.18675564 -0.1313296 -0.12573658 0.023413911
0003c0 73 ab 0c 3c 5e d3 dc be ce dc 3f 3a 98 74 00 bf
       0.008585799 -0.4313001 0.0007318974 -0.5017791
0003d0 23 13 74 bd b9 fd ca be 8d 12 2c 3e eb 42 c6 3d
       -0.059588563 -0.396467 0.16803952 0.09680732
0003e0 ef b4 4f bd cc 94 5e bd 78 0e 8f 3b d0 73 9d bd
       -0.05070966 -0.054341123 0.0043657385 -0.07688105
0003f0 73 2a 6b be 2b 64 86 3b c5 97 90 bd ab 3d d3 bd
       -0.22965412 0.0041012964 -0.07060198 -0.103144966

actor_fc.bias f4 [256]
000000 f8 50 88 be 57 9b 12 be c7 09 a4 bb d0 5b 05 bc
       -0.26624274 -0.1431707 -0.0050060484 -0.008139566
000010 b5 19 34 3d 88 01 cd 3d b5 1e 0d be ae 34 9b bd
       0.04396983 0.10010058 -0.13781245 -0.07578407
000020 e8 7e 03 3e 52 02 02 be 45 f6 f0 bc 47 58 ae 3c
       0.1284138 -0.12696198 -0.029414305 0.021282328
000030 da a2 2e be cc f3 17 be 57 14 38 be 74 a1 b5 bd
       -0.1705431 -0.14839095 -0.17976509 -0.08868685
000040 69 c2 21 be 15 f7 6a bd 52 bb 58 bd f0 ea 2e be
       -0.15796818 -0.057364542 -0.052913018 -0.17081809
000050 42 6f 05 be 30 35 52 be 27 e7 95 be 12 9e b1 3d
       -0.13030723 -0.20528102 -0.29277918 0.08672728
000060 db 1a 64 bd a6 dd a5 be 70 ca 6e be c7 cb f4 3d
       -0.055689674 -0.32395667 -0.23319411 0.1195293
000070 3d 00 0c bd ac 8e 69 bc 17 3b 4a bd a7 98 41 3e
       -0.034179915 -0.014255207 -0.04937276 0.18905888
000080 c8 40 f9 bd 51 b8 94 bc 51 00 26 be f5 cf b3 bd
       -0.12170559 -0.018154295 -0.16211058 -0.08779899
000090 0f cf e9 bd 01 be 0c be 98 44 6d be 53 59 71 3d
       -0.114164464 -0.13744356 -0.23170698 0.058923077
0000a0 ef be ac bd 8d 85 f7 bd c3 3c 0a 3c d6 c5 ac be
       -0.08434855 -0.1208602 0.008437338 -0.33744687
0000b0 49 78 10 bd cb b1 83 3d 77 80 69 3e f6 27 28 3e
       -0.035270963 0.06430396 0.22802912 0.16421494
0000c0 32 e8 a1 bd 0c 15 15 3e 6e 54 d5 3b d7 24 9b be
       -0.07905616 0.1455881 0.006510309 -0.30301544
0000d0 f2 10 90 bd 62 31 9c bd ce ec 3f be 7f 0b 66 be
       -0.07034482 -0.076266065 -0.18742678 -0.22465323
0000e0 20 ba e9 be d9 04 28 be a9 71 dc bd 0a 6e 1a be
       -0.45649815 -0.16408099 -0.107638665 -0.15081039
0000f0 63 7f 0a bb 08 58 9e 3d 7e e5 27 be 68 61 8c be
       -0.0021133057 0.077316344 -0.16396138 -0.27418065
000100 20 bc a4 be 89 0d b7 bd b0 bb b6 3d a8 71 f2 bd
       -0.32174778 -0.089381285 0.08922517 -0.118380845
000110 fd 9b d1 bd 68 5c 5f be d2 44 54 3d ba 67 b9 be
       -0.102348305 -0.21812594 0.051823445 -0.3621195
000120 cf bc d6 bd 95 02 1d bd b7 cf c1 3d 23 0a 13 bd
       -0.10485231 -0.03833254 0.094634466 -0.03589834
000130 80 d6 23 3e 2c bf cf bc 4d c1 2e be 4e 73 44 be
       0.15999794 -0.025359713 -0.17065926 -0.1918461
000140 64 d0 6d 3e 17 74 a4 3d f8 82 8f 3e 31 28 70 be
       0.23224026 0.08029955 0.2802961 -0.23452832
000150 46 3c 98 be 3f f3 0b be f3 82 33 be d0 31 ee bd
       -0.29733485 -0.1366701 -0.17530422 -0.11630595
000160 1a 32 bc bd e2 99 c6 3b b7 9f 33 3e 1d 13 c6 3d
       -0.091892436 0.0060608247 0.17541395 0.09671614
000170 84 4d 57 be 59 4a a8 3d 9c cd 08 be 0e 37 50 3e
       -0.21025664 0.08217306 -0.13359684 0.20333502
000180 33 c2 23 be c8 4b 65 3e 5e fa 9a bd 75 5d 58 be
       -0.1599205 0.2239219 -0.07567285 -0.21129401
000190 e8 69 d5 bd ba be f7 3c 9c 92 f3 bd 9e 3a 02 be
       -0.10420591 0.030242313 -0.11893198 -0.12717673
0001a0 a5 0c 0f be 31 df 02 3e 9a 98 1a be a5 af e4 bd
       -0.13969667 0.12780453 -0.15097275 -0.11166314
0001b0 ff f2 39 be dc 57 ae 3d ba 23 67 be a0 20 cb bd
       -0.18159102 0.085128516 -0.22572222 -0.09918332
0001c0 ae e4 77 bd 98 1c a4 3d a5 db 24 be 59 dd 2d be
       -0.06052082 0.08013266 -0.16099413 -0.16978969
0001d0 f4 9f d7 bd 53 d2 b5 bc a0 8a 9a 3c 13 ae 43 be
       -0.105285555 -0.022195017 0.01886493 -0.19109373
0001e0 80 ad a7 3d e8 15 f3 bd 05 f1 2a be bc 08 b0 bd
       0.081873894 -0.11869413 -0.16693504 -0.08595416
0001f0 0e 91 5c 3e 42 9f 4b be 61 d9 ca bd 40 95 96 3d
       0.21539709 -0.19884971 -0.09904743 0.07352686
000200 9c da 1e 3c 84 e4 97 3c f7 61 c5 bd c3 84 0a be
       0.009695675 0.018541582 -0.09637826 -0.13527207
000210 54 a8 98 3c 0d 5d 7c be 1b 47 ae bd 04 c2 a6 bd
       0.018634953 -0.24644871 -0.08509656 -0.08142474
000220 94 db 59 3d 1d 6b 89 3d 90 1f 11 be 05 f7 a9 ba
       0.05318792 0.06709883 -0.14172196 -0.0012967294
000230 db 6b 99 bc 6b d6 0a be b6 76 89 be fd c7 39 bc
       -0.018728187 -0.13558356 -0.26848382 -0.011339185
000240 1e 9c 0f be e4 1c 53 3e ba 4d 02 3b 2c a6 a1 be
       -0.14024398 0.2061649 0.0019882754 -0.31572092
000250 ae 79 25 3e ef f9 ca bd f1 cd 39 3e 81 90 ac bd
       0.16159698 -0.09910952 0.18144967 -0.084259994
000260 df ce 04 3e c2 9b 5e be dd 53 88 3d 26 f1 80 bd
       0.1296954 -0.21739104 0.06656621 -0.062959954
000270 d3 10 95 3d 46 2f 36 be d0 ab 20 be ae 50 a7 bd
       0.072785996 -0.17791471 -0.15690541 -0.08169685
000280 f5 99 1e 3d 26 66 60 be 96 2d 3a be a1 bd 07 bd
       0.038721044 -0.21913967 -0.18181452 -0.03313983
000290 23 42 9d be a2 97 29 be 77 9c 2c bd 03 81 94 be
       -0.3071452 -0.1656175 -0.042141404 -0.29004678
0002a0 b5 b8 d4 bd 3b ba bc 3d 3a d9 0e be b3 eb ca bd
       -0.103867926 0.09215208 -0.13950053 -0.09908237
0002b0 fd c6 e1 bd 5c c9 f5 bd 76 a7 07 3e e3 bb 9c be
       -0.11024282 -0.12001297 0.13247475 -0.30612096
0002c0 67 06 26 3e 90 21 69 be cc e5 4e be 2c fc ce bd
       0.1621338 -0.2276671 -0.20204848 -0.10106692
0002d0 21 c6 18 3d 4d c5 82 3c 7f 5f 8c bd a4 d3 9d bd
       0.037298325 0.015963221 -0.06854152 -0.07706383
0002e0 04 6b df 3d 05 67 92 bd 66 e5 5e 3d 05 4d 4d be
       0.109090835 -0.07148556 0.05441799 -0.20048912
0002f0 aa 11 cf 3d ae 77 8f 3d d7 81 6b be 8a 81 0c be
       0.10110791 0.07005249 -0.22998749 -0.1372129
000300 1d b2 01 be 86 77 59 3e d7 4e 1a 3e 0a b3 a3 be
       -0.12665601 0.21237001 0.15069138 -0.31972533
000310 89 af d3 ba 85 c2 44 be 74 56 d6 3d bf 58 70 be
       -0.0016150336 -0.19214828 0.104657084 -0.23471354
000320 92 c9 11 3e a8 88 74 bd 9f 29 2c be 41 66 57 bd
       0.14237049 -0.059700638 -0.16812752 -0.05258775
000330 f5 8e 4e 3e 06 cf 84 be 9c 4d 8c bd 56 ae 13 3d
       0.20171721 -0.25939196 -0.0685074 0.03605493
000340 fe 9e b5 be 89 98 21 be 66 55 8e bd c7 9f 28 3e
       -0.35472864 -0.15780844 -0.06949882 0.164672
000350 1a 90 00 be c5 af 98 bd 09 66 de bd 7b 5c 96 3d
       -0.1255497 -0.074554004 -0.108593054 0.07341858
000360 2c 34 0e be 27 b2 82 3e 06 06 b3 3d f6 15 d0 bd
       -0.1388709 0.25526544 0.08741383 -0.10160439
000370 18 00 c6 be bf ff 37 bd 1f b2 b7 bd de 6e 4e be
       -0.38671947 -0.044921633 -0.08969521 -0.2015948
000380 15 3b b4 bb 80 91 ad be 65 ed f6 bd 9d 4c 0c bd
       -0.005500207 -0.3390007 -0.12056998 -0.03425275
000390 00 22 21 be d8 48 6b bd 88 e7 12 be 39 9f 65 3e
       -0.15735626 -0.057442516 -0.14346135 0.2242402
0003a0 f2 d7 9e 3c 0f 12 0d be 45 37 fe 3d 59 81 aa be
       0.01939008 -0.1377642 0.124128856 -0.3330181
0003b0 a6 e0 17 be a9 9e 57 be 50 6f 77 be ac d9 8a be
       -0.1483179 -0.21056618 -0.24163556 -0.27119195
0003c0 76 a1 53 be a3 07 ec be 8d d8 2b 3d 56 82 d3 bd
       -0.20667061 -0.46099576 0.041954566 -0.10327594
0003d0 ed b4 c1 bc 26 3d f5 bd 2f c6 96 be 37 80 71 bd
       -0.023645842 -0.11974554 -0.29448077 -0.058960166
0003e0 2c 60 39 be 5e ba 27 bd 0c a2 6a 3d 95 4a 90 be
       -0.18103093 -0.040949218 0.057283446 -0.28181902
0003f0 29 66 04 be 15 35 6e bc 2d e2 b6 be a0 0c 17 be
       -0.12929596 -0.014539023 -0.35719433 -0.1475091

actor_out.weight f4 [12, 256]
000000 ed 08 ba 3e 62 1d 17 bb 51 6f 77 3e ba ae 21 bf
       0.36334935 -0.0023058285 0.24163558 -0.63157237
000010 b7 54 42 be a5 16 d9 be 41 03 2c 3d 90 4a 0f 3e
       -0.18977629 -0.4240009 0.04199529 0.13993287
000020 d5 1c c0 be 2a fd a0 bc 23 a7 1a be 26 9d d7 3e
       -0.37521997 -0.019651968 -0.1510282 0.42112082
000030 f0 32 17 3e cf 33 86 3d 2f c1 28 bf 77 82 0f 3e
       0.14765525 0.065528505 -0.65919775 0.14014612
000040 da 34 ce bd 5d 41 ad be 66 31 42 3d cd d4 9a be
       -0.100686744 -0.3383893 0.04741039 -0.3024048
000050 2c 11 84 3e 74 ac c5 3d 14 60 cf 3e 21 18 14 bd
       0.2579435 0.096520334 0.4050299 -0.036155824
000060 6c 7a 5e 3d 09 f3 0a be ad 2c 09 bf d9 b5 2b 3f
       0.05431597 -0.13569273 -0.53583795 0.6707435
000070 0b 30 14 bf 34 0a 31 be a4 89 a3 be 62 fa 19 bd
       -0.5788581 -0.17289048 -0.3194095 -0.0375923
000080 59 81 6e bb 26 b1 d1 3e 0e 8b e9 3e c9 74 0e bd
       -0.0036393015 0.40955466 0.45613903 -0.034779344
000090 6f 7c 8b 3e bc bb 0b 3c ef 19 34 3f 96 d9 47 3e
       0.27243373 0.008528646 0.7035207 0.19516596
0000a0 ed 32 f2 3e 57 0c 3b be ab f7 23 be fe c5 80 3e
       0.47304478 -0.18266426 -0.16012447 0.25151056
0000b0 2e b9 a3 3d 89 5e 51 3f 9c 04 03 bf 6b c6 f4 3d
       0.079943046 0.81784874 -0.5117891 0.11951908
0000c0 33 8b fa 3d 42 98 15 bf 92 66 8c be 95 20 d4 be
       0.122335814 -0.5843545 -0.27422005 -0.41431108
0000d0 c4 bf ec 3e 03 d3 17 3d 77 e2 b9 3e f0 af f8 bd
       0.46240056 0.03706647 0.3630559 -0.121429324
0000e0 a7 f0 89 3e 55 f2 c7 3e bd 56 14 be 38 a6 c8 3e
       0.26941416 0.39052072 -0.14486213 0.39189315
0000f0 9a be 02 bf cf 95 9a 3e 3d e2 e9 3e 30 32 bd be
       -0.51072085 0.3019242 0.4568042 -0.36952353
000100 de 6d ed 3d be 7d 08 3f 1b 0f 3b 3e 90 e3 07 be
       0.11593221 0.5331687 0.18267481 -0.13270402
000110 12 48 4c be ae b1 88 3e b1 f3 9d 3e 77 2a cc be
       -0.19949368 0.2669806 0.30849984 -0.39876148
000120 3e ef 26 3d 04 42 b7 3e 62 f2 20 3e 1f f3 79 be
       0.040755503 0.35792553 0.15717462 -0.2440915
000130 bd db b4 be dc 6e c8 3c 4f b3 23 3f b9 d5 09 3e
       -0.35323897 0.024466924 0.6394548 0.13460435
000140 2b f5 05 bf 1a 60 b7 3e d8 5d 81 3f 5a 4e bb 3e
       -0.5232722 0.35815507 1.0106764 0.36583215
000150 70 bb 55 be 90 fc 2a bd fb a4 0d bf 45 d4 b2 3c
       -0.20872283 -0.04174477 -0.55329865 0.021829734
000160 ca 1f 36 3d 79 0e 63 3f ad 62 e3 3d d5 92 25 bf
       0.04446391 0.8869396 0.11102805 -0.6467717
000170 4a f4 cd 3e e5 f9 9a 3e 3e 86 e9 3d 0a d6 17 be
       0.4022544 0.3026878 0.11402558 -0.14827743
000180 c9 a1 0a 3e af 68 97 3e 9f c3 f9 3d 64 29 51 3e
       0.13538279 0.29572055 0.12195515 0.20425946
000190 89 37 9d 3d b0 7e f9 be 73 7e 7f 3d b3 7c c1 3d
       0.07676608 -0.48729467 0.06237645 0.094476126
0001a0 2f 51 f4 3d 47 62 75 3e 80 d0 56 3d 13 b1 da be
       0.11929547 0.23963271 0.052444935 -0.42713222
0001b0 a4 e5 95 bc 2d 4c 34 3f 2e 36 39 bd ad 3d 2b be
       -0.018297978 0.70428735 -0.045217685 -0.16722746
0001c0 0a 15 a9 3d 8e 31 3b 3d 11 b7 74 3e cb 3d 5a bd
       0.08255966 0.045701556 0.2389796 -0.053281587
0001d0 d2 1f 81 3c d7 9d 69 be 0e 44 f8 3d 4c 97 3e 3e
       0.015762243 -0.22814117 0.121223554 0.18612403
0001e0 25 83 08 3e 1e 96 6a bd 6d 99 aa 3d b8 13 6d 3d
       0.13331278 -0.05727207 0.08330045 0.057880133
0001f0 55 d1 a9 be 4e 68 4e 3b 8b 11 1f 3c 02 88 ee bd
       -0.3316752 0.0031495276 0.009708772 -0.11647035
000200 b4 30 7d 3e 35 c8 47 3f b8 cc 3b bd 00 57 78 3e
       0.2472561 0.78039867 -0.045849532 0.24251938
000210 10 42 84 3e 47 0c 22 3e 6d 12 1b 3f 5e e8 33 3e
       0.25831652 0.15824996 0.6057499 0.1756911
000220 23 c1 2b 3e 76 e4 10 3f 73 db fc be 52 7c c0 be
       0.16772895 0.56598604 -0.49386176 -0.3759485
000230 f6 f1 ac 3d 3b 46 cc 3e 51 67 9b be 7d 30 3e bd
       0.08444588 0.39897332 -0.30352262 -0.04643296
000240 fd 27 27 bd 97 b9 9a bc ff c8 b4 3e 62 4b 31 be
       -0.04080962 -0.018887324 0.35309598 -0.17313913
000250 ae e1 eb 3e 9d 9b 41 bd 64 46 e6 bc 4a 20 c2 be
       0.46070617 -0.047267545 -0.028109737 -0.3791526
000260 c6 c2 46 bd 3c 01 8d be d0 e7 8c 3e db 80 00 3c
       -0.048525594 -0.27540004 0.2752061 0.007843222
000270 6e db c2 3d df d7 0d 3e ba 0e ac 3d ae 90 92 ba
       0.09514509 0.1385188 0.08401246 -0.0011182034
000280 59 ee 62 3d 03 82 48 3e fc 29 e3 bc 56 ff 2f be
       0.055403087 0.19580846 -0.02772998 -0.17187247
000290 4d 49 42 bd 93 ce 93 3d a4 49 c7 bd ce 57 1a bf
       -0.047433186 0.07217135 -0.09730843 -0.6029023
0002a0 00 4d d0 bd 2e ad f0 be 5f 01 c8 3e 34 e4 61 3c
       -0.101709366 -0.47007126 0.39063546 0.013787318
0002b0 13 dc 7f 3e 8d 35 5c 3f be 7b ec 3d 3a 72 cc 3e
       0.24986295 0.8601921 0.115470394 0.39930898
0002c0 cc ab b2 be af f8 29 3d b3 11 22 3c 03 ba 55 3e
       -0.34896696 0.04149693 0.009891915 0.20871739
0002d0 53 69 8e 3a b4 b6 c9 3e 41 10 80 3e c5 44 1d 3e
       0.0010865129 0.39397204 0.250124 0.15358265
0002e0 31 a3 3a be ac ce dd bd ed 49 47 3e e1 ff e1 3d
       -0.18226315 -0.10830435 0.19461794 0.11035133
0002f0 cc 94 0c be f6 30 ea be 8e 96 bf be 31 94 2a be
       -0.13728637 -0.4574048 -0.37419552 -0.16658093
000300 a5 23 21 bd e6 4d 71 3d 3f d5 d0 be 86 59 bf bd
       -0.039340634 0.05891218 -0.40787694 -0.09343247
000310 f5 3c cc 3e b6 59 5b 3f d1 87 c5 3e 28 2f 49 3e
       0.39890257 0.85683763 0.38580182 0.19646895
000320 15 d9 09 3e f7 bf a6 bc 5d 4d 4d 3e 21 47 a0 3e
       0.13461716 -0.020355208 0.20049043 0.31304267
000330 8b 18 81 bf e0 29 48 3e 84 73 a1 bd f9 ea ad 3e
       -1.0085615 0.19547224 -0.07883361 0.33968332
000340 03 55 73 be 21 b1 a1 3f 99 bf 86 3d d0 0a a8 3e
       -0.23762898 1.263218 0.06579513 0.3282075
000350 35 fa 20 bd 33 55 77 3c ee 7a 43 be 7c 55 1f be
       -0.039301116 0.015095997 -0.19089863 -0.15559953
000360 52 b1 fa bb ba 23 7a bd ed 19 68 be 56 c9 8b 3f
       -0.0076505328 -0.061069228 -0.2266614 1.0920818
000370 2c d5 b9 be a7 cb 12 bf 10 75 a3 3d 54 42 c9 3e
       -0.3629545 -0.57342 0.07981312 0.39308417
000380 3d a2 aa 3b 49 42 e2 3e 02 38 e7 be 23 c3 08 3f
       0.0052073286 0.44191197 -0.45159918 0.53422755
000390 41 0f ee 3e b0 82 26 be f7 7d 8e bd 0c b4 56 3e
       0.46496013 -0.16260791 -0.0695762 0.2096712
0003a0 ea 4d 46 3e 0b 1f 7d 3d de 7c aa be 99 5b 99 3e
       0.1936566 0.061797183 -0.3329839 0.29952696
0003b0 cd c4 63 bc dc 41 d3 bc a7 8a 27 3e 50 b4 0d bf
       -0.013901901 -0.02578824 0.16361485 -0.5535326
0003c0 3a 7f 71 3f c0 13 5c bc eb 3c ba be 67 88 c0 3d
       0.9433476 -0.013432443 -0.36374602 0.09401017
0003d0 d8 6b 2f be 63 d8 8b be d2 8b a3 3e 2e ff 80 be
       -0.17130983 -0.27313527 0.31942612 -0.25194687
0003e0 7b 36 93 3e c7 20 36 3d fa 74 3f be ea f6 92 be
       0.28752503 0.044464853 -0.18696967 -0.28704005
0003f0 79 08 96 3e 68 9d f4 be d7 2b 0b 3f 13 16 c4 bd
       0.2930334 -0.4777634 0.5436377 -0.09574523

actor_out.bias f4 [12]
000000 fb 36 34 3e 14 f5 30 be 30 45 0c 3e e0 d3 19 be
       0.17599098 -0.1728099 0.13698268 -0.1502223
000010 70 74 13 be 5c a3 9f be 2c c9 91 bd 7d 0c 31 3d
       -0.14399886 -0.3117932 -0.071184486 0.0432248
000020 4c 53 00 be 2e f1 88 3e 11 03 28 be fc 52 07 be
       -0.12531775 0.26746505 -0.1640742 -0.1321525
