networks/saved_model_2/ppo_model_ep500.pth (torch, 842098 bytes, 11 tensors)

shared_fc1.weight f4 [256, 33]
000000 0f f6 af bd d0 0b c2 bd 46 b2 17 be f0 5d 0d be
       -0.08591854 -0.09474909 -0.148141 -0.13805366
000010 0e 64 6f be 74 56 44 be b6 a8 30 be 81 3a 27 be
       -0.23378012 -0.19173604 -0.17251858 -0.16330911
000020 f3 06 e9 bd 8a 4a 56 3d 2e 79 3e be ec 52 6a 3d
       -0.113782786 0.05231718 -0.18600914 0.057207987
000030 e9 3b a0 bd a1 4f 15 3d 9e c4 ae bd e3 72 13 3e
       -0.07823927 0.036452893 -0.085335955 0.14399295
000040 87 04 17 be 2a 8a 98 bc 1e 53 d3 bd 2c 67 b1 3c
       -0.14747821 -0.01862057 -0.10318588 0.021655641
000050 2b 74 dc 3d 6b a2 2a bd 31 15 ab be 58 7f f0 bd
       0.10764345 -0.0416588 -0.33414605 -0.11743039
000060 4c f9 81 be 9a c4 92 be 7d 59 a8 be 64 b4 99 be
       -0.2538551 -0.2866562 -0.32880774 -0.3002044
000070 e4 56 ac be 87 98 89 bd 70 5c 92 be 36 02 aa be
       -0.33660042 -0.067185454 -0.2858615 -0.33204812
000080 9c ab 7f be a2 d7 ac be e2 e7 a2 be 40 d7 22 bf
       -0.24967808 -0.33758265 -0.31817538 -0.63609695
000090 e3 f6 26 be 35 a9 80 be 3c 81 33 bf d2 c0 26 bf
       -0.16305117 -0.25129095 -0.7011907 -0.6513797
0000a0 dd 57 95 bd b5 0c 1e bf 58 2a f1 3c ea b5 2d bd
       -0.07292149 -0.6173814 0.029439136 -0.042409815
0000b0 30 e7 04 3e d2 17 82 be c8 1e 3f bd 58 5f 91 bd
       0.12978816 -0.25408798 -0.046660215 -0.070982635
0000c0 3f a3 86 3e 37 1d 14 3e fb 93 a9 3e ce 39 83 3c
       0.26296422 0.1446427 0.33120713 0.016018774
0000d0 7f 57 46 c0 37 09 5e bf cc 29 1a 40 b8 48 95 be
       -3.0990903 -0.8673281 2.408801 -0.29157043
0000e0 3b 75 d9 3d 62 04 2f be b0 7d ac bd 05 a6 55 bf
       0.10618063 -0.17091516 -0.084224105 -0.8345645
0000f0 c4 29 a3 be d0 ed 0f bf 7f ac 5b be 75 b5 b9 3e
       -0.31867802 -0.5622225 -0.21452521 0.36271253
000100 72 11 8c be 13 2e 0c be 00 2d 44 bd 26 0c 47 be
       -0.2735706 -0.13689451 -0.047894478 -0.19438228
000110 a9 57 40 be 7c 07 e6 bd ed 95 33 be a8 35 2d be
       -0.1878344 -0.11231896 -0.17537661 -0.16915
000120 c9 94 79 be ad 6c ad bc a8 9a 23 3e e6 34 db 3d
       -0.24373163 -0.021169985 0.15976965 0.10703449
000130 03 ea 47 3c 61 f4 18 3d ff 39 99 3d 18 db 17 3e
       0.012201789 0.037342433 0.07481765 0.14829671
000140 2f ed f5 3b ad 95 9e 3c 00 da 39 bb a4 7f 10 bd
       0.007505081 0.01935848 -0.0028358698 -0.035277978
000150 74 e7 60 be 05 f0 8e bd 94 91 a4 bd 99 82 bd bd
       -0.21963292 -0.06979374 -0.08035579 -0.09253425
000160 11 0a 73 be ec 23 91 bd 9b b5 09 be 0d 63 72 be
       -0.23734309 -0.0708693 -0.13448183 -0.23670597
000170 db 02 89 be c8 16 92 bd 82 27 c2 bd aa c7 4b be
       -0.2675999 -0.071332514 -0.09480192 -0.19900385
000180 a0 fb 0c 3d 8f aa 1a be e0 91 49 be 12 dd 30 be
       0.034419656 -0.15104125 -0.19684553 -0.17271832
000190 5b fa 1b be 0a c8 b7 be e8 a2 84 bd 90 2f 60 be
       -0.15232222 -0.35894805 -0.064763844 -0.21893144
0001a0 e9 1e 07 3d 09 1a 7a be d9 ab 2b be 25 18 be be
       0.032988463 -0.24423994 -0.16764773 -0.37127796
0001b0 ce 32 4d 3e c4 85 e7 3c 9d 65 1a 3e 6c 0b 40 bd
       0.20038912 0.028262027 0.15077825 -0.046885893
0001c0 d9 94 e9 bd 09 bd 8f 3d d9 bc 9d 3d 1b 0f b8 be
       -0.114053436 0.070184775 0.077020355 -0.35949025
0001d0 ae 6a 43 bd 0f c0 ef 3d fb 16 81 3e 35 c0 89 bf
       -0.04770916 0.11706554 0.25212845 -1.0761782
0001e0 7e 47 a7 bb 6c 34 f8 bd 3d 40 43 be 6e e5 35 be
       -0.005104958 -0.12119374 -0.19067474 -0.17763302
0001f0 47 bc f1 be 6c 09 b9 be 89 cc a3 be 8f 39 72 be
       -0.47213957 -0.3614 -0.31991985 -0.2365477
000200 de 98 85 be 70 07 65 3e 97 33 00 be 75 b0 ce bc
       -0.2609319 0.22366118 -0.1251968 -0.025230626
000210 38 4d 09 3f 16 fa a0 be e8 51 53 3d 97 b3 df 3d
       0.5363345 -0.314408 0.051591784 0.10922926
000220 31 2c b6 3c 4c e2 70 bc 2e fe 87 be 1a f0 5d 3b
       0.022237869 -0.014702391 -0.2656111 0.0033865036
000230 2f d7 2a be 37 cd 99 bd b8 ba bc be 31 57 05 bc
       -0.16683649 -0.07509845 -0.36861205 -0.008138464
000240 ff 31 92 be 09 13 56 3d 49 f4 83 3d 55 ff 28 be
       -0.2855377 0.052264247 0.06443078 -0.16503651
000250 23 4e 1c 3e 16 35 2d 3f 21 f1 de be 2c 73 9a c0
       0.15264182 0.6765913 -0.43543342 -4.826559
000260 d1 e2 89 3f 21 ee 54 40 8d 81 28 3d e4 48 81 be
       1.0772344 3.3270342 0.041139174 -0.25250924
000270 86 f6 90 bd b0 2f 8d bd da fd fe 3d 84 4d 69 be
       -0.070782706 -0.06893861 0.12450762 -0.22783476
000280 83 09 4a 3d 91 5d 48 bd f3 dc cf 3d 3b 55 81 3d
       0.049325477 -0.048917357 0.101495646 0.063150845
000290 91 42 16 3d 41 e1 e1 be a0 0e 0b be 97 88 b4 be
       0.036684576 -0.44117168 -0.13579798 -0.3526046
0002a0 ec fe 6f bd 72 bc 78 be c9 ef 73 be f0 92 f4 be
       -0.05859272 -0.24290636 -0.2382194 -0.47768354
0002b0 86 d5 88 be ae de 2f bd e6 7a 37 3e 27 96 35 3e
       -0.26725405 -0.042936973 0.17917976 0.1773306
0002c0 a6 59 c2 bc 9e f2 b1 be 09 9d 72 3c 90 d4 22 3e
       -0.023724388 -0.34755415 0.014807948 0.15901399
0002d0 e9 0e b2 bc 9d 49 c9 be 45 ec ab 3e 6c 78 8d 3d
       -0.021735625 -0.39313975 0.33578697 0.06907734
0002e0 55 27 e3 be e4 85 53 bf 62 c5 ea 3d b8 bb 18 be
       -0.44365945 -0.82626176 0.11463429 -0.14915359
0002f0 72 5c 5b bd 1f c6 05 be a2 1e 23 be 7f ae 5e be
       -0.05355496 -0.13063858 -0.15929654 -0.21746252
000300 8e dc 52 be 58 25 a3 be 66 e9 38 be 28 54 40 3e
       -0.20591947 -0.3186443 -0.18057784 0.18782103
000310 95 a3 5b be 8c a8 4f be b8 34 2b bf 70 06 5e 3d
       -0.2144912 -0.2027914 -0.6687732 0.054205358
000320 4a 3b 16 bf 9a a0 98 be 2d 41 44 be 99 f0 44 be
       -0.5868422 -0.2981003 -0.19165488 -0.19232406
000330 1a fe 08 bf 62 26 45 3d 62 5d 12 be b9 96 e5 bc
       -0.5351273 0.048132308 -0.14293435 -0.028025972
000340 5a 5b 0a be 08 8a 43 bd 6c 58 9c 3d dd f2 b0 3d
       -0.1351141 -0.04773906 0.07634053 0.086400725
000350 f4 14 5f 3e 88 a5 81 3d 4d e0 bf be 18 fc d8 be
       0.21785337 0.06330401 -0.37475815 -0.42379832
000360 d8 a1 b4 3e 49 6e 89 3f ff ef b3 bf 31 56 49 3e
       0.35279727 1.0736781 -1.4057616 0.19661786
000370 04 df 6c be ac bd 0e 3e 16 d1 b8 3c e9 bb 8a be
       -0.23131949 0.13939542 0.022560637 -0.2709649
000380 05 7b f5 bc 37 27 b7 bc 15 c2 ac be 51 56 27 3d
       -0.029965887 -0.022357566 -0.33741823 0.040853802
000390 9d 10 51 bb 47 38 99 bd 38 60 e9 bd ba 56 56 be
       -0.0031900771 -0.07481437 -0.113953054 -0.20931521
0003a0 14 80 71 bd a5 8f 27 be 06 15 50 be 43 a8 75 bd
       -0.058960035 -0.1636339 -0.2032052 -0.05997492
0003b0 c4 66 0c be 89 37 26 bd 07 23 1b be 49 cf 9f bd
       -0.13711077 -0.040580306 -0.1515008 -0.078032084
0003c0 36 4a 5f bd 3b 9f 8c 3d f4 92 69 3d 30 61 e0 3d
       -0.054514132 0.06866308 0.05702491 0.10956037
0003d0 17 1e f8 bc f6 08 6f 3d 94 53 c7 3d 5a ca ac bd
       -0.030287785 0.058358155 0.09732738 -0.08437033
0003e0 8f e7 17 be eb 08 18 be f4 75 1d be 01 48 57 3d
       -0.14834426 -0.14847152 -0.15377027 0.052558903
0003f0 7e 05 0c bd f0 80 23 be a3 e8 fb bd 00 91 da bc
       -0.034184925 -0.15967155 -0.12300231 -0.02668047

shared_fc1.bias f4 [256]
000000 94 6e 5e be 10 0e 81 be f1 86 05 be 47 42 01 be
       -0.2172187 -0.2520604 -0.13039757 -0.12622939
000010 13 0d db bc 14 79 6d be 8a 95 14 be 0e d2 ec bd
       -0.026739633 -0.23190719 -0.1451017 -0.11563502
000020 3a 90 67 be 98 2d 75 be 1b 45 26 be 3b 3c 44 be
       -0.22613612 -0.23943174 -0.16237299 -0.19163601
000030 11 cf 41 be 9b d0 05 be 97 fc 49 be c3 86 44 3c
       -0.18926646 -0.13067858 -0.19725262 0.01199502
000040 3d b4 8a be 5c f8 e1 bd ba ce 74 3d 1a c6 e0 bd
       -0.27090636 -0.11033699 0.059767462 -0.10975285
000050 39 39 44 3d 25 c1 28 be 24 32 94 be 91 44 3b be
       0.047906134 -0.16479929 -0.28944504 -0.18287875
000060 ba 1b 5a 3d f4 22 fe bd c1 35 2f be f8 41 32 bd
       0.0532491 -0.124090105 -0.17110349 -0.043519944
000070 db 4a 7d bd 30 54 aa be b5 51 13 be 53 bc e1 bd
       -0.061838966 -0.33267355 -0.14386638 -0.11022248
000080 78 b5 9c be d9 17 0d be 35 e4 f5 3c df 1b 65 be
       -0.306072 -0.13778628 0.030016044 -0.22373913
000090 b3 5a 71 be ce 36 4c be 25 98 64 be 2f 2b 9c be
       -0.23569755 -0.19942781 -0.22323664 -0.30501696
0000a0 58 92 5c be 29 63 6f be 7e 83 06 be 90 be cb be
       -0.215402 -0.2337767 -0.13136098 -0.39793825
0000b0 c9 63 d0 bb 6c cb 22 bc dc ac 1b be 93 4a b3 bd
       -0.0063595516 -0.009936195 -0.1520266 -0.08754458
0000c0 fb 64 e5 bd 34 7b 7c be 9e c9 d1 bd ef c5 1b be
       -0.11200901 -0.24656373 -0.102435336 -0.15212224
0000d0 93 d1 94 be 24 fe 8b bc bc b9 50 be dc 25 0b be
       -0.29066142 -0.017088957 -0.20383352 -0.13588661
0000e0 37 fd 96 be 1f 52 2f be 9e cc 5e be 80 33 88 be
       -0.29490063 -0.1712117 -0.21757743 -0.2660179
0000f0 e3 a6 93 be 02 2f 16 be e6 95 e4 bd 07 2b 99 be
       -0.28838262 -0.1466637 -0.11161403 -0.2991564
000100 10 11 71 be 7a a7 42 be 0a d8 95 be 88 05 4e be
       -0.23541665 -0.190092 -0.29266387 -0.20119298
000110 4e 13 6f be c7 78 81 3d 3c a9 c2 bd 6a 0f 58 be
       -0.23347208 0.063218646 -0.09504935 -0.2109963
000120 19 5b 34 be 04 67 27 be ad 3a 0c be 9c 3d 7f be
       -0.17612876 -0.16347891 -0.13694258 -0.24925846
000130 ed 2a 88 be 23 1e a4 be 89 43 99 bd a4 82 c8 bc
       -0.2659525 -0.32054242 -0.074835844 -0.024476357
000140 42 42 c9 3c 00 8a 83 bd ab 64 2b be e9 65 b5 be
       0.024567727 -0.06422806 -0.1673762 -0.35429314
000150 0a 9d 48 be 5d db 9d be 2c 69 0d bf 6e c4 ce bd
       -0.19591156 -0.30831423 -0.55238605 -0.1009606
000160 90 bb 44 be 93 83 11 be 02 96 6f be 65 1a ad bd
       -0.19212174 -0.14210348 -0.23397067 -0.084523
000170 7c d5 31 3c f1 66 e5 bd e0 fe 3f be bd c4 15 be
       0.010854121 -0.11201275 -0.18749571 -0.14625831
000180 e0 f9 36 be 5d 5b c8 be 25 b6 22 3c d3 c9 0f be
       -0.17868757 -0.39132205 0.009931122 -0.14041834
000190 6d bc 27 be cd da f1 bd e3 d3 85 be e6 bc 1e be
       -0.16380472 -0.11809311 -0.2613822 -0.15501747
0001a0 02 65 28 be 89 78 4d be 52 3a ec bd 98 0d 4c be
       -0.16444781 -0.20065512 -0.11534561 -0.1992706
0001b0 72 2d bc bd 14 90 95 bd 70 09 90 be 81 30 b7 3b
       -0.091883555 -0.07302871 -0.281322 0.005590499
0001c0 0e b5 87 bd 4e ac 62 be 4b 17 67 be 8c 0e 0a be
       -0.0662633 -0.22136042 -0.2256748 -0.13482112
0001d0 4b e6 2b be 73 d3 c7 be 51 fc f6 bd 10 0b 0f be
       -0.16787069 -0.3902851 -0.12059844 -0.13969064
0001e0 d2 4b c8 bc e4 82 39 bd ae 67 45 be a9 cd 59 3d
       -0.024450216 -0.045290843 -0.19277832 0.05317465
0001f0 df 91 2e be 6f 49 d1 bc c8 33 21 be db cc d1 bd
       -0.17047833 -0.025547711 -0.15742409 -0.10244151
000200 da bd 25 bc fe d7 69 be ad 69 18 be 0f 35 92 be
       -0.010116065 -0.228363 -0.14884062 -0.28556105
000210 ab 6f 07 3d b5 ce d3 bd ae 6a ba bc fd 44 18 be
       0.03306548 -0.103421606 -0.022755947 -0.14870067
000220 52 70 09 bf 07 53 3c be 15 8c 26 be 14 61 07 bc
       -0.5368701 -0.18391047 -0.16264375 -0.008262891
000230 5f a0 f7 bd 3c bf 01 be 5d 56 ed bd 89 b1 31 be
       -0.12091135 -0.12670606 -0.11588738 -0.1735288
000240 16 fe 72 be 8d 02 64 3d 93 16 ca bd b9 2d 55 be
       -0.23729739 0.055666495 -0.09867587 -0.20818223
000250 50 39 18 be d2 56 07 bd 86 08 e4 bd c0 c0 98 be
       -0.14865613 -0.033041783 -0.11134438 -0.29834557
000260 0c 43 8d be f1 63 8d be 00 84 b5 3d 78 60 24 be
       -0.27590215 -0.27615312 0.088630676 -0.16052425
000270 6b 10 88 be 67 44 9f be 59 76 d1 bd a6 64 6c 3b
       -0.26575026 -0.31106874 -0.10227651 0.0036070733
000280 73 2b 5d 3d 52 49 28 3d 7b d0 9b be a3 51 25 be
       0.053996515 0.04108555 -0.30432495 -0.16144423
000290 60 72 7c be f6 de 42 be 66 0e b4 be ea 4d 0f be
       -0.24653006 -0.19030365 -0.35167235 -0.13994566
0002a0 a2 b1 7d be 59 27 24 be 86 53 a8 3c fb 20 59 bd
       -0.24774793 -0.16030635 0.02054764 -0.05300997
0002b0 b3 99 d9 bd 00 bf 68 bd 0c 5a af be 6f cc 6d be
       -0.10625019 -0.056822777 -0.34248388 -0.23222516
0002c0 23 21 2b be b5 d8 6e be 82 9c 23 be 4f 2a 18 be
       -0.1671186 -0.23324855 -0.15977672 -0.1485989
0002d0 2e 21 68 3d 1c 18 9b bd 50 19 ad 3d e5 1d 13 be
       0.056672268 -0.07572958 0.084520936 -0.14366873
0002e0 63 34 85 be a3 cf 43 be 39 1d 07 be 0f d4 02 bd
       -0.2601653 -0.19122176 -0.13194741 -0.031940516
0002f0 b1 5b f5 3b 9c 96 e1 3c af 46 68 be 9e d8 16 bc
       0.007487737 0.027537636 -0.22683214 -0.009206919
000300 f0 61 0f be 56 52 32 be b6 67 62 bd 52 7e 8c be
       -0.14002204 -0.17414221 -0.055274688 -0.27440125
000310 c5 a7 21 be 4a d7 24 be 81 8f 6a be c7 01 62 be
       -0.15786655 -0.16097751 -0.22906305 -0.2207099
000320 26 cf 69 be cb e8 4a bc 76 b8 23 be 39 9a 86 be
       -0.22832927 -0.012384604 -0.15988335 -0.26289538
000330 6a 4d 0e be fa 8d 14 be 9d c8 42 3d fd 71 11 be
       -0.13896719 -0.14507285 0.0475546 -0.1420364
000340 62 18 19 be 17 29 6c be 81 1c 4d be 26 86 18 bc
       -0.14950708 -0.2306255 -0.20030405 -0.009309327
000350 7f 50 8e 3c f7 22 d6 3a 2f 91 f9 bd 92 5a c4 bc
       0.017372368 0.0016337325 -0.12185895 -0.023968969
000360 3c bb 41 be 1c 3d 8f bd 0f d5 a8 bd 7d d8 be bd
       -0.1891908 -0.069940776 -0.08243763 -0.093186356
000370 d2 3a d1 be 71 8e 04 be 5b 17 22 bb 23 b1 12 be
       -0.4086519 -0.12944962 -0.002473316 -0.14325385
000380 f4 9d 5f be 79 ce 26 3c 4f 07 02 be 02 41 ad be
       -0.21837598 0.010181063 -0.126981 -0.3383866
000390 59 9e 20 bc 43 47 dc 3d 4a ee cd be 11 8d 72 be
       -0.009803378 0.107557796 -0.40220863 -0.23686625
0003a0 29 62 48 be f5 d1 5a bd de 78 f1 bd 79 79 28 be
       -0.19568695 -0.053422887 -0.11790632 -0.16452588
0003b0 c6 f9 28 be 85 cf 29 be e7 a4 a2 bd 79 d9 e6 bd
       -0.16501531 -0.16583069 -0.07941609 -0.11271948
0003c0 54 00 59 be 62 06 8f bd 2c ee f2 bd f0 dd 11 be
       -0.21191531 -0.06983639 -0.11861834 -0.14244819
0003d0 73 7b 62 be e6 fd 57 bd a7 38 77 3d 7e 4e 49 3d
       -0.22117405 -0.05273237 0.060356762 0.04914712
0003e0 20 ea ed bd ca 5c 3c be 2e bf 2a be 1d 5e b8 3d
       -0.116169214 -0.18394771 -0.16674492 0.09002326
0003f0 52 27 cb bc 03 a6 c8 3c 37 b8 9d be 24 ed e5 bd
       -0.024799023 0.024493223 -0.30804607 -0.112268716

shared_fc2.weight f4 [256, 256]
000000 03 99 0e be 15 53 a6 3b 27 01 10 be 40 44 ad bd
       -0.13925557 0.005075822 -0.1406294 -0.08460283
000010 b2 8c 1d 3e a4 a9 9e 3d 48 8b 07 3d d8 ed 86 bd
       0.15385702 0.077472 0.033091813 -0.06588334
000020 64 3d 7b 3e 41 04 3d bd 31 81 86 3e 8e 33 e8 bd
       0.24535137 -0.046146635 0.2627044 -0.11337958
000030 c1 14 72 bc 43 1e 3e be b3 99 f5 bc 88 00 0c be
       -0.014775456 -0.18566231 -0.029980516 -0.13672078
000040 ba 22 10 3d 7e d6 d2 bb 43 67 fb 3c e0 0f c8 be
       0.035189368 -0.006434261 0.030688887 -0.39074612
000050 61 a9 f4 bd 07 9c 8a bd fa 2a b1 be 28 a6 32 bb
       -0.11946369 -0.06768041 -0.346031 -0.0027259681
000060 46 78 57 3d 0c a9 60 bd 1b 7b a7 bb 8d 4b ce 3c
       0.052604936 -0.054848716 -0.005111111 0.02518251
000070 6b 89 38 bd 35 7f 19 be ff 01 cb 3c 76 04 fa 3d
       -0.045052927 -0.14989932 0.024781225 0.12207882
000080 3f 1c 09 be 2a 4e 88 bd 64 69 97 3d 79 6b 11 3c
       -0.13389681 -0.066555336 0.073931485 0.008875721
000090 ae 6d 32 bd c3 67 fc bb 8a 0b a8 3c 47 b1 59 bd
       -0.04356163 -0.007702799 0.020513315 -0.05314758
0000a0 7a 46 77 be ac 87 e5 3d fc 97 23 3d 91 cd 5e bd
       -0.24147978 0.11207518 0.039939865 -0.054395262
0000b0 f4 9d 15 bd 58 89 fe bd 76 8c 0f be 6a ab b0 bd
       -0.03652759 -0.1242854 -0.14018425 -0.08626445
0000c0 34 ea 63 bd f6 17 dc 3c e6 d8 75 bd 32 5c dc 3d
       -0.055643275 0.026866894 -0.060021304 0.10759772
0000d0 3f b1 3f 3d cc 8f 87 3e ef b9 89 3c 23 5c 96 3d
       0.046799894 0.26476896 0.016812293 0.073417924
0000e0 93 b6 38 bc 34 29 68 3d bc f3 28 be c7 a1 22 bb
       -0.011273998 0.05667992 -0.16499227 -0.0024815665
0000f0 48 e6 14 3d 55 74 82 bb 72 62 3f bc 44 7b 41 bd
       0.036352426 -0.003981153 -0.011681186 -0.047236696
000100 e1 d1 49 3e a3 b2 ba 3c 55 80 b5 bd d0 27 cb bd
       0.19708969 0.022790259 -0.08862368 -0.09919703
000110 3e 2f a4 bd 7b e3 b1 be 47 f0 66 3d 47 6f 05 bf
       -0.08016823 -0.34743866 0.05638149 -0.5212292
000120 90 7f f3 bd 9c f0 9f 3c 86 15 bd 3d 4f ac 54 bb
       -0.11889565 0.019523911 0.09232621 -0.0032451337
000130 b3 48 8b bc 5a b9 eb 3b c7 5d 5a 3c f2 ce b8 be
       -0.01700244 0.0071937265 0.013328022 -0.36095387
000140 49 79 8a bd ba da 35 bc de fd 5c 3e a8 94 27 bd
       -0.067614146 -0.011099512 0.21581218 -0.040913254
000150 a7 2c b3 3c 84 75 d7 bd 66 2c 06 3e 30 e9 42 bd
       0.021871878 -0.10520461 0.13102874 -0.047585666
000160 99 2f 64 be 80 65 38 bc 90 d0 ec bd d2 00 ae bd
       -0.22283782 -0.011254668 -0.11563218 -0.0849625
000170 a7 d6 8f be dc 45 e1 bd 2e 78 d4 bd cd 3b 85 3c
       -0.28093454 -0.10999653 -0.10374485 0.016263867
000180 40 7b c3 bd 06 85 80 bd 65 55 0a bf 12 29 fd bd
       -0.095449924 -0.06275372 -0.5403655 -0.12361349
000190 05 9e 57 be 2d 52 51 3c 75 ef 89 3b a8 5e 6e be
       -0.21056373 0.01277594 0.0042094537 -0.23278296
0001a0 3d 83 5a 3d 16 ee cb 3c c0 3f 5f 3d d7 f9 24 be
       0.053347815 0.024893802 0.054504156 -0.16110931
0001b0 e4 fe 9a 3c e7 b4 93 3d 28 57 9e be f2 2e 96 be
       0.01892037 0.07212239 -0.3092587 -0.2933269
0001c0 a0 b6 e5 ba 68 53 94 bd dc d8 09 be a6 9b 86 3d
       -0.001752574 -0.07242471 -0.13461632 0.06572656
0001d0 fb 03 d9 bb 28 f7 5b be ba 3c e9 bc d9 06 e4 3e
       -0.006622789 -0.21481001 -0.02847134 0.44536474
0001e0 48 45 62 be 86 d7 d2 bd 09 78 c5 bd 0b 23 07 3d
       -0.22096741 -0.10295014 -0.096420355 0.032992404
0001f0 e2 f3 b0 bd 74 6a bd bd 38 32 a6 3c 76 75 e4 3c
       -0.08640267 -0.0924882 0.020287618 0.027888041
000200 7e fd 94 3d 87 d0 5c bd 89 5e 9c 3c eb d4 3c 3d
       0.07274912 -0.053909805 0.019088047 0.046101492
000210 1a 45 02 be b5 88 28 3c 13 b7 9e bd fe 71 79 be
       -0.12721673 0.0102865 -0.077497624 -0.24359891
000220 a3 cb f8 3d e1 ec 01 be 94 b6 d7 bd 34 01 1f be
       0.121482156 -0.12688018 -0.10532871 -0.15527803
000230 6c f9 be bd 74 e9 9a 3d 39 bb be 3d 30 82 3f 3d
       -0.09324917 0.07564059 0.09313054 0.046755016
000240 6d 08 b5 bd 96 b8 ec bd e5 7a bd bb a6 fe e3 3c
       -0.08839498 -0.115586445 -0.0057824724 0.027831387
000250 f2 87 13 3c 26 81 a4 be 4d f9 11 3d 59 00 ee bd
       0.00900458 -0.32129782 0.035638142 -0.1162116
000260 a5 b4 66 be c9 93 6f bc 6a dd 83 3d 32 94 58 be
       -0.22529848 -0.014622637 0.06438716 -0.21150282
000270 dc 0a 65 3e f7 de 01 3e 0c a9 c7 3d 85 d6 a8 be
       0.22367424 0.1268271 0.0974904 -0.32976165
000280 86 73 d4 be f8 e9 7e 3e cd c8 0e 3c af c6 04 be
       -0.41494387 0.2489394 0.008714867 -0.12966417
000290 6a b9 f0 bd c5 ad e0 3d f1 2a a1 be 7e be 05 be
       -0.11754115 0.10970644 -0.31478074 -0.13060948
0002a0 cc 34 76 bd 5c f7 31 3d 9f f2 4c bd 22 57 99 bd
       -0.060108945 0.04344879 -0.05003607 -0.074873224
0002b0 b6 3b 6e bd ef b5 56 be 4c 0f 0a be 01 53 4f be
       -0.058162414 -0.2096784 -0.13482398 -0.20246507
0002c0 08 12 bd ba 6d 3d 10 be ad 1d 98 3d e1 d9 3b 3b
       -0.0014424929 -0.14085932 0.07427535 0.0028663801
0002d0 91 b1 04 be 9d eb 09 be a7 d8 ce bd ef fa 83 be
       -0.12958361 -0.13468786 -0.10099917 -0.25777385
0002e0 64 28 d3 bc 6c 40 93 3d 79 8f ec 3c 7d e7 83 3b
       -0.025776096 0.07190022 0.028877007 0.0040253983
0002f0 2d 59 82 bd 98 83 ca be 36 15 7b be 56 f1 af be
       -0.06364665 -0.39553523 -0.2451981 -0.34363812
000300 8f 09 9a 3d 46 4e 3c bd 0b e5 d6 bb 04 33 43 bd
       0.075213544 -0.045973085 -0.006558066 -0.047656074
000310 06 3f a2 bd 7a 24 c8 3d 45 1c a1 3e b2 6d 3b bd
       -0.07922177 0.09772582 0.3146688 -0.04575891
000320 ed 31 6e 3d 63 97 68 be 6c b3 a7 3d 40 17 12 3d
       0.05815308 -0.22714 0.08188519 0.035666704
000330 2a 7f 4f 3d a9 98 4a 3d 41 ad b4 be 86 0f 1f be
       0.050658382 0.049461994 -0.35288432 -0.15533265
000340 ae 5c c3 bd b8 16 11 bd b6 33 05 be 76 5e f3 3c
       -0.095391616 -0.035422057 -0.13008007 0.029708128
000350 1b 55 72 be e8 a3 95 be f8 5c 90 bd 32 db 8a be
       -0.23665278 -0.29226613 -0.070489824 -0.27120358
000360 6b e8 09 bf e1 1a 0f bd aa 86 44 3b c4 8a c5 bd
       -0.53870267 -0.034937743 0.0029987493 -0.09645608
000370 4f 66 86 3e 41 49 c6 bd a3 1d 25 be c6 d7 85 3d
       0.2624993 -0.09681941 -0.16124587 0.06535296
000380 b3 8c 2a be 7d 62 e7 be e7 89 b1 bd c3 4d 54 be
       -0.16655235 -0.45192328 -0.08668881 -0.20732789
000390 1c 49 f3 bd b0 d8 f5 bd c0 f1 69 be 2e ee 26 bd
       -0.11879179 -0.120042205 -0.22846127 -0.04075449
0003a0 e2 96 56 bd eb b4 6e 3d 9d c8 88 be 57 24 2e 3d
       -0.052389987 0.058278006 -0.26715556 0.042515125
0003b0 2b b6 08 bd af c5 88 3d 03 b3 35 be 36 05 1d 3c
       -0.033376854 0.0667833 -0.17744069 0.009583762
0003c0 68 35 c2 3c 0e b1 b5 3c 37 f2 3f 3d 6d 1d fd bb
       0.023707107 0.022179153 0.046861853 -0.007724455
0003d0 5d 14 2e be a3 e4 2e bd c5 f3 ca be bf 36 46 3c
       -0.16999955 -0.042698514 -0.39639106 0.012098013
0003e0 e0 ac e8 3c c5 d6 15 bd 51 95 a7 bd 5f 08 c1 3d
       0.028402746 -0.036581773 -0.08182777 0.09425425
0003f0 bf 71 2b be 6f d9 96 be f6 a2 01 bd b3 fb 90 bd
       -0.1674261 -0.29462764 -0.031649552 -0.07079258

shared_fc2.bias f4 [256]
000000 1b b5 42 bd 72 54 1e be ee 52 40 bd 5a cc 13 be
       -0.047535997 -0.15461901 -0.046954088 -0.14433423
000010 df c9 9b bd 2b 81 83 bd 00 70 51 bd 08 35 6e be
       -0.07606863 -0.06421121 -0.051132202 -0.23262417
000020 06 34 65 bd e6 7f 51 bd bf a3 97 bd 75 7d 90 3d
       -0.055957817 -0.051147364 -0.07404279 0.07055179
000030 f5 78 c0 3d 7f 5a 36 bd 60 a7 68 bd ad 30 55 3e
       0.09398071 -0.044519898 -0.056800246 0.2081935
000040 2f 37 80 bd a0 80 76 3e b9 fa 58 bd 46 85 8c bd
       -0.062605254 0.24072504 -0.052973483 -0.068613574
000050 dd 33 a9 bd bc 30 06 3e eb c3 8a bd 5d 7d 4c bd
       -0.08261845 0.13104528 -0.0677565 -0.049924243
000060 55 db 8b bd be f7 1a 3e 3b e4 6d 3e 0a 8d 28 bd
       -0.06828944 0.15133569 0.23231594 -0.04115013
000070 84 fb 37 bd 9f 03 5f bd 06 01 83 bd 9b 16 02 be
       -0.0449176 -0.054446813 -0.063966796 -0.12703936
000080 b3 ef 64 bd 02 2b 36 bd bf 06 21 be e5 a2 50 3e
       -0.055892657 -0.04447461 -0.1572523 0.2037464
000090 34 42 61 3d 5c fa 44 bd ba 2d 94 bd 7f 3c a6 bd
       0.054994777 -0.048090324 -0.07235284 -0.081170075
0000a0 6e 86 24 3e 92 d1 1d bd f9 0b 68 bd 3d 76 6b bc
       0.16066906 -0.03852994 -0.056652043 -0.014371452
0000b0 50 9a 0e be f6 bb 31 be fd 4e 8b 3d c4 ed d3 bd
       -0.13926053 -0.17356858 0.06802175 -0.103480846
0000c0 43 aa 08 3d 06 11 e5 bd 91 6b c1 bd 0d b1 0d 3e
       0.0333655 -0.111848876 -0.09444345 0.13837071
0000d0 6a fc b9 bd 69 d9 31 bd d9 59 2a be 94 50 0a bd
       -0.09081347 -0.04342023 -0.16635837 -0.03376825
0000e0 9d 13 05 be db f2 b1 bd 0d 6f 70 bd 8c 73 0a be
       -0.12995763 -0.08688899 -0.058699656 -0.1352064
0000f0 e3 1e 8a bd 28 a8 63 bd a0 b2 5d bd b2 3b 67 bd
       -0.067441724 -0.05558029 -0.05412543 -0.056453414
000100 2d dd 41 be 13 2c 0c be 4a bd f5 3d de 22 41 3e
       -0.18932028 -0.13688688 0.11998995 0.18860957
000110 de 05 4d bd e9 52 6f bd 3e 3b 5f bd 2a b4 7b bd
       -0.050054424 -0.05842868 -0.054499857 -0.061451115
000120 19 5f 5b bd ee 77 5d bd b5 66 ea bc ec fb bc bb
       -0.05355749 -0.054069452 -0.028613428 -0.005767336
000130 ad d6 22 3e 62 1e 15 3e 36 85 f8 bc 11 c2 6b bd
       0.15902205 0.14562371 -0.030336957 -0.057558123
000140 07 1e 60 bd 36 e1 96 bd 3a 65 75 bd 08 08 27 3c
       -0.054716136 -0.07367174 -0.05991099 0.010194786
000150 e9 96 22 bd 80 80 48 3e ff f9 c0 bd a1 90 8e bd
       -0.0396947 0.19580269 -0.09422683 -0.069611795
000160 75 47 4f 3e 65 36 bb 3c 26 67 63 bc d5 38 3e bd
       0.20242102 0.022853086 -0.013879573 -0.046440918
000170 fc 20 ba bd cc 7e 83 3d 05 53 07 3e 1d cc c4 3c
       -0.090883225 0.06420669 0.13215263 0.02402311
000180 43 58 a2 bd 2e b2 4e bd ca e3 41 3c 3c e7 a3 bd
       -0.07926991 -0.050462894 0.011834094 -0.08003089
000190 f7 b7 c1 3d 5e 49 32 3d 2c 13 4a bd 07 2f ae bd
       0.09458917 0.043527 -0.04933469 -0.085050635
0001a0 f8 70 80 3d 48 1f 10 bd f6 20 97 bd 34 e4 02 be
       0.06271547 -0.035186082 -0.07379334 -0.12782365
0001b0 f2 ad 44 bc 1b a8 b6 bd 44 74 9f bd 13 11 c2 bd
       -0.012004362 -0.08918782 -0.07785848 -0.09475913
0001c0 53 77 b5 bd 88 07 82 bd bd dc 0a be b5 2c 3f bd
       -0.0886065 -0.06349093 -0.13560767 -0.046673495
0001d0 7f c4 20 3d c6 50 c0 bd 83 94 b9 bd 95 3c 9f bd
       0.039249893 -0.09390406 -0.090615295 -0.07775227
0001e0 50 33 6b bd a9 13 33 be 95 ad 8c bd dd 7a 9d bd
       -0.057421982 -0.17487969 -0.06869046 -0.0768945
0001f0 2a 44 47 bd 0c 0b 90 bd 57 d0 af bd 87 b4 c4 bd
       -0.04864899 -0.07033357 -0.085846595 -0.09604745
000200 0a 2f 2b be 11 37 06 be ed bb a5 bd 6d 1b 64 3e
       -0.16717163 -0.13106944 -0.080924846 0.22276087
000210 fd 97 04 3e c8 f0 39 bc c4 79 3e bd 35 6b dd bd
       0.12948604 -0.011348911 -0.046502843 -0.10811464
000220 cf b0 ec bd cb 68 fb bd cf fc 0a 3e ca d8 2e bd
       -0.11557161 -0.12275847 0.13573001 -0.042687215
000230 65 45 8c bd 11 8c 28 bd 94 10 8f bd cd 34 95 3d
       -0.068491735 -0.041149203 -0.06985584 0.072854616
000240 c9 53 d7 bd cd 1e 56 3e 75 f7 de 3b 91 c4 95 bd
       -0.105140276 0.20910187 0.0068044015 -0.07312883
000250 1d f8 80 bd 9d e2 c8 bd 33 b9 8b 3e 60 c9 a1 bd
       -0.06297324 -0.09808848 0.27289733 -0.07899737
000260 a2 89 01 be be 0c 86 3e 47 08 99 bd d2 08 fc 3c
       -0.12650159 0.26181597 -0.07472282 0.030765925
000270 d1 38 ff 3c 3b 83 87 bd a1 2a 03 3e 91 3e e4 3d
       0.031155022 -0.06616827 0.1280923 0.11144746
000280 21 91 31 3e 48 51 87 3e 41 ab a2 bd bc cf 89 be
       0.17340519 0.264292 -0.0794282 -0.269163
000290 50 df 10 bd 6d 3d 77 bd 12 12 fd be 39 3b 82 bd
       -0.035369217 -0.060361315 -0.4942785 -0.06358952
0002a0 c6 9e 3e be 78 bb 09 bd f1 00 a7 bd 01 19 9d bd
       -0.18615255 -0.03362605 -0.081544764 -0.07670785
0002b0 d5 b3 af bd 2c d2 3a bd d0 43 d2 bd 56 c0 7c bd
       -0.08579222 -0.04561059 -0.102668405 -0.061706863
0002c0 fd e4 4c bd df df b3 bd e3 97 26 3e 09 e0 2d bd
       -0.050023068 -0.087829344 0.16268878 -0.042449985
0002d0 0c 3f 57 3e c3 b9 4c bd 97 1d 4d bd 2e 9a 36 bd
       0.21020144 -0.049981844 -0.050077047 -0.04458063
0002e0 b3 18 a2 be d4 2b f8 3d f9 e1 2f bd 85 b9 23 bd
       -0.3165947 0.121177346 -0.042940114 -0.039971847
0002f0 e9 65 6f 3e 4f 0d a8 bd 92 f9 e0 bd 60 41 82 3d
       0.2337872 -0.082056634 -0.10985102 0.063601255
000300 63 9d 9a bd b7 b8 15 3e 4c 85 ba 3d ae 71 9d bd
       -0.075495504 0.14621244 0.091074556 -0.07687698
000310 c9 ed 97 bd 9d 8a a3 bd 35 69 66 bd 57 b8 34 bd
       -0.07418401 -0.07985423 -0.056252677 -0.044121113
000320 37 62 36 bd d2 97 76 3d cf 59 96 bd a5 83 b6 bd
       -0.04452726 0.06020338 -0.073413484 -0.08911828
000330 19 b4 52 bd c0 fe 95 bd 2f 17 ba bd de 5b 8b bd
       -0.051441286 -0.0732398 -0.09086453 -0.06804632
000340 fc b4 54 bc 2c 6d 5a bd 19 dc 81 3d 9e 15 41 3d
       -0.012982603 -0.05332677 0.063408084 0.047139756
000350 eb 1a 92 bd 4d f4 ae 3d de 0a 2c bd 8d cc 40 be
       -0.071340404 0.085426904 -0.04200255 -0.1882803
000360 f1 7a 14 bd 22 60 4c bd 2e f2 00 be 50 2a ba bc
       -0.03625006 -0.049896367 -0.12592384 -0.022725254
000370 6c c8 d6 bd 1d 06 33 be 49 c7 53 bd 31 2f eb bd
       -0.10487446 -0.17482801 -0.051703725 -0.114836104
000380 b4 ff d0 bd 6d 60 a2 bc d8 a3 f7 3d 01 b2 44 bd
       -0.102050215 -0.01982137 0.120917976 -0.04802132
000390 ea 34 c4 bd 33 f0 16 bd d1 09 6d bd 0b 44 fd 3d
       -0.09580405 -0.036850166 -0.05787069 0.12366494
0003a0 15 ba 41 3e 66 21 f2 bd a2 0b ca bd 89 f8 b6 bc
       0.18918641 -0.118227765 -0.098655 -0.022335308
0003b0 53 5c b9 bd 10 1b 58 3d 63 e5 08 be 17 50 dc 3d
       -0.090508126 0.052760184 -0.13368754 0.107574634
0003c0 6b 9a 39 bd c2 93 75 bc 66 4d 85 bd 47 5c f6 bc
       -0.04531328 -0.0149888415 -0.06508903 -0.030073298
0003d0 2f c0 ac bd 6f 16 9f bd 24 45 16 3d 8b df a6 bd
       -0.084350936 -0.07767951 0.03668703 -0.08148106
0003e0 81 e5 95 bd 46 48 9a bd 35 97 3f bd 96 d9 42 bd
       -0.07319165 -0.07533316 -0.04677506 -0.047570787
0003f0 8e dd 54 3e e0 e8 0f be 8d 0d 02 bd 83 eb 4d bd
       0.20787641 -0.14053679 -0.031751204 -0.05027343

actor_fc.weight f4 [256, 256]
000000 4d 01 40 be 41 1a d0 3e 83 d5 44 bd 65 09 26 3d
       -0.18750496 0.4064503 -0.048055183 0.040536303
000010 c6 10 a0 bc 42 39 07 3c 43 1e 31 bd fb 62 ae 3e
       -0.019539248 0.008253397 -0.04324175 0.3405989
000020 ec 7c e1 bb fe 07 88 3d de d6 cf bd bb f8 d3 be
       -0.006881347 0.066421494 -0.101484045 -0.41400704
000030 44 c3 ce be a4 22 95 bd 39 ad ac bd b4 02 b2 be
       -0.4038335 -0.07281998 -0.08431477 -0.34767687
000040 03 2b 5e 3d 14 e0 29 be b1 d7 5b 3d 1e 37 26 3d
       0.054240238 -0.16589385 0.053672496 0.040579908
000050 5c d2 37 3c ad 79 83 bf cb 81 89 bd 3b e0 bf bb
       0.011219587 -1.0271508 -0.06714209 -0.005855588
000060 ca c3 db bd 77 ac ee be 98 05 1b 3e 72 2b af 3b
       -0.10730703 -0.46615955 0.15138853 0.0053457553
000070 b0 33 9c 3d 4c 67 d3 3c 5a 25 d9 3d 3b b9 df bd
       0.07627046 0.025806092 0.10602827 -0.10924002
000080 48 cc a2 bb 96 eb ac 3d 7a ea 33 be 47 d5 95 3e
       -0.0049682 0.08443372 -0.17569914 0.2926428
000090 33 be e0 be c0 ea 02 3d 90 46 db 3d 05 fc 39 bc
       -0.4389511 0.031962156 0.10706818 -0.01135159
0000a0 7e a2 2e be 54 0a 58 bb 60 0a d9 bd e6 8f 54 bd
       -0.17054173 -0.003296514 -0.10597682 -0.051895045
0000b0 0b 52 5e 3d 97 cd 89 bd 43 19 c3 bd c5 6a 28 bc
       0.05427746 -0.06728666 -0.09526303 -0.010279362
0000c0 13 28 c3 bd e6 1a 3e ba 6d 5b 7a bd 71 49 aa bd
       -0.09529128 -0.0007251933 -0.061122347 -0.08314789
0000d0 e0 d2 a3 bd 1b b8 49 3d ad 76 46 3d 0b 3e 14 3c
       -0.079992056 0.049247842 0.04845302 0.009047995
0000e0 ef 46 7d 3d 56 46 5f 3b 95 30 4f bb 98 6c d6 3b
       0.061835226 0.0034069023 -0.003161465 0.006543707
0000f0 56 11 21 bd b0 52 af 3d 8f 38 b1 bd 1f ce 5c 3e
       -0.039323173 0.08560693 -0.08653366 0.21563004
000100 89 30 5b 3e c6 fd 39 be d7 ca d1 3d 60 18 e8 be
       0.21405233 -0.18163213 0.10243767 -0.45331097
000110 fc 92 8a bd 3b c2 0c 3e da 35 2f 3d 4b 4a 25 3d
       -0.06766316 0.13745968 0.042775966 0.040354054
000120 42 6f 64 bc c0 f5 5a 3d f0 25 d2 bd ea e5 35 3c
       -0.013942542 0.05345702 -0.10261142 0.011102179
000130 b9 15 31 be 49 36 ba bd ea 0a 28 bd 7d 50 57 be
       -0.17293443 -0.09092385 -0.041026033 -0.21026798
000140 c3 ba 3d 3c f2 7e 8a 3c af 03 a0 3d 7c fb 91 bd
       0.011580172 0.016906235 0.078132026 -0.07128045
000150 c6 3a af bd 91 b4 79 bf 13 41 10 bd b9 cb b9 3d
       -0.08556132 -0.9754115 -0.03521831 0.0907206
000160 d6 28 14 3e c8 9d 46 be 21 04 64 be c7 c6 20 3d
       0.14468703 -0.19396126 -0.222672 0.03925207
000170 33 5d af 3c e7 79 86 3e a1 07 24 bf 24 48 84 be
       0.021406746 0.2626488 -0.6407414 -0.2583629
000180 3c 25 8f bc 49 e7 11 3d 72 00 e8 be e0 69 ce bd
       -0.01747381 0.03562096 -0.4531284 -0.10078788
000190 13 de 36 3d b6 3b cc be 95 9f 34 3d 6c 3c 30 be
       0.04464538 -0.39889306 0.0440975 -0.17210549
0001a0 cc 04 73 3e b9 22 cd 3d 4d d1 a6 3d ab cc d9 be
       0.23732299 0.100163884 0.0814539 -0.42538962
0001b0 be d1 3a 3e a4 c1 09 3c c1 34 a0 3c 44 f7 fa 3b
       0.18244073 0.008407984 0.019556405 0.007658871
0001c0 bf 75 49 3a f0 18 d4 bd 0e af 23 be ae 93 ad bc
       0.0007685087 -0.10356319 -0.15984747 -0.021188583
0001d0 c9 f0 80 be ed d5 49 3d f4 ba e8 3d 8a a7 5d 3d
       -0.25183704 0.04927628 0.113637835 0.054114856
0001e0 4b 02 83 bd 20 08 09 bf 30 08 ae 3d c0 dd bf bc
       -0.06396922 -0.5352802 0.084976554 -0.023421168
0001f0 41 e4 6c bd 24 79 c8 bd 96 dd f2 bb ad ea 18 3d
       -0.057834867 -0.09788731 -0.007411669 0.03733318
000200 0d c0 0b bc 84 dd 63 bd f4 05 a3 bc ff a3 1d bf
       -0.008529675 -0.055631176 -0.0199003 -0.61578363
000210 3e 0e 0e 3e 19 f4 20 3c 8a 08 dd 3d ec 43 3e bd
       0.1387262 0.009823822 0.10792644 -0.046451494
000220 d6 d6 6b 3d fb af a9 3c ec bf aa 3e 73 16 a1 bc
       0.05757793 0.020713797 0.3334955 -0.019664025
000230 5b 00 12 be 33 8a 7b bb 91 86 5f bd bb 07 c5 be
       -0.14257948 -0.0038381934 -0.054571692 -0.3848246
000240 b8 93 88 be cb 71 f5 be 56 53 1a bd f4 9c c3 3c
       -0.266752 -0.4793838 -0.03767713 0.023878552
000250 3a c5 15 3d e9 52 ba be 34 4e 4b bf 4f db 10 3e
       0.036565043 -0.3639138 -0.79416203 0.1414616
000260 84 82 8b bd 77 01 26 bf 99 5d a4 bd 35 23 14 3d
       -0.06812003 -0.64845985 -0.08025665 0.03616639
000270 d9 0b 12 be ea 97 ed bc 01 8b e2 bd eb b1 13 be
       -0.14262332 -0.029003102 -0.11061669 -0.14423339
000280 c4 8b d5 be 88 45 2f be 96 b4 95 be 3e 62 a2 3d
       -0.41708195 -0.17116368 -0.2923934 0.079288945
000290 39 dd ee 3c 95 c6 80 3d 8b c1 df bd 72 77 76 3d
       0.029158222 0.062878765 -0.10925587 0.060172506
0002a0 66 c9 43 3d 80 bb 9b be bc 2e b2 3c e8 a2 66 bd
       0.04779949 -0.3041649 0.0217508 -0.056307703
0002b0 b6 77 3c bd c0 21 64 bd 80 e0 06 bf 4b b0 0f 3d
       -0.046012603 -0.05569625 -0.5268631 0.035080235
0002c0 22 5c cc 3c aa 4d a1 3c 1d 41 a4 be 42 3f 98 bc
       0.024946276 0.019690353 -0.32080927 -0.018584851
0002d0 8b 93 ff be 35 10 2f 3d c9 55 db bc fb 52 84 bd
       -0.49917254 0.042740066 -0.026774304 -0.0646114
0002e0 d4 e1 41 be 9f bf 07 3d 7c cb d5 3d ca c7 b2 3c
       -0.18933803 0.03314173 0.10439202 0.021823782
0002f0 88 2b 68 be bc b0 42 3d 94 74 d9 bd 63 0c b0 3e
       -0.22672856 0.04753183 -0.10617939 0.3438445
000300 0f 9e 86 3d 49 fb 11 3e b9 7f 9c 3e eb fb 54 bd
       0.06573116 0.14256014 0.30566195 -0.05199806
000310 d3 8a fc bc 68 97 7b 3d 93 71 d4 3d 6b 27 33 bd
       -0.030827915 0.06142369 0.10373225 -0.043738764
000320 b5 2d 86 bb 00 dd 2b bc 7c a8 c8 3d ea 3f 99 3d
       -0.004094804 -0.010489702 0.09797761 0.07482894
000330 d8 d8 8f bd e4 9e 6f 3b 0e a2 d0 3c db 04 b5 bd
       -0.070237815 0.0036563212 0.025467899 -0.08838817
000340 df 20 82 bc d7 06 b9 3d 21 f5 96 3d c6 84 49 bd
       -0.015884815 0.09034508 0.073709734 -0.04919889
000350 33 0a 78 3d c0 04 cc be 71 aa 96 bc ce b6 8d bd
       0.0605566 -0.39847374 -0.01839182 -0.06919633
000360 e7 d0 6e bd a9 8d 72 3d 50 d2 8a 3d fc 56 30 3d
       -0.058304694 0.05921713 0.06778395 0.043051705
000370 f2 fe 66 bd 5f 99 11 3e 67 5a 02 3b 11 36 ca 3c
       -0.05639548 0.14218663 0.001989031 0.024683984
000380 5e 96 82 3d 9a 47 2d be dd 33 39 bf b0 89 8a 3c
       0.063763365 -0.16921845 -0.7234476 0.016911358
000390 07 5a a0 3d 07 49 10 3e ae a7 86 bd 6b c4 97 bf
       0.07829671 0.14090358 -0.06574951 -1.1856817
0003a0 b7 ac da 3e 96 51 e2 ba 27 a2 9f 3d d6 04 23 be
       0.42709896 -0.0017266746 0.077946 -0.15919814
0003b0 df 3c 3f be 44 7b 06 be 17 c1 00 be 88 ce bf 3c
       -0.18675564 -0.1313296 -0.12573658 0.023413911
0003c0 73 ab 0c 3c 5e d3 dc be ce dc 3f 3a 98 74 00 bf
       0.008585799 -0.4313001 0.0007318974 -0.5017791
0003d0 23 13 74 bd b9 fd ca be 8d 12 2c 3e eb 42 c6 3d
       -0.059588563 -0.396467 0.16803952 0.09680732
0003e0 ef b4 4f bd cc 94 5e bd 78 0e 8f 3b d0 73 9d bd
       -0.05070966 -0.054341123 0.0043657385 -0.07688105
0003f0 73 2a 6b be 2b 64 86 3b c5 97 90 bd ab 3d d3 bd
       -0.22965412 0.0041012964 -0.07060198 -0.103144966

actor_fc.bias f4 [256]
000000 6a a4 ab be 57 9b 12 be 3d 6d ad bd e1 c4 f3 bd
       -0.33523875 -0.1431707 -0.08468101 -0.11902786
000010 13 d0 ee bd 19 20 ec bc b5 1e 0d be ae 34 9b bd
       -0.11660781 -0.0288239 -0.13781245 -0.07578407
000020 2f 72 36 3e 52 02 02 be 82 86 29 bd 38 cc 30 3e
       0.17816995 -0.12696198 -0.041388042 0.17265403
000030 ae 68 96 be cc f3 17 be 8b 52 8b be 74 a1 b5 bd
       -0.2937674 -0.14839095 -0.27211413 -0.08868685
000040 69 c2 21 be be 9b 65 be 57 ff eb bd 51 c6 9a be
       -0.15796818 -0.22422692 -0.115233116 -0.30229428
000050 b6 03 74 bd 30 35 52 be b4 9b 9c be 11 93 9e 3d
       -0.05957385 -0.20528102 -0.30587542 0.077428944
000060 c9 3a 67 bd a6 dd a5 be 7d 73 92 be 45 09 73 3d
       -0.056452546 -0.32395667 -0.28603736 0.059335012
000070 0b e3 34 be 01 7a 3f be 17 3b 4a bd 52 4e 7b 3e
       -0.17664735 -0.18698885 -0.04937276 0.24541596
000080 56 89 ea bd 99 8d 3f bd 0f f8 34 be f5 cf b3 bd
       -0.11451976 -0.046765897 -0.17672752 -0.08779899
000090 c3 de 8b be c2 ad 99 be 1b 5f 60 be 63 b8 00 be
       -0.2731839 -0.3001538 -0.2191128 -0.12570338
0000a0 95 1c d5 bd 3e 05 35 be 10 ac 2c be d6 c5 ac be
       -0.10405842 -0.17677781 -0.16862512 -0.33744687
0000b0 c6 45 63 be 17 81 3a 3d 93 4e c2 bd bc ef 18 3d
       -0.22194585 0.045533266 -0.09487643 0.037338004
0000c0 da b6 02 be 55 d6 4b 3b ed df 83 bd 48 cb 15 be
       -0.12765065 0.0031103094 -0.06439195 -0.14628327
0000d0 7c 18 99 bd 62 31 9c bd ce ec 3f be 7f 0b 66 be
       -0.07475373 -0.076266065 -0.18742678 -0.22465323
0000e0 20 ba e9 be a0 8d 3e be a9 71 dc bd 16 40 17 bc
       -0.45649815 -0.18608713 -0.107638665 -0.009231588
0000f0 5a a7 92 bd e4 f0 81 bd a8 d6 1b be d6 15 8b be
       -0.07160826 -0.06344774 -0.15218604 -0.27165097
000100 5c 99 94 be ca 9c 40 bd 0d 3f 28 3e a8 71 f2 bd
       -0.29023254 -0.047024526 0.16430302 -0.118380845
000110 fd 9b d1 bd 6a 42 77 be f8 f4 33 3e ba 67 b9 be
       -0.102348305 -0.24146429 0.17573917 -0.3621195
000120 cf bc d6 bd 44 86 1b be 94 f9 21 3d 49 31 0c be
       -0.10485231 -0.15187937 0.039544657 -0.13690676
000130 f7 59 0f bd 77 01 b4 3d f4 e6 67 bd 4e 73 44 be
       -0.034997907 0.08789342 -0.05661674 -0.1918461
000140 00 c9 b5 3e 04 9a 0e 3d 70 f8 01 3e 31 28 70 be
       0.35504913 0.03481485 0.12692428 -0.23452832
000150 46 3c 98 be a0 55 53 be 0d b2 a0 be d0 31 ee bd
       -0.29733485 -0.20638132 -0.31385842 -0.11630595
000160 1a 32 bc bd e2 99 c6 3b 2f 98 f9 3d d5 ab b0 bc
       -0.091892436 0.0060608247 0.1218723 -0.02156631
000170 de 34 5e be 34 54 54 bd 33 22 43 bd 77 76 5f 3e
       -0.21699855 -0.051838115 -0.047640037 0.21822535
000180 3c 9a 62 be 18 f9 7d 3d 13 5f d2 bd 75 5d 58 be
       -0.22129148 0.062005132 -0.1027204 -0.21129401
000190 e1 00 6c be ba be f7 3c 9c 92 f3 bd 73 e6 14 be
       -0.2304721 0.030242313 -0.11893198 -0.14541034
0001a0 a5 0c 0f be 9a ea 36 3d 9a 98 1a be 92 1a 8a be
       -0.13969667 0.044657327 -0.15097275 -0.26973397
0001b0 ff f2 39 be 41 82 bb 3c 75 e7 72 be a0 20 cb bd
       -0.18159102 0.022889258 -0.23721106 -0.09918332
0001c0 ae e4 77 bd 5e f2 e5 bc a5 db 24 be 59 dd 2d be
       -0.06052082 -0.028069671 -0.16099413 -0.16978969
0001d0 28 fe 5e be 63 14 0e be 2d ef 0f be 13 ae 43 be
       -0.2177664 -0.13874964 -0.14056082 -0.19109373
0001e0 35 3a 0d 3d e8 15 f3 bd 39 28 2b be cf 1d dc bd
       0.03447934 -0.11869413 -0.16714562 -0.10747873
0001f0 dc 18 80 3e e1 e4 60 be 05 64 f5 bd f2 d9 c7 3d
       0.25018966 -0.2196231 -0.11981968 0.09758367
000200 4b 3c 86 3d 1c 7b e1 bd f7 61 c5 bd 8f c9 f7 3c
       0.06554469 -0.110098094 -0.09637826 0.030247478
000210 ed 03 d2 bd 00 10 a1 be d1 c0 1a bd 04 c2 a6 bd
       -0.10254655 -0.3145752 -0.03778154 -0.08142474
000220 94 db 59 3d 74 4f 82 bd 93 12 41 be 3d e9 d7 bc
       0.05318792 -0.06362811 -0.18854742 -0.026356334
000230 28 5a 8b bd 17 5b 2b be b6 76 89 be 1d cd 9a bd
       -0.06804305 -0.16733967 -0.26848382 -0.075586535
000240 57 9a 54 be b2 3f 5b 3e a3 53 b0 3c 90 9b b8 be
       -0.20762001 0.21411017 0.021524256 -0.36056185
000250 75 9f 12 bc ef f9 ca bd d2 e6 52 3e 81 90 ac bd
       -0.00894915 -0.09910952 0.20595863 -0.084259994
000260 3a 40 44 38 c2 9b 5e be cd d0 4f be 1f af 1e be
       4.6789857e-05 -0.21739104 -0.20294495 -0.15496491
000270 eb b9 46 be 46 2f 36 be b5 1e 3e be ae 50 a7 bd
       -0.1940686 -0.17791471 -0.18566401 -0.08169685
000280 c2 7e 19 3e 26 66 60 be 09 03 38 be f5 62 84 bd
       0.1498976 -0.21913967 -0.17969908 -0.06464187
000290 23 42 9d be a2 97 29 be 37 90 65 bd ac 37 ce be
       -0.3071452 -0.1656175 -0.056045737 -0.4027685
0002a0 b5 b8 d4 bd 48 d2 0a bd d4 2d 98 be b3 eb ca bd
       -0.103867926 -0.033891946 -0.29722464 -0.09908237
0002b0 78 2c bf be 5c c9 f5 bd 39 03 cf 3d e3 bb 9c be
       -0.37338614 -0.12001297 0.101080365 -0.30612096
0002c0 f1 db 9c bd 90 21 69 be cb b5 26 be 24 48 c1 bd
       -0.07659138 -0.2276671 -0.16280286 -0.09437588
0002d0 bf 95 25 be e6 ff 87 3d af df 88 bc a4 d3 9d bd
       -0.16170405 0.06640606 -0.016708223 -0.07706383
0002e0 a6 49 69 3d 76 66 82 bc e3 c3 6f 3d 14 52 6f be
       0.056955002 -0.015917998 0.05853642 -0.23371154
0002f0 ab f7 02 bd 8f ef cb bc 12 ef ca 3c 8a 81 0c be
       -0.031974476 -0.024894504 0.0247722 -0.1372129
000300 99 17 47 bd 21 eb 97 3e e1 6b 09 bd 91 78 c2 be
       -0.04860649 0.29671577 -0.033550147 -0.3798261
000310 83 ad cf bb 46 f9 ab be 74 56 d6 3d 8b 67 88 be
       -0.006337823 -0.33588618 0.104657084 -0.26641497
000320 d1 28 f7 3d f2 b3 41 be b5 b2 3d be 7e 68 36 be
       0.12068332 -0.189163 -0.18525203 -0.17813298
000330 78 30 67 3e e7 b8 be be 9c 4d 8c bd 56 ae 13 3d
       0.22577083 -0.37250444 -0.0685074 0.03605493
000340 19 b4 b7 be c5 45 67 be 66 55 8e bd c3 bf f6 3d
       -0.3587959 -0.22585209 -0.06949882 0.120482944
000350 1a 90 00 be 21 90 07 be 38 08 0c be 4f ab a7 be
       -0.1255497 -0.13238575 -0.1367501 -0.32747886
000360 2c 34 0e be 76 78 27 3d cc d7 19 be cb c5 9e be
       -0.1388709 0.040886365 -0.15023726 -0.3101028
000370 c5 48 e6 be bf ff 37 bd 1f b2 b7 bd d6 c6 4e be
       -0.44977394 -0.044921633 -0.08969521 -0.20193037
000380 e8 08 62 bc 80 91 ad be df bf 9d 3d 08 e7 92 b9
       -0.013796069 -0.3390007 0.07702612 -0.00028019422
000390 fb 21 21 be 2a 38 0b be 88 e7 12 be 3f 73 81 3e
       -0.15735619 -0.13595644 -0.14346135 0.25283238
0003a0 aa 5b 33 bd 0f 12 0d be db de 73 3e 59 81 aa be
       -0.04378859 -0.1377642 0.23815481 -0.3330181
0003b0 4b 4a c5 bd a9 9e 57 be 50 6f 77 be b0 fb e1 be
       -0.09633311 -0.21056618 -0.24163556 -0.44137335
0003c0 7e 28 71 be 31 98 de be 07 5e 67 bd 56 82 d3 bd
       -0.23550603 -0.43475488 -0.056486156 -0.10327594
0003d0 7c b0 93 bc 4c bd ca bc aa 5d c8 be 1a 15 72 bd
       -0.01802849 -0.024748467 -0.3913396 -0.059102155
0003e0 a0 1b 99 bd 5e ba 27 bd a2 76 04 3d 9e 1b e6 ba
       -0.07475972 -0.040949218 0.0323397 -0.0017555838
0003f0 50 fd 52 be 15 35 6e bc 60 c4 08 bf a0 0c 17 be
       -0.20604444 -0.014539023 -0.53424644 -0.1475091

actor_out.weight f4 [12, 256]
000000 1e ca a7 3e 62 1d 17 bb 5b 6b 83 3e 26 11 ea be
       0.3277139 -0.0023058285 0.25667843 -0.45716208
000010 a0 5d 17 bf e6 9f 0d bf 41 03 2c 3d 90 4a 0f 3e
       -0.59127235 -0.5532211 0.04199529 0.13993287
000020 a5 37 34 bf 2a fd a0 bc 53 29 a0 be ef 3a 16 bf
       -0.70397407 -0.019651968 -0.31281528 -0.58683676
000030 01 98 04 3e cf 33 86 3d 34 be 09 bf 77 82 0f 3e
       0.1294861 0.065528505 -0.5380585 0.14014612
000040 da 34 ce bd 4b a1 9e be ff b3 40 3e 24 a0 a8 be
       -0.100686744 -0.30982432 0.18818663 -0.32934678
000050 37 ae 2e 3e 74 ac c5 3d 24 1e e6 3e 86 d7 83 be
       0.17058645 0.096520334 0.4494487 -0.2575037
000060 6c 7a 5e 3d 09 f3 0a be 7e 99 9d bf 82 cc cc 3e
       0.05431597 -0.13569273 -1.2312467 0.39999777
000070 a5 8b 08 bf 99 b0 a6 be a4 89 a3 be a9 b9 a8 3e
       -0.5333808 -0.32556608 -0.3194095 0.32954147
000080 30 a2 19 bf 62 3a 37 3f 4b d9 66 3f c9 74 0e bd
       -0.60013103 0.7157346 0.9017531 -0.034779344
000090 fc 04 a3 3e 38 2c 43 bd 29 27 1e 3f 88 30 c0 3e
       0.3183974 -0.047649592 0.61778504 0.37537026
0000a0 d3 43 56 3f 52 8d 97 be c6 66 38 be fe c5 80 3e
       0.8369724 -0.29600006 -0.18007955 0.25151056
0000b0 4c 2f f1 bd 5d 4c 5a 3f ef 08 14 bf 41 17 d4 3e
       -0.11776599 0.8527277 -0.5782613 0.4142399
0000c0 33 8b fa 3d af fa 1b bf 88 c5 a8 3d 06 67 94 be
       0.122335814 -0.6092939 0.08240801 -0.2898485
0000d0 c4 bf ec 3e 03 d3 17 3d 77 e2 b9 3e f0 af f8 bd
       0.46240056 0.03706647 0.3630559 -0.121429324
0000e0 a7 f0 89 3e 55 f2 c7 3e bd 56 14 be 56 ee 0e 3f
       0.26941416 0.39052072 -0.14486213 0.5583242
0000f0 fd d8 00 bf 1a e4 92 3e 27 23 fb 3b e1 8a 0f bf
       -0.503311 0.28689653 0.0076641026 -0.5607129
000100 ea 57 cd 3d 5b 42 03 3f 1f c8 4e be 90 e3 07 be
       0.10026534 0.51273125 -0.20193528 -0.13270402
000110 12 48 4c be cf a0 0f bc f6 1b f7 3e 77 2a cc be
       -0.19949368 -0.008766367 0.4826352 -0.39876148
000120 3e ef 26 3d 27 e6 f9 3e 82 e6 b9 be 9f dc a8 be
       0.040755503 0.48808405 -0.36308676 -0.3298082
000130 d9 11 15 bf f1 3c 9a be bb 86 3a 3f b9 d5 09 3e
       -0.5823036 -0.3012462 0.7286183 0.13460435
000140 6c e1 cf be 88 4a ba 3e 94 0e 51 3f 5a 4e bb 3e
       -0.4060167 0.36384988 0.8166287 0.36583215
000150 70 bb 55 be c4 7a eb bd d3 2c 36 bf 45 d4 b2 3c
       -0.20872283 -0.11498025 -0.71162146 0.021829734
000160 ca 1f 36 3d 79 0e 63 3f 63 16 01 3f ca 55 c3 be
       0.04446391 0.8869396 0.50424784 -0.3815139
000170 05 01 b5 3d 73 c4 08 3f 92 ab 81 3e ac 73 ac bd
       0.08838085 0.5342476 0.2532621 -0.084205
000180 74 72 de be 5e c3 7c 3d 05 ba e7 3e 64 29 51 3e
       -0.43446696 0.061709754 0.4525911 0.20425946
000190 5f d2 21 3e b0 7e f9 be 73 7e 7f 3d b3 7c c1 3d
       0.15802906 -0.48729467 0.06237645 0.094476126
0001a0 2f 51 f4 3d 1f 0e cb 3e 80 d0 56 3d c2 d7 c4 bd
       0.11929547 0.3965921 0.052444935 -0.09611465
0001b0 a4 e5 95 bc 01 7a 46 3f 55 7d bb bd ad 3d 2b be
       -0.018297978 0.77529913 -0.091547646 -0.16722746
0001c0 0a 15 a9 3d 9c a5 39 3d 11 b7 74 3e cb 3d 5a bd
       0.08255966 0.045323953 0.2389796 -0.053281587
0001d0 f4 ec d5 3d 17 10 45 be 56 3a 06 3e 4c 97 3e 3e
       0.10445586 -0.19244419 0.13108191 0.18612403
0001e0 04 25 f0 bc 1e 96 6a bd 6d 99 aa 3d 4f 98 f4 3c
       -0.029314525 -0.05727207 0.08330045 0.029857783
0001f0 c3 53 19 bf fb a3 bd 3c 5b 51 b1 3d 57 e7 97 be
       -0.59893435 0.023149481 0.086580954 -0.29668686
000200 35 4d 32 3f 81 4e 2f 3f b8 cc 3b bd 4e 4f 76 3f
       0.6964906 0.6847916 -0.045849532 0.9621476
000210 8c 7d f3 bd 0d 38 af 3d 25 e5 1c 3f 5e e8 33 3e
       -0.118891805 0.08555613 0.61287147 0.1756911
000220 23 c1 2b 3e 50 db 5a 3f 49 82 18 bf 30 94 0f bf
       0.16772895 0.85490894 -0.595738 -0.5608549
000230 39 66 61 3d 3b 46 cc 3e 51 67 9b be df b9 42 be
       0.055029128 0.39897332 -0.30352262 -0.19016217
000240 ae bf 4f bc 32 9b 75 3e 53 2f a8 3c 2e 7e 0e be
       -0.012679977 0.23984984 0.020530378 -0.13915321
000250 8a 9f 8b 3e 9d 9b 41 bd 25 58 6f be 4a 20 c2 be
       0.27270156 -0.047267545 -0.23373468 -0.3791526
000260 33 50 5d be 3c 01 8d be 2c 3c 00 3f f1 8e f8 bd
       -0.21612625 -0.27540004 0.50091815 -0.12136639
000270 23 fa 4d be df d7 0d 3e fa ff 42 3f ae 90 92 ba
       -0.20114951 0.1385188 0.7617184 -0.0011182034
000280 3b b9 e4 3e 03 82 48 3e 21 0c 82 bd c6 57 1c 3d
       0.4467257 0.19580846 -0.0634997 0.038169645
000290 4d 49 42 bd 93 ce 93 3d a6 4d 47 be 84 5c 25 bf
       -0.047433186 0.07217135 -0.19463214 -0.6459429
0002a0 00 4d d0 bd 9b 32 3a bf b4 e5 c3 3e 34 e4 61 3c
       -0.101709366 -0.7273347 0.38261187 0.013787318
0002b0 84 04 18 be 8d 35 5c 3f 71 3c ff bd 3a 72 cc 3e
       -0.14845473 0.8601921 -0.124627 0.39930898
0002c0 13 53 9c be af f8 29 3d 3a 23 48 bf 46 9a c1 3e
       -0.3053213 0.04149693 -0.7817875 0.37813014
0002d0 0f b7 90 be 73 89 5c 3f 00 12 3e 3e c5 44 1d 3e
       -0.28264663 0.8614723 0.18561554 0.15358265
0002e0 01 7e 04 bf ce d3 ab be 06 5b 75 3e ad 4d 96 3e
       -0.51754767 -0.33560032 0.23960504 0.29356137
0002f0 25 2f de be f9 a4 e5 be e7 f4 3d bf 31 94 2a be
       -0.43395343 -0.44852427 -0.74201816 -0.16658093
000300 91 77 c9 be 8e 9f d9 3e 92 79 08 bf da 10 13 be
       -0.39349034 0.42504543 -0.533105 -0.14361897
000310 43 1f cf 3e 9e 54 5a 3f d1 87 c5 3e 28 2f 49 3e
       0.40453538 0.85285366 0.38580182 0.19646895
000320 32 4e 5f be a2 4e 0d bd c0 8b 84 be b0 d4 13 3e
       -0.21807173 -0.03449882 -0.2588787 0.14436603
000330 7b d8 7b bf cd ea 4d be 84 73 a1 bd f9 ea ad 3e
       -0.983772 -0.201091 -0.07883361 0.33968332
000340 03 55 73 be 8f 07 ce 3f 99 bf 86 3d 78 02 8d be
       -0.23762898 1.6096057 0.06579513 -0.27540946
000350 35 fa 20 bd 24 18 04 3e b4 d4 db 3e 77 fc 01 3d
       -0.039301116 0.12899834 0.42935717 0.03173491
000360 52 b1 fa bb 6f f2 8e be 4e 65 07 be bf 05 55 3f
       -0.0076505328 -0.27919337 -0.13222238 0.8321189
000370 2c d5 b9 be a7 cb 12 bf 10 75 a3 3d 54 42 c9 3e
       -0.3629545 -0.57342 0.07981312 0.39308417
000380 0a b2 90 3e 49 42 e2 3e 58 62 24 bf ed d9 46 3f
       0.28260833 0.44191197 -0.6421256 0.7767628
000390 41 0f ee 3e 9b fa ac be f7 7d 8e bd a6 bf 12 3e
       0.46496013 -0.33784947 -0.0695762 0.1433092
0003a0 ea 4d 46 3e 0b 1f 7d 3d 9d de 4d be 99 5b 99 3e
       0.1936566 0.061797183 -0.20104451 0.29952696
0003b0 3f 54 ac 3e dc 41 d3 bc a7 8a 27 3e d0 46 15 bf
       0.33658025 -0.02578824 0.16361485 -0.58311176
0003c0 3a 7f 71 3f 92 c2 74 bd 27 67 38 bf 67 88 c0 3d
       0.9433476 -0.05975587 -0.720324 0.09401017
0003d0 e4 79 f0 ba b8 ea 10 bf f0 d6 02 3e a7 33 0e bf
       -0.0018346873 -0.5660815 0.12777305 -0.55547565
0003e0 d6 d3 5d 3d c7 20 36 3d 14 c5 a7 3d 56 a4 08 bf
       0.0541571 0.044464853 0.081918865 -0.53375757
0003f0 ae d5 2f 3e 68 9d f4 be a5 52 3f 3f 13 16 c4 bd
       0.17171356 -0.4777634 0.7473548 -0.09574523

actor_out.bias f4 [12]
000000 d7 01 a1 3e 9a 1b df be 4e 6a 58 3e df 16 46 be
       0.31446716 -0.43575746 0.21134302 -0.19344662
000010 5b d3 e0 be 1e 26 8f bd 70 6e d9 3d af e7 e5 3c
       -0.4391125 -0.06989692 0.106167674 0.028064577
000020 f1 4f 2c be 0f a8 07 3e 99 a6 f5 3d c8 3f ee be
       -0.1682737 0.13247703 0.119946666 -0.46533036
