networks/saved_model_2/ppo_model_ep400.pth (torch, 842098 bytes, 11 tensors)

shared_fc1.weight f4 [256, 33]
-0.00035899185 -0.00966494 -0.0626152 -0.05278004 -0.14822438 -0.1068416 -0.08698452 -0.07782563
-0.18214767 0.09495682 -0.1360707 -0.027921766 -0.055570446 0.008550862 -0.06323967 0.12188591
-0.06194997 -0.033358287 -0.01767877 -0.017788524 0.088542365 0.040762227 -0.2486191 -0.043797817
-0.16878821 -0.20284988 -0.2432763 -0.24636887 -0.25107196 -0.01334986 -0.20033312 -0.246519
-0.16414322 -0.2590949 -0.22517522 -0.559894 -0.07352086 -0.16885021 -0.6100037 -0.5735262
0.021466045 -0.6131222 0.012311594 0.0063396995 0.21907479 -0.26026455 -0.09235742 -0.1552261
0.34766683 0.13146271 0.43708166 0.09962903 -3.1202006 -0.9422729 2.456862 -0.21092838
0.20818776 -0.094501525 -0.034754883 -0.74211955 -0.23858325 -0.5409777 -0.17806575 0.40222377
-0.1917367 -0.076612055 -0.028230723 -0.17635092 -0.1700658 -0.09608128 -0.15766948 -0.15286882
-0.22581953 -0.005266547 0.13049096 0.12168933 0.029621063 0.01625027 0.08754431 0.1334872
0.020886151 0.004505631 0.018743737 -0.04568857 -0.20197168 -0.08298147 -0.0699771 -0.06936795
-0.22026701 -0.04940818 -0.11307284 -0.2166378 -0.24772383 -0.054254383 -0.07772378 -0.18192582
0.05149778 -0.13396485 -0.1797692 -0.21254064 -0.18270554 -0.39427516 -0.09736216 -0.2592765
0.0027535423 -0.2841111 -0.20320393 -0.34682667 0.17499223 -0.00088626635 0.1586659 -0.06958974
-0.09141677 0.022997435 0.09061188 -0.40228465 -0.059044 0.08038384 0.2815861 -1.0613017
-0.024011524 -0.15718685 -0.218771 -0.19105178 -0.497442 -0.38706368 -0.3558791 -0.27250725
-0.28071773 0.18212481 -0.15261105 -0.051878676 0.44978136 -0.3210074 0.05243365 -0.06271839
0.015867319 0.010483288 -0.25212672 0.02087758 -0.07362163 -0.055411253 -0.21447062 -0.081111245
-0.27596712 -0.054714885 0.15751612 -0.17690128 0.15876585 0.57745844 -0.4027043 -4.200323
0.9812893 3.1731172 0.014848745 -0.17841667 -0.042068068 -0.038899448 0.15900359 -0.30584618
0.13827582 -0.0067476886 0.07680503 0.0431566 0.023203587 -0.4422453 -0.13468572 -0.35119215
-0.055711623 -0.24142686 -0.23537503 -0.47643024 -0.26409924 -0.015823612 0.18322267 0.17910762
-0.019652193 -0.34250203 0.010864189 0.16376892 -0.02565098 -0.3992469 0.3526438 0.07060427
-0.44198138 -0.82259136 0.10682737 -0.14703183 -0.05909123 -0.13589536 -0.16106479 -0.21889663
-0.20379977 -0.31652445 -0.17845814 0.18994075 -0.21237114 -0.20067133 -0.5566813 0.16798642
-0.47594282 -0.18248647 -0.079400375 -0.074914716 -0.42455375 0.15486337 -0.088939555 -0.090094544
-0.045978483 -0.16826405 0.08720728 0.06368272 0.23123764 0.039221324 -0.33432654 -0.37024787
0.46693867 1.1082529 -1.3448838 0.23981231 -0.11713094 0.17164095 0.136195 -0.16997527
0.075973436 0.08979569 -0.2217819 0.10414545 0.02934244 0.038041934 -0.029815467 -0.20931521
-0.058960035 -0.1636339 -0.2032052 -0.05997492 -0.13711077 -0.040580306 -0.1515008 -0.078032084
-0.054514132 0.06866308 0.05702491 0.10956037 -0.030287785 0.058358155 0.09732738 -0.08437033
-0.14834426 -0.14847152 -0.15377027 0.052558903 -0.034184925 -0.15967155 -0.12300231 -0.02668047
00000000: 1237 bcb9 b259 1ebc 663c 80bd e22f 58bd
00000010: 22c8 17be c5cf dabd f124 b2bd 0b63 9fbd
00000020: eb84 3abe b978 c23d 1e56 0bbe 30bc e4bc
00000030: d69d 63bd ea18 0c3c cd83 81bd 529f f93d
00000040: 40bf 7dbd b3a2 08bd 11d3 90bc 3db9 91bc
00000050: b355 b53d 4bf6 263d 0196 7ebe 5765 33bd
00000060: d1d6 2cbe e1b7 4fbe 6c1d 79be 1f48 7cbe
00000070: 818c 80be 5fb9 5abc 2024 4dbe 7a6f 7cbe
00000080: 2915 28be 16a8 84be 5594 66be 3755 0fbf
00000090: 1b92 96bd 12e7 2cbe 3429 1cbf 9dd2 12bf
000000a0: 8fd9 af3c 94f5 1cbf 91b6 493c 41bd cf3b
000000b0: 2455 603e 6541 85be e325 bdbd 97f3 1ebe
000000c0: 6301 b23e 299e 063e 2bc9 df3e 4e0a cc3d
000000d0: 5eb1 47c0 cc38 71bf 3a3d 1d40 9cfd 57be
000000e0: 2c2f 553e 048a c1bd 235b 0ebd 8cfb 3dbf
000000f0: 2b4f 74be 847d 0abf de56 36be 46f0 cd3e
00000100: a056 44be c8e6 9cbd 1e44 e7bc 5695 34be
00000110: bb25 2ebe 43c6 c4bd 1c74 21be a589 1cbe
00000120: 3c3d 67be 0093 acbb 6c9f 053e 4138 f93d
00000130: dfa7 f23c 491f 853c 6e4a b33d deb0 083e
00000140: 6f19 ab3c f9a3 933b 778c 993c f023 3bbd
00000150: aad1 4ebe 30f2 a9bd 2750 8fbd c910 8ebd
00000160: ad8d 61be 3b60 4abd bc92 e7bd 4dd6 5dbe
00000170: 51ab 7dbe d839 5ebd a52d 9fbd c34a 3abe
00000180: 56ef 523d 152e 09be 6b15 38be 41a4 59be
00000190: 2917 3bbe 6fde c9be d065 c7bd e4bf 84be
000001a0: c674 343b 0377 91be b114 50be 4493 b1be
000001b0: 2a31 333e 5454 68ba 5079 223e 1185 8ebd
000001c0: b738 bbbd 1e65 bc3c b992 b93d 41f8 cdbe
000001d0: 1fd8 71bd 48a0 a43d 0e2c 903e bcd8 87bf
000001e0: d1b3 c4bc 97f5 20be 8105 60be 14a3 43be
000001f0: b8b0 febe 362d c6be c935 b6be 1286 8bbe
00000200: 3cba 8fbe ed7e 3a3e 1246 1cbe bc7e 54bd
00000210: be49 e63e 155b a4be abc4 563d 8072 80bd
00000220: 2efc 813c 19c2 2b3c c116 81be 7507 ab3c
00000230: f0c6 96bd e9f6 62bd 309e 5bbe a71d a6bd
00000240: 904b 8dbe b71c 60bd e84b 213e 9c25 35be
00000250: 8493 223e 51d4 133f 422f cebe 0c69 86c0
00000260: c735 7b3f 5a14 4b40 2748 733c dcb2 36be
00000270: 914f 2cbd 0755 1fbd d6d1 223e df97 9cbe
00000280: 2d98 0d3e b71b ddbb f54b 9d3d fac4 303d
00000290: 7315 be3c fa6d e2be 0eeb 09be 75cf b3be
000002a0: df31 64bd 9a38 77be 2706 71be aaee f3be
000002b0: 0438 87be 85a0 81bc b99e 3b3e fd67 373e
000002c0: a3fd a0bc 6d5c afbe b6ff 313c 0ab3 273e
000002d0: 0122 d2bc 176a ccbe ba8d b43e f998 903d
000002e0: 624b e2be 5995 52bf 4fc8 da3d 838f 16be
000002f0: a509 72bd 2728 0bbe 2bee 24be 7026 60be
00000300: e3b0 50be 7e0f a2be bbbd 36be d47f 423e
00000310: d277 59be c97c 4dbe aa82 0ebf a204 2c3e
00000320: c7ae f3be bcdd 3abe aa9c a2bd e36c 99bd
00000330: 1c5f d9be 8194 1e3e f125 b6bd 7d83 b8bd
00000340: ef53 3cbd 694d 2cbe bb99 b23d 166c 823d
00000350: 8fc9 6c3e 8aa6 203d d92c abbe 2191 bdbe
00000360: 9612 ef3e 3bdb 8d3f 2725 acbf 5c91 753e
00000370: 59e2 efbd a5c2 2f3e b476 0b3e ff0d 2ebe
00000380: f697 9b3d cde6 b73d cb1a 63be 364a d53d
00000390: 8f5f f03c dcd1 1b3d 913f f4bc ba56 56be
000003a0: 1480 71bd a58f 27be 0615 50be 43a8 75bd
000003b0: c466 0cbe 8937 26bd 0723 1bbe 49cf 9fbd
000003c0: 364a 5fbd 3b9f 8c3d f492 693d 3061 e03d
000003d0: 171e f8bc f608 6f3d 9453 c73d 5aca acbd
000003e0: 8fe7 17be eb08 18be f475 1dbe 0148 573d
000003f0: 7e05 0cbd f080 23be a3e8 fbbd 0091 dabc

shared_fc1.bias f4 [256]
-0.1316902 -0.17139281 -0.113319494 -0.16218896 -0.05428401 -0.2297875 -0.03092028 -0.11563502
-0.22613612 -0.17942095 -0.08793893 -0.19018948 -0.02282997 -0.15959214 -0.19725262 -0.03128953
-0.19487406 -0.113590024 0.053391784 -0.11362189 0.012209791 -0.16479929 -0.071186125 -0.15360291
0.07567673 -0.124090105 -0.17470005 -0.051565997 -0.061838966 -0.28705308 -0.14386638 -0.168671
-0.306072 -0.13778628 0.02435897 -0.22373913 -0.21179251 -0.19942781 -0.18514095 -0.28245762
-0.20340244 -0.2337767 -0.13136098 -0.28785342 0.011358067 0.047904395 -0.095637046 -0.08754458
-0.11200901 -0.1835986 -0.073974974 -0.15212224 -0.23248444 -0.013119003 -0.14064983 -0.10904802
-0.29490063 -0.14165694 -0.24951516 -0.2103833 -0.21130706 -0.11591208 -0.11161403 -0.30534574
-0.111755684 -0.1315061 -0.20798258 -0.20119298 -0.23347208 -0.008494634 -0.09575217 -0.23706335
-0.17612876 -0.16347891 -0.0625666 -0.1857332 -0.2659525 -0.29412955 -0.074835844 -0.025153946
0.019597001 -0.11265305 -0.03942308 -0.26092106 -0.18515927 -0.25076574 -0.46787843 -0.1337965
-0.11715534 -0.14210348 -0.24431899 -0.08462217 -0.012273346 -0.11201275 -0.18798186 -0.14625831
-0.17868757 -0.33439282 -0.018141348 -0.14041834 -0.14700477 -0.12556612 -0.18101135 -0.15501747
-0.16444781 -0.20065512 -0.10190194 -0.14699076 -0.091883555 -0.07302871 -0.22886011 0.008041716
-0.07048297 -0.22800873 -0.2256748 -0.10306414 -0.11501302 -0.32442728 -0.088833995 -0.15339053
-0.03215967 0.003737448 -0.14384061 0.03997125 -0.14100315 0.012292276 -0.12565945 -0.10244151
-0.026484083 -0.228363 -0.024095736 -0.2161059 0.020907138 -0.103421606 -0.016619463 -0.14870067
-0.4801718 -0.16486719 -0.10177904 -0.007502961 -0.12091135 -0.12670606 -0.09656412 -0.1735288
-0.21134585 0.04470667 -0.09867587 -0.19278537 -0.12979022 -0.006914304 -0.11134438 -0.25686458
-0.24358185 -0.24608345 0.056051437 -0.16209638 -0.26575026 -0.24868706 -0.10227651 -0.017098898
0.048212253 0.045100816 -0.13431923 -0.13903268 -0.2328681 -0.16667728 -0.28843528 -0.16913125
-0.22444996 -0.16030635 0.0141235795 -0.03577927 -0.105367295 0.024834499 -0.22179832 -0.23222516
-0.1671186 -0.23324855 -0.15977672 -0.1485989 0.00827776 -0.06946469 0.06345427 -0.12404107
-0.24723923 -0.15945671 -0.06735475 -0.024427941 0.007785542 0.024128275 -0.181432 0.015474159
-0.14002204 -0.17414221 -0.055274688 -0.27440125 -0.16280812 -0.16097751 -0.086703494 -0.18507905
-0.22832927 0.0037025067 -0.1165542 -0.23974358 -0.074281804 -0.13115346 0.061485425 -0.06709194
-0.14950708 -0.2126652 -0.17417876 -0.006887086 0.014079572 0.016286045 -0.12185895 -0.012020321
-0.10126521 -0.069940776 -0.0902477 -0.101216875 -0.22940108 -0.12944962 -0.0118379025 -0.14420226
-0.21837598 0.0071951128 -0.07720537 -0.22604051 0.0071703466 0.087297395 -0.2741756 -0.23686625
-0.19568695 -0.07528588 -0.11790632 -0.16452588 -0.16501531 -0.025944134 -0.06874345 -0.080960505
-0.17555986 -0.06983639 -0.11861834 -0.14244819 -0.22422741 -0.00886449 0.025938671 0.04177262
-0.116169214 -0.18394771 -0.15663168 0.060497336 -0.026706453 0.026544483 -0.22038956 -0.05824919
00000000: ccd9 06be 9981 2fbe 0d14 e8bd dd14 26be
00000010: e958 5ebd 6a4d 6bbe 874c fdbc 0ed2 ecbd
00000020: 3a90 67be 20ba 37be 5319 b4bd 08c1 42be
00000030: eb05 bbbc 1f6c 23be 97fc 49be 7329 00bd
00000040: 118d 47be e3a1 e8bd 58b1 5a3d 98b2 e8bd
00000050: 930b 483c 25c1 28be 08ca 91bd 154a 1dbe
00000060: 67fc 9a3d f422 febd 92e4 32be de36 53bd
00000070: db4a 7dbd 9ff8 92be b551 13be 17b8 2cbe
00000080: 78b5 9cbe d917 0dbe 768c c73c df1b 65be
00000090: 23e0 58be ce36 4cbe 9795 3dbe 499e 90be
000000a0: bb48 50be 2963 6fbe 7e83 06be 8661 93be
000000b0: 3017 3a3c 6637 443d 5bdd c3bd 934a b3bd
000000c0: fb64 e5bd 4501 3cbe 3180 97bd efc5 1bbe
000000d0: 6710 6ebe 16f1 56bc 8206 10be 9154 dfbd
000000e0: 37fd 96be 840e 11be e780 7fbe b86e 57be
000000f0: e160 58be 5063 edbd e695 e4bd 4756 9cbe
00000100: 2ae0 e4bd 89a9 06be 63f9 54be 8805 4ebe
00000110: 4e13 6fbe 142d 0bbc b719 c4bd bcc0 72be
00000120: 195b 34be 0467 27be eb22 80bd d830 3ebe
00000130: ed2a 88be 2698 96be 8943 99bd a60f cebc
00000140: e489 a03c a4b6 e6bd 187a 21bd 7297 85be
00000150: 649a 3dbe 5e64 80be c38d efbe f301 09be
00000160: 24ef efbd 9383 11be c22e 7abe 634e adbd
00000170: 2516 49bc f166 e5bd 517e 40be bdc4 15be
00000180: e0f9 36be 8935 abbe 2a9d 94bc d3c9 0fbe
00000190: 6b88 16be 6894 00be 0a5b 39be e6bc 1ebe
000001a0: 0265 28be 8978 4dbe f7b1 d0bd bf84 16be
000001b0: 722d bcbd 1490 95bd 4e5a 6abe 67c1 033c
000001c0: 6059 90bd 1f7b 69be 4b17 67be 4b13 d3bd
000001d0: f28b ebbd 551b a6be 99ee b5bd 6812 1dbe
000001e0: dcb9 03bd f9ef 743b f44a 13be e5b8 233d
000001f0: 2163 10be 8b65 493c dfac 00be dbcc d1bd
00000200: 26f5 d8bc fed7 69be 6c64 c5bc dd4a 5dbe
00000210: 7245 ab3c b5ce d3bd 8a25 88bc fd44 18be
00000220: 14d9 f5be f2d2 28be 8871 d0bd 66db f5bb
00000230: 5fa0 f7bd 3cbf 01be 69c3 c5bd 89b1 31be
00000240: 0c6b 58be 571e 373d 9316 cabd 8769 45be
00000250: bae7 04be 6391 e2bb 8608 e4bd c183 83be
00000260: 856d 79be 4dfd 7bbe 3196 653d 98fc 25be
00000270: 6b10 88be d2a7 7ebe 5976 d1bd fd12 8cbc
00000280: 367a 453d a2bb 383d fb8a 09be 955e 0ebe
00000290: fa74 6ebe 73ad 2abe caad 93be be30 2dbe
000002a0: 36d6 65be 5927 24be 9666 673c 498d 12bd
000002b0: cfca d7bd b871 cb3c 191f 63be 6fcc 6dbe
000002c0: 2321 2bbe b5d8 6ebe 829c 23be 4f2a 18be
000002d0: 719f 073c 8143 8ebd 50f4 813d 3f09 febd
000002e0: 482c 7dbe 9f48 23be 4af1 89bd 1b1d c8bc
000002f0: dc1d ff3b a9a8 c53c 4fc9 39be 5487 7d3c
00000300: f061 0fbe 5652 32be b667 62bd 527e 8cbe
00000310: 2cb7 26be 4ad7 24be 9a91 b1bd 5d85 3dbe
00000320: 26cf 69be c1a5 723b f8b3 eebd 577f 75be
00000330: 0f21 98bd 184d 06be 24d8 7b3d 8067 89bd
00000340: 6218 19be e8c4 59be eb5b 32be 11ad e1bb
00000350: 01ae 663c 506a 853c 2f91 f9bd e1f0 44bc
00000360: 2264 cfbd 1c3d 8fbd c9d3 b8bd cb4a cfbd
00000370: 1ee8 6abe 718e 04be c3f3 41bc c2a9 13be
00000380: f49d 5fbe fbc4 eb3b d91d 9ebd 2a77 67be
00000390: 3af5 ea3b fac8 b23d bf60 8cbe 118d 72be
000003a0: 2962 48be 7c2f 9abd de78 f1bd 7979 28be
000003b0: c6f9 28be cb88 d4bc 5ec9 8cbd 9fce a5bd
000003c0: f7c5 33be 6206 8fbd 2cee f2bd f0dd 11be
000003d0: df9b 65be 5e3c 11bc 567d d43c c419 2b3d
000003e0: 20ea edbd ca5c 3cbe 0e64 20be 0ecc 773d
000003f0: 7ec7 dabc d173 d93c cdad 61be b496 6ebd

shared_fc2.weight f4 [256, 256]
-0.13925557 0.005075822 -0.1406294 -0.08460283 0.15385702 0.077472 0.033091813 -0.06588334
0.24535137 -0.046146635 0.2627044 -0.11337958 -0.014775456 -0.18566231 -0.029980516 -0.13672078
0.035189368 -0.006434261 0.030688887 -0.39074612 -0.11946369 -0.06768041 -0.346031 -0.0027259681
0.052604936 -0.054848716 -0.005111111 0.02518251 -0.045052927 -0.14989932 0.024781225 0.12207882
-0.13389681 -0.066555336 0.073931485 0.008875721 -0.04356163 -0.007702799 0.020513315 -0.05314758
-0.24147978 0.11207518 0.039939865 -0.054395262 -0.03652759 -0.1242854 -0.14018425 -0.08626445
-0.055643275 0.026866894 -0.060021304 0.10759772 0.046799894 0.26476896 0.016812293 0.073417924
-0.011273998 0.05667992 -0.16499227 -0.0024815665 0.036352426 -0.003981153 -0.011681186 -0.047236696
0.19708969 0.022790259 -0.08862368 -0.09919703 -0.08016823 -0.34743866 0.05638149 -0.5212292
-0.11889565 0.019523911 0.09232621 -0.0032451337 -0.01700244 0.0071937265 0.013328022 -0.36095387
-0.067614146 -0.011099512 0.21581218 -0.040913254 0.021871878 -0.10520461 0.13102874 -0.047585666
-0.22283782 -0.011254668 -0.11563218 -0.0849625 -0.28093454 -0.10999653 -0.10374485 0.016263867
-0.095449924 -0.06275372 -0.5403655 -0.12361349 -0.21056373 0.01277594 0.0042094537 -0.23278296
0.053347815 0.024893802 0.054504156 -0.16110931 0.01892037 0.07212239 -0.3092587 -0.2933269
-0.001752574 -0.07242471 -0.13461632 0.06572656 -0.006622789 -0.21481001 -0.02847134 0.44536474
-0.22096741 -0.10295014 -0.096420355 0.032992404 -0.08640267 -0.0924882 0.020287618 0.027888041
0.07274912 -0.053909805 0.019088047 0.046101492 -0.12721673 0.0102865 -0.077497624 -0.24359891
0.121482156 -0.12688018 -0.10532871 -0.15527803 -0.09324917 0.07564059 0.09313054 0.046755016
-0.08839498 -0.115586445 -0.0057824724 0.027831387 0.00900458 -0.32129782 0.035638142 -0.1162116
-0.22529848 -0.014622637 0.06438716 -0.21150282 0.22367424 0.1268271 0.0974904 -0.32976165
-0.41494387 0.2489394 0.008714867 -0.12966417 -0.11754115 0.10970644 -0.31478074 -0.13060948
-0.060108945 0.04344879 -0.05003607 -0.074873224 -0.058162414 -0.2096784 -0.13482398 -0.20246507
-0.0014424929 -0.14085932 0.07427535 0.0028663801 -0.12958361 -0.13468786 -0.10099917 -0.25777385
-0.025776096 0.07190022 0.028877007 0.0040253983 -0.06364665 -0.39553523 -0.2451981 -0.34363812
0.075213544 -0.045973085 -0.006558066 -0.047656074 -0.07922177 0.09772582 0.3146688 -0.04575891
0.05815308 -0.22714 0.08188519 0.035666704 0.050658382 0.049461994 -0.35288432 -0.15533265
-0.095391616 -0.035422057 -0.13008007 0.029708128 -0.23665278 -0.29226613 -0.070489824 -0.27120358
-0.53870267 -0.034937743 0.0029987493 -0.09645608 0.2624993 -0.09681941 -0.16124587 0.06535296
-0.16655235 -0.45192328 -0.08668881 -0.20732789 -0.11879179 -0.120042205 -0.22846127 -0.04075449
-0.052389987 0.058278006 -0.26715556 0.042515125 -0.033376854 0.0667833 -0.17744069 0.009583762
0.023707107 0.022179153 0.046861853 -0.007724455 -0.16999955 -0.042698514 -0.39639106 0.012098013
0.028402746 -0.036581773 -0.08182777 0.09425425 -0.1674261 -0.29462764 -0.031649552 -0.07079258
00000000: 0399 0ebe 1553 a63b 2701 10be 4044 adbd
00000010: b28c 1d3e a4a9 9e3d 488b 073d d8ed 86bd
00000020: 643d 7b3e 4104 3dbd 3181 863e 8e33 e8bd
00000030: c114 72bc 431e 3ebe b399 f5bc 8800 0cbe
00000040: ba22 103d 7ed6 d2bb 4367 fb3c e00f c8be
00000050: 61a9 f4bd 079c 8abd fa2a b1be 28a6 32bb
00000060: 4678 573d 0ca9 60bd 1b7b a7bb 8d4b ce3c
00000070: 6b89 38bd 357f 19be ff01 cb3c 7604 fa3d
00000080: 3f1c 09be 2a4e 88bd 6469 973d 796b 113c
00000090: ae6d 32bd c367 fcbb 8a0b a83c 47b1 59bd
000000a0: 7a46 77be ac87 e53d fc97 233d 91cd 5ebd
000000b0: f49d 15bd 5889 febd 768c 0fbe 6aab b0bd
000000c0: 34ea 63bd f617 dc3c e6d8 75bd 325c dc3d
000000d0: 3fb1 3f3d cc8f 873e efb9 893c 235c 963d
000000e0: 93b6 38bc 3429 683d bcf3 28be c7a1 22bb
000000f0: 48e6 143d 5574 82bb 7262 3fbc 447b 41bd
00000100: e1d1 493e a3b2 ba3c 5580 b5bd d027 cbbd
00000110: 3e2f a4bd 7be3 b1be 47f0 663d 476f 05bf
00000120: 907f f3bd 9cf0 9f3c 8615 bd3d 4fac 54bb
00000130: b348 8bbc 5ab9 eb3b c75d 5a3c f2ce b8be
00000140: 4979 8abd bada 35bc defd 5c3e a894 27bd
00000150: a72c b33c 8475 d7bd 662c 063e 30e9 42bd
00000160: 992f 64be 8065 38bc 90d0 ecbd d200 aebd
00000170: a7d6 8fbe dc45 e1bd 2e78 d4bd cd3b 853c
00000180: 407b c3bd 0685 80bd 6555 0abf 1229 fdbd
00000190: 059e 57be 2d52 513c 75ef 893b a85e 6ebe
000001a0: 3d83 5a3d 16ee cb3c c03f 5f3d d7f9 24be
000001b0: e4fe 9a3c e7b4 933d 2857 9ebe f22e 96be
000001c0: a0b6 e5ba 6853 94bd dcd8 09be a69b 863d
000001d0: fb03 d9bb 28f7 5bbe ba3c e9bc d906 e43e
000001e0: 4845 62be 86d7 d2bd 0978 c5bd 0b23 073d
000001f0: e2f3 b0bd 746a bdbd 3832 a63c 7675 e43c
00000200: 7efd 943d 87d0 5cbd 895e 9c3c ebd4 3c3d
00000210: 1a45 02be b588 283c 13b7 9ebd fe71 79be
00000220: a3cb f83d e1ec 01be 94b6 d7bd 3401 1fbe
00000230: 6cf9 bebd 74e9 9a3d 39bb be3d 3082 3f3d
00000240: 6d08 b5bd 96b8 ecbd e57a bdbb a6fe e33c
00000250: f287 133c 2681 a4be 4df9 113d 5900 eebd
00000260: a5b4 66be c993 6fbc 6add 833d 3294 58be
00000270: dc0a 653e f7de 013e 0ca9 c73d 85d6 a8be
00000280: 8673 d4be f8e9 7e3e cdc8 0e3c afc6 04be
00000290: 6ab9 f0bd c5ad e03d f12a a1be 7ebe 05be
000002a0: cc34 76bd 5cf7 313d 9ff2 4cbd 2257 99bd
000002b0: b63b 6ebd efb5 56be 4c0f 0abe 0153 4fbe
000002c0: 0812 bdba 6d3d 10be ad1d 983d e1d9 3b3b
000002d0: 91b1 04be 9deb 09be a7d8 cebd effa 83be
000002e0: 6428 d3bc 6c40 933d 798f ec3c 7de7 833b
000002f0: 2d59 82bd 9883 cabe 3615 7bbe 56f1 afbe
00000300: 8f09 9a3d 464e 3cbd 0be5 d6bb 0433 43bd
00000310: 063f a2bd 7a24 c83d 451c a13e b26d 3bbd
00000320: ed31 6e3d 6397 68be 6cb3 a73d 4017 123d
00000330: 2a7f 4f3d a998 4a3d 41ad b4be 860f 1fbe
00000340: ae5c c3bd b816 11bd b633 05be 765e f33c
00000350: 1b55 72be e8a3 95be f85c 90bd 32db 8abe
00000360: 6be8 09bf e11a 0fbd aa86 443b c48a c5bd
00000370: 4f66 863e 4149 c6bd a31d 25be c6d7 853d
00000380: b38c 2abe 7d62 e7be e789 b1bd c34d 54be
00000390: 1c49 f3bd b0d8 f5bd c0f1 69be 2eee 26bd
000003a0: e296 56bd ebb4 6e3d 9dc8 88be 5724 2e3d
000003b0: 2bb6 08bd afc5 883d 03b3 35be 3605 1d3c
000003c0: 6835 c23c 0eb1 b53c 37f2 3f3d 6d1d fdbb
000003d0: 5d14 2ebe a3e4 2ebd c5f3 cabe bf36 463c
000003e0: e0ac e83c c5d6 15bd 5195 a7bd 5f08 c13d
000003f0: bf71 2bbe 6fd9 96be f6a2 01bd b3fb 90bd

shared_fc2.bias f4 [256]
-0.047535997 -0.15318306 -0.046954088 -0.14433423 -0.07606863 -0.06421121 -0.051132202 -0.23312218
-0.055957817 -0.051147364 -0.07404279 0.12178284 -0.021979269 -0.012768512 -0.056800246 0.13907723
-0.062605254 0.11725294 -0.052973483 -0.068613574 -0.08261845 0.106838904 -0.0677565 -0.049924243
-0.06828944 0.120729424 0.1000422 -0.04115013 -0.0449176 -0.054446813 -0.063966796 -0.12703936
-0.055892657 -0.04447461 -0.1572523 0.16389349 0.07276753 -0.048090324 -0.040610183 -0.081170075
0.106345326 -0.03852994 -0.056652043 0.015634296 -0.13926053 -0.17356858 0.095109105 -0.09616476
0.057372622 -0.111848876 -0.09444345 0.17577869 -0.1024051 -0.03400604 -0.16635837 -0.03376825
-0.12995763 -0.08688899 -0.058699656 -0.1352064 -0.067441724 -0.05558029 -0.05412543 -0.04112513
-0.15420717 -0.105165824 0.13618946 0.14155677 -0.050054424 -0.05842868 -0.054499857 -0.061451115
-0.05355749 -0.054069452 -0.028613428 -0.005767336 0.12862894 0.08253041 0.04706169 -0.057558123
-0.054716136 -0.07367174 -0.05991099 -0.02431124 -0.0396947 0.15287906 -0.09422683 -0.08853591
0.16653572 0.055035356 -0.037485387 -0.046440918 -0.090883225 0.048163153 0.10479598 0.079638354
-0.060627174 -0.050462894 0.014373543 -0.08003089 0.10793873 -0.024503969 -0.04933469 -0.085050635
0.050461937 -0.035186082 -0.07379334 -0.049087886 0.076723315 -0.08918782 -0.07785848 -0.09475913
-0.0886065 -0.06349093 0.04789393 -0.046673495 0.07451065 -0.06216209 -0.090615295 -0.07775227
-0.057421982 -0.07888099 -0.06869046 -0.0768945 -0.04864899 -0.07033357 -0.085846595 -0.09604745
-0.16797051 -0.13106944 -0.080924846 0.17556804 0.12500907 0.048982788 -0.046502843 -0.10031271
-0.11557161 -0.12275847 0.08464624 -0.042687215 -0.068491735 -0.041149203 -0.040390544 0.12177665
-0.105140276 0.1641416 0.0068044015 -0.07312883 -0.06297324 -0.09808848 0.21413493 -0.07899737
-0.09926905 0.21651343 -0.07472282 0.040482145 0.06551948 -0.06616827 0.14887626 0.10093013
0.13001682 0.20035928 -0.0794282 -0.26165092 -0.035369217 -0.060361315 -0.4625152 -0.06358952
-0.09077861 0.05249407 -0.081544764 -0.07670785 -0.08579222 -0.04561059 -0.07090283 -0.061706863
-0.050023068 -0.087829344 0.15481584 -0.042449985 0.17564127 -0.018366203 -0.050077047 -0.04458063
-0.2848294 0.14582895 -0.042940114 -0.039971847 0.18246421 -0.082056634 -0.10985102 0.075751714
-0.053241093 0.12566519 0.07937341 -0.07687698 -0.07418401 -0.07985423 -0.056252677 -0.044121113
-0.04452726 0.05916351 -0.073413484 -0.08911828 -0.051441286 -0.0732398 -0.09086453 -0.06804632
-0.012982603 -0.05332677 0.06357993 0.015010182 -0.039936516 0.035679225 -0.04200255 -0.1882803
-0.03625006 -0.049896367 -0.12592384 -0.022725254 -0.05018326 -0.14306535 -0.051703725 -0.114836104
-0.102050215 0.07560144 0.11224846 -0.04802132 -0.09580405 -0.009376963 -0.05787069 0.08498101
0.2669634 -0.09889476 -0.098655 0.0032693704 -0.090508126 0.025204865 -0.13368754 0.11025117
-0.04531328 0.028708901 -0.06508903 -0.030073298 -0.084350936 -0.046107758 -0.017263323 -0.08148106
-0.059075598 -0.07533316 -0.04677506 -0.047570787 0.17731321 -0.14053679 -0.031751204 -0.05027343
00000000: 1bb5 42bd 05dc 1cbe ee52 40bd 5acc 13be
00000010: dfc9 9bbd 2b81 83bd 0070 51bd 95b7 6ebe
00000020: 0634 65bd e67f 51bd bfa3 97bd 4869 f93d
00000030: de0d b4bc 0533 51bc 60a7 68bd 436a 0e3e
00000040: 2f37 80bd 4f22 f03d b9fa 58bd 4685 8cbd
00000050: dd33 a9bd 5bce da3d ebc3 8abd 5d7d 4cbd
00000060: 55db 8bbd fd40 f73d ede2 cc3d 0a8d 28bd
00000070: 84fb 37bd 9f03 5fbd 0601 83bd 9b16 02be
00000080: b3ef 64bd 022b 36bd bf06 21be b2d3 273e
00000090: 2507 953d 5cfa 44bd dd56 26bd 7f3c a6bd
000000a0: 94cb d93d 92d1 1dbd f90b 68bd 7f13 803c
000000b0: 509a 0ebe f6bb 31be 90c8 c23d 08f2 c4bd
000000c0: 8eff 6a3d 0611 e5bd 916b c1bd 54ff 333e
000000d0: c4b9 d1bd eb49 0bbd d959 2abe 9450 0abd
000000e0: 9d13 05be dbf2 b1bd 0d6f 70bd 8c73 0abe
000000f0: e31e 8abd 28a8 63bd a0b2 5dbd d372 28bd
00000100: 7ce8 1dbe 2e61 d7bd 4075 0b3e 42f4 103e
00000110: de05 4dbd e952 6fbd 3e3b 5fbd 2ab4 7bbd
00000120: 195f 5bbd ee77 5dbd b566 eabc ecfb bcbb
00000130: 4eb7 033e b405 a93d c2c3 403d 11c2 6bbd
00000140: 071e 60bd 36e1 96bd 3a65 75bd 5e28 c7bc
00000150: e996 22bd 548c 1c3e fff9 c0bd 5152 b5bd
00000160: 5788 2a3e c16c 613d 478a 19bd d538 3ebd
00000170: fc20 babd ba46 453d 469f d63d 6f19 a33d
00000180: 3354 78bd 2eb2 4ebd 027f 6b3c 3ce7 a3bd
00000190: fb0e dd3d 8cbc c8bc 2c13 4abd 072f aebd
000001a0: 2db1 4e3d 481f 10bd f620 97bd 6110 49bd
000001b0: 1d21 9d3d 1ba8 b6bd 4474 9fbd 1311 c2bd
000001c0: 5377 b5bd 8807 82bd 6d2c 443d b52c 3fbd
000001d0: 0a99 983d ad9d 7ebd 8394 b9bd 953c 9fbd
000001e0: 5033 6bbd 5b8c a1bd 95ad 8cbd dd7a 9dbd
000001f0: 2a44 47bd 0c0b 90bd 57d0 afbd 87b4 c4bd
00000200: 7600 2cbe 1137 06be edbb a5bd 1cc8 333e
00000210: 6102 003e 2da2 483d c479 3ebd c070 cdbd
00000220: cfb0 ecbd cb68 fbbd 025b ad3d cad8 2ebd
00000230: 6545 8cbd 118c 28bd 8e70 25bd 0966 f93d
00000240: c953 d7bd bc14 283e 75f7 de3b 91c4 95bd
00000250: 1df8 80bd 9de2 c8bd 3046 5b3e 60c9 a1bd
00000260: 924d cbbd b2b5 5d3e 4708 99bd 9bd0 253d
00000270: 142f 863d 3b83 87bd 0573 183e 75b4 ce3d
00000280: 2123 053e fc2a 4d3e 41ab a2bd 1cf7 85be
00000290: 50df 10bd 6d3d 77bd cbce ecbe 393b 82bd
000002a0: 23ea b9bd 0604 573d f100 a7bd 0119 9dbd
000002b0: d5b3 afbd 2cd2 3abd 8135 91bd 56c0 7cbd
000002c0: fde4 4cbd dfdf b3bd 0b88 1e3e 09e0 2dbd
000002d0: 4edb 333e b874 96bc 971d 4dbd 2e9a 36bd
000002e0: 29d5 91be 2f54 153e f9e1 2fbd 85b9 23bd
000002f0: e6d7 3a3e 4f0d a8bd 92f9 e0bd b723 9b3d
00000300: 5513 5abd 60ae 003e 878e a23d ae71 9dbd
00000310: c9ed 97bd 9d8a a3bd 3569 66bd 57b8 34bd
00000320: 3762 36bd 7055 723d cf59 96bd a583 b6bd
00000330: 19b4 52bd c0fe 95bd 2f17 babd de5b 8bbd
00000340: fcb4 54bc 2c6d 5abd 3236 823d 44ed 753c
00000350: 7994 23bd 6124 123d de0a 2cbd 8dcc 40be
00000360: f17a 14bd 2260 4cbd 2ef2 00be 502a babc
00000370: f68c 4dbd b97f 12be 49c7 53bd 312f ebbd
00000380: b4ff d0bd eed4 9a3d 85e2 e53d 01b2 44bd
00000390: ea34 c4bd d5a1 19bc d109 6dbd 860a ae3d
000003a0: 6daf 883e 5689 cabd a20b cabd ef42 563b
000003b0: 535c b9bd 6f7a ce3c 63e5 08be 5ecb e13d
000003c0: 6b9a 39bd ee2e eb3c 664d 85bd 475c f6bc
000003d0: 2fc0 acbd 7ddb 3cbd d06b 8dbc 8bdf a6bd
000003e0: 41f9 71bd 4648 9abd 3597 3fbd 96d9 42bd
000003f0: 9891 353e e0e8 0fbe 8d0d 02bd 83eb 4dbd

actor_fc.weight f4 [256, 256]
-0.18750496 0.4064503 -0.048055183 0.040536303 -0.019539248 0.008253397 -0.04324175 0.3405989
-0.006881347 0.066421494 -0.101484045 -0.41400704 -0.4038335 -0.07281998 -0.08431477 -0.34767687
0.054240238 -0.16589385 0.053672496 0.040579908 0.011219587 -1.0271508 -0.06714209 -0.005855588
-0.10730703 -0.46615955 0.15138853 0.0053457553 0.07627046 0.025806092 0.10602827 -0.10924002
-0.0049682 0.08443372 -0.17569914 0.2926428 -0.4389511 0.031962156 0.10706818 -0.01135159
-0.17054173 -0.003296514 -0.10597682 -0.051895045 0.05427746 -0.06728666 -0.09526303 -0.010279362
-0.09529128 -0.0007251933 -0.061122347 -0.08314789 -0.079992056 0.049247842 0.04845302 0.009047995
0.061835226 0.0034069023 -0.003161465 0.006543707 -0.039323173 0.08560693 -0.08653366 0.21563004
0.21405233 -0.18163213 0.10243767 -0.45331097 -0.06766316 0.13745968 0.042775966 0.040354054
-0.013942542 0.05345702 -0.10261142 0.011102179 -0.17293443 -0.09092385 -0.041026033 -0.21026798
0.011580172 0.016906235 0.078132026 -0.07128045 -0.08556132 -0.9754115 -0.03521831 0.0907206
0.14468703 -0.19396126 -0.222672 0.03925207 0.021406746 0.2626488 -0.6407414 -0.2583629
-0.01747381 0.03562096 -0.4531284 -0.10078788 0.04464538 -0.39889306 0.0440975 -0.17210549
0.23732299 0.100163884 0.0814539 -0.42538962 0.18244073 0.008407984 0.019556405 0.007658871
0.0007685087 -0.10356319 -0.15984747 -0.021188583 -0.25183704 0.04927628 0.113637835 0.054114856
-0.06396922 -0.5352802 0.084976554 -0.023421168 -0.057834867 -0.09788731 -0.007411669 0.03733318
-0.008529675 -0.055631176 -0.0199003 -0.61578363 0.1387262 0.009823822 0.10792644 -0.046451494
0.05757793 0.020713797 0.3334955 -0.019664025 -0.14257948 -0.0038381934 -0.054571692 -0.3848246
-0.266752 -0.4793838 -0.03767713 0.023878552 0.036565043 -0.3639138 -0.79416203 0.1414616
-0.06812003 -0.64845985 -0.08025665 0.03616639 -0.14262332 -0.029003102 -0.11061669 -0.14423339
-0.41708195 -0.17116368 -0.2923934 0.079288945 0.029158222 0.062878765 -0.10925587 0.060172506
0.04779949 -0.3041649 0.0217508 -0.056307703 -0.046012603 -0.05569625 -0.5268631 0.035080235
0.024946276 0.019690353 -0.32080927 -0.018584851 -0.49917254 0.042740066 -0.026774304 -0.0646114
-0.18933803 0.03314173 0.10439202 0.021823782 -0.22672856 0.04753183 -0.10617939 0.3438445
0.06573116 0.14256014 0.30566195 -0.05199806 -0.030827915 0.06142369 0.10373225 -0.043738764
-0.004094804 -0.010489702 0.09797761 0.07482894 -0.070237815 0.0036563212 0.025467899 -0.08838817
-0.015884815 0.09034508 0.073709734 -0.04919889 0.0605566 -0.39847374 -0.01839182 -0.06919633
-0.058304694 0.05921713 0.06778395 0.043051705 -0.05639548 0.14218663 0.001989031 0.024683984
0.063763365 -0.16921845 -0.7234476 0.016911358 0.07829671 0.14090358 -0.06574951 -1.1856817
0.42709896 -0.0017266746 0.077946 -0.15919814 -0.18675564 -0.1313296 -0.12573658 0.023413911
0.008585799 -0.4313001 0.0007318974 -0.5017791 -0.059588563 -0.396467 0.16803952 0.09680732
-0.05070966 -0.054341123 0.0043657385 -0.07688105 -0.22965412 0.0041012964 -0.07060198 -0.103144966
00000000: 4d01 40be 411a d03e 83d5 44bd 6509 263d
00000010: c610 a0bc 4239 073c 431e 31bd fb62 ae3e
00000020: ec7c e1bb fe07 883d ded6 cfbd bbf8 d3be
00000030: 44c3 cebe a422 95bd 39ad acbd b402 b2be
00000040: 032b 5e3d 14e0 29be b1d7 5b3d 1e37 263d
00000050: 5cd2 373c ad79 83bf cb81 89bd 3be0 bfbb
00000060: cac3 dbbd 77ac eebe 9805 1b3e 722b af3b
00000070: b033 9c3d 4c67 d33c 5a25 d93d 3bb9 dfbd
00000080: 48cc a2bb 96eb ac3d 7aea 33be 47d5 953e
00000090: 33be e0be c0ea 023d 9046 db3d 05fc 39bc
000000a0: 7ea2 2ebe 540a 58bb 600a d9bd e68f 54bd
000000b0: 0b52 5e3d 97cd 89bd 4319 c3bd c56a 28bc
000000c0: 1328 c3bd e61a 3eba 6d5b 7abd 7149 aabd
000000d0: e0d2 a3bd 1bb8 493d ad76 463d 0b3e 143c
000000e0: ef46 7d3d 5646 5f3b 9530 4fbb 986c d63b
000000f0: 5611 21bd b052 af3d 8f38 b1bd 1fce 5c3e
00000100: 8930 5b3e c6fd 39be d7ca d13d 6018 e8be
00000110: fc92 8abd 3bc2 0c3e da35 2f3d 4b4a 253d
00000120: 426f 64bc c0f5 5a3d f025 d2bd eae5 353c
00000130: b915 31be 4936 babd ea0a 28bd 7d50 57be
00000140: c3ba 3d3c f27e 8a3c af03 a03d 7cfb 91bd
00000150: c63a afbd 91b4 79bf 1341 10bd b9cb b93d
00000160: d628 143e c89d 46be 2104 64be c7c6 203d
00000170: 335d af3c e779 863e a107 24bf 2448 84be
00000180: 3c25 8fbc 49e7 113d 7200 e8be e069 cebd
00000190: 13de 363d b63b ccbe 959f 343d 6c3c 30be
000001a0: cc04 733e b922 cd3d 4dd1 a63d abcc d9be
000001b0: bed1 3a3e a4c1 093c c134 a03c 44f7 fa3b
000001c0: bf75 493a f018 d4bd 0eaf 23be ae93 adbc
000001d0: c9f0 80be edd5 493d f4ba e83d 8aa7 5d3d
000001e0: 4b02 83bd 2008 09bf 3008 ae3d c0dd bfbc
000001f0: 41e4 6cbd 2479 c8bd 96dd f2bb adea 183d
00000200: 0dc0 0bbc 84dd 63bd f405 a3bc ffa3 1dbf
00000210: 3e0e 0e3e 19f4 203c 8a08 dd3d ec43 3ebd
00000220: d6d6 6b3d fbaf a93c ecbf aa3e 7316 a1bc
00000230: 5b00 12be 338a 7bbb 9186 5fbd bb07 c5be
00000240: b893 88be cb71 f5be 5653 1abd f49c c33c
00000250: 3ac5 153d e952 babe 344e 4bbf 4fdb 103e
00000260: 8482 8bbd 7701 26bf 995d a4bd 3523 143d
00000270: d90b 12be ea97 edbc 018b e2bd ebb1 13be
00000280: c48b d5be 8845 2fbe 96b4 95be 3e62 a23d
00000290: 39dd ee3c 95c6 803d 8bc1 dfbd 7277 763d
000002a0: 66c9 433d 80bb 9bbe bc2e b23c e8a2 66bd
000002b0: b677 3cbd c021 64bd 80e0 06bf 4bb0 0f3d
000002c0: 225c cc3c aa4d a13c 1d41 a4be 423f 98bc
000002d0: 8b93 ffbe 3510 2f3d c955 dbbc fb52 84bd
000002e0: d4e1 41be 9fbf 073d 7ccb d53d cac7 b23c
000002f0: 882b 68be bcb0 423d 9474 d9bd 630c b03e
00000300: 0f9e 863d 49fb 113e b97f 9c3e ebfb 54bd
00000310: d38a fcbc 6897 7b3d 9371 d43d 6b27 33bd
00000320: b52d 86bb 00dd 2bbc 7ca8 c83d ea3f 993d
00000330: d8d8 8fbd e49e 6f3b 0ea2 d03c db04 b5bd
00000340: df20 82bc d706 b93d 21f5 963d c684 49bd
00000350: 330a 783d c004 ccbe 71aa 96bc ceb6 8dbd
00000360: e7d0 6ebd a98d 723d 50d2 8a3d fc56 303d
00000370: f2fe 66bd 5f99 113e 675a 023b 1136 ca3c
00000380: 5e96 823d 9a47 2dbe dd33 39bf b089 8a3c
00000390: 075a a03d 0749 103e aea7 86bd 6bc4 97bf
000003a0: b7ac da3e 9651 e2ba 27a2 9f3d d604 23be
000003b0: df3c 3fbe 447b 06be 17c1 00be 88ce bf3c
000003c0: 73ab 0c3c 5ed3 dcbe cedc 3f3a 9874 00bf
000003d0: 2313 74bd b9fd cabe 8d12 2c3e eb42 c63d
000003e0: efb4 4fbd cc94 5ebd 780e 8f3b d073 9dbd
000003f0: 732a 6bbe 2b64 863b c597 90bd ab3d d3bd

actor_fc.bias f4 [256]
-0.33523875 -0.1431707 -0.04124645 -0.07530413 0.12687065 0.16779733 -0.13781245 -0.07578407
0.22180955 -0.12696198 -0.011599243 0.08196806 -0.2937674 -0.14839095 -0.27211413 -0.08868685
-0.15796818 -0.05924343 -0.069412 -0.057688393 -0.10466799 -0.20528102 -0.26869026 0.106284626
-0.056452546 -0.32395667 -0.17619209 0.040490817 -0.14533427 -0.117088795 -0.04937276 0.2650528
-0.034336578 -0.12693618 -0.21363142 -0.08779899 -0.24165258 -0.18819055 -0.2568769 0.030116258
-0.08220346 -0.16621067 -0.16862512 -0.33744687 -0.23673716 0.05113557 -0.03264958 0.20049459
-0.11750391 0.090979725 0.016937722 -0.19644491 -0.07475373 -0.076266065 -0.18742678 -0.22465323
-0.45649815 -0.16408099 -0.107638665 -0.12966843 -0.049007997 -0.06400439 -0.19537342 -0.1998713
-0.3771125 -0.10304202 0.12483212 -0.118380845 -0.102348305 -0.29338497 0.06752218 -0.3621195
-0.10485231 -0.10663818 0.15104565 -0.07383676 0.039563134 -0.12421984 -0.08356551 -0.1918461
0.29535195 0.07915403 0.25187838 -0.23452832 -0.29733485 -0.20298238 -0.17134054 -0.11630595
-0.091892436 0.0060608247 0.1553963 0.067368366 -0.2687236 0.09344913 -0.07072986 0.24838847
-0.14219487 0.067397915 -0.09528053 -0.21129401 -0.2304721 0.030242313 -0.11893198 -0.14541034
-0.13969667 0.08335208 -0.15097275 -0.067056425 -0.18159102 0.022889258 -0.2832866 -0.09918332
-0.06052082 0.07855474 -0.16099413 -0.16978969 -0.08155636 -0.13165821 -0.15408286 -0.19109373
-0.10786898 -0.11869413 -0.16714562 -0.10747873 0.23574497 -0.2196231 -0.09904743 0.1732145
0.03745409 -0.027774122 -0.09637826 -0.20979682 0.056877937 -0.3145752 -0.042060364 -0.08142474
0.05318792 0.05110626 -0.06735666 0.055081174 -0.06804305 -0.16733967 -0.26848382 -0.0499104
-0.20762001 0.15279782 -0.079007715 -0.29464737 0.089154124 -0.09910952 0.13924706 -0.084259994
4.6789857e-05 -0.21739104 -0.16021325 -0.12525836 -0.05900266 -0.17791471 -0.2247636 -0.08169685
0.12886141 -0.21913967 -0.17969908 -0.08848969 -0.3071452 -0.1656175 -0.104446754 -0.36643967
-0.103867926 0.10985716 -0.26724353 -0.09908237 -0.14558686 -0.12001297 0.08257448 -0.30612096
-0.013024571 -0.2276671 -0.11061487 -0.08615142 -0.16580096 0.017275188 -0.11371376 -0.07706383
0.072932184 -0.0419396 0.11126421 -0.21467346 0.07436689 0.080086485 -0.01227207 -0.1372129
-0.013184919 0.31098607 0.05114967 -0.23132846 -0.0063169287 -0.29789954 0.104657084 -0.26641497
0.16925779 -0.15107949 -0.04453282 -0.15657268 0.26481926 -0.2724346 -0.0685074 0.03605493
-0.3587959 -0.204865 -0.06949882 0.17098728 -0.1255497 -0.07300476 -0.1478222 -0.19122994
-0.1388709 0.24260984 -0.030888181 -0.24098295 -0.44977394 -0.044921633 -0.08969521 -0.20193037
-0.16088386 -0.3390007 0.10689096 -0.02256818 -0.15735619 -0.11609644 -0.14346135 0.2777899
0.01939008 -0.1377642 0.178119 -0.3330181 -0.041082315 -0.21056618 -0.24163556 -0.34145555
-0.20667061 -0.43475488 -0.039110024 -0.10327594 -0.018664131 0.02541853 -0.37246016 -0.059102155
-0.19084327 -0.040949218 0.0062472695 -0.06875337 -0.18247198 -0.014539023 -0.41766152 -0.1475091
00000000: 6aa4 abbe 579b 12be 0af2 28bd 0d39 9abd
00000010: 61ea 013e 10d3 2b3e b51e 0dbe ae34 9bbd
00000020: 0b22 633e 5202 02be c00a 3ebc dfde a73d
00000030: ae68 96be ccf3 17be 8b52 8bbe 74a1 b5bd
00000040: 69c2 21be 3da9 72bd e127 8ebd aa4a 6cbd
00000050: 2c5c d6bd 3035 52be c591 89be c1ab d93d
00000060: c93a 67bd a6dd a5be b36b 34be b3d9 253d
00000070: 82d2 14be 40cc efbd 173b 4abd 00b5 873e
00000080: 83a4 0cbd 8ffb 01be 32c2 5abe f5cf b3bd
00000090: c673 77be 06b5 40be 5e85 83be 5fb6 f63c
000000a0: 4a5a a8bd 2133 2abe 10ac 2cbe d6c5 acbe
000000b0: 3a6b 72be 8873 513d 91bb 05bd 744e 4d3e
000000c0: e4a5 f0bd 9453 ba3d fac0 8a3c db28 49be
000000d0: 7c18 99bd 6231 9cbd ceec 3fbe 7f0b 66be
000000e0: 20ba e9be d904 28be a971 dcbd cdc7 04be
000000f0: 9cbc 48bd bc14 83bd f80f 48be 10ab 4cbe
00000100: e414 c1be b207 d3bd fca7 ff3d a871 f2bd
00000110: fd9b d1bd 8e36 96be 1249 8a3d ba67 b9be
00000120: cfbc d6bd 1e65 dabd b6ab 1a3e ba37 97bd
00000130: f40c 223d f966 febd 6524 abbd 4e73 44be
00000140: 5f38 973e 821b a23d 34f6 803e 3128 70be
00000150: 463c 98be 9dda 4fbe e573 2fbe d031 eebd
00000160: 1a32 bcbd e299 c63b 3520 1f3e 6df8 893d
00000170: 2496 89be 4262 bf3d d1da 90bd 8c59 7e3e
00000180: 889b 11be eb07 8a3d 7022 c3bd 755d 58be
00000190: e100 6cbe babe f73c 9c92 f3bd 73e6 14be
000001a0: a50c 0fbe 7fb4 aa3d 9a98 1abe e154 89bd
000001b0: fff2 39be 4182 bb3c f10a 91be a020 cbbd
000001c0: aee4 77bd 4fe1 a03d a5db 24be 59dd 2dbe
000001d0: 0507 a7bd 69d1 06be e6c7 1dbe 13ae 43be
000001e0: 69ea dcbd e815 f3bd 3928 2bbe cf1d dcbd
000001f0: 2167 713e e1e4 60be 61d9 cabd 245f 313e
00000200: 7669 193d 8e86 e3bc f761 c5bd fad4 56be
00000210: d7f8 683d 0010 a1be 7d47 2cbd 04c2 a6bd
00000220: 94db 593d cc54 513d 4af2 89bd cc9c 613d
00000230: 285a 8bbd 175b 2bbe b676 89be d96e 4cbd
00000240: 579a 54be 0877 1c3e ccce a1bd 05dc 96be
00000250: 7096 b63d eff9 cabd c896 0e3e 8190 acbd
00000260: 3a40 4438 c29b 5ebe f10e 24be ba43 00be
00000270: c6ac 71bd 462f 36be 6e28 66be ae50 a7bd
00000280: 3ff4 033e 2666 60be 0903 38be 153a b5bd
00000290: 2342 9dbe a297 29be 2ee8 d5bd fb9d bbbe
000002a0: b5b8 d4bd cafc e03d 25d4 88be b3eb cabd
000002b0: b914 15be 5cc9 f5bd cf1c a93d e3bb 9cbe
000002c0: 0365 55bc 9021 69be 0d8a e2bd 2870 b0bd
000002d0: bac7 29be b284 8d3c c3e2 e8bd a4d3 9dbd
000002e0: 785d 953d dcc8 2bbd 7dde e33d 5cd3 5bbe
000002f0: ab4d 983d 6204 a43d cb10 49bc 8a81 0cbe
00000300: 8f05 58bc 9139 9f3e 5182 513d 5ee1 6cbe
00000310: 3dfe cebb 4a86 98be 7456 d63d 8b67 88be
00000320: ea51 2d3e 95b4 1abe 0c68 36bd 9754 20be
00000330: 6496 873e 8c7c 8bbe 9c4d 8cbd 56ae 133d
00000340: 19b4 b7be 21c8 51be 6655 8ebd 4a17 2f3e
00000350: 1a90 00be 8583 95bd b45e 17be c8d1 43be
00000360: 2c34 0ebe b76e 783e 3609 fdbc 3cc4 76be
00000370: c548 e6be bfff 37bd 1fb2 b7bd d6c6 4ebe
00000380: bdbe 24be 8091 adbe a6e9 da3d e7e0 b8bc
00000390: fb21 21be f8c3 edbd 88e7 12be 7a3a 8e3e
000003a0: f2d7 9e3c 0f12 0dbe d464 363e 5981 aabe
000003b0: ee45 28bd a99e 57be 506f 77be 43d3 aebe
000003c0: 76a1 53be 3198 debe d531 20bd 5682 d3bd
000003d0: 85e5 98bc 853a d03c 19b3 bebe 1a15 72bd
000003e0: 6b6c 43be 5eba 27bd e5b5 cc3b 91ce 8cbd
000003f0: efd9 3abe 1535 6ebc bbd7 d5be a00c 17be

actor_out.weight f4 [12, 256]
0.3277139 -0.0023058285 0.20052771 -0.43278056 -0.5349968 -0.25297907 0.04199529 0.13993287
-0.6458483 -0.019651968 -0.28400257 0.2740894 0.1294861 0.065528505 -0.5380585 0.14014612
-0.100686744 -0.10850973 0.19180158 -0.2897708 0.45628464 0.096520334 0.4494487 0.052489247
0.05431597 -0.13569273 -0.91200715 0.36199158 -0.5333808 -0.263694 -0.3194095 0.056233086
-0.24157692 0.48489434 0.54608893 -0.034779344 0.28395543 -0.08868909 0.66884744 0.36933962
0.5080433 -0.2959963 -0.18007955 0.25151056 -0.03529088 0.76384294 -0.57823944 0.058935132
0.122335814 -0.6144016 -0.15802763 -0.27545685 0.46240056 0.03706647 0.3630559 -0.121429324
0.26941416 0.39052072 -0.14486213 0.2553908 -0.33721265 0.30393773 0.30224118 -0.5094582
0.19426182 0.41792956 0.03962579 -0.13270402 -0.19949368 0.049883105 0.37816265 -0.39876148
0.040755503 0.12050348 -0.059077233 -0.3298082 -0.25485256 -0.17465973 0.5268349 0.13460435
-0.49289158 0.25264302 1.030975 0.36583215 -0.20872283 0.08905212 -0.697446 0.021829734
0.04446391 0.8869396 0.48165524 -0.45934334 0.3280351 0.6798885 0.18609366 0.119149394
0.1353324 0.061709754 0.35597238 0.20425946 0.15802906 -0.48729467 0.06237645 0.094476126
0.11929547 0.108806446 0.052444935 -0.22098322 -0.018297978 0.77529913 -0.14269051 -0.16722746
0.08255966 -0.13310912 0.2389796 -0.053281587 0.088882595 -0.19240573 -0.03454747 0.18612403
0.06262873 -0.05727207 0.08330045 0.029857783 -0.5305629 0.023149481 0.009708772 -0.25455752
0.60597444 0.720572 -0.045849532 0.2741811 -0.1439234 0.08555613 0.70966274 0.1756911
0.16772895 0.8914614 -0.60077244 -0.08265693 0.055029128 0.39897332 -0.30352262 -0.23569874
-0.012679977 0.0025214604 0.20519663 -0.20986368 0.28769097 -0.047267545 0.09710709 -0.3791526
-0.21612625 -0.27540004 0.48525712 -0.08929254 -0.1295929 0.1385188 0.117962055 -0.0011182034
0.047571465 0.19580846 -0.0634997 -0.14914916 -0.047433186 0.07217135 -0.12759209 -0.68620366
-0.101709366 -0.5374258 0.38261187 0.013787318 0.14772968 0.8601921 0.17866018 0.39930898
-0.29805657 0.04149693 -0.5078666 0.1679122 -0.13089044 0.6970605 0.28286192 0.15358265
-0.28074104 -0.241761 0.3399041 0.115410775 0.032029644 -0.32758874 -0.36551788 -0.16658093
-0.18715191 0.05551638 -0.3804399 -0.12526345 0.40453538 0.85285366 0.38580182 0.19646895
0.24324904 -0.03449882 -0.052704554 0.21813183 -1.0015743 0.022956869 -0.07883361 0.33968332
-0.23762898 1.394842 0.06579513 -0.04480736 -0.039301116 0.12917878 -0.13563022 -0.105226174
-0.0076505328 0.0070418324 -0.20679982 1.1241677 -0.3629545 -0.57342 0.07981312 0.39308417
0.06732718 0.44191197 -0.7743628 0.42570668 0.46496013 -0.27205524 -0.0695762 0.055185013
0.1936566 0.061797183 -0.13116953 0.29952696 0.27266574 -0.02578824 0.16361485 -0.5823752
0.9433476 -0.05975587 -0.62733054 0.09401017 0.003086088 -0.4793692 0.13365427 -0.55547565
0.30922624 0.044464853 -0.14008527 -0.3586199 0.19701087 -0.4777634 0.56282634 -0.09574523
00000000: 1eca a73e 621d 17bb 2357 4d3e 6a95 ddbe
00000010: 8df5 08bf 7986 81be 4103 2c3d 904a 0f3e
00000020: 5056 25bf 2afd a0bc c968 91be 7255 8c3e
00000030: 0198 043e cf33 863d 34be 09bf 7782 0f3e
00000040: da34 cebd 593a debd a267 443e d75c 94be
00000050: 249e e93e 74ac c53d 241e e63e f7fe 563d
00000060: 6c7a 5e3d 09f3 0abe 4d79 69bf f656 b93e
00000070: a58b 08bf e602 87be a489 a3be aa54 663d
00000080: f15f 77be 1244 f83e 7ccc 0b3f c974 0ebd
00000090: 9b62 913e a0a2 b5bd 9639 2b3f 151a bd3e
000000a0: 200f 023f d48c 97be c666 38be fec5 803e
000000b0: 2b8d 10bd 368b 433f 8007 14bf f765 713d
000000c0: 338b fa3d 6c49 1dbf ffd1 21be ae08 8dbe
000000d0: c4bf ec3e 03d3 173d 77e2 b93e f0af f8bd
000000e0: a7f0 893e 55f2 c73e bd56 14be 95c2 823e
000000f0: 23a7 acbe ba9d 9b3e 5bbf 9a3e da6b 02bf
00000100: 92ec 463e ddfa d53e a74e 223d 90e3 07be
00000110: 1248 4cbe 3a52 4c3d 899e c13e 772a ccbe
00000120: 3eef 263d 87ca f63d f8fa 71bd 9fdc a8be
00000130: 097c 82be 00da 32be a7de 063f b9d5 093e
00000140: 495c fcbe 6d5a 813e fdf6 833f 5a4e bb3e
00000150: 70bb 55be f560 b63d d28b 32bf 45d4 b23c
00000160: ca1f 363d 790e 633f 849b f63e 0d2f ebbe
00000170: 37f4 a73e 2c0d 2e3f 568f 3e3e 9904 f43d
00000180: 9494 0a3e 5ec3 7c3d 0342 b63e 6429 513e
00000190: 5fd2 213e b07e f9be 737e 7f3d b37c c13d
000001a0: 2f51 f43d ead5 de3d 80d0 563d 6d49 62be
000001b0: a4e5 95bc 017a 463f 761d 12be ad3d 2bbe
000001c0: 0a15 a93d c24d 08be 11b7 743e cb3d 5abd
000001d0: 1408 b63d 0206 45be a681 0dbd 4c97 3e3e
000001e0: 7e43 803d 1e96 6abd 6d99 aa3d 4f98 f43c
000001f0: f8d2 07bf fba3 bd3c 8b11 1f3c 5d55 82be
00000200: 2421 1b3f 6877 383f b8cc 3bbd 7761 8c3e
00000210: a860 13be 0d38 af3d 75ac 353f 5ee8 333e
00000220: 23c1 2b3e d036 643f 39cc 19bf 0948 a9bd
00000230: 3966 613d 3b46 cc3e 5167 9bbe 035b 71be
00000240: aebf 4fbc 163f 253b 111f 523e 81e6 56be
00000250: 3b4c 933e 9d9b 41bd 15e0 c63d 4a20 c2be
00000260: 3350 5dbe 3c01 8dbe 9f73 f83e 02df b6bd
00000270: 00b4 04be dfd7 0d3e 1796 f13d ae90 92ba
00000280: 4cda 423d 0382 483e 210c 82bd 8fba 18be
00000290: 4d49 42bd 93ce 933d 80a7 02be 0bab 2fbf
000002a0: 004d d0bd bd94 09bf b4e5 c33e 34e4 613c
000002b0: 7346 173e 8d35 5c3f b2f2 363e 3a72 cc3e
000002c0: df9a 98be aff8 293d 8c03 02bf 2df1 2b3e
000002d0: 2508 06be 8f72 323f 47d3 903e c544 1d3e
000002e0: 4abd 8fbe 3290 77be e907 ae3e 7c5c ec3d
000002f0: 8431 033d b6b9 a7be 2925 bbbe 3194 2abe
00000300: c0a4 3fbe 2565 633d 05c9 c2be 1045 00be
00000310: 431f cf3e 9e54 5a3f d187 c53e 282f 493e
00000320: 4716 793e a24e 0dbd bbe0 57bd f35d 5f3e
00000330: 9633 80bf 0b10 bc3c 8473 a1bd f9ea ad3e
00000340: 0355 73be 2f8a b23f 99bf 863d ec87 37bd
00000350: 35fa 20bd 7147 043e a6e2 0abe d280 d7bd
00000360: 52b1 fabb 2cbf e63b 55c3 53be bae4 8f3f
00000370: 2cd5 b9be a7cb 12bf 1075 a33d 5442 c93e
00000380: d5e2 893d 4942 e23e a43c 46bf 3af6 d93e
00000390: 410f ee3e d34a 8bbe f77d 8ebd ae09 623d
000003a0: ea4d 463e 0b1f 7d3d 4e51 06be 995b 993e
000003b0: d89a 8b3e dc41 d3bc a78a 273e 8b16 15bf
000003c0: 3a7f 713f 92c2 74bd bc98 20bf 6788 c03d
000003d0: f73f 4a3b e16f f5be aadc 083e a733 0ebf
000003e0: e752 9e3e c720 363d 8372 0fbe 079d b7be
000003f0: 38bd 493e 689d f4be 6315 103f 1316 c4bd

actor_out.bias f4 [12]
0.28126732 -0.18934637 0.38291317 -0.19095461 -0.25273597 -0.27210227 -0.013912067 -0.08263345
-0.10945666 0.18163653 -0.052838385 -0.20971924
00000000: 4502 903e 04e4 41be 320d c43e 9b89 43be
00000010: 9c66 81be fd50 8bbe 70ef 63bc ba3b a9bd
00000020: d02a e0bd edfe 393e 106d 58bd a4c0 56be
