networks/saved_model_2/ppo_model_ep100.pth (torch, 842098 bytes, 11 tensors)

shared_fc1.weight f4 [256, 33]
0.004797481 -0.0045086113 -0.057458792 -0.0476237 -0.14306799 -0.10168527 -0.08182812 -0.0726693
-0.18730398 0.10011313 -0.13091439 -0.033078086 -0.05041411 0.0033945465 -0.058083355 0.1167296
-0.056792352 -0.038611785 -0.01252238 -0.012483642 0.09374694 0.046013623 -0.24346277 -0.038641483
-0.1636319 -0.19769357 -0.23811999 -0.24121255 -0.24591593 -0.008193523 -0.1951768 -0.24136269
-0.15898691 -0.2444837 0.027909992 -0.25693706 -0.0306558 -0.015916951 -0.194043 -0.060567264
0.051961202 -0.2704646 0.15227315 -0.22127697 0.21665005 -0.41707876 -0.030465614 -0.10523084
0.3942626 0.096201725 0.37171224 0.1286649 -2.082494 -0.77790374 1.0176677 -0.06897543
0.13778315 -0.013427343 0.20686558 -0.26332965 0.09826805 -0.06414601 0.11243785 0.18296675
-0.037697528 0.042450998 -0.028230723 -0.17635092 -0.1700658 -0.09608128 -0.15766948 -0.15286882
-0.22581953 -0.005266547 0.13049096 0.12168933 0.029621063 0.01625027 0.08754431 0.1334872
0.020886151 0.004505631 0.018743737 -0.04568857 -0.20197168 -0.08298147 -0.0699771 -0.06936795
-0.22026701 -0.04940818 -0.11307284 -0.2166378 -0.24772383 -0.054254383 -0.07772378 -0.18192582
0.05149778 -0.13396485 -0.1797692 -0.08282911 0.04223441 -0.16032326 0.10384994 -0.0003186313
0.09211273 -0.124613464 -0.03176445 -0.28976524 -0.0064473622 0.09670795 0.017080933 0.008633092
-0.059400745 -0.034711864 0.020376792 -0.21041088 0.024945734 0.18158492 0.036528982 -1.0712676
0.014692263 -0.009527376 -0.074674115 -0.12406249 -0.17970648 -0.0514625 -0.06533433 -0.117271975
-0.074965455 0.07303383 -0.01031334 0.10531766 0.030150289 -0.1262671 0.047477115 -0.10167667
-0.05159841 0.03523042 -0.11830677 0.0035487353 0.08254599 -0.07859722 0.07575409 -0.12569419
-0.21898921 -0.06687704 0.05033345 -0.028814701 0.09191634 0.6901013 -0.18755068 -2.8209012
0.553615 1.2387469 0.0013339246 -0.11728295 -0.04625588 -0.02472528 0.1809034 -0.3162673
0.27265567 -0.18632692 -0.00810458 0.061192755 0.0034786088 -0.20677365 0.05021174 -0.008125214
0.1358136 -0.011888931 0.01561019 -0.23823343 -0.08766047 0.056918133 0.14281751 0.097959116
0.016101979 -0.16489077 -0.033216428 0.1852965 -0.037399545 -0.15693653 0.25688848 0.2570593
-0.087911144 -0.73386496 -0.081190795 0.07532258 0.05480327 -0.0182756 -0.0060469424 -0.007240823
0.10863511 -0.13187172 -0.0018108431 0.18697555 0.015583165 0.027086908 -0.16242297 0.08228079
-0.1924724 -0.121671684 0.0012536255 -0.11713939 -0.18099149 0.07863942 0.113025 0.024304816
0.10733056 -0.081621036 -0.045302995 0.07703941 0.17170551 -0.092272304 -0.19108725 0.10268427
0.21913712 0.3072226 -1.1524024 0.1678377 -0.13143112 0.041803595 0.064095005 -0.21626773
0.05618049 -0.072864324 -0.17025605 0.1763483 0.12127459 0.042530496 0.09897475 -0.17819586
-0.02760044 -0.1326216 -0.17185545 -0.028807318 -0.10577373 -0.009720933 -0.120090656 -0.046306863
-0.0862743 0.041282967 0.025712619 0.07826131 -0.059746344 0.026876206 0.128945 -0.052769154
-0.11989247 -0.11752502 -0.17691725 0.07629849 -0.011051692 -0.128171 -0.09126931 0.0016525964
00000000: 3034 9d3b f9bc 93bb e959 6bbd 1211 43bd
00000010: 6a80 12be 5e40 d0bd 8095 a7bd a4d3 94bd
00000020: 9dcc 3fbe 1d08 cd3d 6c0e 06be e37c 07bd
00000030: 077f 4ebd 0a77 5e3b d0e8 6dbd ee0f ef3d
00000040: 199f 68bd 6427 1ebd ab2a 4dbc 3188 4cbc
00000050: 65fe bf3d c878 3c3d 4e4e 79be 8846 1ebd
00000060: 1f8f 27be 2f70 4abe bad5 73be 6c00 77be
00000070: 63d1 7bbe 203e 06bc 6ddc 47be c827 77be
00000080: 77cd 22be ef59 7abe 7fa3 e43c 418d 83be
00000090: df21 fbbc 4464 82bc 35b3 46be 6115 78bd
000000a0: 45d5 543d 567a 8abe 7eed 1b3e 6e96 62be
000000b0: 83d9 5d3e 598b d5be 0693 f9bc 4483 d7bd
000000c0: cadc c93e 6905 c53d 1151 be3e bbc0 033e
000000d0: 9547 05c0 b324 47bf ef42 823f fe42 8dbd
000000e0: 0717 0d3e 5cfe 5bbc 92d4 533e 25d3 86be
000000f0: c240 c93d fc5e 83bd d145 e63d a35b 3b3e
00000100: b968 1abd 19e1 2d3d 1e44 e7bc 5695 34be
00000110: bb25 2ebe 43c6 c4bd 1c74 21be a589 1cbe
00000120: 3c3d 67be 0093 acbb 6c9f 053e 4138 f93d
00000130: dfa7 f23c 491f 853c 6e4a b33d deb0 083e
00000140: 6f19 ab3c f9a3 933b 778c 993c f023 3bbd
00000150: aad1 4ebe 30f2 a9bd 2750 8fbd c910 8ebd
00000160: ad8d 61be 3b60 4abd bc92 e7bd 4dd6 5dbe
00000170: 51ab 7dbe d839 5ebd a52d 9fbd c34a 3abe
00000180: 56ef 523d 152e 09be 6b15 38be 4fa2 a9bd
00000190: fdfd 2c3d c82b 24be 47af d43d f80d a7b9
000001a0: 99a5 bc3d 5835 ffbd 711b 02bd 1c5c 94be
000001b0: 6544 d3bb d10e c63d 50ed 8b3c d071 0d3c
000001c0: 324e 73bd 072e 0ebd 3bed a63c f375 57be
000001d0: ff5a cc3c 66f1 393e 6a9f 153d 4c1f 89bf
000001e0: d1b7 703c b618 1cbc beee 98bd 7a14 febd
000001f0: fa04 38be 58ca 52bd 01ce 85bd 4a2c f0bd
00000200: 7d87 99bd c392 953d 49f9 28bc c9b0 d73d
00000210: bdfd f63c 2a4c 01be 5d77 423d dc3b d0bd
00000220: db58 53bd c64d 103d d24a f2bd e691 683b
00000230: df0d a93d 94f7 a0bd f624 9b3d fab5 00be
00000240: b53e 60be d4f6 88bd 732a 4e3d cf0c ecbc
00000250: a23e bc3d 7baa 303f 490d 40be a589 34c0
00000260: b6b9 0d3f 428f 9e3f 15d7 ae3a 0b32 f0bd
00000270: ce76 3dbd ac8c cabc be3e 393e caed a1be
00000280: 8699 8b3e 7ccc 3ebe 13c9 04bc 41a5 7a3d
00000290: 5ff9 633b 79bc 53be d3aa 4d3d 9e1f 05bc
000002a0: b812 0b3e cac9 42bc e2c1 7f3c 77f3 73be
000002b0: 5587 b3bd fd22 693d c13e 123e ca9e c83d
000002c0: 4ce8 833c 20d9 28be f30d 08bd 5ebe 3d3e
000002d0: 4430 19bd f8b3 20be e386 833e 479d 833e
000002e0: c20a b4bd 93de 3bbf 5c47 a6bd ba42 9a3d
000002f0: 6579 603d b6b6 95bc 6e25 c6bb 6d44 edbb
00000300: 167c de3d 6109 07be d059 edba 8576 3f3e
00000310: 8850 7f3c 5de5 dd3c 3552 26be d582 a83d
00000320: 7c17 45be 012f f9bd b150 a43a c7e6 efbd
00000330: d555 39be b40d a13d a779 e73d e51a c73c
00000340: 20d0 db3d ee28 a7bd a28f 39bd d7c6 9d3d
00000350: 92d3 2f3e 43f9 bcbd 60ac 43be 214c d23d
00000360: 7b65 603e 484c 9d3e ec81 93bf a5dd 2b3e
00000370: e195 06be 3f3a 2b3d 3e44 833d 4a75 5dbe
00000380: 831d 663d e439 95bd 9a57 2ebe a694 343e
00000390: d05e f83d 7534 2e3d 46b3 ca3d fa78 36be
000003a0: 511a e2bc f5cd 07be e0fa 2fbe 53fd ebbc
000003b0: e69f d8bd 8c44 1fbc 17f2 f5bd 44ac 3dbd
000003c0: 95b0 b0bd 5418 293d 45a3 d23c 7747 a03d
000003d0: 95b8 74bd 7d2b dc3c 280a 043e 7824 58bd
000003e0: 2f8a f5bd f5b0 f0bd cc29 35be 6242 9c3d
000003f0: 2812 35bc 423f 03be 67eb babd ef9b d83a

shared_fc1.bias f4 [256]
-0.12653388 -0.024851942 -0.113319494 -0.014433781 -0.06966186 -0.003771989 -0.03118548 -0.08413429
-0.008191471 -0.097036384 -0.08620511 -0.067951016 -0.046844386 -0.0039055494 -0.058171086 -0.017384863
-0.06180209 0.01115279 0.017828718 -0.0006974455 -0.026942572 -0.09359169 -0.039323587 -0.1231142
0.007797477 -0.124090105 -0.08303356 -0.044807605 -0.03014127 -0.048271224 -0.08532505 -0.042002093
-0.07433915 -0.07428858 -0.018333972 -0.06207406 -0.11426601 -0.112727284 -0.12555124 -0.061510757
0.005436621 -0.03629412 -0.099625885 -0.06217752 -0.011494797 0.031706426 0.047438424 -0.07298699
-0.0484877 -0.038184687 -0.059979722 -0.055254735 -0.018642738 -0.00025475345 -0.05148219 0.031373244
-0.17575727 -0.0031484722 -0.08640666 -0.016829582 -0.009138669 -0.0893613 -0.07985576 0.0068901875
-0.0062661786 -0.09342921 -0.04682683 -0.117502615 -0.027388677 0.019196805 -0.06286993 -0.042445913
-0.060189325 -0.10251848 -0.013910748 -0.028422283 -0.109560855 -0.10158807 -0.074835844 -0.041719116
0.0085118525 -0.027901147 0.008177657 -0.020903762 0.010485396 -0.0501348 -0.04892699 -0.07807552
-0.00017098562 -0.08482473 -0.11110539 -0.052871592 -0.0316532 -0.09441106 -0.11877402 -0.05963526
-0.14700867 -0.07468005 0.010745642 -0.06830308 -0.023154981 -0.11863356 -0.00837457 -0.0058844863
-0.11651531 -0.057617888 -0.091260806 -0.009146228 -0.062041465 -0.010070321 0.003436075 0.001806247
-0.038977373 -0.029347612 -0.108370356 -0.08423861 -0.047898885 0.012739376 -0.057196002 -0.023499826
-0.05308033 -0.009593698 -0.03316023 -0.020294817 -0.041266438 0.03274065 -0.11988902 -0.10244151
-0.03205857 -0.00076966715 -0.0042734784 -0.033510208 -0.02177002 -0.103421606 -0.032606974 -0.066004604
-0.07400513 -0.011128016 -0.05616961 -0.040989228 -0.12091135 -0.065290965 -0.06481383 -0.13848712
-0.029985372 0.017018221 -0.06719513 0.002522217 -0.09802712 -0.021643976 -0.072613604 -0.0006847092
-0.007907939 -0.011879233 0.030027365 -0.0050230795 -0.053602625 -0.021736722 -0.10227651 -0.0076066614
0.028304983 0.017160418 0.025614996 -0.058127325 0.0014616074 0.01825093 -0.08761475 -0.029934162
-0.043310747 -0.12854512 0.014043982 -0.07300201 -0.07505146 0.0014969764 -0.10641508 -0.08343591
-0.107465126 -0.10691949 -0.08149377 -0.017691543 -0.032595992 -0.08606634 0.018501952 0.02588232
-0.010421046 -0.121242136 -0.022853851 -0.012306001 -0.010896248 -0.0009523097 -0.017024254 0.022311518
-0.13359487 -0.11121862 -0.055274688 -0.07828024 -0.071165755 -0.07977854 0.018898254 -0.09976337
-0.047203235 -0.015963476 -0.055514295 -0.022333603 -0.009637576 -0.049524385 0.009310859 0.010094097
-0.042912636 -0.101569004 0.01115739 -0.006362046 0.010841869 0.01188577 -0.09839621 -0.006935681
0.0041740835 -0.056463618 -0.0269418 -0.101216875 -0.011261348 -0.08025217 -0.04482032 -0.015776113
-0.088150576 0.014864692 -0.049303412 -0.013199365 -0.014677719 0.032287102 -0.06604876 -0.10899886
-0.10836541 -0.04028239 -0.005173726 -0.051568024 -0.08333216 -0.023879474 -0.039682314 -0.04542827
-0.1578549 -0.048591845 -0.11861834 -0.07783678 -0.14810339 0.016049523 -0.04137337 0.023703737
-0.05264085 -0.020123592 -0.046740122 0.07117431 -0.012413067 0.016205052 -0.070813954 -0.03486209
00000000: 1992 01be 4d96 cbbc 0d14 e8bd aa7b 6cbc
00000010: e1aa 8ebd 7933 77bb b178 ffbc 994e acbd
00000020: 8535 06bc 03bb c6bd 4e8c b0bd e729 8bbd
00000030: e6df 3fbd 3ff4 7fbb ce44 6ebd b36a 8ebc
00000040: 3024 7dbd 31ba 363c 880d 923c c6d4 36ba
00000050: abb6 dcbc 00ad bfbd c511 21bd 4c23 fcbd
00000060: fa81 ff3b f422 febd 800d aabd 2e88 37bd
00000070: d3ea f6bc 0cb8 45bd e6be aebd 630a 2cbd
00000080: 203f 98bd 9c24 98bd 2031 96bc 5f41 7ebd
00000090: 4c04 eabd 90dd e6bd 8190 00be b4f2 7bbd
000000a0: af25 b23b 25a9 14bd a808 ccbd dbad 7ebd
000000b0: ac54 3cbc 99de 013d cb4e 423d 347a 95bd
000000c0: 0a9b 46bd 8c67 1cbd 4cad 75bd ca52 62bd
000000d0: a8b8 98bc 6e90 85b9 fdde 52bd 3b81 003d
000000e0: b7f9 33be 9956 4ebb faf5 b0bd 31de 89bc
000000f0: 5bba 15bc 0f03 b7bd 6b8b a3bd 15c7 e13b
00000100: 8454 cdbb d057 bfbd 7dcd 3fbd 36a5 f0bd
00000110: 385e e0bc 9e42 9d3c f3c1 80bd c4db 2dbd
00000120: 1589 76bd 35f5 d1bd e8e9 63bc d9d5 e8bc
00000130: 7161 e0bd 680d d0bd 8943 99bd aae1 2abd
00000140: 4c75 0b3c f290 e4bc 94fb 053c 5e3e abbc
00000150: f0ca 2b3c 265a 4dbd ab67 48bd 0fe6 9fbd
00000160: 9a4a 33b9 97b8 adbd 398b e3bd e28f 58bd
00000170: c9a6 01bd 965a c1bd cb3f f3bd 1a44 74bd
00000180: 7189 16be dbf1 98bd 7d0e 303c 7ce2 8bbd
00000190: 84af bdbc 27f6 f2bd 7e35 09bc a6d2 c0bb
000001a0: 949f eebd bc00 6cbd f2e6 babd 10da 15bc
000001b0: 311f 7ebd fdfd 24bc c62f 613b 98bf ec3a
000001c0: bda6 1fbd 676a f0bc 47f1 ddbd 4b85 acbd
000001d0: 9f31 44bd d1b8 503c 5b46 6abd b582 c0bc
000001e0: c36a 59bd e32e 1dbc 05d3 07bd 5141 a6bc
000001f0: ff06 29bd 0f1b 063d 6088 f5bd dbcc d1bd
00000200: d94f 03bd 7dc3 49ba 8908 8cbb 0042 09bd
00000210: 0a57 b2bc b5ce d3bd e48e 05bd 6c2d 87bd
00000220: 0090 97bd 4852 36bc 1b12 66bd 52e4 27bd
00000230: 5fa0 f7bd 45b7 85bd 1dbd 84bd 91cf 0dbe
00000240: e2a3 f5bc cc69 8b3c 9a9d 89bd c84b 253b
00000250: 71c2 c8bd b54e b1bc 71b6 94bd 0e7e 33ba
00000260: 4d90 01bc 1da1 42bc f3fb f53c a598 a4bb
00000270: 6d8e 5bbd 3611 b2bc 5976 d1bd 4d41 f9bb
00000280: dadf e73c 0194 8c3c 8ad6 d13c eb16 6ebd
00000290: 6893 bf3a f982 953c 5d6f b3bd 7d38 f5bc
000002a0: 9c66 31bd 55a1 03be bb18 663c 1482 95bd
000002b0: 94b4 99bd 3136 c43a 26f0 d9bd 72e0 aabd
000002c0: ad16 dcbd 9bf8 dabd 35e6 a6bd dbed 90bc
000002d0: 6083 05bd 8d43 b0bd 6891 973c 2907 d43c
000002e0: 09bd 2abc cc4d f8bd 0038 bbbc 1c9f 49bc
000002f0: 2d86 32bc 6ca4 79ba 7376 8bbc a5c6 b63c
00000300: 18cd 08be 96c6 e3bd b667 62bd 6451 a0bd
00000310: 5abf 91bd ee62 a3bd 83d0 9a3c bd50 ccbd
00000320: 2e58 41bd d6c5 82bc f562 63bd f6f4 b6bc
00000330: ece6 1dbc 15da 4abd 938c 183c b661 253c
00000340: 29c5 2fbd 6903 d0bd 7ccd 363c b678 d0bb
00000350: 18a2 313c 88bc 423c f483 c9bd b644 e3bb
00000360: c0c6 883b 6546 67bd 0db5 dcbc cb4a cfbd
00000370: 8481 38bc 405b a4bd 8395 37bd e83c 81bc
00000380: 4a88 b4bd 0a8b 733c 60f2 49bd 2642 58bc
00000390: d17a 70bc 7b3f 043d 9344 87bd cb3a dfbd
000003a0: afee ddbd 26ff 24bd 5c88 a9bb fe38 53bd
000003b0: 0daa aabd e39e c3bc ec89 22bd fe12 3abd
000003c0: b7a4 21be 3e08 47bd 2cee f2bd e468 9fbd
000003d0: 6aa8 17be 4a7a 833c 1f77 29bd 572e c23c
000003e0: ef9d 57bd 3bda a4bc 9272 3fbd d6c3 913d
000003f0: 2d60 4bbc 75c0 843c e806 91bd 8dcb 0ebd

shared_fc2.weight f4 [256, 256]
-0.13925557 0.06527855 -0.1406294 -0.08456663 0.17861629 0.105432436 0.050765045 -0.06588334
0.24633683 -0.046146635 0.2640543 -0.11337958 0.013772306 -0.17984192 -0.029980516 -0.13310708
0.035189368 0.012830393 0.045256447 -0.40569657 -0.12436125 -0.06768041 -0.30056685 -0.0027259681
0.07446797 -0.054848716 -0.005111111 0.008581545 -0.045052927 -0.14514755 0.024781225 0.11407713
-0.13086636 -0.066555336 0.10359004 0.008875721 -0.04356163 -0.014577682 0.020513315 -0.06256831
-0.24002299 0.1372123 0.039939865 -0.033438135 0.0033863964 -0.11959648 -0.10174027 -0.08626445
-0.055643275 0.031856783 -0.060021304 0.10759772 0.008794631 0.27277687 0.016812293 0.10844152
-0.011273998 0.07592044 -0.16499227 -0.006824215 0.06484337 -0.003981153 -0.011681186 -0.046141446
0.22712846 0.022790259 -0.14413868 -0.09919703 -0.038073737 -0.33982852 0.05638149 -0.53169054
-0.11889565 0.019523911 0.11515346 0.011911854 -0.01700244 0.0028720566 0.013328022 -0.36095387
-0.026370304 -0.04377192 0.25868914 -0.037056975 0.029165616 -0.0987476 0.12378615 -0.047585666
-0.2177546 -0.011254668 -0.11563218 -0.0849625 -0.2414506 -0.10999653 -0.10374485 0.016208015
-0.095449924 -0.030713081 -0.53925014 -0.12361349 -0.21056373 0.01277594 0.02122719 -0.21535318
0.053347815 0.030765494 0.054504156 -0.025287686 0.01892037 0.07212239 -0.30985835 -0.27186587
-0.001752574 -0.069309935 -0.11595848 0.06572656 -0.006622789 -0.19780172 -0.02847134 0.4508693
-0.22096741 -0.07636332 -0.096420355 0.06543459 -0.08640267 -0.05482395 0.020287618 0.027888041
0.083425604 -0.04480524 0.037971754 0.0551939 -0.10816265 0.0102865 -0.030840812 -0.24359891
0.121482156 -0.12733987 -0.10532871 -0.10794207 -0.09324917 0.07564059 0.09313054 0.046755016
-0.06374628 -0.06464608 -0.0057824724 0.032932855 0.00900458 -0.3430521 0.035638142 -0.11439107
-0.20981973 -0.0046613575 0.100098 -0.20004405 0.19198541 0.19860098 0.0974904 -0.21707639
-0.33699465 0.28235438 0.031972643 -0.1296885 -0.10442832 0.11279053 -0.29734805 -0.12613578
-0.043520216 0.04344879 0.0182568 -0.04982607 -0.058162414 -0.17778777 -0.13280074 -0.20246507
-0.0014424929 -0.14085932 0.07427535 0.0028663801 -0.13690592 -0.14205231 -0.08976884 -0.24643607
-0.030231005 0.07190022 0.05017467 0.049970243 -0.047298357 -0.3998225 -0.22931652 -0.31598082
0.075213544 -0.045973085 -0.006558066 -0.04783653 -0.07922177 0.09772582 0.34797567 -0.04575891
0.08139814 -0.23749998 0.08188519 0.06684088 0.027143113 0.049461994 -0.3211237 -0.16387759
-0.095391616 -0.035422057 -0.13989855 0.07719887 -0.21232115 -0.18629988 -0.070489824 -0.27663544
-0.537163 -0.034937743 0.0029987493 -0.09645608 0.26365396 -0.09681941 -0.1004272 0.09913107
-0.16655235 -0.4532681 -0.07786867 -0.13886075 -0.08765345 -0.09090827 -0.24332087 -0.061476905
-0.052389987 0.058278006 -0.26559606 0.042515125 -0.033376854 0.13903555 -0.17744069 0.009583762
0.023707107 0.022179153 0.046861853 -0.007724455 -0.16999955 -0.03886106 -0.37534732 0.042491164
0.028402746 -0.07510158 -0.11530143 0.10481194 -0.14055903 -0.19771603 -0.09884676 -0.054936677
00000000: 0399 0ebe c3b0 853d 2701 10be 4531 adbd
00000010: 30e7 363e f6ec d73d 02ef 4f3d d8ed 86bd
00000020: b93f 7c3e 4104 3dbd 2032 873e 8e33 e8bd
00000030: 3da5 613c 7b28 38be b399 f5bc 394d 08be
00000040: ba22 103d 9236 523c d35e 393d 76b7 cfbe
00000050: 1cb1 febd 079c 8abd e6e3 99be 28a6 32bb
00000060: aa82 983d 0ca9 60bd 1b7b a7bb 9c99 0c3c
00000070: 6b89 38bd 8fa1 14be ff01 cb3c 45a1 e93d
00000080: d501 06be 2a4e 88bd 0427 d43d 796b 113c
00000090: ae6d 32bd 3bd7 6ebc 8a0b a83c d023 80bd
000000a0: 96c8 75be 6281 0c3e fc97 233d 6df6 08bd
000000b0: 4eee 5d3b 00ef f4bd 345d d0bd 6aab b0bd
000000c0: 34ea 63bd 427c 023d e6d8 75bd 325c dc3d
000000d0: 5b17 103c 69a9 8b3e efb9 893c 9616 de3d
000000e0: 93b6 38bc 2d7c 9b3d bcf3 28be aa9d dfbb
000000f0: 9acc 843d 5574 82bb 7262 3fbc d0fe 3cbd
00000100: 5d94 683e a3b2 ba3c 1799 13be d027 cbbd
00000110: 35f3 1bbd 01fe adbe 47f0 663d df1c 08bf
00000120: 907f f3bd 9cf0 9f3c 94d5 eb3d f029 433c
00000130: b348 8bbc 1d39 3c3b c75d 5a3c f2ce b8be
00000140: 8906 d8bc 2f4a 33bd e772 843e 0ec9 17bd
00000150: bbec ee3c 2f3c cabd 9883 fd3d 30e9 42bd
00000160: 10fb 5ebe 8065 38bc 90d0 ecbd d200 aebd
00000170: d33e 77be dc45 e1bd 2e78 d4bd acc6 843c
00000180: 407b c3bd 009a fbbc 4c0c 0abf 1229 fdbd
00000190: 059e 57be 2d52 513c a5e4 ad3c 8b85 5cbe
000001a0: 3d83 5a3d eb07 fc3c c03f 5f3d 1f28 cfbc
000001b0: e4fe 9a3c e7b4 933d c1a5 9ebe 0132 8bbe
000001c0: a0b6 e5ba 5ef2 8dbd a47b edbd a69b 863d
000001d0: fb03 d9bb 898c 4abe ba3c e9bc 57d8 e63e
000001e0: 4845 62be 5f64 9cbd 0978 c5bd 9202 863d
000001f0: e2f3 b0bd 148f 60bd 3832 a63c 7675 e43c
00000200: 0bdb aa3d b385 37bd 4588 1b3d 0013 623d
00000210: 6184 ddbd b588 283c dfa5 fcbc fe71 79be
00000220: a3cb f83d 6265 02be 94b6 d7bd bb10 ddbd
00000230: 6cf9 bebd 74e9 9a3d 39bb be3d 3082 3f3d
00000240: 698d 82bd 2a65 84bd e57a bdbb 9ae4 063d
00000250: f287 133c 86a4 afbe 4df9 113d de45 eabd
00000260: fcda 56be 4dbe 98bb 2e00 cd3d 59d8 4cbe
00000270: d397 443e 0e5e 4b3e 0ca9 c73d 4649 5ebe
00000280: 908a acbe c190 903e bff5 023d 10cd 04be
00000290: 84de d5bd b9fe e63d 013e 98be bd29 01be
000002a0: 4142 32bd 5cf7 313d 498f 953c 6c16 4cbd
000002b0: b63b 6ebd ff0d 36be ebfc 07be 0153 4fbe
000002c0: 0812 bdba 6d3d 10be ad1d 983d e1d9 3b3b
000002d0: 1131 0cbe 2976 11be bad8 b7bd bd59 7cbe
000002e0: 03a7 f7bc 6c40 933d f483 4d3d 99ad 4c3d
000002f0: ecbb 41bd 89b5 ccbe f3d1 6abe 3dc8 a1be
00000300: 8f09 9a3d 464e 3cbd 0be5 d6bb 3df0 43bd
00000310: 063f a2bd 7a24 c83d de29 b23e b26d 3bbd
00000320: 11b4 a63d 3233 73be 6cb3 a73d dfe3 883d
00000330: 3c5b de3c a998 4a3d 536a a4be 87cf 27be
00000340: ae5c c3bd b816 11bd 9141 0fbe 711a 9e3d
00000350: b76a 59be 65c5 3ebe f85c 90bd 29a3 8dbe
00000360: 8483 09bf e11a 0fbd aa86 443b c48a c5bd
00000370: a7fd 863e 4149 c6bd c7ac cdbd 3b05 cb3d
00000380: b38c 2abe c212 e8be 9c79 9fbd 8331 0ebe
00000390: a783 b3bd 1d2e babd 1b29 79be 35cf 7bbd
000003a0: e296 56bd ebb4 6e3d 35fc 87be 5724 2e3d
000003b0: 2bb6 08bd 565f 0e3e 03b3 35be 3605 1d3c
000003c0: 6835 c23c 0eb1 b53c 37f2 3f3d 6d1d fdbb
000003d0: 5d14 2ebe c62c 1fbd 862d c0be 370b 2e3d
000003e0: e0ac e83c dbce 99bd 2823 ecbd a4a7 d63d
000003f0: b5ee 0fbe 1276 4abe 2c70 cabd 4805 61bd

shared_fc2.bias f4 [256]
-0.02642904 -0.088069215 -0.046954088 -0.14433423 -0.044320967 -0.04381418 -0.051132202 0.0026443864
-0.028423782 -0.034165673 -0.04231699 -0.018152546 0.009995852 -0.012768512 -0.056800246 -0.037850168
-0.062605254 0.012888642 -0.052973483 -0.068613574 -0.041419122 -0.08353168 -0.04338868 -0.049924243
-0.04049769 0.035453703 -0.05441555 -0.04115013 -0.023530247 -0.022690196 -0.03220128 -0.049139734
-0.02435562 -0.012715768 -0.056951728 0.015254519 0.021086743 -0.048090324 -0.040610183 -0.049446825
0.0045894585 -0.03852994 -0.03231844 -0.0004147655 -0.0549764 -0.05090968 0.03859423 -0.09616476
0.01708778 -0.08010327 -0.044465903 0.035036847 -0.06079157 -0.03400604 -0.12153161 -0.03376825
-0.075043775 -0.05518166 -0.026984934 -0.07167715 -0.035701904 -0.023848765 -0.02777793 -0.036655456
-0.030539205 -0.059815995 -0.0501566 -0.0010322453 -0.041500773 -0.02059868 -0.054499857 -0.061451115
-0.05355749 -0.022306655 -0.028613428 -0.005767336 0.022091782 -0.00802615 -0.0075222994 0.010899685
-0.023098426 -0.054708797 -0.05991099 -0.040737104 -0.025135245 0.018814517 -0.06868575 -0.05682376
0.022138154 0.03312096 -0.014077275 -0.046440918 -0.05912064 -0.0216466 0.037725396 0.0032602793
-0.06076981 -0.050462894 0.033624478 -0.048284724 -0.030970167 -0.12334392 -0.04933469 0.009240248
-0.029236589 -0.035186082 -0.042089317 -0.00276127 0.0065765274 -0.03864287 -0.04609468 -0.02272251
-0.07269823 -0.035807945 -0.016939325 -0.046673495 -0.017033063 0.026835158 -0.058865506 -0.03463696
-0.025693031 -0.021270532 -0.03592346 -0.037937324 -0.023319885 -0.07033357 -0.054143127 -0.06004891
-0.053552035 -0.03293967 -0.050230596 0.03522354 -0.011675385 -0.0043232185 -0.046502843 -0.066659585
-0.047491107 -0.07089843 0.025515411 -0.010960325 -0.068491735 -0.008245224 -0.040390544 -0.0015822069
-0.038747385 0.035525125 0.027047288 0.038266446 -0.06297324 0.023783404 0.038583983 -0.004655951
-0.04602055 0.050193783 -0.043000195 -0.011187056 -0.032338016 -0.03448916 0.012345009 -0.06168889
0.006937248 0.050950598 0.03472657 -0.08179968 -0.0007974668 -0.028638968 -0.1062297 -0.06358952
-0.04217216 0.040855013 -0.049793597 -0.053684134 -0.050595816 -0.01385279 -0.026298143 -0.029953543
-0.050023068 -0.087829344 0.0599043 -0.042449985 0.015424035 -0.018366203 -0.050077047 -0.04458063
-0.041584704 0.04701677 -0.035477936 -0.039971847 0.01757435 -0.05029517 -0.05852371 0.0019408601
-0.053241093 0.039908912 -0.034258205 -0.045202367 -0.07418401 -0.025306635 -0.024527771 -0.044121113
-0.04452726 -0.00917015 -0.043181583 -0.050317023 -0.051441286 -0.04148927 -0.05917499 -0.036313634
0.044526476 -0.044403505 0.023068335 0.043779034 -0.038281795 0.06947336 -0.04200255 -0.07809866
-0.03625006 -0.049896367 -0.06415007 -0.022725254 -0.018427154 -0.07786225 0.0019117593 -0.06508098
-0.07656005 0.04453344 0.045405023 -0.04802132 -0.064043015 0.039069064 -0.026177859 0.04132758
0.03105347 -0.054198615 -0.098655 0.025433639 0.04559072 -0.018385503 -0.028961066 0.042512484
-0.054714423 0.024034439 -0.043380532 0.05265108 -0.024486667 -0.024981877 0.010025319 -0.049731374
-0.03294961 -0.043595824 -0.017871108 -0.015835973 0.04388773 -0.034898676 -0.031751204 -0.05027343
00000000: b781 d8bc a25d b4bd ee52 40bd 5acc 13be
00000010: e789 35bd 7f76 33bd 0070 51bd 714d 2d3b
00000020: fed8 e8bc 4ef1 0bbd 9554 2dbd a6b4 94bc
00000030: a4c5 233c 0533 51bc 60a7 68bd c708 1bbd
00000040: 2f37 80bd e22a 533c b9fa 58bd 4685 8cbd
00000050: 19a7 29bd a812 abbd 54b8 31bd 5d7d 4cbd
00000060: e8e0 25bd e737 113d d7e2 5ebd 0a8d 28bd
00000070: 81c2 c0bc cae0 b9bc 7de5 03bd bf46 49bd
00000080: 7085 c7bc cc55 50bc 3746 69bd 17ee 793c
00000090: 1bbe ac3c 5cfa 44bd dd56 26bd c188 4abd
000000a0: 2b63 963b 92d1 1dbd 5760 04bd e274 d9b9
000000b0: ef2e 61bd ab86 50bd fc14 1e3d 08f2 c4bd
000000c0: acfb 8b3c 2f0d a4bd e121 36bd cc82 0f3d
000000d0: 9500 79bd eb49 0bbd 91e5 f8bd 9450 0abd
000000e0: 8db0 99bd 2a06 62bd 820f ddbc 78cb 92bd
000000f0: 293c 12bd 7c5e c3bc 8b8e e3bc 0824 16bd
00000100: 5b2d fabc 9e01 75bd 0271 4dbd 684c 87ba
00000110: b7fc 29bd 90be a8bc 3e3b 5fbd 2ab4 7bbd
00000120: 195f 5bbd 72bc b6bc b566 eabc ecfb bcbb
00000130: d3f9 b43c 1d80 03bc 9f7d f6bb 9894 323c
00000140: e938 bdbc 5516 60bd 3a65 75bd f3db 26bd
00000150: 6ee8 cdbc e720 9a3c 1dab 8cbd 08c0 68bd
00000160: 135b b53c d8a9 073d 5fa4 66bc d538 3ebd
00000170: 7c28 72bd 3654 b1bc f285 1a3d 69aa 553b
00000180: c4e9 78bd 2eb2 4ebd d2b9 093d 34c6 45bd
00000190: 26b5 fdbc bd9b fcbd 2c13 4abd 6964 173c
000001a0: 9281 efbc 481f 10bd d965 2cbd 6cf6 34bb
000001b0: e97f d73b fc47 1ebd c6cd 3cbd 8f24 babc
000001c0: cfe2 94bd 5aab 12bd 57c4 8abc b52c 3fbd
000001d0: ec88 8bbc 68d5 db3c f51c 71bd 7cdf 0dbd
000001e0: 317a d2bc 8a3f aebc 7a24 13bd 2b64 1bbd
000001f0: 5809 bfbc 0c0b 90bd 2fc5 5dbd d9f5 75bd
00000200: 6159 5bbd bfeb 06bd 99be 4dbd 8f46 103d
00000210: 1d4a 3fbc c9a9 8dbb c479 3ebd d284 88bd
00000220: 0986 42bd 3233 91bd b205 d13c ef92 33bc
00000230: 6545 8cbd fa16 07bc 8e70 25bd 0e62 cfba
00000240: 94b5 1ebd cb82 113d 4692 dd3c 47bd 1c3d
00000250: 1df8 80bd 6ad5 c23c 3d0a 1e3d f390 98bb
00000260: 0b80 3cbd ff97 4d3d f920 30bd ea49 37bc
00000270: de74 04bd 8144 0dbd b842 4a3c 7dad 7cbd
00000280: db51 e33b 93b1 503d 733d 0e3d 9786 a7bd
00000290: 170d 51ba 459c eabc f58e d9bd 393b 82bd
000002a0: b7bc 2cbd 9657 273d 5ff4 4bbd e5e3 5bbd
000002b0: 8f3d 4fbd d0f6 62bc 346f d7bc 2261 f5bc
000002c0: fde4 4cbd dfdf b3bd 365e 753d 09e0 2dbd
000002d0: 17b5 7c3c b874 96bc 971d 4dbd 2e9a 36bd
000002e0: b954 2abd a894 403d 5051 11bd 85b9 23bd
000002f0: 15f8 8f3c 4f02 4ebd 8fb6 6fbd 7564 fe3a
00000300: 5513 5abd 8777 233d 5552 0cbd 1e26 39bd
00000310: c9ed 97bd dc4f cfbc 77ee c8bc 57b8 34bd
00000320: 3762 36bd 663e 16bc 2cdf 30bd 3919 4ebd
00000330: 19b4 52bd a7f0 29bd 7961 72bd 9bbd 14bd
00000340: 6561 363d 73e0 35bd cef9 bc3c a551 333d
00000350: 5fcd 1cbd 0d48 8e3d de0a 2cbd 31f2 9fbd
00000360: f17a 14bd 2260 4cbd 1d61 83bd 502a babc
00000370: 8bf4 96bc 3e76 9fbd ff93 fa3a 2d49 85bd
00000380: 84cb 9cbd b268 363d 9efa 393d 01b2 44bd
00000390: fc28 83bd e206 203d f372 d6bc 1c47 293d
000003a0: d963 fe3c 5eff 5dbd a20b cabd 355a d03c
000003b0: 56bd 3a3d 329d 96bc c23f edbc 9221 2e3d
000003c0: 3b1c 60bd dfe3 c43c c9af 31bd a9a8 573d
000003d0: 4398 c8bc cba6 ccbc 3c41 243c 20b3 4bbd
000003e0: 2cf6 06bd 8991 32bd 6e66 92bc 71ba 81bc
000003f0: 9fc3 333d eaf1 0ebd 8d0d 02bd 83eb 4dbd

actor_fc.weight f4 [256, 256]
-0.17328711 0.469598 -0.048055183 0.040536303 -0.019539248 0.008253397 -0.04324175 0.21377078
-0.006881347 0.066421494 -0.101484045 -0.23535638 -0.40559047 -0.07281998 -0.08431477 -0.18169351
0.054240238 -0.09433944 0.053672496 0.040579908 0.011219587 -0.047994852 -0.06714209 -0.005855588
-0.10730703 -0.06370518 0.014933499 0.0053457553 0.07627046 0.025806092 0.1059917 -0.13903731
-0.0049682 0.08443372 -0.17569914 0.06901852 -0.30984488 0.031962156 0.10706818 -0.01135159
-0.081247516 -0.003296514 -0.09684501 -0.14751603 0.05427746 -0.1386089 -0.09526303 -0.010279362
-0.09280928 -0.0007251933 -0.061122347 -0.052734494 -0.079992056 0.049247842 0.029985765 0.009047995
0.061835226 -0.00546855 0.026691023 0.006543707 -0.039323173 0.08560693 -0.08653366 0.07515722
0.1044152 -0.18163213 -0.028444361 -0.24588789 -0.06766316 0.13745968 0.042775966 0.040354054
-0.013942542 0.05345702 -0.10261142 0.011102179 -0.17714158 0.10224607 0.23447962 -0.024936346
0.011580172 0.016906235 0.078132026 0.110480435 -0.08556132 -0.33773628 -0.03521831 0.0907206
-0.052265164 -0.14887378 -0.29823676 0.03925207 0.021406746 0.18960528 -0.23020987 -0.088404074
-0.023642855 0.03562096 -0.3259789 -0.10078788 0.036124445 -0.1812477 0.0440975 -0.31206986
0.035026237 0.100163884 0.0814539 -0.2987659 -0.0020669815 0.008407984 0.019556405 0.007658871
0.0007685087 -0.10356319 -0.10445479 -0.021188583 -0.15663369 -0.20255661 0.113637835 0.054114856
-0.03258444 -0.12968448 0.084976554 -0.023421168 -0.057834867 -0.09788731 -0.03901723 0.03733318
-0.07694224 -0.011537471 -0.0199003 0.07707971 0.140683 -0.020002756 0.10792644 -0.011211075
0.05757793 0.049810123 0.08703895 -0.019664025 -0.14257948 -0.0038381934 -0.054571692 -0.24125308
-0.266752 -0.13225245 -0.06687348 -0.14537337 0.036565043 -0.25109172 0.02439695 -0.10014731
-0.06812003 -0.20193295 -0.08025665 0.035295404 0.04470172 -0.029003102 -0.112900615 0.057585604
0.19426012 -0.012615268 -0.48185703 0.2354767 0.002728777 0.062878765 -0.05268746 0.060172506
0.04779949 0.031373635 0.02176632 -0.056307703 -0.046012603 -0.08745013 -0.3534371 0.035080235
0.024946276 0.019690353 -0.09035465 -0.018584851 -0.06858005 0.042740066 -0.026774304 -0.0646114
-0.15372978 0.10454821 0.10439202 0.021823782 0.14613773 0.04753183 -0.10617939 0.10624228
0.06573116 0.03117503 0.13154048 -0.05199806 -0.030827915 0.06142369 0.10373225 -0.043738764
-0.004094804 -0.08186495 0.09797761 0.07824075 -0.070237815 0.0037562684 0.025467899 -0.08838817
-0.026280198 0.09034508 -0.14052829 -0.015232702 0.0605566 -0.17285345 -0.01839182 -0.106580324
-0.058304694 0.05921713 0.03609064 0.043051705 -0.05639548 0.17671642 -0.15806302 0.024683984
0.063763365 -0.060596824 -0.22009021 0.016911358 0.07829671 -0.10318908 -0.06574951 -0.46817058
0.25582284 -0.04354133 0.077946 -0.40725204 -0.28310767 0.0063692736 -0.07474564 0.023413911
0.008585799 -0.25499892 0.0007318974 -0.45143214 -0.059588563 -0.3218879 -0.1524759 0.09680732
-0.033958785 -0.054341123 0.01865581 -0.07688105 -0.015306094 0.0041012964 -0.07060198 -0.103144966
00000000: 2d72 31be 266f f03e 83d5 44bd 6509 263d
00000010: c610 a0bc 4239 073c 431e 31bd bae6 5a3e
00000020: ec7c e1bb fe07 883d ded6 cfbd 4301 71be
00000030: 8ea9 cfbe a422 95bd 39ad acbd dd0d 3abe
00000040: 032b 5e3d 0935 c1bd b1d7 5b3d 1e37 263d
00000050: 5cd2 373c 4096 44bd cb81 89bd 3be0 bfbb
00000060: cac3 dbbd dd77 82bd a2ab 743c 722b af3b
00000070: b033 9c3d 4c67 d33c 2d12 d93d cc5f 0ebe
00000080: 48cc a2bb 96eb ac3d 7aea 33be 9559 8d3d
00000090: fda3 9ebe c0ea 023d 9046 db3d 05fc 39bc
000000a0: 1965 a6bd 540a 58bb ad56 c6bd 710e 17be
000000b0: 0b52 5e3d 7eef 0dbe 4319 c3bd c56a 28bc
000000c0: cb12 bebd e61a 3eba 6d5b 7abd 2000 58bd
000000d0: e0d2 a3bd 1bb8 493d b5a4 f53c 0b3e 143c
000000e0: ef46 7d3d 8631 b3bb 22a7 da3c 986c d63b
000000f0: 5611 21bd b052 af3d 8f38 b1bd 07ec 993d
00000100: a3d7 d53d c6fd 39be 2604 e9bc 09ca 7bbe
00000110: fc92 8abd 3bc2 0c3e da35 2f3d 4b4a 253d
00000120: 426f 64bc c0f5 5a3d f025 d2bd eae5 353c
00000130: 9a64 35be 6366 d13d 6d1b 703e 4f47 ccbc
00000140: c3ba 3d3c f27e 8a3c af03 a03d 9143 e23d
00000150: c63a afbd c5eb acbe 1341 10bd b9cb b93d
00000160: ff13 56bd 5e72 18be 7db2 98be c7c6 203d
00000170: 335d af3c e327 423e 23bc 6bbe 320d b5bd
00000180: a9ae c1bc 49e7 113d b5e6 a6be e069 cebd
00000190: 3af7 133d ff98 39be 959f 343d 9fc7 9fbe
000001a0: ac77 0f3d b922 cd3d 4dd1 a63d d8f7 98be
000001b0: 3276 07bb a4c1 093c c134 a03c 44f7 fa3b
000001c0: bf75 493a f018 d4bd 65ec d5bd ae93 adbc
000001d0: 9564 20be 006b 4fbe f4ba e83d 8aa7 5d3d
000001e0: 4377 05bd 02cc 04be 3008 ae3d c0dd bfbc
000001f0: 41e4 6cbd 2479 c8bd 88d0 1fbd adea 183d
00000200: e593 9dbd a907 3dbc f405 a3bc f8db 9d3d
00000210: 340f 103e d2dc a3bc 8a08 dd3d a8ae 37bc
00000220: d6d6 6b3d b305 4c3d 7a41 b23d 7316 a1bc
00000230: 5b00 12be 338a 7bbb 9186 5fbd 0c0b 77be
00000240: b893 88be 306d 07be f7f4 88bd c2dc 14be
00000250: 3ac5 153d 188f 80be 1ddc c73c 081a cdbd
00000260: 8482 8bbd 83c7 4ebe 995d a4bd ea91 103d
00000270: 2719 373d ea97 edbc 7038 e7bd e2de 6b3d
00000280: 20ec 463e 45b0 4ebc f7b5 f6be ce20 713e
00000290: 48d5 323b 95c6 803d cece 57bd 7277 763d
000002a0: 66c9 433d a481 003d 484f b23c e8a2 66bd
000002b0: b677 3cbd 0e19 b3bd b5f5 b4be 4bb0 0f3d
000002c0: 225c cc3c aa4d a13c dc0b b9bd 423f 98bc
000002d0: b273 8cbd 3510 2f3d c955 dbbc fb52 84bd
000002e0: 576b 1dbe 5f1d d63d 7ccb d53d cac7 b23c
000002f0: 21a5 153e bcb0 423d 9474 d9bd 8d95 d93d
00000300: 0f9e 863d c762 ff3c 8cb2 063e ebfb 54bd
00000310: d38a fcbc 6897 7b3d 9371 d43d 6b27 33bd
00000320: b52d 86bb d0a8 a7bd 7ca8 c83d b03c a03d
00000330: d8d8 8fbd ba2b 763b 0ea2 d03c db04 b5bd
00000340: 9249 d7bc d706 b93d a6e6 0fbe 9592 79bc
00000350: 330a 783d 7f00 31be 71aa 96bc c946 dabd
00000360: e7d0 6ebd a98d 723d c7d3 133d fc56 303d
00000370: f2fe 66bd 26f5 343e 46db 21be 1136 ca3c
00000380: 5e96 823d 6034 78bd 545f 61be b089 8a3c
00000390: 075a a03d cc54 d3bd aea7 86bd 0eb4 efbe
000003a0: 36fb 823e 6558 32bd 27a2 9f3d 5783 d0be
000003b0: 7df3 90be 57b5 d03b 3e14 99bd 88ce bf3c
000003c0: 73ab 0c3c 388f 82be cedc 3f3a 1d22 e7be
000003d0: 2313 74bd 7ece a4be a422 1cbe eb42 c63d
000003e0: 5e18 0bbd cc94 5ebd 12d4 983c d073 9dbd
000003f0: 69c6 7abc 2b64 863b c597 90bd ab3d d3bd

actor_fc.bias f4 [256]
-0.11661177 -0.018250655 -0.004806709 -0.0011575123 -0.06455462 0.07116857 -0.07480924 -0.030926168
0.043633368 -0.08230381 -0.046729334 -0.1000654 -0.09906839 -0.08538106 -0.07665739 -0.028504493
-0.082395025 -0.08297641 0.0871071 -0.14421982 -0.052961443 -0.08244512 -0.0086507015 0.065341085
-0.026194567 -0.09611205 0.06733794 -0.07102791 0.09883018 -0.0040548667 0.0913354 0.10227321
0.07133576 -0.08845526 -0.008975339 -0.06787407 0.020959787 -0.018545402 -0.11253226 0.00031519146
-0.12967655 0.083888836 0.07184089 -0.19851188 -0.061154537 -0.07619614 -0.07570914 -0.023520248
-0.015533036 -0.10530774 0.051160306 0.059564706 -0.0006965244 -0.0480629 0.022038767 -0.030318983
-0.19612117 -0.032427043 -0.04653518 -0.14555158 -0.058921702 -0.00040838865 0.02296842 -0.040511154
-0.15449925 -0.08395654 -0.064040795 -0.050210208 -0.063508965 -0.027196335 -0.12918799 -0.17884395
-0.10485231 0.047089163 0.046472486 -0.041087538 -0.073981255 0.018106729 -0.0712147 -0.08641063
-0.058808226 -0.055011656 -0.020767877 -0.005141222 -0.10197134 -0.058862902 -0.110226475 -0.040356763
-0.091892436 0.04213271 -0.07619327 0.01496726 -0.036308337 -0.059097216 0.080592655 0.15733388
-0.03643149 -0.036916394 0.10027829 -0.14135969 0.03357005 0.110119425 -0.056176405 0.035214547
-0.076674394 -0.08102036 -0.056137305 -0.009183512 -0.092766866 -0.034574572 -0.112859555 0.020362282
-0.06052082 0.009488736 -0.045448884 -0.043596122 -0.025415115 0.02150363 -0.07293584 -0.055840965
0.10211004 -0.084271476 -0.07166285 0.07195011 -0.058024503 -0.07933527 -0.09904743 -0.037384022
0.05480054 -0.056426875 -0.06387609 -0.079744756 0.0133081805 -0.04962228 -0.055097666 -0.08142474
0.014700558 0.04009697 -0.1727827 -0.111237355 -0.081592396 -0.06794714 -0.1043149 -0.042681646
-0.075251624 -0.00091881317 0.036499117 -0.10420272 -0.092480555 -0.067487426 0.10386255 -0.042317152
0.11022812 -0.08143147 -0.055771288 -0.030360822 -0.05396097 -0.041551553 -0.11211312 -0.08169685
0.050006773 -0.08747295 -0.019194935 -0.088500865 -0.058366783 -0.072403714 -0.032870714 -0.009952859
-0.072253354 0.014912328 -0.0571189 -0.06732519 -0.059573602 -0.067705624 -0.104228735 -0.04546664
0.01456208 0.03523614 -0.06856533 -0.08443609 0.038585592 -0.01742312 -0.016225707 -0.06950886
0.024358362 -0.056703933 0.0043056533 -0.03668376 0.0013448726 -0.0751356 -0.08126914 -0.08067284
-0.06267204 0.122894764 -0.10548436 -0.075675145 -0.099647455 -0.12738219 0.039590254 -0.17142096
-0.04104976 0.099017315 -0.060049985 -0.11892864 0.021648452 -0.10408274 -0.06777947 0.057520468
-0.09459373 -0.0630658 -0.039309606 0.09363337 -0.09616638 -0.093075894 -0.027131738 -0.038501114
-0.07539775 0.028010748 0.041574672 0.02731832 -0.031158112 0.0061736745 -0.08969521 -0.042494085
0.07620333 -0.09537161 -0.0021369802 0.06539976 -0.056563772 -0.123405725 -0.08035354 -0.09391751
0.039716054 -0.047620118 0.045082014 -0.15551957 -0.0648711 -0.10640164 -0.05786178 -0.18064278
0.09532911 -0.095513605 -0.08878646 -0.04179706 0.055341437 -0.11843603 -0.062835716 -0.02825141
-0.005456665 0.09891491 -0.10041611 -0.02494216 -0.05672093 0.10215774 -0.1574668 -0.08878735
00000000: 27d2 eebd 6682 95bc 9981 9dbb abb7 97ba
00000010: 3635 84bd d4c0 913d 9635 99bd e058 fdbc
00000020: e7b8 323d e68e a8bd 4267 3fbd 17ef ccbd
00000030: 5ee4 cabd 44dc aebd 8dfe 9cbd 4182 e9bc
00000040: b9be a8bd 89ef a9bd 3565 b23d 5cae 13be
00000050: 19ee 58bd fdd8 a8bd acbb 0dbc 8cd1 853d
00000060: fd95 d6bc 65d6 c4bd 79e8 893d 1577 91bd
00000070: 7a67 ca3d b0de 84bb 0e0e bb3d 9e74 d13d
00000080: 7c18 923d 0828 b5bd 4d0d 13bc 8f01 8bbd
00000090: dcb3 ab3c 87ec 97bc 5077 e6bd 4840 a539
000000a0: eec9 04be e9cd ab3d 5121 933d b346 4bbe
000000b0: 2e7d 7abd b90c 9cbd 650d 9bbd 89ad c0bc
000000c0: 467e 7ebc 96ab d7bd 788d 513d 1ffa 733d
000000d0: f696 36ba 9add 44bd a58a b43c 845f f8bc
000000e0: fdd3 48be 38d2 04bd ac9b 3ebd 790b 15be
000000f0: e257 71bd ff1c d6b9 4528 bc3c 06ef 25bd
00000100: 0d35 1ebe 68f1 abbd d227 83bd 38a9 4dbd
00000110: fd10 82bd d9ca debc db49 04be de22 37be
00000120: cfbc d6bd 91e0 403d ef59 3e3d 684b 28bd
00000130: 7c83 97bd 9054 943c 03d9 91bd 0ef8 b0bd
00000140: e5e0 70bd e753 61bd 6521 aabc b277 a8bb
00000150: 5ad6 d0bd 3a1a 71bd 6bbe e1bd 224d 25bd
00000160: 1a32 bcbd 5993 2c3d 380b 9cbd 3d39 753c
00000170: 0db8 14bd ec0f 72bd c30d a53d 221c 213e
00000180: 3039 15bd a535 17bd b45e cd3d 98c0 10be
00000190: c080 093d 4b86 e13d 3b19 66bd 213d 103d
000001a0: 7707 9dbd 01ee a5bd 3bf0 65bd 7176 16bc
000001b0: 8efc bdbd 119e 0dbd e922 e7bd cdce a63c
000001c0: aee4 77bd a576 1b3c 9c28 3abd d991 32bd
000001d0: 5c33 d0bc 6128 b03c 635f 95bd 7fb9 64bd
000001e0: 121f d13d 8696 acbd f9c3 92bd 945a 933d
000001f0: 1aab 6dbd 887a a2bd 61d9 cabd fd1f 19bd
00000200: 8876 603d de1f 67bd 78d1 82bd 3851 a3bd
00000210: 8e0a 5a3c bb40 4bbd 17ae 61bd 04c2 a6bd
00000220: 9cda 703c b83c 243d f3ed 30be 69d0 e3bd
00000230: ea19 a7bd df27 8bbd 0da3 d5bd f3d2 2ebd
00000240: 861d 9abd 82dc 70ba 1980 153d 3c68 d5bd
00000250: 7266 bdbd d936 8abd e3b5 d43d c054 2dbd
00000260: 48bf e13d 8bc5 a6bd 6f70 64bd 42b7 f8bc
00000270: 2e06 5dbd f631 2abd 909b e5bd ae50 a7bd
00000280: e7d3 4c3d 0525 b3bd b23e 9dbc f13f b5bd
00000290: 0212 6fbd 6648 94bd 71a3 06bd 5111 23bc
000002a0: 91f9 93bd d652 743c 82f5 69bd cae1 89bd
000002b0: 7303 74bd 3fa9 8abd e075 d5bd 3a3b 3abd
000002c0: ca95 6e3c c553 103d fb6b 8cbd d4ec acbd
000002d0: ed0b 1e3d eeba 8ebc c6eb 84bc a95a 8ebd
000002e0: 308b c73c 6242 68bd 7016 8d3b b641 16bd
000002f0: 7046 b03a b2e0 99bd 6f70 a6bd cd37 a5bd
00000300: 335a 80bd 40b0 fb3d 2f08 d8bd 92fb 9abd
00000310: f713 ccbd 7a70 02be 6429 223d fa88 2fbe
00000320: cb23 28bd 97c9 ca3d f9f6 75bd dc90 f3bd
00000330: 1858 b13c 5529 d5bd f6cf 8abd 959a 6b3d
00000340: 5cba c1bd a428 81bd 1c03 21bd dac2 bf3d
00000350: e1f2 c4bd 939e bebd 6143 debc 58b3 1dbd
00000360: 236a 9abd cc76 e53c 344a 2a3d abca df3c
00000370: 4c3f ffbc 894c ca3b 1fb2 b7bd 470e 2ebd
00000380: 7e10 9c3d 3152 c3bd 940c 0cbb 4ff0 853d
00000390: 6aaf 67bd 24bc fcbd 6690 a4bd d357 c0bd
000003a0: 4dad 223d 500d 43bd eba7 383d 8640 1fbe
000003b0: 24db 84bd 1ae9 d9bd 7900 6dbd 6cfa 38be
000003c0: e93b c33d a39c c3bd add5 b5bd 6533 2bbd
000003d0: b4ad 623d 978e f2bd 03b0 80bd 806f e7bc
000003e0: d3cd b2bb e693 ca3d f6a6 cdbd 8053 ccbc
000003f0: 3554 68bd 1438 d13d fa3e 21be 24d6 b5bd

actor_out.weight f4 [12, 256]
-0.19008821 0.16488963 0.043722913 0.009785149 -0.042723287 -0.12213098 0.013033233 0.010468044
-0.06615532 0.06599475 0.06855583 -0.22410175 0.0764212 0.03382729 -0.055729754 -0.0085395295
-0.07518609 -0.13118958 0.23492742 -0.36819983 -0.3047156 -0.020853432 0.083988406 -0.23659724
0.006736385 -0.12123436 -0.10395647 0.071102664 -0.45268023 -0.18260062 -0.2538181 -0.05644206
0.032703776 0.22076578 0.35917985 -0.034778208 0.1082537 0.14327152 0.39281103 0.14162898
-0.021509936 -0.20602232 -0.19072142 0.23686598 -0.045293014 0.059093956 -0.1552849 0.08426042
-0.04027531 -0.042344023 0.13787255 0.13469915 0.13444407 0.03706716 0.18851118 0.13092807
0.14598577 0.23080987 -0.14567378 0.17579938 -0.040573947 0.20814468 -0.04998364 -0.07612506
0.16706221 0.24459974 0.048578646 -0.11289761 -0.049447916 0.17450723 -0.060224634 -0.121859066
0.040755503 0.19928357 -0.13364805 -0.20716694 -0.11192942 0.08724372 0.21636543 0.101727
-0.094339915 -0.032680877 0.15893695 0.10385477 -0.1307009 -0.030131334 -0.049624182 0.04876958
0.04446391 0.4625155 -0.06889709 -0.2519845 -0.039018113 -0.03464045 0.12033961 0.14471918
0.24081233 0.026381731 0.15419395 0.1926547 -0.06318315 -0.25113925 0.06607446 0.038577747
0.15344334 0.112733625 0.01935246 -0.12971137 -0.003007384 -0.06573288 0.03419585 -0.11667446
0.08255966 0.053972688 0.11639208 -0.08451944 0.060625624 -0.08559568 -0.27927056 0.029666005
-0.10815199 -0.03412525 0.018583527 0.04652364 -0.081083246 0.13365375 0.009708772 -0.15560727
0.421463 0.046115406 -0.07353294 0.2705239 0.29114938 0.23295215 0.39110625 0.1756911
0.38723716 0.35854465 0.008121263 -0.0128620025 -0.060567968 0.076912776 -0.39496076 0.2761907
-0.049185656 -0.058693536 0.12768942 -0.11216866 0.039760444 -0.078719564 0.16347638 -0.22226126
0.19405301 -0.15211593 0.10850551 0.014529922 0.07788514 -0.15374567 -0.101481505 -0.0011182034
0.14489166 -0.020418737 0.07403242 0.009501271 0.08197078 -0.10794099 -0.1327926 -0.092671536
-0.10093739 0.13945995 -0.059181053 -0.017376143 0.067531385 -0.00048388887 -0.0988552 0.39869106
0.036574136 0.21853971 -0.19953765 0.30937606 0.11281017 -0.24759232 0.061522875 -0.021151816
-0.24895494 -0.4692914 -0.03571445 -0.025223928 0.07591997 -0.26041085 0.056971304 -0.1653182
-0.10111272 0.081865266 -0.022055712 -0.066923544 -0.043228213 0.23842828 0.27172157 0.052018918
0.20414515 0.42265937 -0.06083755 0.051781423 -0.11157258 -0.22859283 -0.07907812 0.03689386
0.13159704 0.5502422 0.06750825 0.051704537 0.15773828 0.03348327 -0.12548909 0.084672816
-0.0094190035 0.14575985 -0.001857264 0.53531724 -0.27569297 -0.3053166 0.07981312 0.0636354
-0.30535802 -0.043467484 -0.02164628 0.24144816 0.18461008 -0.14227349 -0.038725466 0.09954812
0.034168642 -0.27943492 -0.30936426 0.25000483 -0.0706652 0.01718455 0.026196022 -0.23412982
0.51867205 -0.1130785 -0.041613996 0.109911524 -0.25066587 -0.17804004 -0.036149416 -0.2835737
0.11086355 -0.0020575642 0.101608545 -0.19263896 0.16926993 -0.2548431 0.29052824 -0.06438514
00000000: 7ca6 42be d4d8 283e cc16 333d e451 203c
00000010: 9dfe 2ebd cf1f fabd 5789 553c 2982 2b3c
00000020: 717c 87bd 4128 873d 0067 8c3d ee7a 65be
00000030: b882 9c3d 7c8e 0a3d e244 64bd 62e9 0bbc
00000040: 2afb 99bd 9056 06be d090 703e b084 bcbe
00000050: af03 9cbe d1d4 aabc 1d02 ac3d 8c46 72be
00000060: e5bc dc3b b849 f8bd 21e7 d4bd 469e 913d
00000070: b4c5 e7be a8fb 3abe 72f4 81be ca2f 67bd
00000080: 65f4 053d 6d10 623e 6ce6 b73e 9873 0ebd
00000090: 1eb4 dd3d c5b5 123e 871e c93e 3007 113e
000000a0: 9b35 b0bc 84f7 52be 7a4c 43be ff8c 723e
000000b0: 2b85 39bd 810c 723d 0103 1fbe ba90 ac3d
000000c0: b9f7 24bd ed70 2dbd 762e 0d3e 93ee 093e
000000d0: b5ab 093e bcd3 173d 1309 413e 0212 063e
000000e0: 4b7d 153e 6c59 6c3e 822b 15be c104 343e
000000f0: de30 26bd e123 553e a5bb 4cbd 75e7 9bbd
00000100: 5b12 2b3e 5b78 7a3e 67fa 463d dd36 e7bd
00000110: e689 4abd 06b2 323e 1bae 76bd 3f91 f9bd
00000120: 3eef 263d fe10 4c3e 09db 08be 9223 54be
00000130: 403b e5bd d6ac b23d e68e 5d3e 3f56 d03d
00000140: 4935 c1bd 62dc 05bd 5ec0 223e cfb1 d43d
00000150: 75d6 05be fdd5 f6bc ba42 4bbd 9cc2 473d
00000160: ca1f 363d d5ce ec3e eb19 8dbd 1d04 81be
00000170: 75d1 1fbd 25e3 0dbd 9d74 f63d 4431 143e
00000180: 8297 763e 801e d83c 05e5 1d3e 4647 453e
00000190: 2b66 81bd 5395 80be 0c52 873d b303 1e3d
000001a0: 4020 1d3e e3e0 e63d 0d89 9e3c 0fd3 04be
000001b0: 8817 45bb f69e 86bd f310 0c3d 05f3 eebd
000001c0: 0a15 a93d 7712 5d3d f95e ee3d 8718 adbd
000001d0: 9352 783d ca4c afbd 8dfc 8ebe 1f06 f33c
000001e0: ca7e ddbd ebc6 0bbd 7b3c 983c 938f 3e3d
000001f0: f90e a6bd 87dc 083e 8b11 1f3c 8357 1fbe
00000200: 00ca d73e 82e3 3c3d 7098 96bd 1c82 8a3e
00000210: 8811 953e 028b 6e3e 143f c83e 5ee8 333e
00000220: f343 c63e 2a93 b73e 0c0f 053c 26bb 52bc
00000230: 1e16 78bd 7284 9d3d 4c38 cabe de68 8d3e
00000240: e676 49bd a268 70bd 04c1 023e afb8 e5bd
00000250: d9db 223d b937 a1bd 5a66 273e 7598 63be
00000260: d5b5 463e 47c4 1bbe 2338 de3d e90e 6e3c
00000270: 3f82 9f3d 816f 1dbe 89d5 cfbd ae90 92ba
00000280: 7b5e 143e 3245 a7bc 4f9e 973d 38ab 1b3c
00000290: 4ce0 a73d 2a10 ddbd c9fa 07be 93ca bdbd
000002a0: 43b8 cebd 97ce 0e3e d567 72bd 6a58 8ebc
000002b0: e54d 8a3d 77b2 fdb9 9874 cabd 3c21 cc3e
000002c0: c3ce 153d e0c8 5f3e 9953 4cbe 8a66 9e3e
000002d0: 0509 e73d d788 7dbe 69ff 7b3d 9346 adbc
000002e0: 0bee 7ebe f646 f0be 5149 12bd 69a2 cebc
000002f0: ee7b 9b3d 9254 85be be5a 693d 2d49 29be
00000300: 3014 cfbd faa8 a73d 2eae b4bc 360f 89bd
00000310: 1110 31bd 8b26 743e 171f 8b3e ca11 553d
00000320: 6d0b 513e cf66 d83e cb30 79bd c218 543d
00000330: 2a80 e4bd 3d14 6abe b6f3 a1bd 041e 173d
00000340: 60c1 063e acdc 0c3f c441 8a3d 23c8 533d
00000350: 2586 213e c125 093d 3680 00be f168 ad3d
00000360: 2a52 1abc 1242 153e 706f f3ba 8d0a 093f
00000370: a127 8dbe 7552 9cbe 1075 a33d 4753 823d
00000380: e357 9cbe f60a 32bd 8a53 b1bc 303e 773e
00000390: 6d0a 3d3e 24b0 11be 989e 1ebd e2df cb3d
000003a0: 6bf4 0b3d 1812 8fbe fe64 9ebe a200 803e
000003b0: ebb8 90bd 9dc6 8c3c 0a99 d63c babf 6fbe
000003c0: b1c7 043f b395 e7bd 7073 2abd 4b19 e13d
000003d0: 4757 80be 2150 36be 6911 14bd 9230 91be
000003e0: 6e0c e33d 33d8 06bb 2418 d03d 2643 45be
000003f0: 1955 2d3e cb7a 82be 1ec0 943e 5bdc 83bd

actor_out.bias f4 [12]
0.091419876 -0.03330666 0.03462591 -0.12326005 -0.14053272 0.1508073 0.02284936 0.0026716765
0.05673603 0.00929457 0.0069845743 -0.04481007
00000000: 583a bb3d 906c 08bd e6d3 0d3d c46f fcbd
00000010: cfe7 0fbe 3b6d 1a3e 952e bb3c 4b17 2f3b
00000020: 0a64 683d 4148 183c dbde e43b c48a 37bd
