networks/saved_model_2/ppo_model_ep200.pth (torch, 842098 bytes, 11 tensors)

shared_fc1.weight f4 [256, 33]
0.004797481 -0.0045086113 -0.057458792 -0.0476237 -0.14306799 -0.10168527 -0.08182812 -0.0726693
-0.18730398 0.10011313 -0.13091439 -0.033078086 -0.05041411 0.0033945465 -0.058083355 0.1167296
-0.056792352 -0.038611785 -0.01252238 -0.012483642 0.09374694 0.046013623 -0.24346277 -0.038641483
-0.1636319 -0.19769357 -0.23811999 -0.24121255 -0.24591593 -0.008193523 -0.1951768 -0.24136269
-0.15898691 -0.13892978 -0.0274813 -0.348292 0.04320999 -0.056296628 -0.31488714 -0.24722335
0.080043875 -0.89351696 0.10779442 0.10309298 0.14323163 -0.4659259 -0.0421817 -0.04734102
0.0834868 0.19802153 0.59299237 0.20599271 -3.163935 -0.94122154 2.0115786 -0.052899655
0.31928343 -0.05186423 0.27353877 -0.43450046 -0.10620857 -0.12951255 -0.06261542 0.24194205
-0.01709218 0.037135694 -0.028230723 -0.17635092 -0.1700658 -0.09608128 -0.15766948 -0.15286882
-0.22581953 -0.005266547 0.13049096 0.12168933 0.029621063 0.01625027 0.08754431 0.1334872
0.020886151 0.004505631 0.018743737 -0.04568857 -0.20197168 -0.08298147 -0.0699771 -0.06936795
-0.22026701 -0.04940818 -0.11307284 -0.2166378 -0.24772383 -0.054254383 -0.07772378 -0.18192582
0.05149778 -0.13396485 -0.1797692 -0.18240981 -0.15536195 -0.3599449 -0.066663496 -0.22583945
0.021083118 -0.25570977 -0.17213497 -0.34252864 0.110406436 -0.07781869 0.26467896 -0.14227186
-0.03446842 -0.03169575 0.1530506 -0.3734398 -0.16586606 0.11098382 0.4048561 -1.0863694
0.006365759 -0.12440423 -0.21120796 -0.15104581 -0.40623274 -0.36771515 -0.31791452 -0.26042125
-0.25958666 0.15881436 -0.11793663 -0.0019153614 0.17720188 -0.23940746 0.15674736 -0.07787273
-0.04716812 0.06778531 -0.16682145 -0.02299546 -0.031761523 -0.022362959 -0.19774246 0.013166461
-0.28878897 -0.03981044 0.033382032 -0.14198248 0.15940498 0.745457 -0.26706046 -3.7460134
0.7475772 2.3305342 0.01778978 -0.19192204 -0.07145169 -0.041963838 0.19344245 -0.279852
0.2238997 0.0038132926 -0.043584846 0.06284073 0.010801761 -0.30734807 -0.03049058 -0.22285885
0.058634054 -0.109064005 -0.15402335 -0.35431948 -0.1451498 -0.013323862 0.19468613 0.20801267
-0.06346154 -0.3989176 -0.021214321 0.1636156 -0.019653691 -0.23103808 0.37083462 0.1927378
-0.38292176 -0.8269837 0.0060283327 -0.021454224 -0.0069972035 -0.04061903 -0.07445966 -0.15165696
-0.09055005 -0.18842864 -0.102726005 0.23527054 -0.0922495 -0.0664446 -0.20423539 0.20449069
-0.3999245 -0.15699545 -0.02309643 -0.04405076 -0.22500919 0.19833016 0.027679926 0.03632168
0.004463981 -0.25938347 0.06450622 0.063961394 0.17257264 0.042750813 -0.21571037 -0.14197426
0.37808925 0.61090744 -1.1476438 0.13380031 -0.08832647 0.27862367 0.034944948 -0.13249001
0.062189247 0.03722114 -0.14422151 0.12978552 0.18344796 0.07695875 0.04798946 -0.20931521
-0.058960035 -0.1636339 -0.2032052 -0.05997492 -0.13711077 -0.040580306 -0.1515008 -0.078032084
-0.054514132 0.06866308 0.05702491 0.10956037 -0.030287785 0.058358155 0.09732738 -0.08437033
-0.14834426 -0.14847152 -0.15377027 0.052558903 -0.034184925 -0.15967155 -0.12300231 -0.02668047
00000000: 3034 9d3b f9bc 93bb e959 6bbd 1211 43bd
00000010: 6a80 12be 5e40 d0bd 8095 a7bd a4d3 94bd
00000020: 9dcc 3fbe 1d08 cd3d 6c0e 06be e37c 07bd
00000030: 077f 4ebd 0a77 5e3b d0e8 6dbd ee0f ef3d
00000040: 199f 68bd 6427 1ebd ab2a 4dbc 3188 4cbc
00000050: 65fe bf3d c878 3c3d 4e4e 79be 8846 1ebd
00000060: 1f8f 27be 2f70 4abe bad5 73be 6c00 77be
00000070: 63d1 7bbe 203e 06bc 6ddc 47be c827 77be
00000080: 77cd 22be 9c43 0ebe 7720 e1bc 5453 b2be
00000090: f5fc 303d 4b97 66bd e338 a1be 1e28 7dbe
000000a0: 0bee a33d 87bd 64bf 52c3 dc3d 6a22 d33d
000000b0: 50ab 123e d78d eebe b8c6 2cbd a8e8 41bd
000000c0: 21fb aa3d 28c6 4a3e 59ce 173f c1ef 523e
000000d0: e97d 4ac0 e5f3 70bf b4bd 0040 4fad 58bd
000000e0: 1e79 a33e 966f 54bd 460d 8c3e d876 debe
000000f0: e183 d9bd f09e 04be 833c 80bd a8bf 773e
00000100: e604 8cbc 991b 183d 1e44 e7bc 5695 34be
00000110: bb25 2ebe 43c6 c4bd 1c74 21be a589 1cbe
00000120: 3c3d 67be 0093 acbb 6c9f 053e 4138 f93d
00000130: dfa7 f23c 491f 853c 6e4a b33d deb0 083e
00000140: 6f19 ab3c f9a3 933b 778c 993c f023 3bbd
00000150: aad1 4ebe 30f2 a9bd 2750 8fbd c910 8ebd
00000160: ad8d 61be 3b60 4abd bc92 e7bd 4dd6 5dbe
00000170: 51ab 7dbe d839 5ebd a52d 9fbd c34a 3abe
00000180: 56ef 523d 152e 09be 6b15 38be a3c9 3abe
00000190: 3417 1fbe b34a b8be df86 88bd 7542 67be
000001a0: 81b6 ac3c 64ec 82be 2644 30be ea5f afbe
000001b0: c51c e23d 685f 9fbd 0084 873e b7af 11be
000001c0: c22e 0dbd 67d3 01bd 4cb9 1c3e 8033 bfbe
000001d0: cbd8 29be 7c4b e33d 4c49 cf3e 270e 8bbf
000001e0: db97 d03b a5c7 febd e646 58be c1ab 1abe
000001f0: bdfd cfbe 2945 bcbe b1c5 a2be ef55 85be
00000200: 8be8 84be 3ba0 223e c388 f1bd dd0c fbba
00000210: 6974 353e 3b27 75be 6182 203e bd7b 9fbd
00000220: 5c33 41bd 06d3 8a3d 3ed3 2abe fa60 bcbc
00000230: 5f18 02bd 8632 b7bc 007d 4abe 24b8 573c
00000240: 26dc 93be 4610 23bd 99bb 083d db63 11be
00000250: 0f3b 233e 45d6 3e3f 26bc 88be afbe 6fc0
00000260: 3861 3f3f 7927 1540 dfbb 913c 3687 44be
00000270: 4355 92bd 46e2 2bbd c715 463e c348 8fbe
00000280: f745 653e 6fe8 793b 0686 32bd a4b2 803d
00000290: dff9 303c ba5c 9dbe 61c7 f9bc 1c35 64be
000002a0: 432a 703d f35c dfbd 4cb8 1dbe 5d69 b5be
000002b0: 26a2 14be 544c 5abc cd5b 473e 4601 553e
000002c0: 20f8 81bd ed3e ccbe a8c9 adbc d98a 273e
000002d0: c700 a1bc 3f95 6cbe 09de bd3e 0f5d 453e
000002e0: 520e c4be 34b5 53bf 5289 c53b c5c0 afbc
000002f0: cc48 e5bb 2460 26bd 4e7e 98bd f64b 1bbe
00000300: 4e72 b9bd 70f3 40be 0362 d2bd c3ea 703e
00000310: 4eed bcbd 1b14 88bd 1523 51be 0266 513e
00000320: e7c2 ccbe 6ac3 20be b934 bdbc 926e 34bd
00000330: cf68 66be 1017 4b3e 03c1 e23c 0bc6 143d
00000340: 9646 923b e9cd 84be d61b 843d 31fe 823d
00000350: e2b6 303e 7a1b 2f3d 2ee3 5cbe b361 11be
00000360: ea94 c13e 6e64 1c3f fee5 92bf f302 093e
00000370: 82e4 b4bd c3a7 8e3e 6f22 0f3d 76ab 07be
00000380: 27ba 7e3d 3275 183d ceae 13be 7fe6 043e
00000390: c8d9 3b3e 8d9c 9d3d 9990 443d ba56 56be
000003a0: 1480 71bd a58f 27be 0615 50be 43a8 75bd
000003b0: c466 0cbe 8937 26bd 0723 1bbe 49cf 9fbd
000003c0: 364a 5fbd 3b9f 8c3d f492 693d 3061 e03d
000003d0: 171e f8bc f608 6f3d 9453 c73d 5aca acbd
000003e0: 8fe7 17be eb08 18be f475 1dbe 0148 573d
000003f0: 7e05 0cbd f080 23be a3e8 fbbd 0091 dabc

shared_fc1.bias f4 [256]
-0.12653388 -0.011821948 -0.113319494 -0.12955111 -0.049150918 -0.104034044 0.006677708 -0.11563502
-0.08118503 -0.14765546 -0.071409464 -0.105740316 -0.031032687 -0.1015635 -0.16548926 -0.009183395
-0.12722506 -0.03213065 0.0571036 -0.04650894 -0.0070097432 -0.12980194 -0.052619185 -0.11922863
0.022033248 -0.124090105 -0.11434426 -0.045586858 -0.061838966 -0.15138273 -0.08532505 -0.111404605
-0.21112835 -0.10603043 -0.002951063 -0.14291273 -0.13429308 -0.16936769 -0.09589016 -0.079858646
-0.024812642 -0.075339 -0.13136098 -0.029169237 -0.0053484747 0.035559267 -0.017601298 -0.08754458
-0.08024651 -0.059787754 -0.073974974 -0.08701092 -0.2511923 -0.051360346 -0.077978574 -0.02897953
-0.18636376 0.009413583 -0.16631159 -0.12354401 -0.0011838584 -0.0893613 -0.11161403 -0.19800921
-0.010675434 -0.09342921 -0.042470224 -0.14926648 -0.1662354 0.038709205 -0.094428696 -0.27626887
-0.17612876 -0.16347891 -0.01190865 -0.06351818 -0.23419611 -0.09044783 -0.074835844 -0.026285395
0.019297983 -0.108698666 0.023393478 -0.033916015 -0.13016278 -0.089821264 -0.32133022 -0.105347425
0.03378207 -0.14210348 -0.18079016 -0.08462217 0.0040144064 -0.11201275 -0.13412128 -0.14625831
-0.17868757 -0.13494395 0.003986452 -0.06830308 -0.1414443 -0.11863356 -0.13404574 -0.13452505
-0.14125048 -0.15747422 -0.091260806 -0.059595138 -0.061834503 -0.0414439 -0.045023657 0.028703852
-0.07048297 -0.13873227 -0.19392353 -0.08423861 -0.11501302 -0.22897837 -0.088833995 -0.09494964
-0.07092156 -0.0033951341 -0.11584442 0.0004995041 -0.049234994 0.023445975 -0.11988902 -0.10244151
-0.09389027 -0.09705803 -0.0064035747 -0.13054797 -0.005228967 -0.103421606 -0.02125508 -0.08747766
-0.27124688 -0.0012455087 -0.1163442 -0.011650254 -0.12091135 -0.073484585 -0.09656412 -0.13848712
-0.11844758 0.026191952 -0.09867587 0.017362759 -0.09802712 -0.0155488625 -0.11134438 -0.07404258
-0.043933976 -0.15128434 0.059680227 -0.005510986 -0.1966488 -0.079819426 -0.10227651 -0.01178035
0.055660315 0.048859388 0.0026142234 -0.19841145 -0.058324676 -0.09243974 -0.21035229 -0.112688236
-0.077642 -0.12854512 0.023429552 -0.06280664 -0.07505146 0.04129169 -0.11590939 -0.20046696
-0.1392242 -0.13868406 -0.08149377 -0.11150404 -0.016465614 -0.082364134 0.03464212 -0.0065502445
-0.18340565 -0.15283787 -0.02472095 -0.030851766 -0.0033607713 -0.00038406876 -0.019139918 0.0205787
-0.13359487 -0.11121862 -0.055274688 -0.21282712 -0.15797532 -0.16097751 -0.060230307 -0.09976337
-0.16496727 -0.019200489 -0.08479052 -0.09196847 0.020549214 -0.10872649 0.03788518 -0.004151626
-0.071206346 -0.18920228 -0.037475385 -0.019559773 0.023202319 0.027644966 -0.09839621 -0.026321596
-0.02135139 -0.043189403 -0.05537412 -0.101216875 -0.09144332 -0.08025217 -0.032231417 -0.020272212
-0.16144119 0.0058309347 -0.07830802 -0.0110960845 0.0034033984 0.06132336 -0.2343357 -0.1731668
-0.14002757 -0.07528588 -0.110307954 -0.13276157 -0.16501531 0.020739477 -0.06504522 -0.050714795
-0.1578549 -0.048591845 -0.11861834 -0.07783678 -0.19246519 0.013427349 0.009534386 0.057175323
-0.08440531 -0.12041738 -0.18687114 0.054723505 -0.025332522 0.028592268 -0.14588352 0.010140252
00000000: 1992 01be d8b0 41bc 0d14 e8bd 0ca9 04be
00000010: 7952 49bd cd0f d5bd add0 da3b 0ed2 ecbd
00000020: 5644 a6bd fe32 17be 203f 92bd 618e d8bd
00000030: 4338 febc 8600 d0bd 0476 29be f375 16bc
00000040: 4947 02be 6e9b 03bd 77e5 693d 2980 3ebd
00000050: fdb1 e5bb cdea 04be 3787 57bd 242e f4bd
00000060: 127f b43c f422 febd 532d eabd 49b9 3abd
00000070: db4a 7dbd 1304 1bbe e6be aebd 1928 e4bd
00000080: 0832 58be 7b26 d9bd 9f66 41bb b757 12be
00000090: 2084 09be b96e 2dbe 0f62 c4bd ee8c a3bd
000000a0: e243 cbbc 554b 9abd 7e83 06be 53f4 eebc
000000b0: 4242 afbb 98a6 113d 9930 90bc 934a b3bd
000000c0: 4858 a4bd 01e4 74bd 3180 97bd c832 b2bd
000000d0: 479c 80be 3a5f 52bd 3bb3 9fbd 7b66 edbc
000000e0: 24d6 3ebe 6e3b 1a3c 964d 2abe a404 fdbd
000000f0: b22b 9bba 0f03 b7bd e695 e4bd edc2 4abe
00000100: 04e8 2ebc d057 bfbd 42f5 2dbd 50d9 18be
00000110: 9d39 2abe 8b8d 1e3d d563 c1bd 1d73 8dbe
00000120: 195b 34be 0467 27be 801c 43bc d215 82bd
00000130: 1bd1 6fbe b63c b9bd 8943 99bd 7854 d7bc
00000140: ce16 9e3c 689d debd aea3 bf3c 85eb 0abd
00000150: 6449 05be 36f4 b7bd 6585 a4be 64c0 d7bd
00000160: 115f 0a3d 9383 11be 0e21 39be 634e adbd
00000170: 488b 833b f166 e5bd 1757 09be bdc4 15be
00000180: e0f9 36be bf2e 0abe c8a0 823b 7ce2 8bbd
00000190: c6d6 10be 27f6 f2bd 4943 09be efc0 09be
000001a0: f7a3 10be ec40 21be f2e6 babd 081a 74bd
000001b0: 2d46 7dbd 14c1 29bd ba6a 38bd 5724 eb3c
000001c0: 6059 90bd d50f 0ebe e493 46be 4b85 acbd
000001d0: f28b ebbd 4e79 6abe 99ee b5bd f574 c2bd
000001e0: 533f 91bd e680 5ebb d73f edbd 27f1 023a
000001f0: a2aa 49bd c611 c03c 6088 f5bd dbcc d1bd
00000200: 8b49 c0bd 5cc6 c6bd 14d5 d1bb 5eae 05be
00000210: c157 abbb b5ce d3bd 221f aebc 7d27 b3bd
00000220: dfe0 8abe 5640 a3ba de45 eebd b5e0 3ebc
00000230: 5fa0 f7bd 167f 96bd 69c3 c5bd 91cf 0dbe
00000240: a594 f2bd 8190 d63c 9316 cabd 583c 8e3c
00000250: 71c2 c8bd a8c0 7ebc 8608 e4bd a3a3 97bd
00000260: 1df4 33bd 48ea 1abe 4173 743d 8095 b4bb
00000270: 4e5e 49be 5e78 a3bd 5976 d1bd 5e02 41bc
00000280: 12fc 633d c820 483d 6453 2b3b 5f2c 4bbe
00000290: dbe5 6ebd 0c51 bdbd 9766 57be 17c9 e6bd
000002a0: c502 9fbd 55a1 03be 55ef bf3c c5a0 80bd
000002b0: 94b4 99bd 7a21 293d e761 edbd 3647 4dbe
000002c0: ca90 0ebe 3203 0ebe 35e6 a6bd 3b5c e4bd
000002d0: e5e2 86bc 87ae a8bd e5e4 0d3d 6fa3 d6bb
000002e0: b1ce 3bbe 8881 1cbe 9783 cabc d8bc fcbc
000002f0: 6340 5cbb d65c c9b9 51cb 9cbc a994 a83c
00000300: 18cd 08be 96c6 e3bd b667 62bd 5aef 59be
00000310: 48c4 21be 4ad7 24be 0eb4 76bd bd50 ccbd
00000320: 2eed 28be 584a 9dbc a7a6 adbd f759 bcbd
00000330: d356 a83c feab debd 7e2d 1b3d 5d0a 88bb
00000340: a2d4 91bd 3ebe 41be ca7f 19bd d13b a0bc
00000350: ca12 be3c b277 e23c f483 c9bd 63a0 d7bc
00000360: 1ce9 aebc 5fe7 30bd f9cf 62bd cb4a cfbd
00000370: a346 bbbd 405b a4bd 1705 04bd e911 a6bc
00000380: d750 25be 6d11 bf3b f55f a0bd 5acc 35bc
00000390: 8d0b 5f3b 342e 7b3d b3f5 6fbe a352 31be
000003a0: 6363 0fbe 7c2f 9abd 23e9 e1bd a6f2 07be
000003b0: c6f9 28be d6e5 a93c 6e36 85bd 51ba 4fbd
000003c0: b7a4 21be 3e08 47bd 2cee f2bd e468 9fbd
000003d0: 9815 45be 62fe 5b3c 1d36 1c3c ac30 6a3d
000003e0: b1dc acbd 639d f6bd 265b 3fbe c125 603d
000003f0: 2686 cfbc 553a ea3c 7d62 15be 4d23 263c

shared_fc2.weight f4 [256, 256]
-0.13925557 0.005075822 -0.1406294 -0.08460283 0.15385702 0.077472 0.033091813 -0.06588334
0.24535137 -0.046146635 0.2627044 -0.11337958 -0.014775456 -0.18566231 -0.029980516 -0.13672078
0.035189368 -0.006434261 0.030688887 -0.39074612 -0.11946369 -0.06768041 -0.346031 -0.0027259681
0.052604936 -0.054848716 -0.005111111 0.02518251 -0.045052927 -0.14989932 0.024781225 0.12207882
-0.13389681 -0.066555336 0.073931485 0.008875721 -0.04356163 -0.007702799 0.020513315 -0.05314758
-0.24147978 0.11207518 0.039939865 -0.054395262 -0.03652759 -0.1242854 -0.14018425 -0.08626445
-0.055643275 0.026866894 -0.060021304 0.10759772 0.046799894 0.26476896 0.016812293 0.073417924
-0.011273998 0.05667992 -0.16499227 -0.0024815665 0.036352426 -0.003981153 -0.011681186 -0.047236696
0.19708969 0.022790259 -0.08862368 -0.09919703 -0.08016823 -0.34743866 0.05638149 -0.5212292
-0.11889565 0.019523911 0.09232621 -0.0032451337 -0.01700244 0.0071937265 0.013328022 -0.36095387
-0.067614146 -0.011099512 0.21581218 -0.040913254 0.021871878 -0.10520461 0.13102874 -0.047585666
-0.22283782 -0.011254668 -0.11563218 -0.0849625 -0.28093454 -0.10999653 -0.10374485 0.016263867
-0.095449924 -0.06275372 -0.5403655 -0.12361349 -0.21056373 0.01277594 0.0042094537 -0.23278296
0.053347815 0.024893802 0.054504156 -0.16110931 0.01892037 0.07212239 -0.3092587 -0.2933269
-0.001752574 -0.07242471 -0.13461632 0.06572656 -0.006622789 -0.21481001 -0.02847134 0.44536474
-0.22096741 -0.10295014 -0.096420355 0.032992404 -0.08640267 -0.0924882 0.020287618 0.027888041
0.07274912 -0.053909805 0.019088047 0.046101492 -0.12721673 0.0102865 -0.077497624 -0.24359891
0.121482156 -0.12688018 -0.10532871 -0.15527803 -0.09324917 0.07564059 0.09313054 0.046755016
-0.08839498 -0.115586445 -0.0057824724 0.027831387 0.00900458 -0.32129782 0.035638142 -0.1162116
-0.22529848 -0.014622637 0.06438716 -0.21150282 0.22367424 0.1268271 0.0974904 -0.32976165
-0.41494387 0.2489394 0.008714867 -0.12966417 -0.11754115 0.10970644 -0.31478074 -0.13060948
-0.060108945 0.04344879 -0.05003607 -0.074873224 -0.058162414 -0.2096784 -0.13482398 -0.20246507
-0.0014424929 -0.14085932 0.07427535 0.0028663801 -0.12958361 -0.13468786 -0.10099917 -0.25777385
-0.025776096 0.07190022 0.028877007 0.0040253983 -0.06364665 -0.39553523 -0.2451981 -0.34363812
0.075213544 -0.045973085 -0.006558066 -0.047656074 -0.07922177 0.09772582 0.3146688 -0.04575891
0.05815308 -0.22714 0.08188519 0.035666704 0.050658382 0.049461994 -0.35288432 -0.15533265
-0.095391616 -0.035422057 -0.13008007 0.029708128 -0.23665278 -0.29226613 -0.070489824 -0.27120358
-0.53870267 -0.034937743 0.0029987493 -0.09645608 0.2624993 -0.09681941 -0.16124587 0.06535296
-0.16655235 -0.45192328 -0.08668881 -0.20732789 -0.11879179 -0.120042205 -0.22846127 -0.04075449
-0.052389987 0.058278006 -0.26715556 0.042515125 -0.033376854 0.0667833 -0.17744069 0.009583762
0.023707107 0.022179153 0.046861853 -0.007724455 -0.16999955 -0.042698514 -0.39639106 0.012098013
0.028402746 -0.036581773 -0.08182777 0.09425425 -0.1674261 -0.29462764 -0.031649552 -0.07079258
00000000: 0399 0ebe 1553 a63b 2701 10be 4044 adbd
00000010: b28c 1d3e a4a9 9e3d 488b 073d d8ed 86bd
00000020: 643d 7b3e 4104 3dbd 3181 863e 8e33 e8bd
00000030: c114 72bc 431e 3ebe b399 f5bc 8800 0cbe
00000040: ba22 103d 7ed6 d2bb 4367 fb3c e00f c8be
00000050: 61a9 f4bd 079c 8abd fa2a b1be 28a6 32bb
00000060: 4678 573d 0ca9 60bd 1b7b a7bb 8d4b ce3c
00000070: 6b89 38bd 357f 19be ff01 cb3c 7604 fa3d
00000080: 3f1c 09be 2a4e 88bd 6469 973d 796b 113c
00000090: ae6d 32bd c367 fcbb 8a0b a83c 47b1 59bd
000000a0: 7a46 77be ac87 e53d fc97 233d 91cd 5ebd
000000b0: f49d 15bd 5889 febd 768c 0fbe 6aab b0bd
000000c0: 34ea 63bd f617 dc3c e6d8 75bd 325c dc3d
000000d0: 3fb1 3f3d cc8f 873e efb9 893c 235c 963d
000000e0: 93b6 38bc 3429 683d bcf3 28be c7a1 22bb
000000f0: 48e6 143d 5574 82bb 7262 3fbc 447b 41bd
00000100: e1d1 493e a3b2 ba3c 5580 b5bd d027 cbbd
00000110: 3e2f a4bd 7be3 b1be 47f0 663d 476f 05bf
00000120: 907f f3bd 9cf0 9f3c 8615 bd3d 4fac 54bb
00000130: b348 8bbc 5ab9 eb3b c75d 5a3c f2ce b8be
00000140: 4979 8abd bada 35bc defd 5c3e a894 27bd
00000150: a72c b33c 8475 d7bd 662c 063e 30e9 42bd
00000160: 992f 64be 8065 38bc 90d0 ecbd d200 aebd
00000170: a7d6 8fbe dc45 e1bd 2e78 d4bd cd3b 853c
00000180: 407b c3bd 0685 80bd 6555 0abf 1229 fdbd
00000190: 059e 57be 2d52 513c 75ef 893b a85e 6ebe
000001a0: 3d83 5a3d 16ee cb3c c03f 5f3d d7f9 24be
000001b0: e4fe 9a3c e7b4 933d 2857 9ebe f22e 96be
000001c0: a0b6 e5ba 6853 94bd dcd8 09be a69b 863d
000001d0: fb03 d9bb 28f7 5bbe ba3c e9bc d906 e43e
000001e0: 4845 62be 86d7 d2bd 0978 c5bd 0b23 073d
000001f0: e2f3 b0bd 746a bdbd 3832 a63c 7675 e43c
00000200: 7efd 943d 87d0 5cbd 895e 9c3c ebd4 3c3d
00000210: 1a45 02be b588 283c 13b7 9ebd fe71 79be
00000220: a3cb f83d e1ec 01be 94b6 d7bd 3401 1fbe
00000230: 6cf9 bebd 74e9 9a3d 39bb be3d 3082 3f3d
00000240: 6d08 b5bd 96b8 ecbd e57a bdbb a6fe e33c
00000250: f287 133c 2681 a4be 4df9 113d 5900 eebd
00000260: a5b4 66be c993 6fbc 6add 833d 3294 58be
00000270: dc0a 653e f7de 013e 0ca9 c73d 85d6 a8be
00000280: 8673 d4be f8e9 7e3e cdc8 0e3c afc6 04be
00000290: 6ab9 f0bd c5ad e03d f12a a1be 7ebe 05be
000002a0: cc34 76bd 5cf7 313d 9ff2 4cbd 2257 99bd
000002b0: b63b 6ebd efb5 56be 4c0f 0abe 0153 4fbe
000002c0: 0812 bdba 6d3d 10be ad1d 983d e1d9 3b3b
000002d0: 91b1 04be 9deb 09be a7d8 cebd effa 83be
000002e0: 6428 d3bc 6c40 933d 798f ec3c 7de7 833b
000002f0: 2d59 82bd 9883 cabe 3615 7bbe 56f1 afbe
00000300: 8f09 9a3d 464e 3cbd 0be5 d6bb 0433 43bd
00000310: 063f a2bd 7a24 c83d 451c a13e b26d 3bbd
00000320: ed31 6e3d 6397 68be 6cb3 a73d 4017 123d
00000330: 2a7f 4f3d a998 4a3d 41ad b4be 860f 1fbe
00000340: ae5c c3bd b816 11bd b633 05be 765e f33c
00000350: 1b55 72be e8a3 95be f85c 90bd 32db 8abe
00000360: 6be8 09bf e11a 0fbd aa86 443b c48a c5bd
00000370: 4f66 863e 4149 c6bd a31d 25be c6d7 853d
00000380: b38c 2abe 7d62 e7be e789 b1bd c34d 54be
00000390: 1c49 f3bd b0d8 f5bd c0f1 69be 2eee 26bd
000003a0: e296 56bd ebb4 6e3d 9dc8 88be 5724 2e3d
000003b0: 2bb6 08bd afc5 883d 03b3 35be 3605 1d3c
000003c0: 6835 c23c 0eb1 b53c 37f2 3f3d 6d1d fdbb
000003d0: 5d14 2ebe a3e4 2ebd c5f3 cabe bf36 463c
000003e0: e0ac e83c c5d6 15bd 5195 a7bd 5f08 c13d
000003f0: bf71 2bbe 6fd9 96be f6a2 01bd b3fb 90bd

shared_fc2.bias f4 [256]
-0.047535997 -0.11513179 -0.046954088 -0.14433423 -0.044320967 -0.04381418 -0.051132202 -0.17364247
-0.055957817 -0.034165673 -0.07404279 0.04235664 -0.021979269 -0.012768512 -0.056800246 0.04033364
-0.062605254 0.0817353 -0.052973483 -0.068613574 -0.08261845 0.02718958 -0.04338868 -0.049924243
-0.06828944 0.08243984 -0.025905367 -0.04115013 -0.0449176 -0.022690196 -0.063966796 -0.12703936
-0.055892657 -0.04447461 -0.088717125 0.051173452 0.039602112 -0.048090324 -0.040610183 -0.049446825
0.04595536 -0.03852994 0.05408587 -0.03740039 -0.107501656 -0.18245073 0.03572 -0.09616476
0.008682819 -0.08010327 -0.06310078 0.10446154 -0.070531495 -0.03400604 -0.13459477 -0.03376825
-0.12995763 -0.08688899 -0.058699656 -0.10344116 -0.067441724 -0.05558029 -0.05412543 -0.020506466
-0.0706401 -0.029374244 0.091421284 0.060346756 -0.050054424 -0.05842868 -0.054499857 -0.061451115
-0.05355749 -0.054069452 -0.028613428 -0.005767336 0.09582151 0.06015484 0.03147077 -0.057558123
-0.054716136 -0.054708797 -0.05991099 -0.05030065 -0.0396947 0.083507136 -0.06868575 -0.05682376
0.091986164 0.02473087 -0.04794498 -0.046440918 -0.090883225 -0.0135081485 0.059108917 0.054262895
-0.060627174 -0.050462894 -0.014073153 -0.08003089 -0.00050197885 -0.061459914 -0.04933469 -0.085050635
0.040517747 -0.035186082 -0.042089317 -0.0055964193 0.055185035 -0.07040606 -0.07785848 -0.054484677
-0.0886065 -0.035807945 0.025905509 -0.046673495 0.03138031 -0.058604557 -0.058865506 -0.06495324
-0.057421982 0.056860454 -0.03592346 -0.037937324 -0.04864899 -0.07033357 -0.085846595 -0.06004891
-0.119540736 -0.049734212 -0.080924846 0.082454994 0.025713118 -0.08861785 -0.046502843 -0.10031271
-0.11557161 -0.12275847 0.06143021 -0.042687215 -0.068491735 -0.041149203 -0.040390544 0.06283011
-0.07350791 0.08950448 0.040845178 -0.07312876 -0.06297324 -0.019602455 0.11452669 0.05279229
-0.06298963 0.11991009 -0.043000195 0.054263785 -0.005057622 -0.03448916 0.032027263 0.061073065
0.058085855 0.13281053 0.0021775619 -0.112289384 -0.035369217 -0.060361315 -0.18916735 -0.06358952
-0.04217216 0.021131875 -0.081544764 -0.053684134 -0.050595816 -0.04561059 -0.07090283 -0.029953543
-0.050023068 -0.087829344 0.12797472 -0.042449985 0.09012502 -0.018366203 -0.050077047 -0.04458063
-0.19274037 0.10194373 -0.035477936 -0.039971847 0.08827079 -0.05029517 -0.05852371 -0.026837882
-0.053241093 0.065738454 0.012726305 -0.045202367 -0.07418401 -0.07985423 -0.056252677 -0.044121113
-0.04452726 0.07658372 -0.043181583 -0.08911828 -0.051441286 -0.0732398 -0.09086453 -0.036313634
-0.012982603 -0.05332677 0.06376582 0.05738796 -0.050369825 0.07409036 -0.04200255 -0.1882803
-0.03625006 -0.049896367 -0.12592384 -0.022725254 -0.05018326 -0.0645711 -0.037073974 -0.06508098
-0.102050215 0.074407615 0.093135074 -0.04802132 -0.064043015 0.020309646 -0.05787069 0.114469856
0.083293006 -0.09889476 -0.098655 -0.045073725 -0.0066482066 -0.0015455046 -0.13368754 0.12734765
-0.04531328 -0.04165161 -0.06508903 -0.030073298 -0.052588798 -0.046107758 0.0019087 -0.08148106
-0.059075598 -0.043595824 -0.04677506 -0.047570787 0.14949875 -0.14053679 -0.031751204 -0.05027343
00000000: 1bb5 42bd 37ca ebbd ee52 40bd 5acc 13be
00000010: e789 35bd 7f76 33bd 0070 51bd 55cf 31be
00000020: 0634 65bd 4ef1 0bbd bfa3 97bd 287e 2d3d
00000030: de0d b4bc 0533 51bc 60a7 68bd e334 253d
00000040: 2f37 80bd d664 a73d b9fa 58bd 4685 8cbd
00000050: dd33 a9bd afbc de3c 54b8 31bd 5d7d 4cbd
00000060: 55db 8bbd 38d6 a83d 7e37 d4bc 0a8d 28bd
00000070: 84fb 37bd cae0 b9bc 0601 83bd 9b16 02be
00000080: b3ef 64bd 022b 36bd 53b1 b5bd 419b 513d
00000090: d335 223d 5cfa 44bd dd56 26bd c188 4abd
000000a0: b03b 3c3d 92d1 1dbd 2589 5d3d 2731 19bd
000000b0: d429 dcbd 5dd4 3abe 224f 123d 08f2 c4bd
000000c0: 6242 0e3c 2f0d a4bd fb3a 81bd efef d53d
000000d0: d172 90bd eb49 0bbd 36d3 09be 9450 0abd
000000e0: 9d13 05be dbf2 b1bd 0d6f 70bd f5d8 d3bd
000000f0: e31e 8abd 28a8 63bd a0b2 5dbd 2dfd a7bc
00000100: c2ab 90bd 41a2 f0bc 153b bb3d 292e 773d
00000110: de05 4dbd e952 6fbd 3e3b 5fbd 2ab4 7bbd
00000120: 195f 5bbd ee77 5dbd b566 eabc ecfb bcbb
00000130: 113e c43d ec64 763d 7ee7 003d 11c2 6bbd
00000140: 071e 60bd 5516 60bd 3a65 75bd 0e08 4ebd
00000150: e996 22bd ca05 ab3d 1dab 8cbd 08c0 68bd
00000160: 3e63 bc3d 6598 ca3c f561 44bd d538 3ebd
00000170: fc20 babd 4851 5dbc 311c 723d c542 5e3d
00000180: 3354 78bd 2eb2 4ebd 1593 66bc 3ce7 a3bd
00000190: 3b97 03ba 64bd 7bbd 2c13 4abd 072f aebd
000001a0: f0f5 253d 481f 10bd d965 2cbd 2b62 b7bb
000001b0: b409 623d 0d31 90bd 4474 9fbd 532b 5fbd
000001c0: 5377 b5bd 5aab 12bd ca37 d43c b52c 3fbd
000001d0: a488 003d 550b 70bd f51c 71bd 3406 85bd
000001e0: 5033 6bbd 82e6 683d 7a24 13bd 2b64 1bbd
000001f0: 2a44 47bd 0c0b 90bd 57d0 afbd d9f5 75bd
00000200: c6d1 f4bd 1ab6 4bbd edbb a5bd 2ade a83d
00000210: 51a4 d23c 467d b5bd c479 3ebd c070 cdbd
00000220: cfb0 ecbd cb68 fbbd 3e9e 7b3d cad8 2ebd
00000230: 6545 8cbd 118c 28bd 8e70 25bd 13ad 803d
00000240: 518b 96bd 204e b73d 464d 273d 88c4 95bd
00000250: 1df8 80bd 5495 a0bc f88c ea3d ba3c 583d
00000260: b500 81bd 6c93 f53d f920 30bd b443 5e3d
00000270: 69ba a5bb 8144 0dbd 052f 033d c027 7a3d
00000280: 6feb 6d3d 7cff 073e 6db5 0e3b faf7 e5bd
00000290: 50df 10bd 6d3d 77bd 16b5 41be 393b 82bd
000002a0: b7bc 2cbd c11c ad3c f100 a7bd e5e3 5bbd
000002b0: 8f3d 4fbd 2cd2 3abd 8135 91bd 2261 f5bc
000002c0: fde4 4cbd dfdf b3bd ce0b 033e 09e0 2dbd
000002d0: 7793 b83d b874 96bc 971d 4dbd 2e9a 36bd
000002e0: bb5d 45be e0c7 d03d 5051 11bd 85b9 23bd
000002f0: 51c7 b43d 4f02 4ebd 8fb6 6fbd 1edb dbbc
00000300: 5513 5abd e2a1 863d fe81 503c 1e26 39bd
00000310: c9ed 97bd 9d8a a3bd 3569 66bd 57b8 34bd
00000320: 3762 36bd edd7 9c3d 2cdf 30bd a583 b6bd
00000330: 19b4 52bd c0fe 95bd 2f17 babd 9bbd 14bd
00000340: fcb4 54bc 2c6d 5abd a797 823d a30f 6b3d
00000350: 9750 4ebd b0bc 973d de0a 2cbd 8dcc 40be
00000360: f17a 14bd 2260 4cbd 2ef2 00be 502a babc
00000370: f68c 4dbd da3d 84bd e1da 17bd 2d49 85bd
00000380: b4ff d0bd 0563 983d 9abd be3d 01b2 44bd
00000390: fc28 83bd 6a60 a63c d109 6dbd 2c6f ea3d
000003a0: 8695 aa3d 5689 cabd a20b cabd 3a9f 38bd
000003b0: 33d9 d9bb 8792 caba 63e5 08be 6c67 023e
000003c0: 6b9a 39bd e19a 2abd 664d 85bd 475c f6bc
000003d0: 5a67 57bd 7ddb 3cbd 582d fa3a 8bdf a6bd
000003e0: 41f9 71bd 8991 32bd 3597 3fbd 96d9 42bd
000003f0: 3316 193e e0e8 0fbe 8d0d 02bd 83eb 4dbd

actor_fc.weight f4 [256, 256]
-0.18750496 0.45851624 -0.048055183 0.040536303 -0.019539248 0.008253397 -0.04324175 0.40847176
-0.006881347 0.066421494 -0.101484045 -0.40400845 -0.4038335 -0.07281998 -0.08431477 -0.24527122
0.054240238 -0.10682628 0.053672496 0.040579908 0.011219587 -0.8905998 -0.06714209 -0.005855588
-0.10730703 -0.2748312 0.24891876 0.0053457553 0.07627046 0.025806092 0.10602827 -0.10924002
-0.0049682 0.08443372 -0.17569914 0.2835071 -0.4389511 0.031962156 0.10706818 -0.01135159
-0.21620074 -0.003296514 -0.036934406 -0.10482751 0.05427746 -0.06728666 -0.09526303 -0.010279362
-0.08380012 -0.0007251933 -0.061122347 -0.08245068 -0.079992056 0.049247842 0.04845302 0.009047995
0.061835226 0.0034069023 -0.003161465 0.006543707 -0.039323173 0.08560693 -0.08653366 0.21563004
0.21405233 -0.18163213 0.10285972 -0.38562647 -0.06766316 0.13745968 0.042775966 0.040354054
-0.013942542 0.05345702 -0.10261142 0.011102179 -0.124037534 -0.0341242 0.023908064 -0.21026798
0.011580172 0.016906235 0.078132026 -0.10295473 -0.08556132 -0.99509704 -0.03521831 0.0907206
0.2283668 -0.19396126 -0.35770193 0.03925207 0.021406746 0.3077779 -0.5229963 -0.24628352
-0.01747381 0.03562096 -0.41745612 -0.10078788 0.13678181 -0.3322782 0.0440975 -0.17210549
0.115119405 0.100163884 0.0814539 -0.3048676 0.08732692 0.008407984 0.019556405 0.007658871
0.0007685087 -0.10356319 -0.26162833 -0.021188583 -0.18793054 0.04927628 0.113637835 0.054114856
-0.06396922 -0.56042975 0.084976554 -0.023421168 -0.057834867 -0.09788731 -0.007411669 0.03733318
0.11037809 -0.06643698 -0.0199003 -0.52862304 0.21463779 0.0722344 0.10792644 -0.046451494
0.05757793 0.020713797 0.33479288 -0.019664025 -0.14257948 -0.0038381934 -0.054571692 -0.46948496
-0.266752 -0.29474825 -0.029060515 0.023878552 0.036565043 -0.3639138 -0.638087 0.19614348
-0.06812003 -0.65240985 -0.08025665 0.03616639 -0.07904543 -0.029003102 -0.15179722 -0.15432328
-0.20613717 -0.19503598 -0.2923934 0.108173 0.029158222 0.062878765 -0.10891042 0.060172506
0.04779949 -0.06968272 0.0217508 -0.056307703 -0.046012603 -0.05569625 -0.5268631 0.035080235
0.024946276 0.019690353 -0.21235496 -0.018584851 -0.47172225 0.042740066 -0.026774304 -0.0646114
-0.18933803 0.051839933 0.10439202 0.021823782 -0.11359724 0.04753183 -0.10617939 0.30582356
0.06573116 0.23566096 0.37983176 -0.05199806 -0.030827915 0.06142369 0.10373225 -0.043738764
-0.004094804 0.060201097 0.09797761 0.07482894 -0.070237815 0.0036563212 0.025467899 -0.08838817
-0.015884815 0.09034508 0.08261133 -0.04919889 0.0605566 -0.33399835 -0.01839182 -0.06919633
-0.058304694 0.05921713 0.06778395 0.043051705 -0.05639548 0.17671642 0.001989031 0.024683984
0.063763365 -0.16921845 -0.449596 0.016911358 0.07829671 0.10569795 -0.06574951 -1.1788634
0.4639134 -0.0017266746 0.077946 -0.20838791 -0.18675564 0.058306664 -0.12573658 0.023413911
0.008585799 -0.4313001 0.0007318974 -0.5017791 -0.059588563 -0.396467 0.26770815 0.09680732
-0.05070966 -0.054341123 0.0043657385 -0.07688105 -0.26585162 0.0041012964 -0.07060198 -0.103144966
00000000: 4d01 40be a4c2 ea3e 83d5 44bd 6509 263d
00000010: c610 a0bc 4239 073c 431e 31bd 3623 d13e
00000020: ec7c e1bb fe07 883d ded6 cfbd 32da cebe
00000030: 44c3 cebe a422 95bd 39ad acbd 6128 7bbe
00000040: 032b 5e3d bdc7 dabd b1d7 5b3d 1e37 263d
00000050: 5cd2 373c 59fe 63bf cb81 89bd 3be0 bfbb
00000060: cac3 dbbd adb6 8cbe 8fe4 7e3e 722b af3b
00000070: b033 9c3d 4c67 d33c 5a25 d93d 3bb9 dfbd
00000080: 48cc a2bb 96eb ac3d 7aea 33be d827 913e
00000090: 33be e0be c0ea 023d 9046 db3d 05fc 39bc
000000a0: ba63 5dbe 540a 58bb 8848 17bd ceaf d6bd
000000b0: 0b52 5e3d 97cd 89bd 4319 c3bd c56a 28bc
000000c0: 669f abbd e61a 3eba 6d5b 7abd e7db a8bd
000000d0: e0d2 a3bd 1bb8 493d ad76 463d 0b3e 143c
000000e0: ef46 7d3d 5646 5f3b 9530 4fbb 986c d63b
000000f0: 5611 21bd b052 af3d 8f38 b1bd 1fce 5c3e
00000100: 8930 5b3e c6fd 39be 1ea8 d23d d570 c5be
00000110: fc92 8abd 3bc2 0c3e da35 2f3d 4b4a 253d
00000120: 426f 64bc c0f5 5a3d f025 d2bd eae5 353c
00000130: 6407 febd d1c5 0bbd d8da c33c 7d50 57be
00000140: c3ba 3d3c f27e 8a3c af03 a03d eed9 d2bd
00000150: c63a afbd aebe 7ebf 1341 10bd b9cb b93d
00000160: fdd8 693e c89d 46be b524 b7be c7c6 203d
00000170: 335d af3c 1195 9d3e 16e3 05bf bf31 7cbe
00000180: 3c25 8fbc 49e7 113d cfbc d5be e069 cebd
00000190: 8810 0c3e 5e20 aabe 959f 343d 6c3c 30be
000001a0: b9c3 eb3d b922 cd3d 4dd1 a63d 9b17 9cbe
000001b0: 75d8 b23d a4c1 093c c134 a03c 44f7 fa3b
000001c0: bf75 493a f018 d4bd 26f4 85be ae93 adbc
000001d0: dd70 40be edd5 493d f4ba e83d 8aa7 5d3d
000001e0: 4b02 83bd 5378 0fbf 3008 ae3d c0dd bfbc
000001f0: 41e4 6cbd 2479 c8bd 96dd f2bb adea 183d
00000200: e80d e23d 1d10 88bd f405 a3bc d753 07bf
00000210: 02ca 5b3e a1ef 933d 8a08 dd3d ec43 3ebd
00000220: d6d6 6b3d fbaf a93c f969 ab3e 7316 a1bc
00000230: 5b00 12be 338a 7bbb 9186 5fbd 5560 f0be
00000240: b893 88be 3ee9 96be 5110 eebc f49c c33c
00000250: 3ac5 153d e952 babe ab59 23bf d6d9 483e
00000260: 8482 8bbd 5504 27bf 995d a4bd 3523 143d
00000270: 92e2 a1bd ea97 edbc bb70 1bbe ec06 1ebe
00000280: 9f15 53be 83b7 47be 96b4 95be ce89 dd3d
00000290: 39dd ee3c 95c6 803d 6d0c dfbd 7277 763d
000002a0: 66c9 433d d0b5 8ebd bc2e b23c e8a2 66bd
000002b0: b677 3cbd c021 64bd 80e0 06bf 4bb0 0f3d
000002c0: 225c cc3c aa4d a13c 9473 59be 423f 98bc
000002d0: 9485 f1be 3510 2f3d c955 dbbc fb52 84bd
000002e0: d4e1 41be 1c56 543d 7ccb d53d cac7 b23c
000002f0: aba5 e8bd bcb0 423d 9474 d9bd e894 9c3e
00000300: 0f9e 863d 1b51 713e 4f79 c23e ebfb 54bd
00000310: d38a fcbc 6897 7b3d 9371 d43d 6b27 33bd
00000320: b52d 86bb 6d95 763d 7ca8 c83d ea3f 993d
00000330: d8d8 8fbd e49e 6f3b 0ea2 d03c db04 b5bd
00000340: df20 82bc d706 b93d 2130 a93d c684 49bd
00000350: 330a 783d d501 abbe 71aa 96bc ceb6 8dbd
00000360: e7d0 6ebd a98d 723d 50d2 8a3d fc56 303d
00000370: f2fe 66bd 26f5 343e 675a 023b 1136 ca3c
00000380: 5e96 823d 9a47 2dbe 7231 e6be b089 8a3c
00000390: 075a a03d 2b78 d83d aea7 86bd ffe4 96bf
000003a0: 0f86 ed3e 9651 e2ba 27a2 9f3d a463 55be
000003b0: df3c 3fbe f8d2 6e3d 17c1 00be 88ce bf3c
000003c0: 73ab 0c3c 5ed3 dcbe cedc 3f3a 9874 00bf
000003d0: 2313 74bd b9fd cabe 0b11 893e eb42 c63d
000003e0: efb4 4fbd cc94 5ebd 780e 8f3b d073 9dbd
000003f0: b41d 88be 2b64 863b c597 90bd ab3d d3bd

actor_fc.bias f4 [256]
-0.19478317 -0.13518578 -0.006636907 -0.04325053 -0.035502985 0.055444494 -0.13781245 -0.07446163
0.0027753643 -0.12257181 0.08734266 -0.09307813 -0.2561186 -0.14839095 -0.17972144 -0.118604355
-0.11606123 -0.07791364 -0.0998882 -0.15179276 -0.10541688 -0.10532173 -0.29592216 0.064956725
-0.055689674 -0.2891576 -0.15905857 0.18105146 0.09366792 0.0025116808 0.007405359 0.1355883
-0.05643667 0.00817801 -0.07537793 -0.08779899 -0.1183423 -0.12527357 -0.17857064 0.08505178
0.019015798 -0.041924115 0.023628576 -0.33744687 -0.084684856 0.004388407 0.14246082 0.056083683
0.041472465 -0.024695849 -0.0015179707 -0.15432252 -0.07034482 -0.076266065 -0.13650884 0.018351514
-0.45649815 -0.16048746 -0.107638665 -0.080015644 -0.19752403 -0.021913463 -0.10088828 -0.06715405
-0.30130762 -0.11590475 0.005500266 -0.118380845 -0.0689756 -0.091277845 -0.17241609 -0.42128384
-0.10485231 -0.012733386 0.078300394 -0.08443863 0.06419522 -0.14577675 -0.20004128 -0.1918461
0.05087525 -0.07751612 0.25856778 -0.085829765 -0.1675829 0.0035848767 0.01761266 -0.11630595
-0.091892436 0.1383601 0.0751928 0.057499386 -0.025294334 0.0046966486 0.023644868 0.21286407
-0.012386935 0.2048768 -0.01653398 -0.18078473 0.0025771586 0.030242313 -0.11893198 -0.12717673
-0.13969667 0.05244117 -0.15097275 -0.1140743 -0.18159102 0.18300438 -0.086987376 -0.091106676
-0.06052082 -0.0075553195 -0.12936494 -0.16978969 -0.05448593 0.042459823 0.013153251 -0.15946658
0.1474564 -0.11869413 -0.13643992 0.05368576 0.18060033 -0.08851013 -0.09904743 -0.022991553
0.044603176 0.047364518 -0.09637826 0.011038613 0.008868462 -0.055819917 -0.16707905 -0.08142474
0.14788978 0.0771136 -0.16491145 -0.02390353 0.03282832 -0.13558356 -0.11287369 0.006026418
-0.024841886 0.07850221 0.09775426 -0.25098905 0.027555207 -0.09910952 0.20895444 -0.084259994
0.029796898 -0.21739104 0.039503492 -0.06043174 -0.013296263 -0.086558096 -0.14684877 -0.08169685
0.1763087 -0.21913967 -0.1608178 -0.13082679 -0.23533402 -0.106464 0.08199624 -0.16601305
-0.103867926 0.09838642 -0.15422301 -0.09908237 -0.09422182 -0.088313736 0.10620836 -0.19624251
0.0738185 -0.19936588 -0.1677012 -0.118806 0.05326977 -0.08285155 0.03448904 -0.07442843
0.07872793 -0.16009971 0.08405965 -0.058533117 0.118299924 -0.008235493 -0.171313 -0.11197479
-0.14048159 0.1357902 -0.009058321 -0.13946155 -0.061276477 -0.19081846 0.07613804 -0.20068319
0.091178134 -0.020502388 -0.20925595 0.10508071 0.10461925 -0.16298774 -0.0685074 0.03605493
-0.35472864 -0.22763073 -0.009123681 0.13553785 -0.12541236 0.055443842 -0.091115594 -0.042577736
-0.1388709 0.08881279 0.10541207 -0.02081523 -0.4416655 -0.044921633 -0.08969521 -0.12964424
0.074682705 -0.14599225 -0.22501217 0.01550338 -0.10924407 -0.17325662 -0.14346135 0.20166564
0.21897162 -0.04269835 0.218277 -0.30924374 -0.11804428 -0.21056618 -0.24163556 -0.14826241
-0.11377142 -0.31669092 -0.023216344 -0.104317345 -0.009505498 -0.090654396 -0.17729482 0.062413413
-0.16339117 0.0769394 -0.04141552 -0.20363283 -0.12181806 -0.014539023 -0.20581485 -0.1475091
00000000: 3d75 47be 246e 0abe 697a d9bb 7827 31bd
00000010: 946b 11bd c419 633d b51e 0dbe 577f 98bd
00000020: e3e2 353b ee06 fbbd b5e0 b23d bf9f bebd
00000030: fa21 83be ccf3 17be e608 38be d7e6 f2bd
00000040: 83b1 edbd 3091 9fbd 2f92 ccbd 906f 1bbe
00000050: cee4 d7bd ebb2 d7bd 1c83 97be 0808 853d
00000060: db1a 64bd 770c 94be 40e0 22be 8e65 393e
00000070: f7d4 bf3d 039b 243b a7a8 f23b a9d7 0a3e
00000080: 232a 67bd 0ffd 053c bf5f 9abd f5cf b3bd
00000090: 735d f2bd b747 00be 39db 36be a12f ae3d
000000a0: 05c7 9b3c 9fb8 2bbd b790 c13c d6c5 acbe
000000b0: 416f adbd a0cc 8f3b 40e1 113e 01b8 653d
000000c0: 08df 293d f34e cabc a5f6 c6ba b906 1ebe
000000d0: f210 90bd 6231 9cbd f9c8 0bbe ea55 963c
000000e0: 20ba e9be d356 24be a971 dcbd 3edf a3bd
000000f0: bd43 4abe dd83 b3bc 849e cebd 1088 89bd
00000100: fe44 9abe 785f edbd 933b b43b a871 f2bd
00000110: 1443 8dbd e1ef babd d88d 30be 84b2 d7be
00000120: cfbc d6bd b19f 50bc f55b a03d 29ee acbd
00000130: c978 833d 8046 15be 9fd7 4cbe 4e73 44be
00000140: 9162 503d c6c0 9ebd ff62 843e 84c7 afbd
00000150: da9a 2bbe 40f0 6a3b 6d48 903c d031 eebd
00000160: 1a32 bcbd 45ae 0d3e affe 993d 7a84 6b3d
00000170: 1036 cfbc 58e6 993b e2b2 c13c 0af9 593e
00000180: 92f2 4abc 39cb 513e 4572 87bc a21f 39be
00000190: 8ce5 283b babe f73c 9c92 f3bd 9e3a 02be
000001a0: a50c 0fbe 8dcc 563d 9a98 1abe c99f e9bd
000001b0: fff2 39be 8065 3b3e 7026 b2bd 2396 babd
000001c0: aee4 77bd 9d92 f7bb 3e78 04be 59dd 2dbe
000001d0: a32c 5fbd 5aea 2d3d bc80 573c 354b 23be
000001e0: cffe 163e e815 f3bd e8b6 0bbe 99e5 5b3d
000001f0: 4bef 383e cd44 b5bd 61d9 cabd c858 bcbc
00000200: d2b1 363d 4c01 423d f761 c5bd 4cdb 343c
00000210: 074d 113c 6da3 64bd c516 2bbe 04c2 a6bd
00000220: 6b70 173e bced 9d3d 8cde 28be 56d1 c3bc
00000230: fd76 063d 6bd6 0abe 522a e7bd 4279 c53b
00000240: 3681 cbbc c4c5 a03d 6333 c83d a381 80be
00000250: 75bb e13c eff9 cabd 27f8 553e 8190 acbd
00000260: a018 f43c c29b 5ebe 6ace 213d 4687 77bd
00000270: 92d8 59bc 5f45 b1bd 865f 16be ae50 a7bd
00000280: 458a 343e 2666 60be 6cad 24be 75f7 05be
00000290: 67fb 70be cc09 dabd a5ed a73d 53ff 29be
000002a0: b5b8 d4bd d27e c93d a3ec 1dbe b3eb cabd
000002b0: 5ff7 c0bd d5dd b4bd c583 d93d ccf3 48be
000002c0: 272e 973d 9226 4cbe ddb9 2bbe 8f50 f3bd
000002d0: 6731 5a3d 13ae a9bd 6144 0d3d ef6d 98bd
000002e0: 1c3c a13d 2ef1 23be 7727 ac3d 6cc0 6fbd
000002f0: 3b47 f23d 29ee 06bc ad6c 2fbe 0a53 e5bd
00000300: 68da 0fbe 960c 0b3e 5a69 14bc 02cf 0ebe
00000310: 0bfd 7abd ea65 43be 43ee 9b3d e57f 4dbe
00000320: 9abb ba3d a0f4 a7bc 3147 56be 8e34 d73d
00000330: 9e42 d63d 42e6 26be 9c4d 8cbd 56ae 133d
00000340: fe9e b5be 0818 69be 7e7b 15bc 6fca 0a3e
00000350: 196c 00be 1519 633d d09a babd fe65 2ebd
00000360: 2c34 0ebe 7be3 b53d 49e2 d73d b484 aabc
00000370: fb21 e2be bfff 37bd 1fb2 b7bd 76c1 04be
00000380: 3ff3 983d fe7e 15be 9769 66be e401 7e3c
00000390: 5bbb dfbd 2f6a 31be 88e7 12be 7081 4e3e
000003a0: 193a 603e 77e4 2ebd 0284 5f3e 3255 9ebe
000003b0: 33c1 f1bd a99e 57be 506f 77be 1ad2 17be
000003c0: fe00 e9bd 5025 a2be 3430 bebc 55a4 d5bd
000003d0: f3bc 1bbc 03a9 b9bd c68c 35be 35a5 7f3d
000003e0: 0450 27be 6792 9d3d 52a3 29bd 2085 50be
000003f0: bf7b f9bd 1535 6ebc 21c1 52be a00c 17be

actor_out.weight f4 [12, 256]
0.11462604 0.08411153 -0.0069143414 -0.43457967 0.15473291 -0.36797315 0.04199529 0.13995306
-0.2766343 0.03435316 0.2619306 -0.1772784 0.13642527 0.065528505 -0.4457035 0.2155102
-0.100590356 -0.24556874 0.31270906 -0.4180572 0.13450411 0.0018046015 0.2047694 -0.2932484
0.05431597 -0.03895646 -0.013088209 0.55936766 -0.3720425 -0.20587416 -0.3268091 0.20551576
-0.12945779 -0.06719807 0.40652043 -0.034779344 0.06220285 -0.32602113 0.526973 0.40925765
0.46437028 -0.10270586 -0.40286604 0.25151056 0.19075684 0.83055806 -0.36368296 0.09893075
-0.10882827 -0.31203157 -0.23669197 -0.4026745 0.46240056 0.03706647 0.33321476 0.052869283
0.26941416 0.3951601 -0.14486213 0.39430124 -0.47865358 0.31579572 0.26223496 -0.3708282
0.17940527 0.38677034 0.32439682 -0.13270402 -0.19978681 0.30108395 0.59123677 -0.17856313
0.040755503 0.15802221 0.12061097 0.33474693 -0.59081066 -0.0128814 0.41680986 0.13460435
-0.3842052 0.4318976 0.98625726 0.42729616 -0.13669817 0.14639282 -0.34156597 0.021829734
0.04446391 0.75603986 0.21758465 -0.7894335 0.07477508 0.13793382 -0.10044431 0.12942997
-0.066093065 0.38690132 0.11955567 0.20425946 0.57589567 -0.48729467 0.06237645 0.094476126
0.11929547 0.29976287 0.052444935 -0.23893517 -0.018297978 0.31205028 -0.19014528 -0.11883742
0.08255966 -0.29230246 0.26976293 -0.053281587 0.059022635 -0.007226454 0.13965896 0.21712069
0.21300472 -0.05727207 0.08335422 0.10293876 -0.30055532 0.23995872 0.009708772 -0.339171
0.232044 0.50852287 -0.045849532 0.13436887 0.15097426 0.14644104 -0.03816496 0.1756911
0.24779825 0.7606373 -0.3809691 -0.18309303 0.045613594 0.39897332 -0.29576847 0.2428045
0.08787372 0.3390506 0.20405272 -0.04918089 0.24656384 -0.047267545 0.11100829 -0.3791526
-0.060780227 -0.27540004 0.10275511 0.24781898 0.26179448 -0.13095121 0.108612195 -0.0011182034
0.20094799 0.19580846 -0.16209951 0.00048680668 -0.044986032 0.103872634 -0.23551133 -0.6228389
-0.101709366 0.19459888 0.24476615 0.013787318 0.20925978 0.8918597 0.13762037 0.36679372
-0.2887852 0.09241456 -0.028880617 0.23003328 -0.13345897 -0.24031118 0.21992244 0.15358686
-0.1573842 -0.32273918 0.36434063 0.03777633 -0.2938332 -0.39129397 -0.16565596 -0.16641496
0.0015240589 0.18087631 -0.010099835 -0.072527826 0.17876129 0.4612024 0.34783953 0.16835234
0.16985181 0.30912855 -0.25474885 0.13248806 -0.5945333 -0.06279653 -0.07883361 0.33968332
-0.23762898 0.7742586 -0.10242897 0.5748563 -0.039301116 -0.08078914 -0.08757859 0.22291426
-0.0076505328 0.2738074 -0.21529421 0.56205827 -0.44498903 -0.57342 0.07981312 0.37708408
-0.38394445 0.5456545 -0.033970337 0.33792263 -0.055357374 1.4942482e-06 -0.0695762 0.33613896
0.08263187 0.059183337 -0.38580474 0.30460897 -0.013901858 -0.02578824 0.16361485 -0.48276663
1.0198728 -0.17660616 -0.13365857 0.12769283 -0.3861811 0.031233992 0.10660745 -0.48200533
0.31483918 0.18628645 0.083320856 -0.30237085 0.36819026 -0.4777634 -0.06332297 -0.09574523
00000000: 0fc1 ea3d aa42 ac3d b391 e2bb 3a81 debe
00000010: 4e72 1e3e fa66 bcbe 4103 2c3d db4f 0f3e
00000020: 03a3 8dbe e6b5 0c3d c51b 863e 7888 35be
00000030: 11b3 0b3e cf33 863d 4033 e4be b5ae 5c3e
00000040: 5102 cebd 5f76 7bbe 671b a03e 980b d6be
00000050: 72bb 093e 6188 ec3a 12af 513e a724 96be
00000060: 6c7a 5e3d cf90 1fbd ed6f 56bc b832 0f3f
00000070: 5b7c bebe add0 52be 8653 a7be b972 523e
00000080: 9590 04be 249f 89bd 7223 d03e c974 0ebd
00000090: 6ac8 7e3d 3eec a6be b4e7 063f 388a d13e
000000a0: f1c1 ed3e 7357 d2bd 7544 cebe fec5 803e
000000b0: c355 433e 749f 543f a734 babe 349c ca3d
000000c0: 5be1 debd 9ac2 9fbe 615f 72be 5a2b cebe
000000d0: c4bf ec3e 03d3 173d 209b aa3e 768d 583d
000000e0: a7f0 893e 6d52 ca3e bd56 14be dae1 c93e
000000f0: 1512 f5be faaf a13e a943 863e 32dd bdbe
00000100: 04b6 373e c306 c63e 5717 a63e 90e3 07be
00000110: ea94 4cbe ad27 9a3e 4b5b 173f 41d9 36be
00000120: 3eef 263d 93d0 213e e202 f73d f363 ab3e
00000130: 5e3f 17bf 820c 53bc 1a68 d53e b9d5 093e
00000140: 8bb6 c4be af21 dd3e 5b7b 7c3f 90c6 da3e
00000150: 9bfa 0bbe 00e8 153e bce1 aebe 45d4 b23c
00000160: ca1f 363d d48b 413f 83ce 5e3e 5018 4abf
00000170: ad23 993d 863e 0d3e bfb5 cdbd 4a89 043e
00000180: cd5b 87bd ee17 c63e 9ad9 f43d 6429 513e
00000190: e66d 133f b07e f9be 737e 7f3d b37c c13d
000001a0: 2f51 f43d 857a 993e 80d0 563d 6cab 74be
000001b0: a4e5 95bc 0ec5 9f3e 72b5 42be 0961 f3bd
000001c0: 0a15 a93d aba8 95be 5e1e 8a3e cb3d 5abd
000001d0: b8c1 713d e4cb ecbb c202 0f3e e354 5e3e
000001e0: e91d 5a3e 1e96 6abd 9eb5 aa3d 8ed1 d23d
000001f0: 63e2 99be bdb7 753e 8b11 1f3c d2a7 adbe
00000200: f19c 6d3e 8e2e 023f b8cc 3bbd fe97 093e
00000210: ff98 1a3e a4f4 153e dc52 1cbd 5ee8 333e
00000220: d3be 7d3e 20b9 423f 620e c3be bd7c 3bbe
00000230: 52d5 3a3d 3b46 cc3e f76e 97be bea1 783e
00000240: 23f7 b33d 0a98 ad3e 32f3 503e e771 49bd
00000250: 3b7b 7c3e 9d9b 41bd 5058 e33d 4a20 c2be
00000260: b0f4 78bd 3c01 8dbe 4571 d23d 42c4 7d3e
00000270: ed09 863e 1318 06be 1270 de3d ae90 92ba
00000280: 4fc5 4d3e 0382 483e 6afd 25be 163a ff39
00000290: 4643 38bd 2dbb d43d e229 71be 5f72 1fbf
000002a0: 004d d0bd ee44 473e faa3 7a3e 34e4 613c
000002b0: 3248 563e eb50 643f 5bec 0c3e 63cc bb3e
000002c0: a7db 93be d843 bd3d 0b97 ecbc d88d 6b3e
000002d0: 78a9 08be 2214 76be 5933 613e e045 1d3e
000002e0: 5329 21be 123e a5be db8a ba3e 5abb 1a3d
000002f0: 4e71 96be af57 c8be b7a1 29be af68 2abe
00000300: eec2 c73a a437 393e c779 25bc 7889 94bd
00000310: 330d 373e b922 ec3e 0618 b23e 8e64 2c3e
00000320: a2ed 2d3e 1946 9e3e 716e 82be f3aa 073e
00000330: 5633 18bf 789b 80bd 8473 a1bd f9ea ad3e
00000340: 0355 73be d035 463f 48c6 d1bd c829 133f
00000350: 35fa 20bd c774 a5bd 675c b3bd a343 643e
00000360: 52b1 fabb 7c30 8c3e 1676 5cbe 0de3 0f3f
00000370: 9ad5 e3be a7cb 12bf 1075 a33d 2a11 c13e
00000380: 5e94 c4be 03b0 0b3f 7b24 0bbd 3204 ad3e
00000390: 6abe 62bd fa8d c835 f77d 8ebd 681a ac3e
000003a0: e63a a93d 3a6a 723d 3388 c5be b5f5 9b3e
000003b0: 9ec4 63bc dc41 d3bc a78a 273e 302d f7be
000003c0: 318b 823f 3fd8 34be cbdd 08be e9c1 023e
000003d0: 87b9 c5be 6ede ff3c 0255 da3d 67c9 f6be
000003e0: 9a32 a13e e0c1 3e3e 20a4 aa3d 5ad0 9abe
000003f0: 6f83 bc3e 689d f4be 79af 81bd 1316 c4bd

actor_out.bias f4 [12]
0.022033788 -0.07997766 0.038047675 -0.018013291 -0.18582179 -0.10107265 0.047811154 0.029197404
0.031258266 0.20324813 -0.12358823 -0.053213965
00000000: 3480 b43c 54cb a3bd e1d7 1b3d 9c90 93bc
00000010: 1148 3ebe 2dff cebd a1d5 433d 652f ef3c
00000020: ab08 003d 4720 503e d31b fdbd e3f6 59bd
